models/DoublePendulum/measure_x1_N4/model_state_dict.pth (torch, 48236 bytes, 8 tensors)

hidden1.weight f4 [32, 4]
0	0x3e071b33	0.1319397
1	0xbe5e9cf5	-0.21739562
2	0xbbd224f6	-0.0064130975
3	0x3e55daed	0.20884295
4	0xbefcab6c	-0.49349535
5	0x3ec14c23	0.377534
6	0xbe68b94e	-0.22726938
7	0x3e81dfc6	0.25366038
8	0x3d8e5a78	0.06950849
9	0xbd7ac400	-0.061222076
10	0x3e0e0240	0.13868046
11	0x3cca1020	0.024665892
12	0x3e2a011a	0.16601983
13	0xbe4c4631	-0.19948651
14	0x3d50b1ed	0.050950933
15	0xbd26ba91	-0.040705267
16	0x3e1fba22	0.15598348
17	0x3bfdc220	0.007744089
18	0x3f12f763	0.5740873
19	0x3d64f4ef	0.05589765
20	0xbe4fc32f	-0.202893
21	0xbebd885a	-0.3701809
22	0xbe18bd25	-0.14915903
23	0xbec4996d	-0.38398305
24	0xbdb963b6	-0.090522215
25	0xbcb7b47f	-0.022424934
26	0x3eab1ccb	0.33420405
27	0x3e443419	0.19160499
28	0xbea9d20c	-0.33168066
29	0x3ea921cb	0.33033594
30	0x3cdc4ba4	0.026891537
31	0x3eeee8d5	0.46662012
32	0x3e8a3e6f	0.27000758
33	0xbee529c1	-0.44758418
34	0xbedea719	-0.4348686
35	0xbe92d24f	-0.28676078
36	0x3eae988b	0.34100756
37	0x3c2aef8d	0.01043309
38	0x3ea277a1	0.31731895
39	0xbdab2e51	-0.083584435
40	0x3ef0bb51	0.4701791
41	0xbcddc0a6	-0.027069401
42	0x3f04ea8a	0.5192038
43	0x3dbf0a11	0.09328092
44	0xbe86dd82	-0.26340872
45	0x3e83967a	0.25700742
46	0xbe87e3d4	-0.26541007
47	0x3e1694e4	0.14705235
48	0xbdac301b	-0.08407613
49	0xbdbcafe9	-0.0921324
50	0xbec064d7	-0.37576935
51	0xbed8958d	-0.42301598
52	0x3e9149ec	0.2837671
53	0x3c838aef	0.01605746
54	0x3ef87530	0.48526907
55	0x3ede1fad	0.43383542
56	0x3c7b3345	0.015332048
57	0xbeaea642	-0.3411122
58	0x3eb68644	0.35649312
59	0x3e6b9a5d	0.23008104
60	0xbe843d84	-0.25828183
61	0x3ea908b5	0.33014455
62	0x3e0263bb	0.12733357
63	0x3eefe542	0.46854597
64	0xbe63b65a	-0.2223753
65	0xbe271cb2	-0.1631954
66	0x3c942b50	0.01808706
67	0x3cc298b2	0.023754451
68	0xbeb542b0	-0.3540244
69	0xbec6b5ff	-0.38810727
70	0x3e263693	0.16231756
71	0xbd32f8c3	-0.04369427
72	0x3e917f1a	0.28417283
73	0x3dfd6b22	0.123739496
74	0x3e34be05	0.17650612
75	0x3dae4b77	0.085104875
76	0x3e3eae16	0.18621096
77	0x3ea47371	0.32119325
78	0xbef0d943	-0.47040758
79	0x3de80db0	0.11330736
80	0xbe98010b	-0.29688296
81	0xbee620fb	-0.44947037
82	0xbd941eeb	-0.0723246
83	0xbde943f7	-0.113899164
84	0x3d89957e	0.067179665
85	0xbe92e87a	-0.2869299
86	0xbee5be2b	-0.4487165
87	0x3f060ab2	0.5236007
88	0xbc8370d2	-0.016045008
89	0x3e1cbaaa	0.15305582
90	0x3eaf5970	0.34247923
91	0xbed93ee4	-0.42430794
92	0x3c0828a5	0.008310472
93	0x3dd3a0cb	0.10333403
94	0xbebad7ef	-0.3649287
95	0xbeb5ed06	-0.35532397
96	0x3dfe40d8	0.12414712
97	0x3e0e1f32	0.13879088
98	0xbe434e42	-0.19072822
99	0xbd290687	-0.04126599
100	0x3ee2d84e	0.44305652
101	0x3cc221ba	0.023697723
102	0x3ec80c6a	0.3907197
103	0x3e6cda6d	0.23130198
104	0xbe80cce4	-0.2515632
105	0xbedaa6f9	-0.42705515
106	0x3f1fa2ce	0.62357795
107	0xbe1fb08e	-0.15594694
108	0x3e323d81	0.17406274
109	0x3e20dd93	0.15709524
110	0x3edbf790	0.42962313
111	0x3efb619d	0.4909791
112	0x3f017b35	0.50578624
113	0xbe34db51	-0.17661788
114	0xbe37214e	-0.17883798
115	0x3eb2eb10	0.34944963
116	0x3eca4752	0.39507538
117	0x3e8b4f3d	0.27208892
118	0xbe6a7e3c	-0.22899717
119	0xbebd70dd	-0.3700017
120	0xbe37550e	-0.1790354
121	0x3dc5f0fa	0.09665103
122	0x3ee71d8b	0.45139727
123	0xbebd17f3	-0.36932334
124	0x3e6a25f8	0.22866046
125	0xbe8fb34b	-0.28066477
126	0xbeee6789	-0.46563366
127	0xbdea8b6d	-0.114523746

hidden1.bias f4 [32]
0	0x3ec69f78	0.3879354
1	0x3eff7d08	0.4990008
2	0xbe9efc66	-0.3105194
3	0x3e56fa53	0.20993929
4	0x3ef540db	0.47901043
5	0x3eafe58c	0.34354818
6	0x3ec00d50	0.37510157
7	0x3efe04c8	0.49613023
8	0x3ec06207	0.3757479
9	0x3e8066e5	0.25078502
10	0xbeb75eda	-0.35814553
11	0xbed6fa6a	-0.41987926
12	0xbe72daac	-0.23716229
13	0xbc3939f8	-0.011305325
14	0xbe88d199	-0.2672241
15	0x3e8959e4	0.26826394
16	0x3e54272d	0.2071807
17	0xbc150b52	-0.009096937
18	0x3e90dbcd	0.28292695
19	0x3e8fc9e9	0.28083733
20	0x3ed69b85	0.41915527
21	0x3ec80703	0.3906785
22	0xbe8a64b9	-0.2702997
23	0x3f042fd6	0.5163549
24	0xbce65b37	-0.028119667
25	0x3d97393d	0.07383964
26	0xbec113e7	-0.37710497
27	0xbe97c910	-0.29645586
28	0xbead2604	-0.33818066
29	0xbe3909d5	-0.18070157
30	0x3ee320f5	0.44361082
31	0xbe4a33bf	-0.19746302

hidden2.weight f4 [64, 32]
0	0xbdae62c9	-0.085149355
1	0x3dfa2631	0.12214316
2	0x3d67d3d8	0.056598514
3	0x3de30012	0.11083998
4	0xbda3406f	-0.07971274
5	0xbc871e12	-0.01649383
6	0xbd031249	-0.03199986
7	0xbc66b64f	-0.014081552
8	0xbdeb5fc9	-0.11492879
9	0xbda18d18	-0.078882396
10	0x3db255e1	0.08707786
11	0x3d9ad20e	0.07559596
12	0x3d9cc8f6	0.07655518
13	0x3e0c3e8d	0.13695736
14	0x3e001faa	0.12512079
15	0x3e3ecc01	0.18632509
16	0x3dc6bc7b	0.097039185
17	0xbd37affe	-0.044845574
18	0xbd8e9d6b	-0.06963619
19	0x3e4f2c57	0.20231758
20	0xbd96fc5f	-0.07372355
21	0x3ceb914c	0.028755806
22	0xbe6f2b4c	-0.2335636
23	0xbce7d61d	-0.02830034
24	0xbdadc4c7	-0.08484798
25	0x3e3f3338	0.18671882
26	0xbe10dab6	-0.14145932
27	0xbe02f0f9	-0.12787236
28	0xbd3f8da0	-0.046765924
29	0xbd965922	-0.073412195
30	0x3d8c6bc5	0.06856493
31	0xbd439373	-0.04774804
32	0xbdf4f72e	-0.11961208
33	0x3d3d8f19	0.046279047
34	0x3e030a1f	0.1279683
35	0xbe128c49	-0.14311327
36	0x3d0be49c	0.034153566
37	0x3e2c82e1	0.16846801
38	0x3e0d24b7	0.13783537
39	0xbdd9c1e3	-0.10632684
40	0x3d423778	0.04741618
41	0xbe3d9dad	-0.1851718
42	0x3e5f064c	0.21779746
43	0xbd8c6fe5	-0.0685728
44	0x3e43a1eb	0.19104736
45	0x3ba4f105	0.0050336146
46	0xbd975c6b	-0.07390674
47	0x3b690469	0.0035555607
48	0x3d8136ba	0.063092664
49	0x3df3fae3	0.11913087
50	0xbc4da2d2	-0.012551026
51	0x3d85565a	0.06510611
52	0xbe0c0173	-0.13672428
53	0x3e04d69f	0.12972496
54	0x3e387d39	0.18016519
55	0x3e46ae15	0.19402345
56	0x3e317b95	0.17332299
57	0xbe1bd726	-0.15218791
58	0xbd920fa3	-0.07131889
59	0x3c72fc06	0.014830595
60	0xbe45b771	-0.19308259
61	0x3e246055	0.16052373
62	0xbdd4268a	-0.10358913
63	0xbe1f87d0	-0.15579152
64	0x3e01d6f9	0.12679662
65	0xbe06c5d5	-0.13161404
66	0xbd25e2f8	-0.040499657
67	0x3e4bae9a	0.19890824
68	0x3e5011f3	0.20319347
69	0x3e609ca6	0.21934757
70	0x3c430ac6	0.011904424
71	0xbdb89266	-0.09012298
72	0x3e495327	0.19660626
73	0xbc1ecc66	-0.009692287
74	0xbdc2cf83	-0.09512236
75	0x3d3082d8	0.043093532
76	0xbdf0ef28	-0.117643654
77	0x3df66ba1	0.12032247
78	0x3e2235fc	0.15840906
79	0xbd962c30	-0.07332647
80	0xbd99f5d6	-0.075175926
81	0x3c8a77ff	0.016902922
82	0x3e0afe84	0.13573653
83	0xbc153303	-0.0091064
84	0xbd02a088	-0.031891376
85	0x3cd328b1	0.02577624
86	0xbdf300a7	-0.11865359
87	0xbde30f62	-0.110869184
88	0xbdf042aa	-0.11731465
89	0x3e586ee0	0.21136045
90	0x3e3543ce	0.17701647
91	0xbc1e8ad8	-0.009676658
92	0x3dcbc3d4	0.099494606
93	0x3dedb37c	0.116064996
94	0x3d949524	0.07255009
95	0xbd3e5220	-0.04646504
96	0x3e2c8d27	0.1685072
97	0x3e199e6a	0.15001836
98	0xbc27db70	-0.010245189
99	0x3d28aee0	0.0411824
100	0x3e05daed	0.13071795
101	0x3e5b61ae	0.2142398
102	0xbdae424a	-0.085087374
103	0x3e4555bd	0.19270988
104	0x3dd56de9	0.10421354
105	0xbdf7f99b	-0.12108155
106	0x3d0e538c	0.034747645
107	0xbe0724f9	-0.13197698
108	0x3e8233e4	0.25430214
109	0xbe06d693	-0.13167791
110	0x3d9b8f07	0.0759564
111	0x3cf9cc84	0.030493028
112	0x3d93da10	0.072193265
113	0x3e11c9a1	0.14237072
114	0xbdecfedf	-0.1157205
115	0xbd15c185	-0.036561508
116	0xbdad30a3	-0.08456542
117	0x3d7f2fc2	0.062301405
118	0xbe2fde8e	-0.17174742
119	0x3d21a542	0.039464243
120	0x3bf4021f	0.007446542
121	0x3ca33f67	0.019927694
122	0x3dbefb51	0.093252786
123	0x3dbad1eb	0.0912207
124	0xbd3805db	-0.04492746
125	0xbc9d321d	-0.019188935
126	0xbe2f228f	-0.17103027
127	0x3e3c25dd	0.18373819
128	0xbd98e190	-0.07464898
129	0x3d82fb63	0.063956045
130	0x3bd64680	0.006539166
131	0xbdd71946	-0.105028674
132	0x3d39d068	0.045364767
133	0x3e3450c0	0.17608929
134	0xbd510bf7	-0.0510368
135	0xbded1a02	-0.11577226
136	0xbc764060	-0.015029997
137	0x3cab640d	0.020921731
138	0xbda19051	-0.07888854
139	0xbdca00a1	-0.09863401
140	0x3d818cea	0.06325705
141	0xbd5cafac	-0.05387847
142	0xbd0df016	-0.034652792
143	0xbda1967f	-0.07890033
144	0xbc3685cc	-0.011140298
145	0xbdc12c7b	-0.09432312
146	0xbe52f1ba	-0.20600024
147	0x3e5c021e	0.21485183
148	0x3d4a5cbd	0.04940485
149	0x3e2e54e7	0.17024575
150	0x3d16e02a	0.036834873
151	0x3d1892fc	0.03724955
152	0xbde5b517	-0.11216181
153	0xbd864ee1	-0.06558014
154	0x3de32685	0.110913314
155	0xbe4aba4f	-0.19797634
156	0xbdd7525f	-0.10513758
157	0x3e011c91	0.12608553
158	0x3e165f88	0.1468488
159	0x3d94c4e4	0.072641164
160	0xbd1cb03a	-0.038254
161	0x3a7414b4	0.00093109463
162	0xbd0981dc	-0.03357111
163	0x3b9655d1	0.004587867
164	0x3e195eb3	0.14977531
165	0xbb0113fb	-0.0019695747
166	0xbd87d051	-0.0663153
167	0x3d522f80	0.05131483
168	0xbd7a3299	-0.06108341
169	0x3c1a30bd	0.009411034
170	0x3e1fdec0	0.15612316
171	0x3d874df4	0.06606665
172	0x3e178b66	0.1479927
173	0xbd1fd8eb	-0.03902523
174	0x3d9a2413	0.07526412
175	0xbc127499	-0.008938932
176	0xbd89f97a	-0.06737037
177	0xbc158f31	-0.009128378
178	0x3df97fb0	0.121825576
179	0x3d59961d	0.053121675
180	0xbdae724c	-0.08517894
181	0xbdfcf33a	-0.12351079
182	0xbc8adc04	-0.016950615
183	0x3e84155a	0.2579754
184	0x3cbfc22a	0.023408014
185	0x3d18e033	0.037323188
186	0x3d140567	0.036137965
187	0xbe85cce9	-0.26132897
188	0xbe119ff7	-0.14221178
189	0xbdad0277	-0.08447736
190	0x3e298d24	0.16557747
191	0x3da4b634	0.08042565
192	0xbdcd5073	-0.1002511
193	0xbc386ce1	-0.0112564275
194	0x3de7467a	0.11292739
195	0x3da0a2a3	0.078435205
196	0x3e131089	0.14361776
197	0x3debdbb2	0.11516513
198	0x3db22b0e	0.08699618
199	0x3c89f4be	0.016840335
200	0xbdbb2c6c	-0.09139332
201	0xbe403bd3	-0.18772821
202	0xbdaeab39	-0.08528752
203	0xbcd27c18	-0.025693938
204	0x3de246b6	0.11048643
205	0xbd235a4a	-0.03988103
206	0xbe51d007	-0.20489512
207	0xbd812172	-0.06305207
208	0x3dc36bd9	0.09542055
209	0xbcfd0bed	-0.030889476
210	0xbe6aca9a	-0.22928849
211	0x3dd9c8ee	0.106340274
212	0x3d41fcf4	0.047360376
213	0xbd7d2246	-0.061800264
214	0x3e381c5e	0.17979571
215	0x3d9939b5	0.0748171
216	0xbd52985e	-0.05141484
217	0x3db52d6a	0.08846553
218	0x3de1253a	0.109934285
219	0x3e0eff4a	0.13964573
220	0x3d9e5386	0.077307746
221	0xbe0a8d75	-0.13530524
222	0x3e112b23	0.14176612
223	0x3c3cbb8f	0.011519327
224	0xbe36cc36	-0.17851338
225	0x3e07696b	0.13223808
226	0x3d809412	0.06278242
227	0xbe0915b2	-0.13387182
228	0x3c21e740	0.009881794
229	0xbe1fe59d	-0.15614934
230	0x3d70f4e2	0.05882729
231	0x3e2c9112	0.16852215
232	0xbca34809	-0.01993181
233	0xbd8f149d	-0.069863535
234	0xbcb68e47	-0.02228464
235	0x3b77c640	0.0037807375
236	0x3d974875	0.07386867
237	0x3e029054	0.1275037
238	0x3d827f89	0.06371982
239	0x3e385e69	0.18004765
240	0xbe087a34	-0.13327867
241	0x3d939817	0.07206743
242	0x3db1aef6	0.08675949
243	0xbe20381d	-0.15646406
244	0xbdd3eeb2	-0.10348262
245	0xbe262fc3	-0.16229157
246	0x3e1a0467	0.15040742
247	0xbe547e5a	-0.20751324
248	0x3ca13aab	0.019681295
249	0xbd60f3f1	-0.05492014
250	0x3d903701	0.07041741
251	0x3cad0032	0.021118257
252	0x3dd16797	0.10224836
253	0x3d3b7020	0.045761228
254	0x3df10d41	0.11770106
255	0x3da9d637	0.08292811

hidden2.bias f4 [64]
0	0x3e2610e1	0.16217376
1	0x3e1b8945	0.15189083
2	0x3db3b751	0.08775199
3	0x3d25659f	0.040380117
4	0x3e4207ee	0.18948337
5	0x3e2f45c1	0.17116453
6	0x3de74cbd	0.112939335
7	0xbe0bf50f	-0.13667701
8	0x3cd789dc	0.026310854
9	0x3e5bae36	0.21453175
10	0xbdff0840	-0.124527454
11	0x3e7fd057	0.24981819
12	0xbded2088	-0.115784705
13	0xbd9085ab	-0.07056745
14	0x3d2a885e	0.041633956
15	0x3dac3431	0.08408392
16	0x3d5e8500	0.054326057
17	0xbd36881b	-0.044563394
18	0x3dec9a7c	0.11552903
19	0x3db265ce	0.08710824
20	0x3bc11fdd	0.005893691
21	0xbe342a11	-0.17594172
22	0x3e3266c3	0.17422013
23	0xbc920a92	-0.017827306
24	0xbd7199a8	-0.05898443
25	0x3e4f980e	0.20272848
26	0xbcecdd76	-0.028914195
27	0x3e0b507a	0.13604918
28	0x3e1a4dcd	0.15068741
29	0xbd61150e	-0.05495172
30	0xbdb7f443	-0.08982136
31	0xbcd9199d	-0.026501471
32	0x3d916026	0.07098417
33	0x3e4a7822	0.1977239
34	0x3d1f940b	0.038959544
35	0xbd0dc4e9	-0.034611616
36	0xbd8d8367	-0.06909829
37	0xbdc79776	-0.09745686
38	0x3e1c4391	0.1526015
39	0x3d438871	0.047737543
40	0xbddce6aa	-0.10786183
41	0xbdf75544	-0.1207681
42	0x3e196aac	0.14982098
43	0x3df31ccf	0.11870729
44	0x3dd8eb19	0.10591716
45	0xbcf2bc19	-0.029630708
46	0xba9d9825	-0.0012023492
47	0x3d33556d	0.04378264
48	0x3d28f407	0.041248348
49	0xbdf550e2	-0.11978318
50	0x3d9c3334	0.07626954
51	0xbd84b394	-0.06479564
52	0xbd9180b3	-0.071046256
53	0xbd2c0b97	-0.04200324
54	0xbdc6bfad	-0.09704528
55	0x3b9312c0	0.004488319
56	0x3d18b24a	0.037279405
57	0x3e32e791	0.17471148
58	0x3dc5ecae	0.09664284
59	0x3d5d3cf1	0.054013196
60	0xbe0fe7d0	-0.14053273
61	0xbcf846c4	-0.030307181
62	0xbc88418f	-0.016632823
63	0xbe188551	-0.14894606

hidden3.weight f4 [128, 64]
0	0x3d9cd583	0.07657912
1	0x3d800607	0.062511496
2	0x3d957fb7	0.0729975
3	0xbd0937e7	-0.03350058
4	0xbd904855	-0.07045046
5	0x3dd379d5	0.10325972
6	0xbcb879d4	-0.02251903
7	0xbc565e9b	-0.013084079
8	0x3c944fbb	0.018104425
9	0x3d8668ae	0.06562935
10	0xbd3e35a4	-0.046437874
11	0x3d30e8ae	0.04319065
12	0xbdd0c11e	-0.10193084
13	0x3d37080a	0.0446854
14	0xbd8c2425	-0.068428315
15	0x3de8fad8	0.1137597
16	0x3dc0e3d2	0.09418453
17	0xbd9388cb	-0.072038256
18	0x3bf4688a	0.007458751
19	0xbc7e018f	-0.015503301
20	0x3d07f3d7	0.03319153
21	0x3d9618ce	0.0732895
22	0xbd867775	-0.06565753
23	0x3bd77ff7	0.006576534
24	0xbbd5c97b	-0.0065242625
25	0x3c826a0c	0.015919708
26	0x3d982c4c	0.07430324
27	0xbe052ec5	-0.13006122
28	0x3ddc0a64	0.10744169
29	0x3ce0ff68	0.027465537
30	0x3e269ce6	0.1627079
31	0xbdf8e558	-0.12153119
32	0x3caa321d	0.020775849
33	0x3ddfa48c	0.10920057
34	0x3e26370e	0.16231939
35	0x3d526c7a	0.051372983
36	0x3bd884fe	0.006607651
37	0xbdba50ad	-0.09097419
38	0xbd9df810	-0.0771333
39	0x3dfddcb4	0.123956114
40	0xbe8574d7	-0.26065704
41	0xbd4a9838	-0.049461573
42	0x3d8f9441	0.07010699
43	0x3dbb4ce7	0.09145527
44	0xbd8fa975	-0.07014743
45	0x3daf7375	0.085669436
46	0xbc76fdbb	-0.0150751425
47	0x3deaf522	0.114725366
48	0xba982c7e	-0.0011609939
49	0x3e485b6a	0.19566122
50	0xbc955f7e	-0.01823401
51	0x3dfdb37e	0.12387751
52	0x3cce1e3b	0.0251609
53	0xbdc5f8e6	-0.09666614
54	0x3d0d138d	0.034442473
55	0xbd87812a	-0.06616433
56	0x3d491ca9	0.049099598
57	0x3dcb2263	0.09918668
58	0xbc9d324e	-0.019189026
59	0xbd751850	-0.05983764
60	0xbd2ba80c	-0.04190831
61	0xbdaecae2	-0.085347906
62	0xbd4fa479	-0.050693963
63	0x3db761c1	0.08954192
64	0x3d6587c4	0.05603768
65	0xbd5b9b8a	-0.05361513
66	0x3bb8e7c7	0.0056428644
67	0xbcff38eb	-0.03115507
68	0xbdbd1c24	-0.09233883
69	0x3d62228d	0.05520873
70	0xbdb7704d	-0.089569665
71	0x3c77d7a0	0.015127093
72	0x3d941f9d	0.07232592
73	0xbdeb1eea	-0.11480506
74	0x3bb388a0	0.0054789335
75	0x3dec6a12	0.11543669
76	0x3d673ab8	0.056452483
77	0xbd7a8348	-0.061160356
78	0x3c06268b	0.0081879
79	0xbdf05ec0	-0.11736822
80	0x3ca46d30	0.020071596
81	0x3dc62053	0.09674134
82	0x3dc56ffa	0.096404985
83	0xbc35e3a6	-0.011101639
84	0x3d09220f	0.033479746
85	0xbca9f2c0	-0.020745635
86	0xbd41cb6c	-0.04731314
87	0xbc20666d	-0.009790045
88	0xbda915a7	-0.08256083
89	0x3d1aab29	0.037760887
90	0x3d4a886b	0.049446505
91	0xbd3dd7ef	-0.04634851
92	0xbd254964	-0.040353194
93	0xbdb26448	-0.087105334
94	0x3c0280cc	0.007965278
95	0x3d4ba1a0	0.049714684
96	0x3dda2a8d	0.10652647
97	0xbe0522e5	-0.13001592
98	0xbde238e2	-0.11046006
99	0x3bd8ec62	0.006619976
100	0x3de83b3e	0.113394246
101	0x3c03cc40	0.008044302
102	0x3cc40dd9	0.023932384
103	0x3be402ac	0.0069583263
104	0xbc74e8f0	-0.014948115
105	0x3db6b5ac	0.0892137
106	0x3da22099	0.07916374
107	0xbdaeb017	-0.0852968
108	0xbdb17168	-0.08664209
109	0xbdc70f60	-0.097197294
110	0xbd0eb87d	-0.03484391
111	0xbb388bc0	-0.002815947
112	0x3dc083e5	0.09400157
113	0xbe06c3ce	-0.13160631
114	0x3d9bbd2d	0.07604442
115	0xbd8eff9a	-0.06982346
116	0xbaa43f4f	-0.0012531074
117	0xbc9af4f6	-0.018915635
118	0x3d909814	0.070602566
119	0xbdd62856	-0.10456912
120	0xbdc622a9	-0.0967458
121	0xbc1a7115	-0.009426375
122	0x3d6d2f16	0.057906233
123	0xbd965bb3	-0.07341709
124	0x3d1eaf50	0.03874141
125	0xbd1ec7df	-0.03876483
126	0xbe04408c	-0.12915248
127	0x3c69c230	0.014267489
128	0xbd1b298d	-0.037881423
129	0x3dac5931	0.084154494
130	0x3e30dc2a	0.17271486
131	0x3dc06104	0.09393504
132	0x3dd784dc	0.10523388
133	0xbd61233e	-0.05496525
134	0xbdb7d885	-0.08976845
135	0xbd83f426	-0.06443052
136	0x3cbae02f	0.022811977
137	0xbd86b9e2	-0.06578423
138	0x3dd13ca2	0.10216643
139	0xbd3deedf	-0.046370383
140	0xbd960744	-0.073256046
141	0x3dc302e0	0.09522033
142	0x3dca6738	0.09882969
143	0x3d72aa75	0.05924459
144	0xbd234894	-0.039864138
145	0x3db7e4df	0.089792006
146	0xbdd04231	-0.10168875
147	0x3dbfd402	0.09366609
148	0x3da98225	0.08276776
149	0xbcbfb868	-0.023403361
150	0xbd95a8d3	-0.07307591
151	0x3de140d1	0.10998691
152	0xbdd55e4b	-0.104183756
153	0xbc8755d8	-0.016520426
154	0x3dbee6ce	0.09321366
155	0xbd4cfd75	-0.050046403
156	0x3d2f9039	0.04286215
157	0x3d9d3663	0.07676389
158	0xbd1b9966	-0.03798809
159	0x3d28d707	0.04122069
160	0x3e00f6af	0.12594102
161	0x3d1583a7	0.036502507
162	0x3d86db48	0.06584793
163	0xbbf619c3	-0.0075103953
164	0xbd9876e9	-0.07444555
165	0x3d7502fe	0.059817307
166	0xbd8d88cb	-0.06910857
167	0xbd8f076b	-0.06983837
168	0xbe092c2a	-0.13395754
169	0x3ddb516e	0.10708891
170	0xbd7b0821	-0.06128705
171	0x3d77838f	0.0604282
172	0x3d355de9	0.044279013
173	0x3da63154	0.08114877
174	0x3dbd53fa	0.09244533
175	0xbdb33ac0	-0.0875144
176	0x3de6a5fc	0.11262128
177	0xbe5428e7	-0.20718728
178	0x3cd91300	0.026498318
179	0xbc3ac102	-0.011398556
180	0xbe040650	-0.12893033
181	0x3e34b5ff	0.17647551
182	0xbd901df3	-0.07036962
183	0x3dfa7db6	0.12231009
184	0x3d6896e7	0.056784537
185	0x3b8d8327	0.004318613
186	0xbdb8a2e7	-0.09015446
187	0xbdae7f71	-0.08520401
188	0xbbe835fd	-0.007086514
189	0xbc7b0bf6	-0.015322676
190	0x3cab6885	0.020923862
191	0x3d24f9a4	0.04027714
192	0x3dc30241	0.09521914
193	0xbc0a754e	-0.008450819
194	0xbd589d5c	-0.052884445
195	0xbda63ea0	-0.081174135
196	0xbd2ea2f3	-0.04263587
197	0x3d2780a1	0.040894154
198	0xbe0b6693	-0.13613348
199	0xbded815d	-0.1159694
200	0x3cd531fa	0.026024807
201	0xbd6bd905	-0.057580013
202	0xbd1788f0	-0.03699583
203	0xbdb69ada	-0.08916254
204	0xbdaa7516	-0.083231136
205	0xbde9d558	-0.11417645
206	0xbdcb234c	-0.09918842
207	0xbdd002c8	-0.101567805
208	0xbd709e0c	-0.058744475
209	0x3db977ce	0.09056054
210	0xbdaa69e1	-0.08320976
211	0x3dac94f6	0.084268495
212	0xbe009357	-0.12556206
213	0x3c6d7a30	0.014494464
214	0xbd0f7cc2	-0.035031088
215	0xbdeddd57	-0.11614483
216	0xbc117f41	-0.008880437
217	0x3da06ca3	0.07833221
218	0xbd998df5	-0.07497779
219	0x3db8ec34	0.09029427
220	0xbd2369e6	-0.039895914
221	0xbd090c51	-0.03345901
222	0x3d8f27b2	0.06989993
223	0x3d9ee2f7	0.07758134
224	0x3daca89a	0.08430596
225	0x3d497447	0.049183156
226	0xbe0e2d0d	-0.13884373
227	0xbd4fbc62	-0.050716765
228	0xbbcc1364	-0.0062278975
229	0xbd9911b2	-0.07474078
230	0x3d1b3600	0.037893295
231	0xbd5a6dfc	-0.053327546
232	0xbdebfd18	-0.11522883
233	0xbd6271e0	-0.05528438
234	0xbddb4d4b	-0.10708102
235	0x3cc09847	0.023510111
236	0xbdea641e	-0.11444877
237	0xbd3dc910	-0.046334326
238	0xbc065fe3	-0.008201572
239	0x3d84083b	0.06446882
240	0xbdf3274b	-0.11872729
241	0x3d89232f	0.06696164
242	0xbddc8bf4	-0.107688814
243	0xbdce841a	-0.1008379
244	0x3d3276c1	0.043570284
245	0xbdce9b9e	-0.100882754
246	0x3d9da887	0.0769816
247	0x3d5caf28	0.05387798
248	0xbda48e89	-0.08034999
249	0xbd59f2c0	-0.05321002
250	0xbd35f0c2	-0.044419058
251	0xbd2717e7	-0.04079428
252	0xbc3fdefb	-0.0117108775
253	0xbd02a5d7	-0.03189644
254	0xbdd08f9b	-0.101836406
255	0xbdd57db4	-0.104243666

hidden3.bias f4 [128]
0	0xbd94b1c7	-0.07260471
1	0xbd271086	-0.040787242
2	0xbda63d7f	-0.08117198
3	0x3da4fb82	0.08055784
4	0x3d7be673	0.06149907
5	0xbd49c242	-0.049257524
6	0xbc71c5a7	-0.014756597
7	0xbd3f6d92	-0.046735354
8	0xbdaf0859	-0.08546514
9	0xbcbc45ed	-0.022982562
10	0x3dc64732	0.09681548
11	0x3a1d3000	0.0005996227
12	0x3ca29868	0.019848064
13	0x3dcbc49f	0.09949612
14	0xbd43e7e0	-0.047828555
15	0xbd71029f	-0.05884039
16	0x3ca33b30	0.019925684
17	0xbcd90557	-0.026491804
18	0xbd124692	-0.035711832
19	0x3c4265ef	0.011865123
20	0xbb72ae40	-0.003703013
21	0x3d016ed3	0.03159983
22	0x3d71abae	0.059001617
23	0xbd11a03d	-0.035553206
24	0x3ded84f7	0.11597627
25	0xbcb2c9fe	-0.021824833
26	0x3d23e0eb	0.04000942
27	0x3df8bda2	0.121455446
28	0xbd643df3	-0.055723142
29	0xbdaab44f	-0.083351724
30	0x3c1470a0	0.009060055
31	0xbd11e64f	-0.03562003
32	0xbd832662	-0.06403805
33	0x3d9116c6	0.07084422
34	0x3e10cd8c	0.1414091
35	0x3d0ebb01	0.03484631
36	0xbbc91353	-0.006136337
37	0x3b466893	0.0030274733
38	0xbdcfcf6b	-0.10146984
39	0xbd4a3a82	-0.049372204
40	0x3afb052a	0.0019151319
41	0x3ce3773c	0.027766816
42	0x3e0ef19a	0.13959351
43	0x3d961edc	0.07330105
44	0x3d97aefb	0.07406422
45	0xbdfa5cee	-0.12224756
46	0x3d5fa029	0.0545961
47	0x3d5886b6	0.052862845
48	0xbd0e2b4d	-0.034709264
49	0xbdc5d484	-0.09659675
50	0x3e15a402	0.14613345
51	0xbd532fb8	-0.05155918
52	0xbdf0c3fd	-0.11756132
53	0xbdd85d2c	-0.10564646
54	0x3cb8a305	0.022538671
55	0x3d98f3b8	0.07468361
56	0x3d6da23d	0.05801605
57	0x3d23d59c	0.039998636
58	0x3cb24495	0.021761218
59	0x3d3092b5	0.04310866
60	0xbd074165	-0.03302135
61	0x3e077094	0.13226539
62	0x3db3f501	0.08786965
63	0xbc3c51b9	-0.011494094
64	0x3da2b5a1	0.07944799
65	0xbaeeb1ed	-0.0018210985
66	0xbd723de9	-0.059141073
67	0xbd3a81ab	-0.045533817
68	0x3e1df2a0	0.15424585
69	0x3cffac35	0.031210044
70	0xbe0e861e	-0.13918349
71	0x3e1b904d	0.15191765
72	0xbdcff841	-0.101547725
73	0x3de09c9e	0.10967372
74	0x3d04a4c0	0.03238368
75	0xbd48beb5	-0.049009997
76	0xbc7ae7ee	-0.015314085
77	0xbccac2c8	-0.024751082
78	0x3e26b115	0.16278489
79	0xbbc8ffe2	-0.0061340192
80	0x396ac6bc	0.00022390013
81	0xbdc850a8	-0.09781009
82	0x3d500dac	0.05079429
83	0x3e06315a	0.13104764
84	0x3d77450a	0.060368575
85	0xbc200fd8	-0.009769402
86	0x3d028ef7	0.031874623
87	0xbc9532f2	-0.01821277
88	0x3e2b4339	0.16724862
89	0xbaa365e0	-0.0012466274
90	0x3dc3794a	0.095446184
91	0x3e0364a4	0.1283136
92	0xbd3a7d32	-0.04552955
93	0x3ded4b9e	0.115866885
94	0x3d52efb0	0.051498115
95	0xbc88fae2	-0.016721193
96	0xbd3a51f8	-0.045488328
97	0x3e0c4001	0.1369629
98	0x3d50c05f	0.05096471
99	0xbc18a9d8	-0.009317838
100	0x3acd345c	0.0015655863
101	0xbdae4810	-0.085098386
102	0xbddbf5f4	-0.10740271
103	0x3d09e75e	0.033667915
104	0xbe010f5f	-0.1260352
105	0xbdf80012	-0.121093884
106	0xbbd28799	-0.006424856
107	0xbcb475a3	-0.02202875
108	0x3e0df198	0.13861692
109	0xbd9353a3	-0.07193687
110	0xbe07420e	-0.13208792
111	0x3d2388fb	0.039925557
112	0xbdc33edd	-0.095334746
113	0xbd06f87e	-0.032951824
114	0x3dce95a6	0.10087137
115	0xbdd3effe	-0.10348509
116	0x3d35da48	0.044397622
117	0xbcf9eee5	-0.030509422
118	0x3ded4821	0.11586023
119	0xbc84ddd0	-0.01621905
120	0x3cd00a98	0.025395676
121	0xbb886046	-0.0041618673
122	0xbd77c2f0	-0.06048864
123	0x3e0410ab	0.12896983
124	0xbd9c0cbe	-0.07619618
125	0x3e2e752f	0.1703689
126	0x3db31328	0.08743888
127	0xbd8f661a	-0.07001896

output.weight f4 [5, 128]
0	0x3d76b24c	0.06022863
1	0x3c33e7c1	0.010980547
2	0x3cbfa2bd	0.02339303
3	0xbca2b28e	-0.019860532
4	0xbc45ebdb	-0.012080158
5	0xbabbe1e8	-0.0014334293
6	0xbd5080b1	-0.05090398
7	0x3cfd4d2f	0.030920593
8	0xbd3961f9	-0.04525945
9	0xbdda25d3	-0.10651746
10	0x3de17d14	0.11010185
11	0x3d2641a2	0.040589936
12	0xbdcbed8f	-0.0995742
13	0x3ce7de3d	0.028304214
14	0xbd8e9605	-0.06962208
15	0x3b11a65a	0.0022224397
16	0x3c647dc8	0.013946004
17	0x3d9dafb9	0.07699532
18	0xbdbfddd7	-0.093684845
19	0xbbc9defc	-0.006160615
20	0xbd7ba5f2	-0.061437555
21	0x3ce0c794	0.027438916
22	0xbde3cae9	-0.111226864
23	0x3c3f3252	0.011669712
24	0x3d5758cc	0.052574918
25	0x3dcc556e	0.09977232
26	0x3d7ca889	0.061684165
27	0xbd1522d1	-0.036410157
28	0x3da3e292	0.08002199
29	0xbc00567e	-0.007833121
30	0x3d4535d5	0.04814704
31	0x3d58fe14	0.052976683
32	0xbd9797ec	-0.07402024
33	0xbd92ae42	-0.07162143
34	0x3db8e2d5	0.0902764
35	0xbccbaef8	-0.024863705
36	0xba133d5d	-0.0005616749
37	0xbd5c31e3	-0.053758513
38	0x3c59c731	0.01329212
39	0xbdf0991c	-0.11747953
40	0x3ceacbf5	0.028661707
41	0xbddd74f6	-0.10813324
42	0x3d9222aa	0.07135518
43	0xbd009693	-0.0313936
44	0xbc8cada8	-0.01717265
45	0xbc789278	-0.01517164
46	0x3d31c474	0.043400243
47	0xbd5cbf7c	-0.05389355
48	0x3de30db8	0.11086601
49	0xbe0547c0	-0.13015652
50	0x3dbce43a	0.09223218
51	0xbd73e47d	-0.059544075
52	0xbd2ff5ec	-0.04295914
53	0xbc8c926b	-0.017159661
54	0xbdb4b6bb	-0.088239156
55	0x3d6f357a	0.05840061
56	0x3e0400fe	0.12891003
57	0xbd8baba2	-0.06819846
58	0xbd680de0	-0.056653857
59	0x3d53cf91	0.051711623
60	0x3d345630	0.044027507
61	0x3e3a6250	0.18201566
62	0x3d9dd698	0.07706946
63	0x3d86ccaa	0.06582005
64	0x3e118e38	0.14214408
65	0xbdd48f25	-0.10378865
66	0x3c8611aa	0.016365845
67	0xbddb8d21	-0.107202776
68	0x3d960e99	0.07327003
69	0xbd5336a6	-0.05156579
70	0x3b8fc963	0.004388021
71	0x3dfa0879	0.12208647
72	0x3d3f2d15	0.046673853
73	0x3c85720a	0.01628973
74	0xbd1f8b40	-0.03895116
75	0x3b98be7f	0.004661381
76	0x3d410c9d	0.04713117
77	0x3d96f662	0.073712125
78	0x3cfb46c7	0.030673398
79	0xbdb44444	-0.08802083
80	0x3dc8692e	0.097856864
81	0xbd321399	-0.04347572
82	0xbc4d77bd	-0.012540755
83	0xbd42c7ff	-0.047554012
84	0x3e0d903d	0.13824554
85	0x3da7ff6d	0.082030155
86	0x3d704a55	0.05866464
87	0xbde87413	-0.113502644
88	0x3d972990	0.07380974
89	0xbd4977fc	-0.04918669
90	0x3dd3bfb9	0.103393026
91	0x3d9af26d	0.0756577
92	0xbd8fa72e	-0.07014309
93	0xbde56177	-0.112002306
94	0xbcc3bfa4	-0.023895092
95	0xbd9824e2	-0.0742891
96	0x3d828c7d	0.06374452
97	0xbddc2418	-0.10749072
98	0xbda23100	-0.07919502
99	0x3c85d642	0.016337518
100	0x3db7e50f	0.08979236
101	0x3df83ec2	0.12121345
102	0x3c85b224	0.016320296
103	0x3de50b46	0.11183791
104	0x3ccaf2c2	0.02477396
105	0x3db195cf	0.08671152
106	0xbba98d79	-0.0051743356
107	0xbc6b921d	-0.014378098
108	0xbd9b4a0e	-0.07582484
109	0xbb8c4ac8	-0.0042813756
110	0xbd885009	-0.066558905
111	0x3d8e9ed7	0.0696389
112	0x3ce1f7c7	0.02758397
113	0x3d14dacc	0.036341473
114	0xbc405a5f	-0.011740296
115	0x3da41205	0.080112495
116	0xbd2ec405	-0.042667408
117	0x3d3e8c69	0.046520624
118	0xbd528a59	-0.05140147
119	0xbdc087e0	-0.09400916
120	0x3daf1070	0.08548057
121	0xbba521ae	-0.0050394153
122	0xbddb758f	-0.10715782
123	0x3de8bfcc	0.11364707
124	0x3cd9e7ac	0.026599728
125	0x3d985dae	0.07439743
126	0xbdcd5cec	-0.10027489
127	0xbd20ca3d	-0.03925537
128	0x3dc6ec16	0.097129986
129	0xbdc1129c	-0.094273776
130	0x3d448043	0.047973882
131	0x3c66d284	0.014088277
132	0x3d580dd5	0.052747566
133	0x3d79f642	0.061025865
134	0xbcaa3f07	-0.020782007
135	0xbc275be8	-0.010214783
136	0x3c3fef25	0.011714731
137	0x3d8135e6	0.063091084
138	0x3d21bd97	0.039487448
139	0xbd5f105d	-0.054458965
140	0xbd65d979	-0.0561156
141	0xbdaffadd	-0.0859277
142	0xbd40a264	-0.047029868
143	0x3d6db91d	0.058037866
144	0x3d8bd8d1	0.06828464
145	0x3d86c630	0.0658077
146	0x3d72ed20	0.05930817
147	0x3d8ff445	0.070290126
148	0x3da1a7e5	0.078933515
149	0x3bd253ce	0.0064186817
150	0xbd3ae08f	-0.045624312
151	0x3cfd1b2a	0.030896742
152	0x3c941167	0.018074704
153	0xbc811cdf	-0.015760837
154	0x3cff8f8c	0.031196378
155	0xbd20d1ad	-0.039262462
156	0xbd28660b	-0.04111294
157	0x3d335057	0.04377779
158	0x3d910c32	0.07082404
159	0xbd337012	-0.04380805
160	0x3c237213	0.009975928
161	0xbdcb774b	-0.09934863
162	0x3d457f35	0.048217017
163	0x3c04a485	0.008095865
164	0x3db337fc	0.087509125
165	0xbda1f56e	-0.0790814
166	0xbdc3d9fc	-0.095630616
167	0x3ddaa827	0.10676604
168	0xbd4ce34b	-0.05002145
169	0xbc2f737f	-0.010708689
170	0x3df5af58	0.11996335
171	0x3dde5579	0.10856146
172	0xbcfe2816	-0.031024974
173	0xbdab1c94	-0.0835506
174	0xbdbf7fa8	-0.0935052
175	0xbe1dfc79	-0.15428342
176	0x3d028910	0.031868994
177	0xbe08159a	-0.1328949
178	0x3c918883	0.01776529
179	0x3ba6c96c	0.0050899293
180	0xbca4a3fb	-0.020097723
181	0x3cd97dab	0.026549181
182	0xbc76bffa	-0.015060419
183	0x3dc29349	0.09500749
184	0xbbbebae1	-0.0058206175
185	0x3df5eba0	0.120078325
186	0xbd43d9a7	-0.04781499
187	0x3dc8b566	0.09800224
188	0xbdef5d39	-0.11687703
189	0xbd874fd5	-0.066070236
190	0x3cdc2155	0.026871363
191	0xbdd86fbb	-0.10568186
192	0xbc7db493	-0.015484947
193	0xbdd89832	-0.10575904
194	0x3d8d8929	0.06910927
195	0xbd06832a	-0.03283993
196	0xbdb1e0a1	-0.08685423
197	0xbca1a892	-0.0197337
198	0x3d72521c	0.059160337
199	0xbdeccc8a	-0.1156245
200	0x3bf31e36	0.007419373
201	0x3d99cd7a	0.07509895
202	0x3e0df3b8	0.13862503
203	0xbdb5dbef	-0.0887984
204	0x3d2a0a30	0.04151362
205	0x3e157ab4	0.14597589
206	0x3df922f1	0.12164868
207	0xbd990f2b	-0.07473596
208	0xbc8ae903	-0.016956812
209	0x3bdb6e68	0.006696511
210	0x3c81ef10	0.015861064
211	0x3d7646a0	0.060125947
212	0x3d7236e4	0.05913438
213	0x3b450fab	0.0030069153
214	0xbd9ea518	-0.07746333
215	0xbcf0f511	-0.029413732
216	0x3c37d1ce	0.011219455
217	0xbe12a3bd	-0.14320274
218	0x3da87b5f	0.08226656
219	0x3d28be7e	0.041197293
220	0xbcdc0af7	-0.026860697
221	0x3d878eb1	0.06619013
222	0xbd26b615	-0.04070099
223	0xbc457f61	-0.012054295
224	0xbd9a8f4b	-0.07546862
225	0xbd0d66bd	-0.034521807
226	0x3d21101a	0.039321996
227	0xbca3e629	-0.02000721
228	0x3dcde495	0.10053364
229	0x3d4684fb	0.048466664
230	0x3d420042	0.047363527
231	0x3e04f105	0.12982567
232	0xbd2f78d4	-0.04283984
233	0xbd7d6d50	-0.061871827
234	0x3c5344c4	0.012894813
235	0xbc32ff96	-0.010925194
236	0xbd30e8e3	-0.043190848
237	0xbdaff189	-0.08590991
238	0xbd526a1c	-0.051370725
239	0x3d6ff5ec	0.05858414
240	0x3dc21052	0.09475769
241	0x3c8b6d75	0.017019967
242	0xbdbce99b	-0.09224244
243	0xbd67ec82	-0.056622036
244	0xbde5d30c	-0.112218946
245	0xbc1fc3c8	-0.009751268
246	0x3d566a1b	0.052347284
247	0x3d6fa450	0.05850631
248	0xbc4e3a9a	-0.012587214
249	0x3dc9a166	0.098452374
250	0xbd86dfa3	-0.06585624
251	0xbbecae92	-0.007222959
252	0x3cbc766d	0.023005689
253	0x3d198b3d	0.037486304
254	0xbd66a25f	-0.056307193
255	0x3dc53548	0.09629303

output.bias f4 [5]
0	0xbcd6c372	-0.026216242
1	0xbda136d9	-0.078717895
2	0x3d1e0096	0.038574778
3	0x3c7a84a1	0.01529041
4	0x3b87b330	0.004141234
