models/InvPendulum2/measure_x3_N4_noise/model_state_dict.pth (torch, 47724 bytes, 8 tensors)

hidden1.weight f4 [32, 4]
0	0x3e4a1e87	0.19738208
1	0xbe7dba5c	-0.24778122
2	0x3c8e779a	0.017391015
3	0x3e63f9b4	0.22263223
4	0xbf04c2a0	-0.51859474
5	0x3eb8d3dd	0.3609914
6	0xbebeb3cb	-0.37246546
7	0x3e8286a7	0.25493357
8	0x3d8e5a78	0.06950849
9	0xbd7ac400	-0.061222076
10	0x3e0e0240	0.13868046
11	0x3cca1020	0.024665892
12	0x3e34504e	0.17608759
13	0xbeb8b484	-0.36075222
14	0xbdc2827f	-0.094975464
15	0xbf0d6d4c	-0.552449
16	0x3ea8103a	0.3282488
17	0xbd2228da	-0.03958974
18	0x3f41ddc2	0.75729
19	0xbd4efb8d	-0.050532866
20	0xbe7501b6	-0.23926434
21	0xbe97dabd	-0.29659072
22	0xbd9b5fd2	-0.07586636
23	0xbee2d8bf	-0.4430599
24	0xbe035a34	-0.12827379
25	0x3de88dfa	0.11355205
26	0x3e07d410	0.13264489
27	0x3e458406	0.19288644
28	0xbf02020f	-0.5078439
29	0x3e90e7ef	0.2830195
30	0x3e747e7a	0.23876372
31	0x3f4150d5	0.75513965
32	0x3def6278	0.11688703
33	0xbf03311a	-0.512468
34	0xbee4329f	-0.4456987
35	0xbf22fab8	-0.63663816
36	0x3f548941	0.8302193
37	0x3ce368ee	0.027759995
38	0x3e01b0a5	0.12665041
39	0xbf25fd68	-0.6483979
40	0x3ef9dd8d	0.48801842
41	0xbe4ee617	-0.2020496
42	0x3f2e1d20	0.6801319
43	0xbe1c5390	-0.15266252
44	0xbe86dd82	-0.26340872
45	0x3e83967a	0.25700742
46	0xbe87e3d4	-0.26541007
47	0x3e1694e4	0.14705235
48	0xbe54cf06	-0.20782098
49	0xbd38597c	-0.045007214
50	0xbf18ac55	-0.5963796
51	0xbf0ce7c1	-0.5504113
52	0x3e9fd9d8	0.3122089
53	0xbd4274fe	-0.047474854
54	0x3f2b2264	0.6684935
55	0x3ead2aca	0.33821708
56	0xbe6c8ec5	-0.23101337
57	0xbeefdfd0	-0.46850443
58	0xbd8ac3ec	-0.067756504
59	0x3decd8c5	0.11564783
60	0xbea40c58	-0.32040668
61	0x3ee6aec2	0.45055205
62	0x3edcb819	0.43109205
63	0x3f68a89f	0.90882295
64	0xbee9cf33	-0.45665893
65	0xbabb24ad	-0.0014277898
66	0xbeaf8852	-0.34283692
67	0xbe460517	-0.19337879
68	0xbf0fb174	-0.56130147
69	0xbea456c0	-0.32097435
70	0x3f0f11bd	0.5588644
71	0xbdb5e4da	-0.088815406
72	0x3efc0b98	0.49227595
73	0xbd6e258c	-0.058141276
74	0x3e95c736	0.29253548
75	0x3f167efd	0.5878752
76	0x3e8eb1d0	0.27870035
77	0x3e9edc79	0.31027582
78	0xbf0c55d3	-0.5481846
79	0x3f3cf1fd	0.73806745
80	0xbee55a94	-0.44795668
81	0xbed16811	-0.4089971
82	0xbcfb2ff1	-0.030662509
83	0xbe737918	-0.23776662
84	0x3e66583b	0.22494595
85	0xbeb02534	-0.34403384
86	0xbeefcc20	-0.46835423
87	0x3f0e76af	0.55649847
88	0xbe8114dc	-0.25211227
89	0x3eb09eae	0.34496063
90	0xbccc5318	-0.024941966
91	0xbeb21d43	-0.3478795
92	0x3d792db5	0.060834605
93	0x3e767179	0.24066724
94	0xbeefae8d	-0.4681286
95	0xbec32cea	-0.38120204
96	0x3ea4737c	0.32119358
97	0x3e747d73	0.2387598
98	0xbe3294c6	-0.17439565
99	0xbf1f9f5e	-0.6235255
100	0x3f22125d	0.6330927
101	0x3d445fb2	0.047942825
102	0x3f20bd3d	0.62788755
103	0x3db81d5b	0.08989974
104	0xbeff9f69	-0.49926308
105	0xbeea88a8	-0.45807385
106	0x3ea18f22	0.31554514
107	0x3db8f16e	0.09030424
108	0x3ebb7828	0.3661511
109	0xbe50ded9	-0.2039751
110	0x3d2a2927	0.041543152
111	0x3f386e2c	0.7204311
112	0x3f228316	0.6348127
113	0xbebc8444	-0.3681966
114	0x3d8233c9	0.063575335
115	0x3e8679b4	0.26264727
116	0x3ed64edd	0.41857043
117	0x3f1492b3	0.58036345
118	0xbea752bf	-0.32680318
119	0x3df18427	0.11792784
120	0xbed481ac	-0.41505182
121	0x3e229bf1	0.158798
122	0x3f34da16	0.7064527
123	0xbf306d2b	-0.6891658
124	0x3eef326c	0.46718156
125	0xbf044517	-0.5166792
126	0xbf2c60a5	-0.6733497
127	0x3e700de3	0.23442797

hidden1.bias f4 [32]
0	0x3eb6b35f	0.35683724
1	0x3ede0653	0.433642
2	0xbe9efc66	-0.3105194
3	0x3dbdaabf	0.09261083
4	0x3ee1cf69	0.44103554
5	0x3ea9e9a6	0.33186072
6	0x3e3d19b1	0.18466832
7	0x3eb767c9	0.3582137
8	0x3e9314ec	0.287269
9	0x3e0c0dbe	0.13677117
10	0xbe87fb70	-0.2655902
11	0xbed6fa6a	-0.41987926
12	0xbd73fc9b	-0.059567075
13	0xbce27372	-0.02764294
14	0xbe5d9b59	-0.21641292
15	0x3df95a76	0.12175457
16	0x3e069053	0.13140993
17	0x3d3df21f	0.046373483
18	0x3e427600	0.18990326
19	0x3daeee08	0.085414946
20	0x3ea207eb	0.31646666
21	0x3e99809a	0.29980928
22	0xbe46d17a	-0.19415846
23	0x3ee4c99d	0.4468507
24	0xbb514f21	-0.0031938034
25	0xbb04d488	-0.002026828
26	0xbecf7798	-0.4052093
27	0xbe0ef9a3	-0.13962416
28	0xbe869a9f	-0.26289842
29	0xbdd86238	-0.10565609
30	0x3e8c244f	0.2737145
31	0xbd8fe14a	-0.07025392

hidden2.weight f4 [64, 32]
0	0xbe2121d7	-0.15735565
1	0x3e12b9d9	0.14328708
2	0x3d67d3d8	0.056598514
3	0xbe605187	-0.219061
4	0xbe04a67e	-0.12954137
5	0xbd4619d5	-0.04836448
6	0xbd15f6db	-0.036612373
7	0x3d468cda	0.04847417
8	0xbe55aec1	-0.20867445
9	0xbea75746	-0.32683772
10	0xbdb141f7	-0.0865516
11	0x3d9ad20e	0.07559596
12	0x3f02cbe0	0.5109234
13	0x3c649995	0.013952632
14	0xbe8c1a11	-0.27363637
15	0x3e8b717e	0.27235025
16	0x3e22cd94	0.15898734
17	0xbe1649f7	-0.14676653
18	0xbd61051d	-0.054936517
19	0x3eb1a54b	0.3469642
20	0xbdebfaec	-0.11522469
21	0x3da85c86	0.082207724
22	0x3c62cef7	0.01384329
23	0xbd105667	-0.03523865
24	0xbed40710	-0.41411638
25	0x3f006a2a	0.50161994
26	0xbe949de5	-0.29026714
27	0xbe8cd63d	-0.275072
28	0xbda84f78	-0.082182825
29	0xbe2e91c9	-0.170478
30	0x3cec8b71	0.028875085
31	0xbde8bb57	-0.11363857
32	0xbdf0ebdd	-0.11763737
33	0x3d6fd740	0.058554888
34	0x3e030a1f	0.1279683
35	0xbe44a65f	-0.1920409
36	0x3d9de25a	0.07709189
37	0x3c2a4d72	0.010394441
38	0x3e0601e8	0.13086665
39	0xbdd439f5	-0.10362617
40	0xba3a4014	-0.00071048853
41	0xbe3f69b7	-0.18692671
42	0x3da076e3	0.07835176
43	0xbd8c6fe5	-0.0685728
44	0x3de0a52c	0.10969004
45	0xbc240912	-0.010011928
46	0x3e8dd28e	0.27699703
47	0x3ccc6d6a	0.024954516
48	0xbd1141a4	-0.03546299
49	0x3c279016	0.010227224
50	0x3d3ea2d7	0.046542015
51	0x3cd6164d	0.02613368
52	0xbe6e470a	-0.23269287
53	0x3dbcfaf9	0.09227557
54	0x3db9100a	0.09036262
55	0x3e5d92b7	0.21637999
56	0x3e2799e7	0.16367303
57	0xbe758a3c	-0.23978513
58	0xbeca7555	-0.39542642
59	0xbdbdd748	-0.09269577
60	0xbe3941c2	-0.18091491
61	0x3e5ee7ed	0.2176816
62	0xbe56200a	-0.2091066
63	0xbdb44f4e	-0.08804189
64	0x3e018cc4	0.12651354
65	0xbdded003	-0.10879519
66	0xbd25e2f8	-0.040499657
67	0x3e13b345	0.14423855
68	0x3e4e5850	0.20150876
69	0x3e5e651c	0.21718258
70	0xbc1871e0	-0.009304494
71	0xbdbd6b6e	-0.09249006
72	0x3e44312c	0.19159383
73	0x3d7eb081	0.062180046
74	0x3df3d4de	0.119058356
75	0x3d3082d8	0.043093532
76	0xbe5459e3	-0.20737414
77	0x3e2ba6be	0.16762826
78	0x3e4ccf53	0.20000963
79	0xbd443fd9	-0.047912452
80	0xbe0f0c72	-0.13969591
81	0xbd764e05	-0.060133
82	0x3dd084c8	0.10181576
83	0x3be3a2e7	0.0069469097
84	0xbd7cf230	-0.061754405
85	0x3b9bbb48	0.0047525503
86	0xbddcaa92	-0.10774721
87	0xbd3f2515	-0.046666224
88	0xbe0ef206	-0.13959512
89	0x3df7ad01	0.12093545
90	0x3e1bf385	0.15229614
91	0x3dee9311	0.116491444
92	0x3d9b4720	0.075819254
93	0x3d5c78e6	0.053826235
94	0x3d78e803	0.06076814
95	0xbe21a754	-0.15786487
96	0x3e15898c	0.14603251
97	0x3d9edbcc	0.07756767
98	0xbc27db70	-0.010245189
99	0xbd7460aa	-0.0596625
100	0x3e3168c1	0.17325117
101	0x3e457b35	0.19285281
102	0xbdafbc07	-0.08580785
103	0x3e1aa57d	0.15102191
104	0x3cbad432	0.02280626
105	0xbe05070e	-0.12990972
106	0x3eabefb4	0.33581316
107	0xbe0724f9	-0.13197698
108	0x3de506b9	0.11182923
109	0xbd304947	-0.043038633
110	0x3e1ca48b	0.15297143
111	0xbaa2de05	-0.0012425786
112	0x3d403edf	0.04693496
113	0x3e013616	0.12618288
114	0xbcae3378	-0.021264777
115	0xbe200ffe	-0.156311
116	0xbde0c30d	-0.10974703
117	0xbc858263	-0.016297525
118	0xbe106bff	-0.14103697
119	0xbbe92cca	-0.007115935
120	0x3d416e58	0.047224373
121	0x3cc292a9	0.023751574
122	0x3c6873d0	0.014187768
123	0x3d2b7134	0.041856006
124	0x3cd83d11	0.026396306
125	0xbdf6be28	-0.12047988
126	0xbe20a6d0	-0.15688634
127	0x3de5cc88	0.11220652
128	0xbce75a2e	-0.028241243
129	0x3c8a935e	0.016915973
130	0x3bd64680	0.006539166
131	0xbdd24347	-0.102667384
132	0x3e10b928	0.14133132
133	0x3deda4af	0.116036765
134	0x3c20be2d	0.009810966
135	0xbe186d90	-0.14885545
136	0xbd9dcfe8	-0.077056706
137	0x3d4c3a30	0.04986018
138	0xbe623e3c	-0.22094053
139	0xbdca00a1	-0.09863401
140	0xbdb43122	-0.08798434
141	0xbe162781	-0.14663507
142	0xbd80483c	-0.062637776
143	0xbe00af80	-0.12566948
144	0xbcf9b686	-0.030482542
145	0xbe393bc7	-0.1808921
146	0xbe19bfcc	-0.15014571
147	0x3db1ea9c	0.08687326
148	0x3d005feb	0.031341475
149	0x3e1aa31f	0.15101288
150	0xbdf0b5a9	-0.11753399
151	0xbd284a3a	-0.041086413
152	0xbde368a6	-0.111039445
153	0xbec92469	-0.3928559
154	0x3e67d1a2	0.22638562
155	0xbe82f9f4	-0.25581324
156	0xbd905498	-0.07047385
157	0x3ddad161	0.10684467
158	0x3db3a83f	0.08772325
159	0xbc886856	-0.016651314
160	0xbca31b83	-0.01991058
161	0x3d615f01	0.055022243
162	0xbd0981dc	-0.03357111
163	0xbb81d8c7	-0.0039626095
164	0x3dffb900	0.12486458
165	0xbda29748	-0.07939011
166	0xbda841d0	-0.08215678
167	0x3d9d189a	0.07670708
168	0xbd9fb9c2	-0.07799102
169	0x3d9aedaf	0.07564866
170	0xbe41d740	-0.18929768
171	0x3d874df4	0.06606665
172	0xbcd593b1	-0.026071401
173	0xbe8659a3	-0.26240262
174	0xbd47de1c	-0.048795804
175	0xbd18fa7e	-0.037348263
176	0xbd919eab	-0.07110342
177	0xbe0cd2f6	-0.1375235
178	0x3d98cbfb	0.07460781
179	0x3cb2d7ef	0.02183148
180	0xbdfa3525	-0.12217168
181	0xbd1c9535	-0.038228232
182	0xbdb3e196	-0.087832615
183	0x3e5a78ff	0.21335219
184	0xbdcc926a	-0.09988864
185	0x3e0caf53	0.13738756
186	0x3db121be	0.08649014
187	0x3c6b224f	0.0143514415
188	0xbe3e72ae	-0.18598434
189	0xbdcdce74	-0.100491434
190	0x3e043561	0.12910987
191	0xbab161ca	-0.0013533172
192	0xbd8a46cd	-0.067517854
193	0xbd928252	-0.07153763
194	0x3de7467a	0.11292739
195	0x3ddd676d	0.108107425
196	0x3e68e5c0	0.22743893
197	0x3d6a5861	0.05721319
198	0x3db1209f	0.086488
199	0xbd5d68f8	-0.054055184
200	0xbdbd9d20	-0.09258485
201	0xbde91392	-0.11380686
202	0x3cf8bee1	0.030364456
203	0xbcd27c18	-0.025693938
204	0x3d168280	0.03674555
205	0xbd7564bd	-0.059910525
206	0xbd4c07c2	-0.049812086
207	0xbe0671b3	-0.1312931
208	0x3ca4ca54	0.020116009
209	0xbd75e82c	-0.06003587
210	0xbe24b779	-0.16085614
211	0x3d0c329c	0.034227952
212	0xbcaa1849	-0.020763533
213	0xbd3067ec	-0.043067858
214	0x3c8b5985	0.01701046
215	0x3d69c0ce	0.05706864
216	0x3df8fd79	0.12157721
217	0xbe0ada08	-0.13559735
218	0x3e25638f	0.1615126
219	0xbe28f5a1	-0.1649995
220	0xbd761992	-0.06008298
221	0xbd75ed07	-0.0600405
222	0x3e25a271	0.16175248
223	0xbe1a680b	-0.15078752
224	0xbee865a5	-0.4539005
225	0x3d99cbcc	0.07509574
226	0x3d809412	0.06278242
227	0xbe3fd11f	-0.18732117
228	0xbd9ed436	-0.0775532
229	0xbd9a2bdf	-0.07527899
230	0x3caecef1	0.021338912
231	0x3e10d8fc	0.14145273
232	0xbd669019	-0.056289766
233	0xbed9a044	-0.42505085
234	0x3e33d28d	0.17560787
235	0x3b77c640	0.0037807375
236	0x3ee3bb6f	0.44478938
237	0x3da7c66c	0.08192143
238	0x3e2d60ca	0.16931453
239	0x3df277b1	0.118392356
240	0xbd7c5abd	-0.061609972
241	0x3eaa4f0d	0.33263436
242	0xbe9b75d3	-0.3036333
243	0xbe464943	-0.19363885
244	0xbcec4857	-0.028843088
245	0xbe7cd861	-0.24691917
246	0xbc3938a4	-0.011305008
247	0xbe24cec3	-0.16094498
248	0xbe42668e	-0.18984434
249	0x3e8163f4	0.2527157
250	0x3e193732	0.14962462
251	0x3ec07b23	0.37593946
252	0x3d86d1f0	0.06583011
253	0xbf213dc2	-0.6298486
254	0x3e247c04	0.16062933
255	0x3d49eb73	0.049296807

hidden2.bias f4 [64]
0	0x3e1b423d	0.15161987
1	0x3e164feb	0.14678924
2	0x3db7beac	0.08971915
3	0x3bb8a194	0.005634496
4	0x3e2bd783	0.1678143
5	0x3e257afc	0.16160196
6	0x3e01b5ee	0.12667057
7	0xbe7714ae	-0.24128982
8	0x3c66c320	0.014084607
9	0x3e3bacba	0.18327609
10	0xbdff0840	-0.124527454
11	0x3e1e401c	0.15454143
12	0xbe161c7b	-0.14659302
13	0xbd96263b	-0.07331511
14	0xbce34f20	-0.02774769
15	0x3d601d0d	0.054715205
16	0x3d10695a	0.03525672
17	0xbdcf1710	-0.10111821
18	0x3d994421	0.07483698
19	0x3c9390e9	0.018013434
20	0xbce48070	-0.027893275
21	0xbe342a11	-0.17594172
22	0x3e3cdb86	0.18443117
23	0xbd5a2643	-0.053259145
24	0xbd715bb4	-0.058925346
25	0x3e2fda37	0.17173086
26	0xbdb2c132	-0.08728255
27	0x3debc4a2	0.11512114
28	0x3ddd853b	0.10816427
29	0xbe6faa21	-0.23404743
30	0xbddbed26	-0.10738592
31	0xbd5b7046	-0.05357387
32	0x3d6406c6	0.055670522
33	0x3e35f534	0.17769319
34	0x3d51e457	0.051243152
35	0xbd5eb2af	-0.054369625
36	0xbc3659b7	-0.011129788
37	0xbe16b4c0	-0.14717388
38	0x3e4c4bbd	0.19950767
39	0x3d05ea84	0.032694355
40	0xbe2e84f9	-0.17042913
41	0xbdf75544	-0.1207681
42	0x3dc688e9	0.09694082
43	0x3dd369fe	0.10322951
44	0x3dcb05df	0.09913229
45	0xbcd95bcb	-0.026533028
46	0xbd04d19e	-0.03242647
47	0x3dbd28d7	0.09236305
48	0x3c8ac1bd	0.016938085
49	0xbc806e49	-0.015677588
50	0x3ccd5839	0.025066482
51	0xbdd4c3e6	-0.10388927
52	0xbd92b78a	-0.071639135
53	0xbc69ad05	-0.0142624425
54	0xbdd70bdd	-0.105003096
55	0x3b9312c0	0.004488319
56	0xbd6175e6	-0.055044077
57	0x3e4d16ab	0.20028178
58	0x3de6479d	0.11244128
59	0x3d44f8e4	0.048088923
60	0xbde77c56	-0.11303012
61	0xbc871bf4	-0.016492821
62	0xbc26b4b1	-0.010174916
63	0xbe0257ae	-0.1272876

hidden3.weight f4 [128, 64]
0	0xbd3cb570	-0.04607147
1	0x3d5f8972	0.054574437
2	0xbd031c55	-0.03200944
3	0xbe704b40	-0.23466206
4	0xbe0af9ef	-0.13571905
5	0xbdc5988f	-0.09648239
6	0xbe92aad1	-0.28645948
7	0xbdcdf1b3	-0.10055866
8	0x3d2c7e63	0.04211272
9	0xbe859ffa	-0.26098615
10	0xbd3e35a4	-0.046437874
11	0xbc5e4f40	-0.013568699
12	0xbdd0c11e	-0.10193084
13	0xbcc7a895	-0.024372378
14	0xbdc5286f	-0.09626853
15	0x3dfe353a	0.12412496
16	0x3de5474a	0.11195238
17	0xbea6add9	-0.3255451
18	0x3e403188	0.18768895
19	0x3c44f9a0	0.012022406
20	0x3d6149b8	0.055001944
21	0x3d9618ce	0.0732895
22	0xbdc8c92e	-0.09803997
23	0x3ba66af8	0.0050786696
24	0xbdd2a650	-0.10285628
25	0xbc26c50f	-0.010178818
26	0x3e06973b	0.13143627
27	0xbd598e14	-0.053114012
28	0xbd60e42b	-0.054905098
29	0x3ec00af0	0.37508345
30	0x3e3efcf5	0.18651183
31	0xbe390f24	-0.18072182
32	0x3e87c6ea	0.26518947
33	0x3cb84c9d	0.02249747
34	0xbdf1a2c5	-0.11798624
35	0xbe24d802	-0.16098025
36	0xba66bc9c	-0.00088019087
37	0x3e990661	0.2988768
38	0xbeee3afe	-0.46529382
39	0x3e7b32cf	0.245311
40	0xbddef332	-0.108862296
41	0xbd4a9838	-0.049461573
42	0x3d8c4724	0.068495065
43	0xbe3f6d2b	-0.18693988
44	0xbe151d12	-0.1456187
45	0x3d8afee3	0.06786897
46	0xbe39892f	-0.18118738
47	0x3b3cb4c2	0.0028794263
48	0x3e1c7681	0.1527958
49	0x3e4cb2f4	0.1999014
50	0x3df261cc	0.118350595
51	0xbd34ebf1	-0.044170324
52	0xbd5d33c1	-0.054004434
53	0xbc86cc4f	-0.016454844
54	0x3e07a89d	0.13247915
55	0xbd87812a	-0.06616433
56	0xbc7c42e8	-0.015396811
57	0xbdd514b2	-0.10404338
58	0xbe80209a	-0.25024873
59	0xbdbed2c8	-0.09317547
60	0xbca5f6bd	-0.020259256
61	0xbde7f426	-0.113258645
62	0xbea892b7	-0.32924435
63	0x3dd648b6	0.10463087
64	0x3d6587c4	0.05603768
65	0xbda7c4bd	-0.08191822
66	0xbc9256c4	-0.017863639
67	0xbd10fa88	-0.035395175
68	0xbddc9e3b	-0.107723676
69	0x3c092d8d	0.008372677
70	0xbdff9613	-0.12479796
71	0x3c77d7a0	0.015127093
72	0x3d629c43	0.055324804
73	0xbe2072e9	-0.15668835
74	0x3bb388a0	0.0054789335
75	0x3dec6a12	0.11543669
76	0x3d673ab8	0.056452483
77	0xbdb15ef2	-0.086606875
78	0xbc66ea7a	-0.0140939895
79	0xbe095344	-0.1341067
80	0x3ca46d30	0.020071596
81	0x3dbbcbbc	0.091697186
82	0x3dde767e	0.10862444
83	0xbb02da40	-0.0019966513
84	0x3cda0c43	0.026617175
85	0xbca9f2c0	-0.020745635
86	0xbd9727ee	-0.07380663
87	0x3b1d8fc0	0.002404198
88	0xbd951ec2	-0.07281257
89	0x3c35ae19	0.011088871
90	0x3d36b638	0.04460737
91	0xbd95d566	-0.07316093
92	0xbd900fca	-0.070342615
93	0xbdeb8c6a	-0.11501391
94	0xbcbda6a5	-0.023150751
95	0x3bc654a7	0.006052572
96	0x3dc2a087	0.095032744
97	0xbe0854cc	-0.13313597
98	0xbdfa022c	-0.122074455
99	0xbc56069a	-0.013063097
100	0x3d953297	0.0728504
101	0xbd157985	-0.036492843
102	0x3cf5c1e8	0.029999688
103	0xbcd29a9a	-0.025708485
104	0xbc74e8f0	-0.014948115
105	0x3db6b5ac	0.0892137
106	0x3d490b59	0.049083088
107	0xbdcba80d	-0.099441625
108	0xbdc7cb43	-0.09755566
109	0xbdfccf73	-0.12344255
110	0xbd8f3054	-0.0699164
111	0xbd1c8e8c	-0.03822188
112	0x3d7994e5	0.060933013
113	0xbe211552	-0.1573079
114	0x3d3cf6fe	0.046133988
115	0xbd8eff9a	-0.06982346
116	0xbce88f94	-0.028388776
117	0xbd3ab498	-0.045582384
118	0x3d087e87	0.03332379
119	0xbdd62856	-0.10456912
120	0xbdb2c5f8	-0.08729166
121	0xbc622370	-0.013802394
122	0x3d81196c	0.06303677
123	0xbdc9fe72	-0.09862985
124	0x3cb5c56c	0.022188865
125	0xbd074e78	-0.033033818
126	0xbe151bf9	-0.14561452
127	0x3c69c230	0.014267489
128	0xbe6546ea	-0.22390333
129	0x3cde41f2	0.027131055
130	0x3e3018c4	0.17196947
131	0x3dff2c89	0.12459666
132	0x3ce3f576	0.027827006
133	0xbe80b67c	-0.25139225
134	0xbe1e0684	-0.15432173
135	0x3e743b4c	0.23850745
136	0xbe89b6e6	-0.26897353
137	0xbdb4cbf2	-0.08827962
138	0x3dd13ca2	0.10216643
139	0xbccd0572	-0.02502701
140	0xbd95b51a	-0.07309933
141	0x3de784f4	0.11304656
142	0x3dac1f7d	0.084044434
143	0x3d17b64a	0.03703908
144	0xbd234894	-0.039864138
145	0x3de7802f	0.11303746
146	0x3c79d43d	0.015248355
147	0x3dd69e7b	0.104794465
148	0x3dd04b7c	0.101706475
149	0xbcbfb868	-0.023403361
150	0x3d8d73d5	0.06906859
151	0x3e4fc33a	0.20289317
152	0xbdf19723	-0.11796405
153	0x3cdf0a5a	0.027226616
154	0x3e35964f	0.1773312
155	0xbd2e7ad0	-0.042597592
156	0x3dc15fbb	0.09442087
157	0x3e1ff1ea	0.15619627
158	0xbcfa1851	-0.030529173
159	0x3e8afddf	0.27146813
160	0x3e12d7a9	0.1434008
161	0x3d71585e	0.058922164
162	0x3c2733cb	0.0102052195
163	0x3d1454d7	0.036213722
164	0xbe0f3954	-0.13986713
165	0x3e887894	0.26654494
166	0xbdec2a26	-0.11531477
167	0xbce6eb84	-0.028188474
168	0xbdd1fdf0	-0.10253513
169	0x3ddb516e	0.10708891
170	0xbd83dda3	-0.06438758
171	0x3d983bc1	0.07433272
172	0x3dc090da	0.09402628
173	0x3de7c082	0.11316015
174	0x3d6a0eac	0.0571429
175	0xbd80a0a9	-0.062806435
176	0x3d7508af	0.059822734
177	0xbb70b467	-0.0036728622
178	0x3df823ec	0.121162266
179	0x3bb8bf72	0.0056380564
180	0x3d28cd30	0.041211307
181	0x3df25a6f	0.11833655
182	0xbe056fa0	-0.13030863
183	0x3dfa7db6	0.12231009
184	0x3dc308ed	0.09523187
185	0x3cc921d9	0.024552273
186	0xbdf2f1e4	-0.11862543
187	0xbe1c7c31	-0.1528175
188	0xbd956e89	-0.072964735
189	0xbde94704	-0.11390498
190	0xbe2ea9fd	-0.17057033
191	0x3cf51bb8	0.029920444
192	0x3dc1f892	0.09471239
193	0x3d43d55b	0.047810894
194	0xbd8587f0	-0.06520069
195	0xbd590044	-0.05297877
196	0x3c852d51	0.01625696
197	0x3e111983	0.14169888
198	0xbc9c8ee4	-0.019111104
199	0xbe34650c	-0.17616671
200	0x3e21d1ba	0.1580266
201	0x3d82bbd4	0.063834816
202	0xbd1788f0	-0.03699583
203	0xbd865ba3	-0.06560447
204	0xbdaa7516	-0.083231136
205	0xbd01f5ab	-0.031728428
206	0xbd9c5421	-0.07633234
207	0xbe1e0f2b	-0.15435474
208	0xbd2ffdc1	-0.042966608
209	0xbca38058	-0.01995866
210	0xbea29bbf	-0.3175945
211	0x3d95f53f	0.073221676
212	0xbd74aec1	-0.05973697
213	0x3c6d7a30	0.014494464
214	0x3cb5c834	0.02219019
215	0xbe4c17c5	-0.19930942
216	0x3db16527	0.086618714
217	0x3d946ea8	0.072476685
218	0xbdeb9c5f	-0.11504435
219	0x3e015321	0.12629367
220	0xbd9ee882	-0.07759191
221	0x3e52dbf6	0.20591721
222	0x3e1675aa	0.14693323
223	0xbdd3b79a	-0.103377536
224	0x3e31aae3	0.17350344
225	0x3e082522	0.13295415
226	0xbd5cbf45	-0.053893346
227	0x3cfd725f	0.030938325
228	0x3d0ce403	0.034397136
229	0xbdc010d0	-0.09378207
230	0x3e0c7e84	0.13720137
231	0x3d38cacd	0.04511528
232	0xbddc1945	-0.10747007
233	0xbd6271e0	-0.05528438
234	0xbd69528f	-0.0569635
235	0xbc3821c0	-0.011238515
236	0xbdd48744	-0.10377362
237	0x3cf22092	0.029556546
238	0x3dbf0f3b	0.09329077
239	0x3cb55264	0.022134013
240	0xbd92977e	-0.07157801
241	0x3e2933dd	0.1652369
242	0xbd04241c	-0.032261
243	0xbe1334ef	-0.14375661
244	0x3d427987	0.04747918
245	0xbda06211	-0.07831205
246	0x3e191269	0.14948429
247	0x3d5caf28	0.05387798
248	0x3cb8c8cf	0.02255669
249	0xbd6c6b9a	-0.057719804
250	0xbdd2a128	-0.10284644
251	0x3d829566	0.06376152
252	0xbda709bb	-0.08156153
253	0xbe04a5dc	-0.12953895
254	0x3c2c1863	0.010503861
255	0xbdd57db4	-0.104243666

hidden3.bias f4 [128]
0	0xbe643ee3	-0.22289614
1	0xbd890a86	-0.0669146
2	0xbdd4d1a4	-0.10391548
3	0x3e19e848	0.15030015
4	0x3cad021d	0.021119172
5	0xbce78f71	-0.02826664
6	0x39cf954e	0.00039593357
7	0xbdadff4b	-0.08495959
8	0xbda284b6	-0.07935469
9	0xbd5b4f64	-0.05354251
10	0x3dcf4b79	0.10121817
11	0xbcf950a7	-0.030433966
12	0x3d108581	0.03528357
13	0x3dd81b07	0.1055203
14	0x3d219a3f	0.03945374
15	0xbd9dbb07	-0.07701688
16	0x3ca33b30	0.019925684
17	0x3afb7466	0.001918447
18	0xbe40dd48	-0.18834412
19	0x3c834698	0.016024873
20	0xbd06863d	-0.032842863
21	0x3d248b6d	0.04017203
22	0x3da4e58d	0.08051596
23	0xbd4296ee	-0.04750722
24	0x3dd6fd1e	0.10497497
25	0x3c9309ce	0.017949011
26	0xbc217656	-0.009854874
27	0x3e0c8b2c	0.13724965
28	0xbde3281e	-0.11091636
29	0xbd218bb5	-0.039439876
30	0x3c0fd80c	0.008779537
31	0xbd43327e	-0.047655575
32	0xbd0f6d18	-0.03501615
33	0x3d9e3a4c	0.07725963
34	0x3e114e50	0.1419003
35	0x3c2c60a8	0.0105210915
36	0xbcf8260f	-0.030291585
37	0x3d993f1d	0.07482741
38	0xbdca42de	-0.09876035
39	0xbd4aa5fd	-0.049474705
40	0xbd2ed49b	-0.042683225
41	0x3ccdbe5c	0.025115184
42	0x3d98f39d	0.074683405
43	0x3c6f1866	0.014593219
44	0x3d43453e	0.047673456
45	0xbe161571	-0.14656617
46	0x3dc0995a	0.094042495
47	0x3d80013d	0.06250236
48	0xbd162f2f	-0.03666609
49	0xbdc6e44d	-0.09711514
50	0x3dc310c9	0.09524686
51	0x3c3ef982	0.011656167
52	0xbe0fcb81	-0.14042474
53	0xbdb7c18e	-0.089724645
54	0x3d633249	0.055467878
55	0x3d61e27a	0.055147626
56	0x3ca4c4fd	0.020113463
57	0x3ada1d60	0.0016640835
58	0xbc97aa59	-0.018513845
59	0x3d0d510c	0.03450112
60	0x3c6b0d99	0.014346504
61	0x3e0d2c1e	0.1378636
62	0x3cb8b1ee	0.022545781
63	0x3c84a0df	0.01618999
64	0x3d201467	0.039081957
65	0xbc0d2eed	-0.008617145
66	0xbd83e72c	-0.06440577
67	0xbd0a0481	-0.0336957
68	0x3e177e11	0.14794184
69	0x3db7f2f9	0.0898189
70	0xbda93727	-0.082624726
71	0x3e0fd252	0.14045075
72	0xbda4a5e0	-0.08039451
73	0x3dc4e3bb	0.09613749
74	0x3bc8dd2b	0.006129881
75	0x3c478389	0.0121773565
76	0xbc478a41	-0.012178958
77	0xbd7c0dda	-0.061536647
78	0x3e026c29	0.12736572
79	0x3bef14ba	0.007296172
80	0x3c5d6f72	0.01351534
81	0xbdee7f21	-0.11645342
82	0x3e021dff	0.12706755
83	0x3e244909	0.16043486
84	0x3d84c4c6	0.06482844
85	0xbc7a25b8	-0.015267782
86	0x3cae8e3a	0.021308053
87	0xbc23d1ed	-0.009998781
88	0x3e261815	0.16220124
89	0xbb7012f1	-0.0036632384
90	0x3cc11986	0.02357174
91	0x3dab3835	0.0836033
92	0xbd286363	-0.041110408
93	0x3da71e4f	0.08160078
94	0x3da575bd	0.080790974
95	0x3d0ea955	0.034829456
96	0xbd9bb837	-0.076034956
97	0x3e067d89	0.13133825
98	0x3c827999	0.015927123
99	0x3d3e56e0	0.04646957
100	0xbcc654b9	-0.02421032
101	0xbe43c99e	-0.1911988
102	0xbddbf5f4	-0.10740271
103	0x3d06cbf6	0.032909356
104	0xbe103fc2	-0.14086822
105	0xbdf80012	-0.121093884
106	0x3bc4c825	0.0060053044
107	0xbd29d8f1	-0.041466657
108	0x3e0f27c6	0.13980016
109	0xbd48c9b9	-0.049020503
110	0xbd7e1643	-0.06203295
111	0xbc9d28e6	-0.019184541
112	0xbe0dfb80	-0.13865471
113	0xbcf22725	-0.029559681
114	0x3dcf3d12	0.1011907
115	0xbd30963e	-0.043112032
116	0x3d909a9c	0.070607394
117	0xbc14765f	-0.009061425
118	0x3e0085e3	0.12551074
119	0xbc4e41ab	-0.012588899
120	0x3d13fa7f	0.036127564
121	0xbd22dbc6	-0.039760374
122	0xbd0927f5	-0.03348537
123	0x3dc88b0d	0.09792147
124	0xbd183e14	-0.037168577
125	0x3e29fc95	0.16600259
126	0x3df41610	0.119182706
127	0xbd9d46f2	-0.07679547

output.weight f4 [4, 128]
0	0x3d46ad9d	0.048505414
1	0xbc8fd117	-0.017555756
2	0x3e05ebff	0.13078307
3	0xbd827122	-0.063692346
4	0x3b25127f	0.0025188026
5	0xbdc11439	-0.09427685
6	0x3d445b1e	0.04793846
7	0xbbfa963f	-0.0076473053
8	0xbcdb2224	-0.026749678
9	0xbdb49287	-0.088170104
10	0x3d9557e1	0.07292152
11	0x3cfe0021	0.03100592
12	0xbd776ac9	-0.060404573
13	0xbd2b187d	-0.0417714
14	0xbdde54cf	-0.1085602
15	0x3d51e40c	0.051242873
16	0x3c647dc8	0.013946004
17	0x3e1b857f	0.15187643
18	0xb9bf7c0e	-0.00036522787
19	0xbce4ff1c	-0.027953677
20	0xbd8eabc8	-0.069663584
21	0x3dd4d94d	0.10393009
22	0xbd76315b	-0.060105663
23	0x3d257cfe	0.040402405
24	0x3cbd5628	0.023112372
25	0x3d2d96db	0.042380195
26	0x3cfa0071	0.030517789
27	0xbbac433c	-0.0052570384
28	0x3d1609e4	0.036630526
29	0xbb6affbf	-0.0035858003
30	0x3d632ba0	0.055461526
31	0x3d82a603	0.063793205
32	0xbccbbddf	-0.024870811
33	0xbd538009	-0.051635776
34	0x3d75d552	0.06001789
35	0xbc7a3d24	-0.015273366
36	0xbba0c4fd	-0.0049062953
37	0xbd18b685	-0.03728344
38	0x3d557d3f	0.052121397
39	0xbe17d198	-0.14826047
40	0xbd0407e9	-0.032234106
41	0xbd7d0a0a	-0.061777152
42	0xbddd2f64	-0.10800055
43	0x3c30fb45	0.010802095
44	0xbc9addd1	-0.018904598
45	0xbba523ee	-0.0050396835
46	0x3d36d4fc	0.04463671
47	0x3c6381a0	0.0138858855
48	0x3ddd9009	0.10818488
49	0xbe1e8132	-0.15478972
50	0x3d9531e0	0.072849035
51	0xbdd88d01	-0.10573769
52	0xbd1d1355	-0.038348515
53	0x3ca92182	0.02064586
54	0xbd71b3c3	-0.059009325
55	0xbc93f0d5	-0.018059174
56	0x3e026c3a	0.12736598
57	0xbc5f22b4	-0.013619114
58	0xbdec05c6	-0.11524539
59	0x3d333e95	0.043760855
60	0x3df762e2	0.12079407
61	0x3dfa3486	0.12217049
62	0x3d27cd36	0.04096719
63	0x3cd90c69	0.026495175
64	0x3e17b2fa	0.14814368
65	0xbd662998	-0.05619201
66	0x3dd76841	0.10517932
67	0xbd99048f	-0.074715726
68	0x3c797395	0.015225311
69	0xbd3334a4	-0.043751374
70	0xbcd1f211	-0.025628122
71	0x3ded4230	0.1158489
72	0x3e3906dd	0.18069024
73	0xbd3c33a2	-0.04594768
74	0xbdf9357b	-0.12168404
75	0x3d0d26b9	0.034460757
76	0x3e21dc7e	0.15806767
77	0xbcf1845f	-0.029482065
78	0xbe02f82c	-0.12789983
79	0xbd6ed933	-0.058312606
80	0xbc53a9ac	-0.012918871
81	0xbd67ac6c	-0.05656092
82	0xbd7fe0e4	-0.06247033
83	0x3c8f3e67	0.01748581
84	0x3c924be6	0.017858457
85	0x3cbce04b	0.02305617
86	0x3c18406f	0.009292706
87	0xbd920a2b	-0.07130846
88	0xbc7043e9	-0.014664629
89	0x3ca3e331	0.020005794
90	0x3ccbd5cd	0.024882222
91	0x3de937f7	0.113876276
92	0xbd7c265b	-0.061560016
93	0xbe2845e3	-0.1643291
94	0x3cd3ba12	0.025845561
95	0xbdbe5f65	-0.09295539
96	0x3d8340d7	0.064088516
97	0xbdf512b0	-0.11966455
98	0xbdd20d81	-0.10256482
99	0x3d4616e7	0.048361685
100	0x3ad1aa3a	0.0015996166
101	0x3e1e4d12	0.15459087
102	0x3c85b224	0.016320296
103	0x3e126293	0.14295416
104	0x3cd8dc0a	0.02647211
105	0x3db195cf	0.08671152
106	0xbc77b740	-0.015119374
107	0xbd43fa7f	-0.047846314
108	0xbd6db795	-0.058036406
109	0x3d2a3f37	0.041564193
110	0xbd5fe7ae	-0.054664306
111	0x3bf9ebe8	0.007626999
112	0x3d9080de	0.070558295
113	0x3d96ff40	0.07372904
114	0xbd53c8ce	-0.051705174
115	0xbe0f4461	-0.13990928
116	0xbd179702	-0.037009247
117	0xbca383e2	-0.019960348
118	0xbe054d1a	-0.13017693
119	0xbd9e01f5	-0.07715217
120	0x3da1ea97	0.079060726
121	0x3cc94d49	0.024572985
122	0xbdc21adb	-0.094777785
123	0x3e04dd98	0.12975156
124	0x3e179b85	0.1480542
125	0x3d970326	0.073736474
126	0xbdd5242a	-0.10407288
127	0xbe316c70	-0.17326522
128	0x3d9892aa	0.07449849
129	0xbd873693	-0.06602206
130	0x3a2e1ce9	0.0006641881
131	0xbcce9525	-0.025217602
132	0x3d286e42	0.041120775
133	0x3e411612	0.18856075
134	0xbc503450	-0.012707785
135	0x3d0f9f53	0.035064053
136	0xbd9dc775	-0.07704059
137	0x3e8161fe	0.25270075
138	0xbcd5baee	-0.026090112
139	0xbd2035b9	-0.039113734
140	0xbd4447a2	-0.047919877
141	0xbdfb67df	-0.12275671
142	0xbe2ce05f	-0.16882466
143	0xbe9db934	-0.3080536
144	0x3d8bd8d1	0.06828464
145	0x3dcf2a48	0.101154864
146	0x3d594113	0.053040575
147	0x3d895695	0.06705967
148	0x3d8f204f	0.06988584
149	0xbe17f5fd	-0.14839931
150	0xbd83308f	-0.06405746
151	0x3c9f9d1b	0.019484093
152	0xbda7a64a	-0.08186014
153	0xbdc00c5b	-0.093773566
154	0x3d745491	0.05965096
155	0xbcca8dff	-0.024725912
156	0xbedf3505	-0.43595138
157	0x3d74adc4	0.05973603
158	0x3d8f44a1	0.06995512
159	0xbca77dae	-0.020445671
160	0xbe848dbf	-0.25889394
161	0xbdfeaf71	-0.124358065
162	0xbc018f00	-0.007907629
163	0x3c34adc5	0.011027758
164	0x3d2e7719	0.04259405
165	0xbe66b495	-0.22529824
166	0x3d9f093e	0.07765435
167	0x3e014eb2	0.12627676
168	0xbe77bc0b	-0.24192826
169	0xbcb2bb83	-0.021817928
170	0x3e091b04	0.13389212
171	0x3ca2337f	0.019799946
172	0xbbee3ca9	-0.007270415
173	0xbd6ab391	-0.057300154
174	0xbe0253a2	-0.12727216
175	0xbdfe4b93	-0.124167584
176	0xbd418b56	-0.04725202
177	0x3ca16624	0.019702025
178	0x3d5ac143	0.053406965
179	0xbe0f99b7	-0.14023481
180	0xbcc6f2c4	-0.024285682
181	0x3e21fdec	0.1581952
182	0xbdaaf701	-0.083478935
183	0x3e214101	0.15747453
184	0x3c69f642	0.014279904
185	0x3d90d900	0.070726395
186	0x3d4008e9	0.046883497
187	0x3e4b5f40	0.19860554
188	0xbde1aa22	-0.110187784
189	0xbd9edb71	-0.07756699
190	0x3cfbca25	0.030736038
191	0xbe59149f	-0.21199273
192	0xbb572e79	-0.0032834096
193	0xbd613162	-0.054978736
194	0x3c453f4e	0.012039019
195	0x3c94efa4	0.018180676
196	0xbdb1d2ba	-0.08682771
197	0xbd8d25a8	-0.06891948
198	0x3e96047e	0.29300302
199	0xbe03e704	-0.12881094
200	0x3d93157f	0.071818344
201	0x3e1ca4a7	0.15297185
202	0x3e14e337	0.145398
203	0xbe2a3460	-0.16621542
204	0x3d828a3c	0.06374022
205	0x3e695450	0.22786069
206	0x3e34bf8d	0.17651196
207	0xbde0e0ea	-0.10980399
208	0xbd9381dd	-0.07202504
209	0xbc6d3175	-0.0144771235
210	0xbdd20be8	-0.10256177
211	0xbdf516f5	-0.11967269
212	0xbe98143b	-0.29702935
213	0x3ec94916	0.39313573
214	0xbbfa37b1	-0.0076360335
215	0xbdc963fc	-0.09833524
216	0xbcb4432b	-0.022004684
217	0xbe266f7e	-0.16253468
218	0x3e97b6a5	0.29631534
219	0x3dfffcdb	0.124994
220	0xbd3d206a	-0.04617349
221	0x3e3aa2ce	0.18226168
222	0xbdc06a5b	-0.09395286
223	0xbd767d41	-0.060178045
224	0xbd96f5dc	-0.07371113
225	0xbc0efb9b	-0.00872698
226	0x3cc08b3e	0.023503896
227	0xbdceddae	-0.10100876
228	0x3e94f8f0	0.29096174
229	0x3e1ce2f9	0.15320958
230	0x3d420042	0.047363527
231	0x3e97b4f3	0.2963024
232	0xba75dcdc	-0.0009378919
233	0xbd7d6d50	-0.061871827
234	0x3e90e0d1	0.2829652
235	0xbd46f9a9	-0.04857794
236	0xbe0bd2d0	-0.13654637
237	0xbd9882a8	-0.07446796
238	0xbd471b2d	-0.0486099
239	0x3d9047d7	0.07044952
240	0x3cc437af	0.023952333
241	0x3ce8d637	0.028422458
242	0xbc37a318	-0.011208318
243	0xbdffcb35	-0.124899305
244	0xbdb7fdd0	-0.08983958
245	0xbe21c112	-0.15796307
246	0x3cef452b	0.029207787
247	0x3e2f8842	0.17141822
248	0xbe19dc8d	-0.1502554
249	0x3d84821e	0.064701304
250	0xbc50f751	-0.012754277
251	0xbcb7b0b9	-0.022423135
252	0x3d9ed719	0.0775587
253	0xbdbdbc30	-0.092644095
254	0xbca10316	-0.019654792
255	0x3edae45f	0.42752358

output.bias f4 [4]
0	0x3cf03b60	0.029325187
1	0xbdd53477	-0.104103975
2	0xbd214423	-0.03937162
3	0x36bc1e00	5.606329e-06
