models/DoublePendulum2/measure_['phi1fot, phi2dot']_N[4, 4]_sep_small/q_model_state_dict.pth (torch, 184978 bytes, 10 tensors)

hidden1.weight f4 [32, 8]
0	0x3d1af8a5	0.037834782
1	0xbe938d30	-0.28818655
2	0xba92a468	-0.0011187913
3	0xbe578d77	-0.21050058
4	0xbe186407	-0.14881907
5	0x3e73b485	0.23799331
6	0xbe8c9216	-0.27455205
7	0x3ebeaaa1	0.37239555
8	0x3e4d791c	0.20065731
9	0x3d73d79e	0.0595318
10	0x3e82452a	0.25443393
11	0x3eb785c2	0.35844237
12	0x3e5aa299	0.21351089
13	0xbddb7b8c	-0.10716924
14	0x3ba48d9c	0.005021764
15	0xbe51153e	-0.2041826
16	0x3e54c36c	0.20777673
17	0xbd9cef29	-0.07662804
18	0x3e4a9840	0.19784641
19	0x3eb687c0	0.35650444
20	0xbe90415b	-0.28174862
21	0xbf086878	-0.53284407
22	0x3e12b54d	0.14326973
23	0xbea55fb7	-0.32299587
24	0xbc2e9882	-0.010656478
25	0x3ed05259	0.40687826
26	0x3e8124d3	0.25223407
27	0x3e3b330a	0.18281189
28	0xbea3cb27	-0.3199093
29	0x3f04894b	0.5177199
30	0xbbb0f8bd	-0.0054007457
31	0x3ed32d38	0.41245437
32	0x3e946112	0.2898031
33	0xbf2893b6	-0.6585039
34	0xbe857369	-0.26064613
35	0xbe8a2f83	-0.26989374
36	0x3ebd552f	0.36979052
37	0xbec1eec6	-0.37877482
38	0x3de3baa7	0.111195855
39	0xbe250968	-0.1611687
40	0x3eaebeaa	0.3412984
41	0xbea194ab	-0.31558737
42	0x3eb7c262	0.3589049
43	0xbe936bd9	-0.2879322
44	0xbe6192f4	-0.22028714
45	0xbc6c56d3	-0.014424997
46	0xbe4a75fc	-0.1977157
47	0x3e8a876d	0.27056447
48	0x3e53b32f	0.20673822
49	0xbcb964c3	-0.022631055
50	0xbeb096af	-0.34489962
51	0xbde77cdd	-0.11303113
52	0x3edf5454	0.43619025
53	0xbe82b505	-0.25528732
54	0x3eba0d1f	0.36338136
55	0x3e3c6b19	0.1840023
56	0xbe013901	-0.12619402
57	0xbea72479	-0.32645014
58	0x3ed6fc23	0.4198924
59	0xbbd6b91e	-0.0065528294
60	0xbe7a5891	-0.24447848
61	0xbe07af32	-0.13250425
62	0x3dc0fb2d	0.09422908
63	0x3e818be7	0.2530205
64	0xbcc416e1	-0.02393669
65	0xbec2360c	-0.3793186
66	0xbdb9323d	-0.09042785
67	0x3ddde48a	0.10834606
68	0xbe0734a3	-0.13203673
69	0xbf0e93ae	-0.5569409
70	0x3e81b6b9	0.2533472
71	0xbe28aab5	-0.1647137
72	0x3c7b228d	0.015328062
73	0x3e554f64	0.20831066
74	0x3ddd2ff5	0.10800163
75	0xbc4d82b3	-0.012543368
76	0x3e084877	0.13308893
77	0x3e3334ba	0.17500582
78	0xbea4443b	-0.32083306
79	0x3e9423ec	0.28933656
80	0xbe909287	-0.28236791
81	0xbf2561a4	-0.6460211
82	0xbdc6ec48	-0.09713036
83	0xbc77d95f	-0.015127509
84	0xba317d2f	-0.0006770668
85	0xbf116f5a	-0.56810534
86	0xbe2280b3	-0.15869407
87	0x3de2cb69	0.11073954
88	0xbebc584b	-0.36786112
89	0x3e92c8ff	0.28668973
90	0x3db635ed	0.08897004
91	0xbe6ac3d5	-0.22926266
92	0x3de816a3	0.113324426
93	0xbb845468	-0.0040383823
94	0xbe4c564f	-0.19954799
95	0xbe2d615e	-0.16931674
96	0x3e2e989d	0.17050405
97	0x3ea7905d	0.32727328
98	0xbd72b924	-0.059258595
99	0x3e1aceb1	0.15117909
100	0x3ecb9c31	0.39767602
101	0x3ddb8c61	0.107201345
102	0x3e91765a	0.28410608
103	0x3c01b28f	0.007916107
104	0xbecbc7f8	-0.39801002
105	0xbe99bedf	-0.30028436
106	0x3e82d5de	0.25553793
107	0x3e0e0428	0.13868773
108	0x3e4ead18	0.20183218
109	0xbabe1388	-0.001450167
110	0x3e87226e	0.26393455
111	0x3db97bca	0.09056814
112	0x3e9fbf6d	0.31200734
113	0xbe7a3bed	-0.24436922
114	0x3d924e4f	0.071438424
115	0xbe826d57	-0.25474045
116	0x3ed46f95	0.4149138
117	0x3b85ca3f	0.0040829475
118	0xbae20de9	-0.0017246577
119	0x3e1d9965	0.15390547
120	0xbd70c828	-0.058784634
121	0x3881b398	6.184651e-05
122	0x3e7dcb75	0.24784644
123	0xbe808a8d	-0.25105706
124	0x3e00331c	0.12519497
125	0xbcc5d2ae	-0.024148311
126	0xbd6670a5	-0.05625977
127	0xbded4660	-0.115856886
128	0x3e45ff2c	0.19335622
129	0x3f3c76c0	0.736187
130	0xbe3146f4	-0.17312223
131	0x3e5d49e1	0.21610214
132	0x3e6a6cbc	0.22893041
133	0x3f07cb52	0.5304462
134	0x3d9c8325	0.07642201
135	0x3e48437f	0.19556998
136	0x3ea5fda6	0.3242008
137	0x3eb288c8	0.3486998
138	0xbda6d5a9	-0.08146221
139	0xbe155c35	-0.14585955
140	0xbd86ebd8	-0.065879524
141	0x3ebf2c59	0.37338522
142	0xbea41951	-0.32050565
143	0x3c98c8e1	0.018650474
144	0x3e82a32f	0.25515124
145	0x3dd88bca	0.10573538
146	0xba929867	-0.0011184335
147	0x3e463898	0.19357526
148	0x3f05050f	0.51960844
149	0x3e9a3f77	0.30126545
150	0x3dcbef53	0.09957757
151	0x3ea0a7bc	0.3137797
152	0xbf31449f	-0.6924533
153	0x3ccc7e82	0.024962667
154	0xbe2596ca	-0.16170803
155	0xbe426b35	-0.18986209
156	0xbed50008	-0.41601586
157	0x3d2ff11a	0.04295454
158	0x3d514740	0.05109334
159	0xbe27ee84	-0.1639958
160	0xbe677e09	-0.22606672
161	0x3daa0d9f	0.08303379
162	0x3d9347c7	0.07191425
163	0x3e68c315	0.22730668
164	0xbe59c58e	-0.21266767
165	0x3dcaaf71	0.09896744
166	0xbdb13fc7	-0.08654743
167	0xbdabd791	-0.083907254
168	0xbe98020d	-0.29689065
169	0xbe3a58ca	-0.18197933
170	0xbe3d5d22	-0.18492559
171	0xbe53c2e2	-0.2067981
172	0xbda7d353	-0.08194604
173	0x3e5c3f5d	0.21508546
174	0x3e35cbe0	0.17753553
175	0x3eeccc2a	0.46249515
176	0x3f5d2dce	0.8639802
177	0x3c9cf2f4	0.019158818
178	0xbe24ff81	-0.16113092
179	0x3da82004	0.082092315
180	0x3eb41cc0	0.35178185
181	0x3d62e8ec	0.055397913
182	0xbebafa0c	-0.36518896
183	0x3e0e428d	0.13892575
184	0xbdc21a89	-0.094777174
185	0x3f0e4cbd	0.55585843
186	0xbe9a4605	-0.30131546
187	0xbd5b8266	-0.053591155
188	0x3cc9523d	0.024575347
189	0x3ec94327	0.39309046
190	0x3a2b7008	0.0006539826
191	0xbe7ad21a	-0.2449421
192	0xbe3cc754	-0.18435413
193	0x3d5130ba	0.05107186
194	0x3e2c0d75	0.16802008
195	0xbf0e4517	-0.5557417
196	0x3ea8f6ad	0.330007
197	0x3ef1509f	0.47131822
198	0x3ebe26fd	0.3713912
199	0x3c9a5e11	0.018843682
200	0x3d98fe4c	0.07470378
201	0xbf225963	-0.63417643
202	0x3e01b68b	0.12667291
203	0xbdc1cbc9	-0.09462697
204	0x3dd7b73e	0.105329975
205	0xbeee93e7	-0.46597216
206	0x3e59b614	0.21260864
207	0xbdf65f27	-0.120298676
208	0x3db5bcb7	0.08873885
209	0x3f0d7ade	0.55265605
210	0x3e20aa93	0.15690069
211	0x3e2f58a8	0.17123663
212	0xbe6efdda	-0.23339024
213	0x3f2585ae	0.64657104
214	0x3e454d9b	0.19267885
215	0x3e947dd3	0.29002246
216	0x3e1529c1	0.14566709
217	0x3e473874	0.19455129
218	0xbe31c3b4	-0.17359811
219	0x3d349b37	0.044093337
220	0xbe024158	-0.12720239
221	0x3ef14ec6	0.47130412
222	0xbe664a6f	-0.22489332
223	0x3ce6853b	0.028139701
224	0x3f13600e	0.5756844
225	0xbd160599	-0.036626432
226	0xbe3b3ec9	-0.1828567
227	0x3d52c3f4	0.051456407
228	0x3f28430c	0.65727305
229	0x3dd4e9d8	0.10396165
230	0x3e069039	0.13140954
231	0xbd2e7485	-0.04259159
232	0x3e6e9860	0.23300314
233	0xbe4e5707	-0.20150386
234	0xbdb43776	-0.08799641
235	0xbe01838e	-0.1264784
236	0xbe785dc8	-0.24254525
237	0x3d84754b	0.06467684
238	0x3cdc07ff	0.026859282
239	0xbdc798bb	-0.09745928
240	0xbe8fdad3	-0.28096637
241	0xbe307821	-0.17233326
242	0x3e33642a	0.17518678
243	0xbd2cb3a9	-0.042163525
244	0xbe26d39c	-0.1629166
245	0x3e20fcbc	0.1572141
246	0xbead84e1	-0.3389044
247	0xbe6ba9eb	-0.23014037
248	0xbec18c91	-0.37802556
249	0x3f2b2a28	0.668612
250	0x3e8457bf	0.25848195
251	0xbc0c3d11	-0.008559481
252	0xbc272274	-0.010201085
253	0x3f170739	0.58995396
254	0x3e1370b9	0.14398469
255	0xbe5801e3	-0.2109447

hidden1.bias f4 [32]
0	0x3c827de4	0.01592917
1	0x3d999606	0.07499318
2	0xbcc49ca0	-0.024000466
3	0xbd6e62b0	-0.058199584
4	0x3e8a188d	0.26971856
5	0x3e4eaeb8	0.20183837
6	0xbe5b4982	-0.2141476
7	0x3deecbc1	0.11659957
8	0x3e02b5b1	0.12764622
9	0xbe591845	-0.21200664
10	0x3e48e4f0	0.19618583
11	0xbea01f7d	-0.31274024
12	0x3e2414e6	0.16023597
13	0xbe7dc015	-0.24780305
14	0x3d27ec50	0.04099685
15	0x3befc336	0.007316972
16	0x3e39a287	0.18128406
17	0x3e032074	0.12805349
18	0xbe776074	-0.24157888
19	0xbe1d1ec4	-0.15343767
20	0xbeccf1d4	-0.4002825
21	0x3c22fb66	0.009947633
22	0xbd92d964	-0.0717037
23	0x3d0d94cc	0.034565732
24	0x3d2de18e	0.042451434
25	0x3e2403dd	0.16017099
26	0x3e87ae82	0.26500326
27	0x3ded1c1d	0.11577628
28	0xbe02f028	-0.12786925
29	0xbd89b151	-0.067232735
30	0xbecad7b3	-0.3961769
31	0x3e84b4cd	0.2591919

hidden2.weight f4 [64, 32]
0	0xbdabe53e	-0.08393334
1	0xbe5d2c61	-0.2159896
2	0xbda82ff8	-0.08212274
3	0xbe92bbb6	-0.28658837
4	0x3ceb8eba	0.02875458
5	0x3dabfe25	0.083980836
6	0x3e05bafc	0.1305961
7	0xbe29e466	-0.16591033
8	0xbe51811d	-0.20459409
9	0x3e00aa37	0.12564932
10	0xbe620f36	-0.22076115
11	0xbd8fcc1f	-0.07021355
12	0xbe0a88ad	-0.135287
13	0x3d269ddf	0.0406779
14	0xbd3d03fe	-0.046146385
15	0xbdd1da9e	-0.10246776
16	0x3c1b3328	0.009472646
17	0xbdd2308c	-0.10263166
18	0xbd52f37d	-0.05150174
19	0x3d242516	0.04007443
20	0x3d5e8be0	0.054332614
21	0x3d964d92	0.07339014
22	0x3d70c456	0.05878099
23	0xbe95d8e7	-0.29267046
24	0xbec9833c	-0.39357936
25	0xbe5a5c73	-0.21324329
26	0x3da936cd	0.082624055
27	0xbe91ffae	-0.2851538
28	0xbe1575f5	-0.14595778
29	0x3e2d2175	0.16907294
30	0x3c865e5c	0.016402416
31	0xbe32c9b9	-0.17459764
32	0x3e033ef6	0.12816986
33	0x3e38ded9	0.1805376
34	0x3e2e8a8e	0.17045042
35	0xbf038775	-0.51378566
36	0x3e5d3d49	0.2160541
37	0xbe8563b3	-0.26052627
38	0xbdf5358a	-0.119731024
39	0xbe632d42	-0.22185233
40	0xbd86a181	-0.06573773
41	0x3e894004	0.26806653
42	0x3e221169	0.15826954
43	0x3de42e15	0.11141602
44	0x3ec6b9eb	0.3881372
45	0xbe851f84	-0.26000607
46	0x3dc7eead	0.09762321
47	0x3e1d1831	0.1534126
48	0x3dfd6691	0.123730786
49	0xbe3badd5	-0.1832803
50	0xbc7205ec	-0.01477192
51	0xbea3514b	-0.3189796
52	0xbc4ab451	-0.012372092
53	0xbd5d802b	-0.05407731
54	0xbf3da300	-0.74076843
55	0x3eca6e66	0.39537352
56	0x3eb86f5c	0.3602246
57	0x3d0545d2	0.03253729
58	0xbe857e29	-0.26072815
59	0xbf07e868	-0.53089
60	0xbea5c0a2	-0.3237353
61	0xbed6be5f	-0.41942117
62	0xbc341064	-0.010990236
63	0x3d6aa468	0.057285696
64	0xbd4a1827	-0.04933944
65	0xbe4c588c	-0.19955653
66	0xbdc88911	-0.09791768
67	0x3e2d7d6a	0.16942373
68	0x3d9ae5ff	0.075633995
69	0xbd655427	-0.055988457
70	0x3e64ffbc	0.2236318
71	0xbdcb5db1	-0.099299796
72	0xbe6efb8f	-0.2333815
73	0x3e8962b6	0.26833123
74	0x3d976a83	0.073933624
75	0x3e6bc6b7	0.23025022
76	0x3cee6ca9	0.029104548
77	0xbf083754	-0.53209424
78	0xbe5481e2	-0.20752671
79	0xbdc117a8	-0.0942834
80	0xbd56b6af	-0.052420314
81	0xbdd727ea	-0.1050566
82	0xbdf3789a	-0.11888237
83	0xbd444d20	-0.047925115
84	0xbd1e68d4	-0.03867419
85	0xbee03838	-0.43792892
86	0xbcf991ec	-0.030465089
87	0x3dbaa11f	0.09112763
88	0xbe08f64c	-0.13375205
89	0x3d85d6e2	0.06535126
90	0x3c812547	0.015764846
91	0x3ca1372a	0.019679625
92	0x3e5fe36c	0.21864098
93	0xbf2d885a	-0.6778618
94	0xbde53534	-0.11191788
95	0xbdc008c5	-0.09376673
96	0xbe4491bc	-0.19196218
97	0x3e457cc1	0.19285871
98	0xbe5812fe	-0.21100995
99	0x3e34e8a2	0.17666867
100	0x3cbacb98	0.02280216
101	0xbdd076fe	-0.10178946
102	0x3e7571df	0.2396922
103	0x3daf0fc9	0.08547933
104	0xbc836c7c	-0.01604294
105	0x3de78599	0.113047786
106	0x3e837129	0.25672272
107	0xbd035528	-0.032063633
108	0x3e5a317b	0.21307938
109	0x3d9b8c8f	0.07595169
110	0x3cc9d974	0.024639823
111	0xbda8d836	-0.08244364
112	0xbe23c7ec	-0.15994233
113	0x3d9f0be4	0.0776594
114	0xbb6b897d	-0.0035940104
115	0xbc3937ae	-0.011304779
116	0xbda18b99	-0.07887954
117	0xbe9e88d5	-0.3096377
118	0xbd4fa6db	-0.050696235
119	0xbd671a60	-0.056421638
120	0x3e1e7869	0.1547562
121	0x3d8b5a9b	0.06804391
122	0xbddb6cc4	-0.10714105
123	0x3d82c02b	0.063843094
124	0x3c823134	0.015892603
125	0x3d5c77b9	0.053825114
126	0x3e4f96c3	0.20272355
127	0x3df5011b	0.119631015
128	0xbea3978d	-0.31951562
129	0x3ea2afef	0.31774852
130	0xbd6db64e	-0.058035187
131	0xbcce16d2	-0.025157366
132	0xbe3d8aa3	-0.18509917
133	0x3d9051e8	0.070468724
134	0xbe10201a	-0.14074746
135	0xbde13d1f	-0.10997986
136	0xbef3b862	-0.4760161
137	0x3e85e257	0.26149246
138	0xbe4cfbc1	-0.20017911
139	0xbe80761f	-0.2509012
140	0x3d72aa12	0.059244223
141	0xbea04d34	-0.313089
142	0x3dfe1f83	0.12408354
143	0x3d11ecb7	0.03562614
144	0x3dd80034	0.10546914
145	0xbd34f366	-0.044177435
146	0x3dda0048	0.10644585
147	0xbe90d8ba	-0.2829035
148	0xbdc3c187	-0.09558397
149	0xbe988f83	-0.2979699
150	0x3c1db4ab	0.009625594
151	0xbdffa0ec	-0.12481865
152	0x3b93578b	0.00449652
153	0x3de1f473	0.11032953
154	0xbe9015cf	-0.2814164
155	0x3e08023a	0.132821
156	0x3e3c3065	0.18377836
157	0x3d21a795	0.03946646
158	0xbf0abdde	-0.54195964
159	0x3e880e08	0.26573205
160	0xbd856059	-0.065125175
161	0xbe84ccb2	-0.2593742
162	0xbd710ed0	-0.058852017
163	0xbdaac616	-0.08338563
164	0x3de87218	0.11349887
165	0xbda25848	-0.079269946
166	0x3dd189db	0.10231372
167	0x3d31a450	0.04336959
168	0xbdb8fdf2	-0.09032811
169	0xbe13be29	-0.14428009
170	0x3d3e0786	0.046393894
171	0xbe255702	-0.16146472
172	0x3d25e2e6	0.04049959
173	0x3e1580cf	0.14599918
174	0xbdd268d2	-0.10273899
175	0x3e03e746	0.12881193
176	0xbd844e2b	-0.06460222
177	0x3de55d4b	0.11199435
178	0xbe0dfe0e	-0.13866445
179	0xbdbca185	-0.09210495
180	0x3d14290a	0.03617195
181	0xbe47f873	-0.1952837
182	0x3da95384	0.082678825
183	0xbc5b9e17	-0.013404391
184	0xbd3bcb13	-0.045847964
185	0x3d9ccb3a	0.0765595
186	0x3e406873	0.18789844
187	0x3de654a8	0.11246616
188	0xbea813fd	-0.3282775
189	0x3e207828	0.15670836
190	0x3d1d339f	0.038379308
191	0xbe37ce4d	-0.17949791
192	0x3c738d9d	0.014865306
193	0xbe6e3e8b	-0.23266046
194	0xbf363998	-0.7118163
195	0xbe62f90b	-0.22165315
196	0x3e84e5d9	0.2595661
197	0xbe16c3b0	-0.14723086
198	0xbeb6a06f	-0.35669276
199	0x3e23e47d	0.1600513
200	0xbdc413de	-0.09574102
201	0x3cb6b8a5	0.022304842
202	0x3df29850	0.118454576
203	0xbf06686b	-0.5250308
204	0x3df272ab	0.118382774
205	0xbf32edb3	-0.6989395
206	0x3e156cf7	0.14592348
207	0x3e0fe922	0.14053777
208	0x3d23d33e	0.039996378
209	0xbe215449	-0.15754808
210	0xbe99864d	-0.29985276
211	0xbe1b67f6	-0.15176377
212	0xbde13a56	-0.10997455
213	0x3ea21779	0.31658533
214	0xbddcff8e	-0.10790931
215	0xbf12e985	-0.5738757
216	0x3eabf188	0.3358271
217	0x3d05f1ce	0.032701306
218	0xbe3956c0	-0.18099499
219	0xbed08246	-0.4072439
220	0x3ea1ce2a	0.31602603
221	0xbd3ab5a5	-0.045583386
222	0xbeabb80d	-0.33538857
223	0xbd9326b0	-0.071851134
224	0xbda6141a	-0.08109303
225	0x3e1fc1b5	0.15601237
226	0xbcf22296	-0.029557507
227	0xbdf01077	-0.117218904
228	0xbc6d2f1a	-0.014476562
229	0xbda2a8c0	-0.07942343
230	0xbd1712da	-0.036883213
231	0x3e024d94	0.12724906
232	0xbc0d07e5	-0.008607839
233	0xbe554be5	-0.20829733
234	0x3e9ac520	0.3022852
235	0xbda13817	-0.078720264
236	0xbd67ddda	-0.05660806
237	0xbe144dc9	-0.14482798
238	0x3c679769	0.01413522
239	0x3d1023e6	0.035190485
240	0xbea110a0	-0.31457996
241	0xbd9fba9e	-0.07799266
242	0xbe03bde2	-0.12865403
243	0x3bc45488	0.005991522
244	0x3d83ff2c	0.064451545
245	0x3e0cc192	0.13745716
246	0xbd9cdb1b	-0.076589786
247	0xbda9139b	-0.082556926
248	0x3e5d7121	0.21625187
249	0x3e4721d1	0.19446494
250	0xbd8e7833	-0.0695652
251	0x3e70285e	0.23452899
252	0xbd19b3d0	-0.037525
253	0x3d95392f	0.072862975
254	0xbcc6655f	-0.02421826
255	0x3cdf2058	0.027237102

hidden2.bias f4 [64]
0	0xbd287e9d	-0.041136373
1	0xbd585841	-0.05281854
2	0xbd53d55d	-0.05171715
3	0xbcd658cc	-0.026165389
4	0xbe1324a0	-0.1436944
5	0x3d3fc215	0.04681595
6	0xbe208010	-0.15673852
7	0x3defe006	0.11712651
8	0x3e313a99	0.1730751
9	0xbe653ab3	-0.22385673
10	0xbdbec4d5	-0.093148865
11	0x3e0adc42	0.13560584
12	0x3dd039c2	0.101672664
13	0xbd6f844c	-0.058475778
14	0x3d8f6a40	0.070026875
15	0xbe29f7a3	-0.16598372
16	0x3d003960	0.031304717
17	0x3e1af188	0.151312
18	0x3dcd60bc	0.10028216
19	0xbba5238d	-0.0050396384
20	0x3d9ee0b5	0.07757703
21	0xbcd62454	-0.02614037
22	0xbd924dd5	-0.071437515
23	0x3d1f8693	0.0389467
24	0xbd0bdbb9	-0.03414509
25	0x3e15ada4	0.1461702
26	0x3d49a9a2	0.04923404
27	0x3c7d8503	0.015473607
28	0xbe0838fc	-0.13302988
29	0xbe052de8	-0.13005793
30	0x3da175ef	0.07883822
31	0x3de97b6a	0.114004925
32	0x3e1975d7	0.14986359
33	0xbd901719	-0.070356555
34	0xbe260b5b	-0.1621527
35	0x3c3620a9	0.011116185
36	0x3e214e53	0.15752535
37	0xbcac7c87	-0.021055473
38	0x3d596ef5	0.053084332
39	0x3d60c7ef	0.05487817
40	0xbd4c1987	-0.049829032
41	0x3cfb406f	0.030670373
42	0x3dde5794	0.10856548
43	0xbe59e64e	-0.2127926
44	0xbe07ee68	-0.13274539
45	0xbd4c6460	-0.049900413
46	0xb80652af	-3.2025095e-05
47	0xbca6d4cf	-0.020365147
48	0x3ddb9403	0.1072159
49	0xbe3edbb6	-0.186385
50	0x3d5f15da	0.0544642
51	0xbdca3af7	-0.09874528
52	0x3ccdd61e	0.025126513
53	0x3d184a6a	0.03718034
54	0x3d72c2c3	0.05926777
55	0xbe26d3d6	-0.16291746
56	0xbd283545	-0.041066427
57	0xbced3b67	-0.02895899
58	0x3da2575e	0.0792682
59	0xbdae2d80	-0.08504772
60	0x3db848fe	0.08998297
61	0xbd780b53	-0.060557675
62	0xbe28cde6	-0.16484794
63	0x3d3101d5	0.043214638

hidden3.weight f4 [128, 64]
0	0xbcb66c73	-0.02226851
1	0xbf05149a	-0.5198456
2	0xbd8a35e3	-0.06748559
3	0xbdb3192f	-0.08745038
4	0x3aabaa27	0.0013096974
5	0xbe0e1522	-0.13875249
6	0xbea47d8f	-0.32127044
7	0xbd484de8	-0.048902422
8	0x3e0b2c80	0.13591194
9	0xbe12ca5d	-0.14335008
10	0x3d91b5a6	0.07114725
11	0xbda00a79	-0.078144975
12	0xbd88addf	-0.06673788
13	0x3ca0eca6	0.019644093
14	0x3dededc7	0.11617618
15	0x3c9d55e8	0.019206002
16	0xbc9dbcee	-0.019255128
17	0xbc6ccd4d	-0.014453244
18	0x3dcb043a	0.099129155
19	0xbe325bfe	-0.17417905
20	0x3d5b89a9	0.05359808
21	0xbf2e1ce3	-0.6801283
22	0xbe0ca85d	-0.137361
23	0xbd951a93	-0.07280459
24	0xbf0c0f0d	-0.54710466
25	0xbbd34ee2	-0.0064486125
26	0x3db2e632	0.087353125
27	0xbeec0fb1	-0.46105722
28	0x3bea0a7a	0.007142362
29	0x3de04602	0.10950853
30	0xbe08605d	-0.1331801
31	0xbe144da7	-0.14482747
32	0xbe14ac25	-0.14518793
33	0xbbf6f264	-0.0075362194
34	0x3d32beda	0.04363904
35	0xbe33cb3e	-0.17558
36	0x3ba09825	0.0049009495
37	0x3c145d98	0.009055518
38	0xbe56ce9c	-0.20977253
39	0xbd5a225b	-0.05325542
40	0x3ea62f49	0.3245795
41	0x3dc0ee84	0.09420493
42	0x3d2b6b4b	0.04185037
43	0x3e296e13	0.16545896
44	0xbec5163e	-0.38493532
45	0x3e0c37af	0.13693117
46	0xbcddde23	-0.027083462
47	0xbdb2e8cb	-0.08735808
48	0xbe136d67	-0.14397202
49	0xbd468af1	-0.04847235
50	0xbd7b29a2	-0.061319
51	0xbd397884	-0.04528095
52	0xbe263a7d	-0.16233249
53	0xbc11533e	-0.008869944
54	0xbdadb7e0	-0.08482337
55	0x3d8cab23	0.06868579
56	0xbe381273	-0.17975788
57	0xbdfaed56	-0.122522995
58	0xbde799fe	-0.113086686
59	0xbdebf462	-0.11521222
60	0xbeb7bb3d	-0.3588504
61	0x3c58201c	0.013191249
62	0x3c5c3980	0.013441443
63	0xbd9ad254	-0.07559648
64	0x3d831588	0.06400591
65	0x3d137d2d	0.03600805
66	0xbdd72c78	-0.105065286
67	0xbd9a6b8f	-0.075400464
68	0xbc8140ae	-0.015777912
69	0x3c5c1df1	0.013434873
70	0xbe4949fa	-0.19657126
71	0xbe399b78	-0.18125713
72	0xbc62258a	-0.013802895
73	0xbd8948d7	-0.06703346
74	0xbd440806	-0.047859214
75	0xbe1b195c	-0.15146393
76	0xbdd7aa6e	-0.10530554
77	0xbe1a5d4f	-0.15074657
78	0xbd8f48c5	-0.069963016
79	0xbdea10e0	-0.11429
80	0xbd9bec12	-0.07613386
81	0x3da2a6a4	0.079419404
82	0xbdbab105	-0.09115795
83	0x3dcb0014	0.09912124
84	0xbe363e22	-0.1779714
85	0xba1bd7e4	-0.0005944951
86	0xbc29ad90	-0.010356322
87	0xbe0c4adf	-0.13700436
88	0xbd0db835	-0.0345995
89	0x3dad9b58	0.08476895
90	0xbd8079b7	-0.06273215
91	0x3c94006e	0.018066611
92	0xbd0c19ff	-0.03420448
93	0xbd21e508	-0.03952506
94	0x3cac17f3	0.021007514
95	0x3d9c801b	0.07641622
96	0x3db15afd	0.08659933
97	0x3d555d66	0.052091025
98	0xbde4cfbe	-0.11172436
99	0xbd24cc89	-0.040234122
100	0x3b2abb6b	0.0026051651
101	0xbd69579c	-0.056968316
102	0x3c1ea075	0.009681811
103	0xbd9bb31e	-0.07602523
104	0xbde076ff	-0.10960197
105	0xbdec42a1	-0.11536146
106	0xbde08bdb	-0.10964175
107	0x3d441564	0.047871962
108	0xbdd0e6c6	-0.102002665
109	0xbd211d85	-0.039334793
110	0x3c91100b	0.017707845
111	0x3d2c5d8c	0.0420814
112	0xbe27ea60	-0.16398
113	0x3db099f8	0.08623117
114	0xbdeea981	-0.11653424
115	0xbdc42dec	-0.095790714
116	0x3d019c0b	0.031642955
117	0xbe011863	-0.12606959
118	0x3db9b49e	0.09067653
119	0x3dba638e	0.0910102
120	0xbdf7ca64	-0.1209915
121	0xbce0c8f8	-0.02743958
122	0xbdbe5248	-0.09293038
123	0xbc427620	-0.0118689835
124	0xbd102a38	-0.035196513
125	0xbc716476	-0.014733424
126	0xbda74a80	-0.081685066
127	0xbe164313	-0.14674024
128	0xbe96673d	-0.2937564
129	0x3ea5ff7d	0.32421485
130	0xbcade52a	-0.021227438
131	0xbc374eae	-0.011188192
132	0x3e112243	0.14173226
133	0xbd4e83dd	-0.050418723
134	0x3ea79fa7	0.32738993
135	0xbd06941a	-0.032856084
136	0xbecfd825	-0.40594593
137	0xbe0cc253	-0.13746004
138	0xbcab6eb5	-0.020926813
139	0xbd2f5db5	-0.042813975
140	0xbec6b17c	-0.38807285
141	0xbe50ae6f	-0.20379041
142	0x3e1049c2	0.14090636
143	0xbd91a232	-0.071110144
144	0x3e28fcab	0.16502635
145	0xbeff8954	-0.4990946
146	0xbe76e4ea	-0.24110761
147	0x3deb6016	0.11492936
148	0x3cabbd58	0.02096431
149	0xbf4ab1bd	-0.7917746
150	0x3da2b206	0.079441115
151	0xbe8c4d6f	-0.27402827
152	0x3e03e2b3	0.12879448
153	0xbf886ebf	-1.0658797
154	0xbe42bf41	-0.1901827
155	0x3e7b1078	0.24518001
156	0xbe80d701	-0.25164035
157	0xbdc457db	-0.095870696
158	0x3cd43cbc	0.025907867
159	0x3d05d01a	0.032669164
160	0xbda2bc29	-0.07946045
161	0x3e31458a	0.17311683
162	0xbc654480	-0.013993382
163	0xbdef36b4	-0.11680356
164	0xbfa5ade8	-1.2943697
165	0xbdc82992	-0.09773554
166	0x3c9a4644	0.018832333
167	0xbf3f88eb	-0.74818295
168	0x3c8d8601	0.017275812
169	0xbdc4b6c6	-0.09605174
170	0xbbb485d2	-0.0055091167
171	0xbd927179	-0.071505494
172	0x3eb91fa1	0.36156943
173	0xbcf60a54	-0.030034222
174	0x3e00fea0	0.12597132
175	0xbf329717	-0.69761795
176	0xbdfb5c56	-0.12273471
177	0x3db9fe84	0.09081748
178	0xbdab5a8c	-0.0836688
179	0x3de4babe	0.11168431
180	0xbc1a27b9	-0.009408885
181	0xbbea918b	-0.0071584634
182	0x3dd5ae0e	0.10433589
183	0xbd8b9c5c	-0.068169326
184	0xbe410e60	-0.1885314
185	0xbcf4155b	-0.02979534
186	0xbf432006	-0.7622074
187	0xbbb40340	-0.0054935515
188	0x3d17c6a6	0.03705468
189	0x3e59567d	0.21224399
190	0xbdfb431a	-0.12268658
191	0xbf3ccbda	-0.7374855
192	0x3a86237d	0.0010233965
193	0x3d50ad23	0.050946366
194	0xbdbe354e	-0.09287511
195	0xbeadd873	-0.339542
196	0x3d183edf	0.037169334
197	0x3e63f4d6	0.22261366
198	0xbd657cfa	-0.05602739
199	0xbe37e92a	-0.17960039
200	0xbe31c0bd	-0.1735868
201	0xbd82c21c	-0.0638468
202	0x3ce453bb	0.027871957
203	0x3e1465a0	0.14491892
204	0x3c026664	0.007958982
205	0x3e2a1761	0.16610481
206	0xbe0773cb	-0.13227765
207	0x3dbc31aa	0.0918916
208	0xbdb902ba	-0.09033723
209	0x3c21bf45	0.009872262
210	0x3e069060	0.13141012
211	0xbe9f8231	-0.31154016
212	0x3d337264	0.043810263
213	0x3da8765f	0.082257025
214	0xbd3a4853	-0.04547913
215	0x3e540302	0.20704272
216	0x3e2917df	0.16513012
217	0xbdf3dcc1	-0.1190734
218	0xbe038e9a	-0.12847367
219	0x3cc048fe	0.023472305
220	0x3d4ff368	0.05076924
221	0xbd120a99	-0.035654638
222	0x3d509670	0.05092472
223	0x3bb6c907	0.0055781635
224	0xbc5e11b0	-0.013554022
225	0xbe1217c1	-0.14266874
226	0x3d245982	0.040124424
227	0xbe3f8980	-0.18704796
228	0xbd203dbc	-0.039121374
229	0xbd5323d5	-0.051547844
230	0x3e6ee8f5	0.23331054
231	0x3e3e8f60	0.1860938
232	0x3d5813e0	0.05275333
233	0x3ca9cca2	0.02072746
234	0xbdfd87a8	-0.1237939
235	0x39b14df5	0.00033818153
236	0x3f0d142c	0.55108905
237	0xbd8f91c9	-0.07010228
238	0x3c166a25	0.00918058
239	0x3e23ec1e	0.1600804
240	0xbdd70a80	-0.105000496
241	0xbcd24c42	-0.025671128
242	0x3d2785a2	0.040898927
243	0xbd9a995a	-0.07548781
244	0x3e769773	0.24081211
245	0x3e13ad30	0.14421535
246	0x3dbbd319	0.09171123
247	0x3d523766	0.051322363
248	0xbd969e0a	-0.07354362
249	0x3d9a2b1e	0.07527755
250	0x3da730c3	0.081635974
251	0xbdd727c6	-0.10505633
252	0x3d40ea36	0.04709836
253	0xbcc8206a	-0.024429519
254	0x3b6ac4c0	0.0035822839
255	0xbf2db740	-0.6785774

hidden3.bias f4 [128]
0	0x3de89aea	0.113576725
1	0xbd05a40f	-0.03262716
2	0xba9526bd	-0.0011379343
3	0xbda0417a	-0.07824989
4	0xbd15cfc7	-0.036575105
5	0xbd74a93f	-0.05973172
6	0xbdeb11fd	-0.1147804
7	0xbd5c7994	-0.053826883
8	0xbdc1dad0	-0.09465563
9	0xbdbc9ae9	-0.09209234
10	0x3dd473b0	0.10373628
11	0xbc36c2c4	-0.011154834
12	0xbdea2a31	-0.114338286
13	0x3c09ee63	0.008418652
14	0xbe067053	-0.13128786
15	0xbdea6285	-0.11444572
16	0x3db09fe4	0.08624247
17	0x3e133856	0.14376959
18	0xbdfb9a20	-0.122852564
19	0x3d219816	0.03945168
20	0xbe2baedf	-0.16765927
21	0x3d7f1ddc	0.062284335
22	0xbdedc616	-0.116100475
23	0x3e0ae0db	0.13562338
24	0x3bdade51	0.006679334
25	0x3c69e304	0.014275316
26	0x3cd9bc5d	0.026579076
27	0x3e09424e	0.134042
28	0x3e296314	0.16541702
29	0x3c30f507	0.010800607
30	0xbd89a7dc	-0.0672147
31	0x3c983825	0.01858146
32	0xbd8fc4b6	-0.070199415
33	0xbc02abb8	-0.007975511
34	0xbdb74056	-0.08947818
35	0xbdb27848	-0.08714348
36	0x3db03dca	0.08605535
37	0x3c2b4deb	0.010455589
38	0x3c5053c0	0.01271528
39	0xbe36bda0	-0.17845774
40	0x3d10c009	0.03533939
41	0xbc2790ec	-0.010227423
42	0xbcab4776	-0.020908099
43	0xbd0e46bb	-0.034735423
44	0xbdccb273	-0.09994974
45	0x3c82f165	0.015984247
46	0xbce30d15	-0.027716199
47	0xbd8cb132	-0.06869735
48	0x3e32ee94	0.17473823
49	0xbe21cf5c	-0.15801758
50	0x3d00c016	0.031433187
51	0xbe32a62f	-0.17446207
52	0xbdbe94a8	-0.09305698
53	0x3bbdbca7	0.0057903114
54	0xbd2b3567	-0.041798975
55	0xbc4ab74b	-0.012372802
56	0x3dde2dd1	0.108485825
57	0xbce75c73	-0.028242325
58	0x3db1fabd	0.08690403
59	0x3a3e9549	0.000727017
60	0x3d17a481	0.037022118
61	0x3dda463a	0.10657926
62	0xbda1c302	-0.07898523
63	0x3d65be0e	0.056089453
64	0x3dc3d1da	0.095615104
65	0xbccc10ae	-0.024910297
66	0x3e31e170	0.17371154
67	0xbdf9261c	-0.12165472
68	0xbcbe794a	-0.023251195
69	0xbe1ebf5e	-0.15502688
70	0x3c0e5916	0.008688232
71	0x3dbeef8f	0.09323036
72	0x3da34c4c	0.07973537
73	0x3d25ac46	0.040447496
74	0xbd4b629a	-0.04965458
75	0xbd802ed8	-0.06258935
76	0x3d33f95f	0.04393899
77	0x3dbd128e	0.09232055
78	0x3d2b7848	0.041862756
79	0xbce14de1	-0.027502956
80	0x3e42b211	0.1901324
81	0xbda8f428	-0.08249694
82	0xbd4c7d28	-0.049924046
83	0x3d0aaf9b	0.033858877
84	0x3e07c306	0.1325799
85	0x3d02bf1e	0.031920545
86	0x3dfe08f0	0.124040484
87	0xbd679f85	-0.056548614
88	0x3c52a7c4	0.012857381
89	0xbd4eb712	-0.05046756
90	0x3cd49d2a	0.025953848
91	0x3c70aa8c	0.014689099
92	0xbdec234d	-0.115301706
93	0xbe151552	-0.14558914
94	0xbd0feb3c	-0.035136446
95	0xbdfcac4c	-0.123375505
96	0x3d21ea01	0.039529804
97	0xbdb950ee	-0.09048639
98	0xbda0b52d	-0.078470565
99	0xbd4d067c	-0.050055012
100	0x3e271010	0.16314721
101	0x3e458be2	0.19291642
102	0x3db37166	0.087618634
103	0x3e2f2d67	0.17107163
104	0x3c58120e	0.013187898
105	0x3e36aab8	0.17838562
106	0xbd7cec69	-0.061748896
107	0x3d808039	0.062744565
108	0x3ca1c77e	0.019748446
109	0xbdf25ce4	-0.11834124
110	0xbe49a172	-0.19690493
111	0xbc4c2dc3	-0.012462082
112	0x3d29e826	0.04148116
113	0x3d38eea6	0.045149468
114	0xbdf44e6a	-0.11929019
115	0x3d822a6c	0.063557476
116	0xbe0557f4	-0.13021833
117	0xbce6585e	-0.028118309
118	0xbdde1108	-0.10843092
119	0xbdbd80a6	-0.09253053
120	0xbd139821	-0.036033753
121	0x3cac7e50	0.021056324
122	0xbdd7dc6d	-0.1054009
123	0x3d84444d	0.0645834
124	0x3b3b1e2b	0.0028551917
125	0x3dade879	0.08491606
126	0xbe131396	-0.1436294
127	0xbd05a5ac	-0.0326287

hidden4.weight f4 [256, 128]
0	0xbc4dbe22	-0.012557538
1	0xbda9d74b	-0.08293017
2	0x3cfedaef	0.031110255
3	0xbcfb197f	-0.030651806
4	0x3d67652a	0.056492962
5	0x3d6bf9b4	0.057611182
6	0xbc5c4d1d	-0.01344612
7	0x3d12db81	0.035853866
8	0x3b06b920	0.002055712
9	0x3db09577	0.08622258
10	0xbd20b8d3	-0.039238762
11	0xbda68c48	-0.08132225
12	0xbcb54e8d	-0.022132182
13	0xbdc7e345	-0.09760145
14	0xbd540269	-0.05176011
15	0xbc9f340a	-0.019433994
16	0x3d172a3d	0.036905516
17	0x3d7cca6f	0.061716493
18	0x3d885c6f	0.06658255
19	0x3d349bcb	0.04409389
20	0x3d4b79b7	0.049676623
21	0xbdab01f2	-0.083499804
22	0xbcdd1cf0	-0.026991338
23	0x3c111e7c	0.008857366
24	0xbd0e36f9	-0.034720395
25	0xbc770dc8	-0.015078969
26	0x3d09ff01	0.033690456
27	0xbd1e66ca	-0.038672246
28	0xbcfc743f	-0.03081715
29	0x3d14dafe	0.03634166
30	0x3d9c10a4	0.076203614
31	0xbd4622aa	-0.048372902
32	0xbc3d6668	-0.01156006
33	0xbddfe4a9	-0.10932285
34	0x394b8899	0.00019410475
35	0x3c157620	0.0091224015
36	0x3d493ea2	0.049131997
37	0xbda8f932	-0.08250655
38	0xbd9dc8bf	-0.07704305
39	0x3d8ce051	0.068787225
40	0xbd232a2e	-0.039835148
41	0xbd137e42	-0.03600908
42	0x3d86a1f9	0.065738626
43	0x3d9d352f	0.076761596
44	0xbbb56550	-0.005535759
45	0xbdc03d03	-0.09386637
46	0xbdd13621	-0.102154024
47	0xbdc2cd5d	-0.09511826
48	0xbc7f65bf	-0.015588223
49	0xbd8cc91a	-0.068742946
50	0x3d92cdd7	0.07168167
51	0xbdb2046e	-0.08692251
52	0xbd25a5d6	-0.040441357
53	0x3c6173dd	0.013760534
54	0xbd8c4dde	-0.068507895
55	0x3ccbb6a5	0.024867365
56	0x3c0d1b90	0.008612528
57	0x3d5e2d1d	0.054242242
58	0x3b185d6f	0.002324905
59	0x3d5d1fca	0.053985395
60	0xbdb483f6	-0.08814232
61	0xbd9cc4aa	-0.07654698
62	0x3cf00184	0.029297598
63	0xbd09a2b9	-0.03360245
64	0xbc2df151	-0.010616616
65	0xbd829496	-0.06375997
66	0xbc63eeb5	-0.013911893
67	0x3c311a38	0.010809474
68	0xbdb860b4	-0.0900282
69	0xbb0d3f60	-0.0021552667
70	0x3d17501f	0.036941644
71	0xbdc1b205	-0.09457783
72	0x3b91ad98	0.004445743
73	0x3c0bb4f4	0.008527029
74	0x3d2a3eb8	0.04156372
75	0xbdb79e17	-0.089657
76	0xb84662e9	-4.7298996e-05
77	0x3d96fddc	0.073726386
78	0x3cba8381	0.022767784
79	0xbdb0e5b1	-0.0863756
80	0xbd35a4eb	-0.04434673
81	0xbc318068	-0.010833837
82	0xbc502198	-0.012703322
83	0xbccdd462	-0.025125686
84	0xbd08b503	-0.03337575
85	0x3c31f5d9	0.010861837
86	0xbdcc682e	-0.09980808
87	0xbdd4750f	-0.1037389
88	0xbb2f67a0	-0.0026764646
89	0xbdaa8b43	-0.08327343
90	0x3d9cb1a4	0.0765107
91	0x3cb99793	0.022655284
92	0xbd2016ed	-0.039084364
93	0x3d5c6ef0	0.053816736
94	0xbd225b32	-0.039637752
95	0xba1ed600	-0.000605911
96	0xbdef35e9	-0.116802044
97	0x3b48f4e0	0.0030663535
98	0x3cf2240c	0.029558204
99	0xbd402cfc	-0.0469179
100	0x3d47b1b2	0.048753448
101	0xbc36bcae	-0.011153383
102	0x3bc6d0b7	0.006067361
103	0x3db22e79	0.0870027
104	0xbdbd95f3	-0.09257116
105	0xbd93b570	-0.07212341
106	0x3d888e7b	0.06667801
107	0xbcefd672	-0.02927706
108	0xbdd76dac	-0.10518965
109	0xbcda8c1a	-0.026678134
110	0xbd9103f2	-0.07080831
111	0x3d9ba558	0.07599896
112	0x3a06bc27	0.0005139731
113	0x3d3ba176	0.045808278
114	0x3c5a50d8	0.013324939
115	0xbdc0863b	-0.094006024
116	0xbd9f504b	-0.077789865
117	0xbce58f1f	-0.028022347
118	0x3ce7b078	0.028282389
119	0x3d411a34	0.04714413
120	0xbde8603a	-0.11346479
121	0x3d15aa2b	0.036539238
122	0xbca4894c	-0.020085
123	0x3c08aab8	0.008341484
124	0xbc5c3a75	-0.013441672
125	0xbce5c671	-0.028048726
126	0xbc829f98	-0.01594524
127	0x3d8e66c3	0.06953194
128	0x3c8bafe1	0.017051639
129	0x3d159d70	0.036527097
130	0xbe8da13d	-0.27662078
131	0xbd98a339	-0.07453007
132	0xbd8acc32	-0.067772284
133	0xbd6ba95e	-0.057534568
134	0xbf02836d	-0.5098179
135	0xbefe8c48	-0.497164
136	0xbed0c43c	-0.40774715
137	0x3c6a9ad8	0.014319144
138	0x3dd77e29	0.1052211
139	0xbd9a0f80	-0.07522488
140	0xbee14924	-0.44001114
141	0x3d075167	0.033036616
142	0x3c003ac9	0.0078265155
143	0xbe802444	-0.25027668
144	0xbd63aaaf	-0.0555827
145	0x3d7927b9	0.060828898
146	0xbd41a2ba	-0.04727433
147	0xbdd81a0a	-0.105518416
148	0xbe8dd3a5	-0.27700534
149	0xbdd9031e	-0.10596298
150	0x3d69693e	0.056985132
151	0xbce21128	-0.027596071
152	0xbc63fab9	-0.013914757
153	0xbd3850f0	-0.044999063
154	0xbda2a9a2	-0.07942511
155	0x3d2fef55	0.042952854
156	0xbd76db76	-0.060267888
157	0xbd1c7fdc	-0.038207874
158	0xbb7838d8	-0.0037875678
159	0x3dfd1a30	0.123585105
160	0xbbeea770	-0.0072831437
161	0x3e0d5eff	0.1380577
162	0xbe07bf3b	-0.13256542
163	0xbd49e568	-0.049291044
164	0x3e17b8c7	0.1481658
165	0x3db3c465	0.08777694
166	0xbf14194c	-0.578511
167	0x3dba9011	0.0910951
168	0xbd043bd2	-0.03228361
169	0xbd09b4ea	-0.0336198
170	0x3d577f5e	0.0526117
171	0xbcf9aee0	-0.030478895
172	0xbdacdb3d	-0.08440254
173	0x3e806d20	0.25083256
174	0x3cb34706	0.021884453
175	0x3c6f2fc1	0.014598788
176	0x3ce36c48	0.027761593
177	0x3c22c8da	0.009935582
178	0xbe1b2b75	-0.15153296
179	0xbfb1dd74	-1.3895707
180	0xbd6c9d67	-0.057767298
181	0x3d3e48e9	0.04645625
182	0x3dfed55a	0.12443037
183	0xbdf5ec3a	-0.12007947
184	0x3d20b004	0.03923036
185	0xbd76875c	-0.060187683
186	0x3d6b5e4d	0.05746298
187	0xbd654761	-0.055976275
188	0xbc99235d	-0.01869362
189	0x3e0d7dac	0.13817471
190	0x3e6823d2	0.22669914
191	0xbf8e886d	-1.1135384
192	0xbcf27ac3	-0.029599553
193	0xbd8c2ce2	-0.06844498
194	0xbd3d8e0f	-0.046278056
195	0xbc1f469d	-0.009721425
196	0xbdaefa46	-0.085438296
197	0xbc9aec90	-0.01891163
198	0xbe19c6c7	-0.15017234
199	0xbe1bbe2a	-0.1520926
200	0xbd4aeeaf	-0.049544033
201	0xb8164ad4	-3.5832476e-05
202	0x3c96d917	0.018414063
203	0x3d589ec0	0.05288577
204	0x3cee9a4a	0.029126305
205	0xbd9c0fb5	-0.076201834
206	0x3dfd621c	0.123722285
207	0x3db2c1d9	0.0872838
208	0x3dd39f33	0.10333099
209	0x3d5e2332	0.054232784
210	0xbd98e65a	-0.07465811
211	0xbb33b52e	-0.0027421224
212	0xbd820ed9	-0.06350488
213	0xbdcb0ec0	-0.09914923
214	0x3e278380	0.16358757
215	0xbe181a4d	-0.14853783
216	0x3d6898d6	0.05678638
217	0x3d573e7a	0.052549817
218	0xbccdc0b0	-0.025116295
219	0x3d45b19e	0.048265092
220	0x3d6ce143	0.057832014
221	0xbce0c982	-0.027439836
222	0xbda9a9e4	-0.08284357
223	0x3ca31910	0.019909412
224	0x3b3b62b4	0.0028592767
225	0x3cb29480	0.021799326
226	0xbb0da500	-0.002161324
227	0x3d3c9a3a	0.04604552
228	0xbbef2dbb	-0.0072991527
229	0x3e2013a0	0.15632486
230	0xbdd7d7bb	-0.10539194
231	0x3d64e036	0.055877887
232	0x3d82dd46	0.06389861
233	0x3e1812b0	0.14850879
234	0x3bc61127	0.006044525
235	0x3da0904b	0.07840022
236	0x3d561b14	0.052271917
237	0xbd9cf75f	-0.0766437
238	0xbdbeb817	-0.09312456
239	0x3cec555f	0.028849302
240	0x3d74f66e	0.059805326
241	0x3cf11109	0.029427068
242	0x3d523ab1	0.051325504
243	0x3c7219e3	0.01477668
244	0x3d2d3790	0.042289317
245	0x3d2b46a6	0.041815422
246	0xbd1469d2	-0.03623373
247	0xbd7437a9	-0.059623394
248	0x3daac2d0	0.08337939
249	0xbbdd2d38	-0.0067497753
250	0xbdb6e115	-0.0892965
251	0xbd3ac545	-0.045598287
252	0xbc771494	-0.01508059
253	0x3b9503c6	0.004547569
254	0x3ba6def0	0.005092494
255	0x3d990ca0	0.07473111

hidden4.bias f4 [256]
0	0xbddeaa37	-0.1087231
1	0x3e0848ad	0.13308974
2	0xbe9bb15b	-0.3040875
3	0x3db2d9a2	0.087329164
4	0xbdb1a0c1	-0.086732395
5	0x3debed0c	0.115198225
6	0x3e40ea49	0.18839373
7	0x3e5e1a01	0.21689607
8	0xbcb94852	-0.022617493
9	0xbda787ab	-0.081801735
10	0x3d4b5329	0.049639855
11	0x3b5a54df	0.0033314747
12	0x3d884c1e	0.06655143
13	0x3cb0bb18	0.021573588
14	0x3d893f6c	0.0670155
15	0x3b8c1345	0.004274758
16	0x3cb963de	0.022630628
17	0xbd8fbd75	-0.07018558
18	0x3cf58aa2	0.029973332
19	0xbd8bcd1a	-0.068262294
20	0x3d54dc9e	0.05196821
21	0x3c8cfa0a	0.017209072
22	0xbe762738	-0.24038398
23	0x3d3bf817	0.045890894
24	0x3e028860	0.12747335
25	0xbdc2b787	-0.09507661
26	0xbcefc529	-0.029268818
27	0x3d0245b0	0.03180474
28	0x3c09a5f6	0.008401385
29	0xbe6e6fad	-0.23284788
30	0xbdc3860e	-0.09547053
31	0x3bc76051	0.00608448
32	0x3d8cf14f	0.068819635
33	0xbdb9e723	-0.09077289
34	0x3e148f2c	0.1450774
35	0x3e017887	0.12643634
36	0x3e2c4999	0.1682495
37	0x3dfb13b9	0.12259621
38	0xbcd774b5	-0.026300767
39	0x3e41457c	0.18874162
40	0xbdca764f	-0.09885847
41	0x3c2f4c38	0.010699324
42	0x3c1c30d8	0.00953313
43	0xbc83592c	-0.016033731
44	0xbd767543	-0.060170423
45	0xbdf90bac	-0.12160429
46	0x3d400bae	0.04688614
47	0xbd1bfcbb	-0.03808282
48	0x3daa26e2	0.083081976
49	0xbca203bb	-0.01977717
50	0x3c872c31	0.016500564
51	0xbda11c18	-0.078666866
52	0x3ddcc032	0.10778846
53	0xbdfa05be	-0.122081265
54	0x3d8ba4e4	0.0681856
55	0x3df768f5	0.12080566
56	0xbdc4b6eb	-0.09605201
57	0x3e679b46	0.22617826
58	0xbd8aa356	-0.06769435
59	0x3e1ac62f	0.15114664
60	0x3c96fed8	0.018432066
61	0xbd0ed484	-0.03487064
62	0xbb49ffa3	-0.0030822537
63	0x3d9f1093	0.07766833
64	0xbda68ff7	-0.08132928
65	0x3e103a06	0.14084634
66	0x3c3d8678	0.011567704
67	0x3e1527bc	0.14565939
68	0xbda1453f	-0.07874536
69	0x3d695dd7	0.05697426
70	0xbdf5bc98	-0.11998862
71	0xbd801b40	-0.062551975
72	0xbb151373	-0.0022747188
73	0xbdb92c75	-0.09041683
74	0xbd6a99d5	-0.057275612
75	0xbdb718f0	-0.08940303
76	0xbe13aee8	-0.1442219
77	0x3e09efeb	0.13470428
78	0x3d9213ba	0.07132669
79	0xbc399f32	-0.011329459
80	0x3dbd849e	0.0925381
81	0x3e505bc4	0.20347506
82	0x3e1e6e10	0.15471673
83	0x3e0faa12	0.1402972
84	0x3b16e0db	0.0023022208
85	0x3afef237	0.0019450848
86	0xbdbce3a1	-0.09223104
87	0xbdbf5fb1	-0.093444236
88	0x3d7f4af5	0.062327344
89	0xbdac02ab	-0.083989464
90	0x3e3949c9	0.18094553
91	0x3d397ced	0.045285154
92	0xbc9f53c2	-0.019449119
93	0x3d310e03	0.043226253
94	0xbd9c1a0b	-0.07622155
95	0x3aa03ae2	0.001222458
96	0xbc5da6aa	-0.013528505
97	0x3d9f47b4	0.07777348
98	0xbd20fc37	-0.03930303
99	0xbcb5e792	-0.022205148
100	0x3da0e252	0.07855667
101	0x3e2549c8	0.16141427
102	0xbe0ee747	-0.13955413
103	0xbd3ed9ee	-0.046594553
104	0x3dc4ef1f	0.09615921
105	0xbdd7592a	-0.105150536
106	0x3e02e948	0.12784302
107	0x3d049912	0.03237254
108	0xbdd9cde6	-0.10634975
109	0xbdb039d6	-0.08604781
110	0x3e5115ba	0.20418444
111	0xbd45349e	-0.048145883
112	0x3e66bdcc	0.2253334
113	0xbcb89b47	-0.02253498
114	0xbd9f0a1d	-0.07765601
115	0xbddfad25	-0.109216966
116	0xbd068ccb	-0.032849114
117	0xbd314479	-0.04327819
118	0x3d6e3bd0	0.05816251
119	0xbddf80a9	-0.10913212
120	0xbd558378	-0.05212733
121	0xbda01dec	-0.07818207
122	0x3d92cd7d	0.071681
123	0x3c8b4f18	0.017005488
124	0xbb84af21	-0.0040491973
125	0xbd272d32	-0.040814586
126	0xbcf12fed	-0.029441798
127	0xbd2a0d4b	-0.041516583
128	0x3d7b59d0	0.06136495
129	0x3b9c05e6	0.0047614453
130	0x3e468f01	0.19390489
131	0xbd48b635	-0.04900189
132	0xbd50fff9	-0.051025365
133	0xbc2e3147	-0.010631866
134	0xbca35b3c	-0.019940965
135	0x3ce34513	0.027742898
136	0xbbc78c40	-0.006089717
137	0x3c0a1ba1	0.008429439
138	0xbd7f7aa1	-0.062372807
139	0x3db78a97	0.08961981
140	0x3d12faee	0.035883836
141	0xbe024452	-0.12721375
142	0xbd9688e0	-0.073503256
143	0x3e5f1502	0.21785358
144	0x3de00d1e	0.10940002
145	0x3d88c404	0.06678012
146	0xbb804588	-0.003914539
147	0x3d3b2a05	0.04569437
148	0x3bc5dd75	0.0060383626
149	0xbdc82019	-0.09771747
150	0x3beba268	0.007190991
151	0xbdaf2da6	-0.085536286
152	0xbd5145c9	-0.051091943
153	0xbe6bcdeb	-0.2302777
154	0x3d6c4b2e	0.057688884
155	0x3bc0d170	0.005884342
156	0x3e33e61e	0.17568251
157	0xbdb13216	-0.08652131
158	0x3ac94c86	0.0015357889
159	0x3b7fada1	0.0039013403
160	0xba8b7365	-0.0010639249
161	0xbd645950	-0.055749238
162	0x3d6ca135	0.057770927
163	0xbcd12ca8	-0.02553399
164	0xbe49cde3	-0.19707446
165	0x3ddf80e5	0.109132566
166	0xbdb7b6cc	-0.089704126
167	0xbd13c9d6	-0.036081158
168	0x3ce67047	0.02812971
169	0xbd8ec32f	-0.06970822
170	0x3e67cba9	0.22636284
171	0xbdcae69a	-0.09907265
172	0x3d10923e	0.035295717
173	0xbdf6dc0d	-0.1205369
174	0xbd525c61	-0.05135763
175	0x3d33841f	0.043827172
176	0x3d0eeda9	0.03489462
177	0x3d63e489	0.05563787
178	0xbdcd503b	-0.10025068
179	0xbd9e8fde	-0.07742284
180	0x3c51ef97	0.01281347
181	0x3bb539ef	0.005530588
182	0xbcb346f7	-0.021884425
183	0xbd94bb53	-0.07262292
184	0x3e0d4108	0.13794339
185	0xbd85d570	-0.065348506
186	0x3e4bb383	0.19892697
187	0xbd5d32ea	-0.054003634
188	0xba904e99	-0.0011009752
189	0xbd946e85	-0.072476424
190	0x3d873cd8	0.06603402
191	0xbc139d7c	-0.009009715
192	0xbd4e7749	-0.050406728
193	0xbdc9e836	-0.09858744
194	0xbd7fcc41	-0.06245065
195	0xbdc8ffe5	-0.09814433
196	0x3cce4e6d	0.02518388
197	0xbd85e3c4	-0.065375835
198	0xbd0eaeaa	-0.03483454
199	0xbda30954	-0.079607636
200	0xbd366362	-0.044528373
201	0xbc85c9d3	-0.016331589
202	0xbda09505	-0.07840923
203	0x3e49f883	0.19723706
204	0xbd87000b	-0.06591805
205	0xbda509df	-0.080585234
206	0xbd9fb7f4	-0.07798758
207	0x3cfac0f6	0.03060959
208	0x3c8b511a	0.017006446
209	0xbe4c88f9	-0.19974126
210	0xbe93050d	-0.2871479
211	0x3e271c3c	0.16319364
212	0x3cf98e0f	0.030463247
213	0xbc7458b9	-0.014913731
214	0xbcc26012	-0.02372745
215	0xbd3174a4	-0.043324128
216	0x3cfb9c9e	0.03071433
217	0x3df8bf2b	0.121458374
218	0xbd77cc52	-0.06049759
219	0x3d339310	0.04384142
220	0xbd6c2bfb	-0.05765913
221	0xbda44c8e	-0.08022414
222	0x3d4f2a4b	0.050577443
223	0xbdf4f317	-0.11960428
224	0x3de2bdab	0.110713325
225	0x3d9ce433	0.07660713
226	0xbdb4aeee	-0.08822428
227	0xbda6d6f0	-0.08146465
228	0x3d356428	0.04428497
229	0xbdbf980b	-0.09355172
230	0xbd6b4b1d	-0.05744468
231	0xbd3bfc33	-0.045894813
232	0x3d2b7ee2	0.04186905
233	0x3c9cfe3f	0.019164203
234	0xbbad3afd	-0.005286573
235	0x3afecfde	0.0019440611
236	0xbd9eec8d	-0.07759962
237	0xbd79abf1	-0.06095499
238	0xbd52a651	-0.051428143
239	0xbdbab1f6	-0.091159746
240	0xbdbaece3	-0.09127214
241	0x3d1f7e34	0.038938716
242	0xbd2cbb5b	-0.042170864
243	0x3c1a8d94	0.009433169
244	0xbd9c1b8c	-0.07622442
245	0xbdcb70c5	-0.099336185
246	0xbdb3f911	-0.0878774
247	0x3cfc5fe6	0.030807447
248	0xbdb88d8f	-0.09011375
249	0xbd1a3216	-0.037645422
250	0xbbb198cf	-0.0054198275
251	0xbd4989b2	-0.049203582
252	0xbd237da9	-0.03991476
253	0x3cb56a44	0.022145398
254	0x3e12bad3	0.1432908
255	0x3d57cb83	0.05268432

output.weight f4 [6, 256]
0	0xbc003e0b	-0.007827292
1	0xbc293a02	-0.010328772
2	0xbdfa66b2	-0.12226619
3	0x3c6abad0	0.014326766
4	0xbc59b8bb	-0.013288672
5	0xbd1d3757	-0.038382854
6	0x3e20cc2b	0.15702884
7	0xbd069709	-0.032858882
8	0x3d5a3af7	0.05327889
9	0xbd1f86f4	-0.03894706
10	0x3c6767e3	0.01412389
11	0xbd0e494d	-0.034737874
12	0x3c1a83e9	0.009430864
13	0x3b141fa1	0.002260186
14	0x3c5c6fb2	0.013454365
15	0xbc3a6ff3	-0.01137923
16	0x3cc6b54c	0.024256371
17	0xbc91d748	-0.01780285
18	0xbbe3c03b	-0.006950406
19	0x3d537978	0.051629514
20	0x3b312532	0.0027030227
21	0x3cf58ab1	0.02997336
22	0x3decc750	0.11561453
23	0x3bda5320	0.0066627413
24	0x3e21fa8e	0.15818235
25	0xbd994a19	-0.07484836
26	0xbd19cc5d	-0.03754841
27	0xbbf665d2	-0.007519462
28	0xbd32e918	-0.043679327
29	0x3deb2124	0.114809304
30	0x3c152791	0.009103672
31	0xbb59b53a	-0.0033219592
32	0x3c882281	0.016618015
33	0xbc48e9d2	-0.012262778
34	0xbd253605	-0.04033472
35	0xbd3d02c9	-0.046145234
36	0xba2013c5	-0.00061064615
37	0xbb3f8738	-0.0029224884
38	0x3d9bc623	0.07606151
39	0xbe5818e8	-0.21103251
40	0xbd088dbf	-0.033338305
41	0xbd99523a	-0.074863866
42	0xbb7bba38	-0.0038410556
43	0x399ac82d	0.00029522312
44	0x3d2231ad	0.039598156
45	0xbe2c8a71	-0.16849686
46	0xbb22e5a7	-0.0024856122
47	0x3cd1d70f	0.025615243
48	0x3b4b71a7	0.0031043084
49	0x3bdf3983	0.006812276
50	0xbd44bdd2	-0.04803259
51	0x3d4e29bb	0.050332766
52	0x3dc41007	0.095733695
53	0x3798e57f	1.822668e-05
54	0x3c1e2f5f	0.009654849
55	0x3da727ec	0.08161911
56	0xbc6a2fe6	-0.014293646
57	0x3e302d95	0.17204888
58	0x3d8ef0ff	0.0697956
59	0x3cc67359	0.024224924
60	0x3cfab90b	0.030605813
61	0xbc3e1382	-0.011601331
62	0xbc5f3a32	-0.013624715
63	0xbc58d76f	-0.013234957
64	0xbc872a57	-0.016499681
65	0x3e073453	0.13203554
66	0x3cab0784	0.020877607
67	0xbe45e0f5	-0.19324096
68	0xbbdc5089	-0.0067234677
69	0xbca93755	-0.020656267
70	0xbc34a545	-0.011025731
71	0x3bcafed7	0.00619493
72	0x3bb699fb	0.005572555
73	0x3d236eb0	0.03990048
74	0xbcc6aba0	-0.024251759
75	0x3d4516bc	0.048117384
76	0x3e8171c1	0.252821
77	0xbd8b7353	-0.06809106
78	0x3d9c0d36	0.07619707
79	0xbbaca5fb	-0.00526881
80	0x3dccbc4e	0.09996854
81	0x3c84ee06	0.01622678
82	0xbe290033	-0.16503982
83	0xbcc66d18	-0.024221942
84	0xbbdd4027	-0.0067520323
85	0xbd0507c3	-0.032478105
86	0xbd0afe8e	-0.03393417
87	0xbd3c3e0a	-0.045957603
88	0xbbcbed92	-0.006223389
89	0x3c288d5c	0.010287609
90	0xbe25fd2a	-0.16209856
91	0xbd20d881	-0.039268974
92	0x3c7b7407	0.015347487
93	0x3d8d68d8	0.06904763
94	0x3cbbf4de	0.02294391
95	0x3d028c83	0.031872284
96	0xbd230140	-0.039796114
97	0xbeb14cda	-0.34628946
98	0x3d298c43	0.04139353
99	0xbd56f49f	-0.052479383
100	0xbd8afd8a	-0.0678664
101	0xbd6278a9	-0.05529085
102	0xbe10cc72	-0.1414049
103	0x3c530cb1	0.012881444
104	0xbc9fd6cd	-0.019511605
105	0xbd881e39	-0.066463895
106	0x3d0cdebd	0.034392107
107	0x3d32fad2	0.043696232
108	0xbc65e645	-0.014031951
109	0xbccd3017	-0.025047345
110	0xbd32c1fd	-0.043642033
111	0xbd253264	-0.04033126
112	0xbd50574b	-0.0508645
113	0x3d7cf12b	0.061753433
114	0xbb8e72e0	-0.0043471903
115	0xbc9f30c2	-0.01943243
116	0x3d3c0a99	0.045908544
117	0x3d58e27e	0.052950375
118	0xbd3601da	-0.04443536
119	0xbb729b66	-0.0037018894
120	0x3d5167cc	0.05112438
121	0x3d56550a	0.052327193
122	0xbdcaca47	-0.099018626
123	0x3c9b2b9f	0.018941699
124	0xbdcd936f	-0.10037886
125	0xbd5e394a	-0.054253854
126	0xbc6ddeff	-0.014518498
127	0x3d3e291c	0.046425924
128	0x3a624cf5	0.00086326833
129	0x3cd49d68	0.025953963
130	0xbd8d0161	-0.06885029
131	0x3d5d6851	0.054054562
132	0xbd58000c	-0.05273442
133	0x3cef9d64	0.029249854
134	0x3d78b91e	0.060723417
135	0xbc6c408b	-0.014419685
136	0xbcbc11f6	-0.022957783
137	0xbd93567e	-0.071942315
138	0x3cc17493	0.023615157
139	0xbdbb5de6	-0.09148769
140	0x3c2b6f39	0.010463529
141	0xbc60ea4a	-0.013727734
142	0x3d756d3e	0.059918635
143	0x3c092f68	0.008373119
144	0xbce35070	-0.027748317
145	0xbca9ec74	-0.020742632
146	0x3d47efbe	0.04881262
147	0x3d02b63d	0.031912077
148	0x3d09b720	0.033621907
149	0xbcb4026e	-0.021973815
150	0xb8785be2	-5.921338e-05
151	0x3c3ddd2d	0.011588377
152	0x3c709779	0.014684551
153	0xbb33cf6d	-0.0027436868
154	0xbbd0d40a	-0.0063729333
155	0xbce02470	-0.027361125
156	0xbe0dd742	-0.13851646
157	0xbd6cb9bb	-0.057794314
158	0xbcb015e9	-0.021494823
159	0x3ce2432b	0.027619919
160	0xbca7f454	-0.020502247
161	0xbc571bcc	-0.013129186
162	0xbceaa3f0	-0.028642625
163	0x3bea6dab	0.0071541867
164	0xbcbf99b5	-0.023388723
165	0xbdffacf9	-0.12484164
166	0x3c440434	0.011963893
167	0x3cf1c1ee	0.029511418
168	0x3bc3c502	0.005974413
169	0x3d3317d2	0.04372389
170	0xbd852adc	-0.065023154
171	0xbcd9f4a4	-0.026605912
172	0x3d944840	0.07240343
173	0xbd498130	-0.04919547
174	0xbbb6ac67	-0.005574751
175	0xbc6db527	-0.014508522
176	0x3cd1a8b7	0.025593145
177	0xbd68c76c	-0.05683081
178	0x3d7cc138	0.061707705
179	0x3d87de25	0.066341676
180	0xbe773d0a	-0.24144378
181	0x3d504f48	0.05085686
182	0x3c74f7ca	0.014951656
183	0xbd11dce7	-0.03561106
184	0xbd5029a6	-0.05082097
185	0xbc1580c3	-0.0091249375
186	0xbe3ff3cd	-0.18745346
187	0x3c08f418	0.008358978
188	0x3c9479d7	0.018124504
189	0xbddeb33e	-0.108740315
190	0x3e27c0b4	0.16382104
191	0x3cd46f9e	0.02593213
192	0xbcfc28b6	-0.030781131
193	0xbd29bdf8	-0.041440934
194	0x3c6c8f1b	0.014438416
195	0x3bce7645	0.00630072
196	0x3c2bdb99	0.010489368
197	0xbb0021b3	-0.0019551336
198	0xba8c9cda	-0.0010727898
199	0x3d9b87f7	0.075942926
200	0xbcbd15eb	-0.02308174
201	0xbd33b133	-0.043870162
202	0xbc81b11e	-0.015831526
203	0xbc29ce2e	-0.0103640985
204	0xbc18a53c	-0.009316739
205	0x3d01e400	0.03171158
206	0x3cf0a2ca	0.029374499
207	0xbd124898	-0.035713762
208	0x3c1d7723	0.009610924
209	0x3e35f546	0.17769346
210	0x3dc0e1fe	0.094181046
211	0xbc8f4e17	-0.01749329
212	0xbc8e088b	-0.017338058
213	0xbd235861	-0.039879207
214	0x3ddb8757	0.107191734
215	0xbcaa279f	-0.020770846
216	0x3bf96599	0.0076109883
217	0xbe083f91	-0.13305499
218	0x3ce08055	0.027404943
219	0xbc5ab1a3	-0.013348016
220	0x3d165dd0	0.03671056
221	0xbe1158b9	-0.14194001
222	0xbcf8ffa3	-0.030395335
223	0xbbe42d9c	-0.006963445
224	0x3ac0aa06	0.0014699108
225	0xba4fe2fe	-0.0007930248
226	0xbd72478c	-0.059150264
227	0xbc72fe54	-0.014831144
228	0x3e0fec1c	0.14054912
229	0x3d142528	0.036168247
230	0xbccec19b	-0.025238803
231	0x3c8bccea	0.017065484
232	0xbc977244	-0.018487103
233	0xbc6f9245	-0.014622276
234	0xbd430edd	-0.047621597
235	0x3b77088a	0.0037694299
236	0x3c5d6b29	0.0135143185
237	0xbbfe6f8e	-0.007764763
238	0xbca0d142	-0.019631032
239	0xbb396b67	-0.0028292777
240	0x3cfb2fa6	0.030662369
241	0xba24896e	-0.0006276582
242	0xbd8d3554	-0.06894937
243	0xbc966899	-0.018360423
244	0xbd336a34	-0.043802455
245	0x3d2436f0	0.040091455
246	0xbd112c3e	-0.035442583
247	0xbda0514d	-0.07828007
248	0x3d7615fe	0.060079567
249	0x3ddad7dc	0.10685703
250	0x3b131d89	0.0022448024
251	0xbba3f266	-0.0050032614
252	0xbadcf3f3	-0.001685737
253	0x3cc51c7e	0.024061438
254	0x3cee2a47	0.029072894
255	0x3e25a2fe	0.16175458

output.bias f4 [6]
0	0x3cb34319	0.02188258
1	0xbe7789b5	-0.24173625
2	0x3da1e43d	0.07904861
3	0xbe66ca33	-0.2253807
4	0x3d367afa	0.044550873
5	0xbd979667	-0.07401734
