models/MagneticPendulum/measure_x1_N4/model_state_dict.pth (torch, 48236 bytes, 8 tensors)

hidden1.weight f4 [32, 4]
0	0x3e586c0c	0.21134967
1	0xbec2ef81	-0.38073352
2	0xbd7ec7fa	-0.06220243
3	0x3d4c3547	0.049855497
4	0xbed713f5	-0.42007414
5	0x3edf92a6	0.4366657
6	0xbeb46e09	-0.352402
7	0x3eeddd96	0.4645812
8	0x3d8e5a78	0.06950849
9	0xbd7ac400	-0.061222076
10	0x3e0e0240	0.13868046
11	0x3cca1020	0.024665892
12	0x3ef605c2	0.48051268
13	0xbeb2bce6	-0.34909743
14	0xbe2d67ee	-0.16934177
15	0xbca362b5	-0.019944528
16	0x3e9aec5b	0.3025845
17	0x3e0c0031	0.13671948
18	0x3f095f8c	0.5366142
19	0xb9904537	-0.0002751739
20	0xbe1d5c3f	-0.1536722
21	0xbf640cc9	-0.8908201
22	0xbea5990c	-0.32343328
23	0xbfb012d4	-1.3755746
24	0xbdc6aa69	-0.09700472
25	0xbd92e064	-0.07171705
26	0x3e21ed0c	0.15813082
27	0x3e12f946	0.14352903
28	0xbec9b0a7	-0.39392588
29	0x3f647d69	0.8925386
30	0xbe281aba	-0.16416445
31	0x3f877478	1.0582418
32	0x3f5a0205	0.8515933
33	0xbf02bc9c	-0.51069045
34	0xbec66b32	-0.3875366
35	0xbeaccca2	-0.33749872
36	0x3edcf9e0	0.4315939
37	0xbe852293	-0.2600294
38	0x3f48c69b	0.7842805
39	0xbf4cf340	-0.8005867
40	0x3f758eca	0.95921004
41	0xbe9bc0ea	-0.3042062
42	0x3f2e5a8d	0.6810692
43	0x3c01cc3c	0.007922228
44	0xbe86dd82	-0.26340872
45	0x3e83967a	0.25700742
46	0xbe87e3d4	-0.26541007
47	0x3e1694e4	0.14705235
48	0xbf317980	-0.6932602
49	0x3e4835ed	0.19551821
50	0xbfc6bf77	-1.552718
51	0xbdc5b1f2	-0.09653081
52	0x3f2f09c5	0.6837428
53	0xbec9bbed	-0.39401188
54	0x3fb9fc90	1.4530201
55	0x3e04ce3a	0.12969294
56	0xbe7baab1	-0.24576832
57	0xbf534645	-0.825291
58	0x3f8b61d7	1.0889233
59	0x3f5b51ec	0.8567188
60	0xbf0f3226	-0.55935895
61	0x3f9083ef	1.1290263
62	0x3f2035d9	0.62582165
63	0x3f581035	0.8439973
64	0xbe1b56b6	-0.15169796
65	0xbe5e2430	-0.21693492
66	0x3c647ebb	0.0139462305
67	0x3edf4675	0.43608442
68	0xbf7adec0	-0.9799614
69	0xbf2d53c6	-0.67705953
70	0x3e81f878	0.2538488
71	0xbf05ced7	-0.5226874
72	0x3f03d650	0.5149889
73	0x3ea02b2a	0.31282932
74	0x3f0f481a	0.55969393
75	0x3f14672a	0.57969916
76	0x3e6182fd	0.22022624
77	0x3f2b4278	0.668983
78	0xbf7be8da	-0.9840218
79	0x3f6e1608	0.93002367
80	0xbe859ea6	-0.26097602
81	0xbf27a09b	-0.6547944
82	0xbe1e4891	-0.1545737
83	0xbf302cee	-0.6881856
84	0x3dcccdf1	0.10000218
85	0xbef7a3a5	-0.48367038
86	0xbf534264	-0.8252318
87	0x3d411207	0.047136333
88	0xbda023e3	-0.07819345
89	0x3f5b30bc	0.8562124
90	0x3f7dfcbb	0.9921376
91	0xbf8ee334	-1.1163087
92	0xbcbdbcaf	-0.02316126
93	0xbc598640	-0.013276637
94	0xbf24182a	-0.6409937
95	0xbf5b896e	-0.85756576
96	0x3e0eb7b2	0.13937262
97	0x3e89d4b9	0.26920107
98	0xbfc91bb0	-1.5711575
99	0xbf5fcd8b	-0.8742301
100	0x3fc6fac3	1.5545276
101	0xbc09b307	-0.0084045
102	0x3f5ee9a2	0.87075245
103	0x3cbf20ac	0.023331009
104	0xbf11c3bb	-0.56939286
105	0xbf6e05cb	-0.9297759
106	0x3f690cb7	0.91035026
107	0xbcc1fc6d	-0.023679936
108	0x3f64892d	0.89271814
109	0x3e91a0af	0.28442904
110	0xbbdf1a63	-0.0068085655
111	0x3f65073a	0.8946415
112	0x3f423ee2	0.758772
113	0xbf335ea1	-0.7006627
114	0x3df7fc26	0.121086404
115	0x3ee04ebb	0.43810067
116	0x3f2e3ef5	0.68064815
117	0x3f37c95e	0.71791637
118	0xbf1bc3db	-0.60845727
119	0xbf94d5f1	-1.162779
120	0xbdfb7156	-0.122774765
121	0x3d895449	0.06705529
122	0x3ece9d6b	0.40354475
123	0xbf6d16d6	-0.9261297
124	0x3da618fc	0.08110234
125	0xbf8ce24c	-1.100656
126	0xbfcd5a8f	-1.6043261
127	0x3e40793e	0.1879625

hidden1.bias f4 [32]
0	0x3e33092b	0.17483966
1	0x3e7b5495	0.24543984
2	0xbe9efc66	-0.3105194
3	0x3e5f63c6	0.21815404
4	0x3e4b3161	0.19843055
5	0x3e2374b4	0.15962487
6	0x3d846331	0.06464232
7	0x3e93749f	0.28799912
8	0x3ecad793	0.39617595
9	0x3e3f48bd	0.18680091
10	0xbef1b06e	-0.47204918
11	0xbed6fa6a	-0.41987926
12	0x3c4a615e	0.012352316
13	0xbdd063d5	-0.101752914
14	0xbe605626	-0.21907863
15	0xbb840df1	-0.0040299823
16	0x3e2be1e8	0.16785395
17	0xbe9c9205	-0.30580154
18	0x3e7292de	0.23688838
19	0x3eb5488e	0.35406917
20	0x3e1cfb06	0.15330133
21	0x3ec5cf5b	0.38634762
22	0xbe2a8d9c	-0.16655582
23	0x3e964c7b	0.29355225
24	0xbe017d11	-0.12645365
25	0xbe37499b	-0.17899172
26	0xbf4932c3	-0.7859308
27	0xbeb4cf99	-0.35314634
28	0xbef94491	-0.48685125
29	0xbec0fe6f	-0.37694117
30	0x3e8ea2ba	0.27858526
31	0xbe9704fc	-0.2949599

hidden2.weight f4 [64, 32]
0	0xbd19507f	-0.037430283
1	0x3e84a79e	0.25909132
2	0x3d67d3d8	0.056598514
3	0x3ea7c877	0.3277013
4	0xbe23bd69	-0.15990223
5	0xbed3d3f3	-0.41372642
6	0xbd758bef	-0.059947904
7	0x3e9ab84c	0.30218732
8	0x3e85bac5	0.26119056
9	0xbed8aa8c	-0.42317617
10	0xbf702bc5	-0.93816787
11	0x3d9ad20e	0.07559596
12	0xbe1a1c21	-0.15049793
13	0x3d66af16	0.05631932
14	0xbf1c69ba	-0.61098826
15	0x3ef4f00f	0.478394
16	0x3e10127b	0.1406955
17	0xbd8e49d4	-0.06947675
18	0x3de09c56	0.10967319
19	0x3e76bccc	0.24095458
20	0xbed2835c	-0.41115844
21	0x3e701853	0.23446779
22	0xbfaf0e6e	-1.3676279
23	0xbd841dd5	-0.064510025
24	0xbf775508	-0.9661412
25	0x3f1b176b	0.6058261
26	0xc0010a35	-2.016248
27	0xbf6ecc28	-0.9328027
28	0xbf6163db	-0.8804299
29	0xbf87ca73	-1.0608658
30	0xbe8a5590	-0.27018404
31	0xc00699ea	-2.1031442
32	0x3e327371	0.1742685
33	0xbe94e4be	-0.29080766
34	0x3e030a1f	0.1279683
35	0x3dd4525e	0.10367273
36	0xbdbc9903	-0.09208872
37	0x3df23af1	0.118276484
38	0x3e3fe19b	0.18738405
39	0xbe470d70	-0.1943872
40	0x3e1f2fda	0.15545598
41	0xbee3615a	-0.4441021
42	0x3f36887e	0.7130202
43	0xbd8c6fe5	-0.0685728
44	0x3f4af916	0.79286325
45	0x3ea1c9dc	0.3159932
46	0x3cbb68c2	0.0228771
47	0xbd3acd91	-0.0456062
48	0x3ec6c3c7	0.3882124
49	0x3e958575	0.29203382
50	0xbba502cc	-0.005035734
51	0xbd94f91e	-0.07274078
52	0x3d4966ed	0.049170423
53	0x3eeef2a4	0.46669495
54	0x3f0a99df	0.5414104
55	0xbe1533d5	-0.14570554
56	0xbf0b0007	-0.54296917
57	0xbf0880b6	-0.533214
58	0xbfc701c3	-1.5547413
59	0x3f84da61	1.0379144
60	0xbf81d8ba	-1.0144265
61	0x3e8a02b7	0.26955196
62	0xbf10793c	-0.5643499
63	0xbfd27bf0	-1.6444073
64	0x3db8d20a	0.09024437
65	0xbe39dc58	-0.1815046
66	0xbd25e2f8	-0.040499657
67	0x3eec3a77	0.46138355
68	0x3e107c20	0.1410985
69	0x3f018d34	0.50606084
70	0x3d5d7ab0	0.054072082
71	0xbe196aa7	-0.14982091
72	0x3e9e0683	0.30864343
73	0x3e5965eb	0.21230285
74	0x3e57eecb	0.21087186
75	0x3d3082d8	0.043093532
76	0xc0548c90	-3.3210793
77	0xbf5a5056	-0.8527883
78	0x3e931dcc	0.2873367
79	0xbb318015	-0.00270844
80	0xbddde1d1	-0.10834087
81	0x3dcb8ec2	0.09939338
82	0xbe14ec0b	-0.14543168
83	0xbf1eed6e	-0.6208104
84	0x3dabc3a6	0.08386926
85	0xbe2b22cc	-0.16712493
86	0xbd9830d2	-0.07431187
87	0x3cfb5dcf	0.03068438
88	0x3e1cdb1e	0.15317962
89	0x3ecd9a6c	0.40156877
90	0xbf33bd85	-0.7021106
91	0x3de1c944	0.110247165
92	0x3e8e751c	0.27823722
93	0x3e62ef2b	0.22161548
94	0x3e44d73e	0.19222733
95	0xbe32b9ea	-0.17453733
96	0x3e142fd2	0.14471367
97	0x3e523908	0.20529568
98	0xbc27db70	-0.010245189
99	0xbdedccad	-0.116113044
100	0x3d88a275	0.06671611
101	0x3e2d6912	0.16934612
102	0xbd93b6f4	-0.0721263
103	0x3e5d4246	0.21607313
104	0xbce9996c	-0.02851554
105	0xbea70121	-0.3261805
106	0xbeff28dd	-0.49835864
107	0xbe0724f9	-0.13197698
108	0x3f4c460c	0.79794383
109	0xbf1d9721	-0.6155873
110	0x3d033a83	0.032038223
111	0x3e50d3a8	0.2039324
112	0x3e98bc6c	0.29831254
113	0x3d9c8456	0.076424286
114	0xbdfc2709	-0.12312133
115	0xbd9dcc64	-0.07705
116	0xbe1aa435	-0.15101703
117	0x3e7b46f4	0.24538785
118	0xbfae508f	-1.3618335
119	0x3df62ada	0.12019892
120	0xbed91706	-0.42400378
121	0x3ec1dfa9	0.37865952
122	0x3f9fe381	1.2491304
123	0xbf95507d	-1.1665188
124	0x3f0c7921	0.5487233
125	0xbeaad5e7	-0.3336632
126	0xbe83a7da	-0.25713998
127	0xbc12b623	-0.008954558
128	0x3e0ab27f	0.13544653
129	0x3dbda40e	0.092598066
130	0x3bd64680	0.006539166
131	0xbe079116	-0.1323894
132	0x3ded0b54	0.11574426
133	0x3e19c3ae	0.15016052
134	0x3db4cbc3	0.08827927
135	0xbdcd33d0	-0.10019648
136	0x3d00ddbf	0.031461474
137	0x3da1a553	0.07892861
138	0xbf8ba337	-1.0909184
139	0xbdca00a1	-0.09863401
140	0x3eaa8bc2	0.33309752
141	0xbe862700	-0.2620163
142	0xbf038ade	-0.5138377
143	0xbe688f27	-0.22710858
144	0x3e610bba	0.2197713
145	0xbeb4a750	-0.352839
146	0xbe933aab	-0.28755698
147	0xbd7286e9	-0.05921069
148	0x3e1b7e26	0.1518484
149	0x3e7e48dd	0.24832483
150	0xbdde12d6	-0.108434364
151	0x3c605850	0.01369293
152	0xbf0249e8	-0.5089402
153	0x3c0fc762	0.008775564
154	0xbf86766b	-1.0504888
155	0xbf54da33	-0.83145446
156	0xbd8e82e0	-0.06958556
157	0xbe626c64	-0.2211166
158	0x3e1cfa28	0.15329802
159	0x3dc73476	0.09726803
160	0xbdc61f38	-0.09673923
161	0x3e587f2b	0.2114226
162	0xbd0981dc	-0.03357111
163	0xbe128d03	-0.14311604
164	0x3e3a3880	0.18185616
165	0xbe8d9a48	-0.2765677
166	0xbda6fb73	-0.08153429
167	0x3ebcae75	0.3685185
168	0x3d5b3dce	0.05352574
169	0xbd4a74e1	-0.04942787
170	0xc036ff50	-2.859333
171	0x3d874df4	0.06606665
172	0x3d29b4eb	0.041432302
173	0xbf4807e1	-0.7813702
174	0xbdd5cd62	-0.10439564
175	0x3e407056	0.18792853
176	0xbe1fc966	-0.15604171
177	0xbebd9522	-0.37027842
178	0x3e22b68e	0.15889952
179	0x3e777a66	0.24167785
180	0xbe5d13bf	-0.21589564
181	0xbe699952	-0.22812393
182	0xbf08b07c	-0.53394294
183	0x3e90a31f	0.28249452
184	0xbde60613	-0.11231627
185	0x3eca5047	0.39514372
186	0x3eb03d28	0.3442166
187	0xbfe31315	-1.7740198
188	0xbf058cb4	-0.5216782
189	0xbeff7466	-0.49893492
190	0x3e27199f	0.16318367
191	0x3f523f53	0.82127875
192	0xbe461cd0	-0.19346929
193	0xbd803209	-0.062595434
194	0x3de7467a	0.11292739
195	0x3ae5682c	0.0017502359
196	0x3de55a07	0.11198812
197	0x3e38dcd9	0.18052997
198	0x3e66baa5	0.22532137
199	0xbe50781e	-0.20358321
200	0xbe80c15b	-0.2514752
201	0xbe56c2d8	-0.20972764
202	0x3f410fc1	0.75414664
203	0xbcd27c18	-0.025693938
204	0xbe947d14	-0.29001677
205	0x3ec9c0b0	0.3940482
206	0xbf74f557	-0.9568686
207	0x3dab6f46	0.08370833
208	0x3e175d6d	0.14781733
209	0x3ed8ae80	0.42320633
210	0xbea9a4e7	-0.33133623
211	0x3e575681	0.21029092
212	0x3c4c3f74	0.0124663
213	0xbe04f520	-0.12984133
214	0x3d8c3296	0.06845586
215	0xbd8bc5f8	-0.06824869
216	0xc055eb10	-3.342472
217	0x3f4d728a	0.802529
218	0x3f55f686	0.8357929
219	0x3f37c911	0.7179118
220	0xbf4bb56c	-0.795737
221	0xbfea509a	-1.8305848
222	0x3e791788	0.24325383
223	0xbef8c125	-0.48584858
224	0xbf51b1a0	-0.8191166
225	0x3eb1e8bf	0.34747884
226	0x3d809412	0.06278242
227	0xbf298d4c	-0.66231227
228	0xbf0623d8	-0.52398443
229	0x3e409dd0	0.188102
230	0x3d08478d	0.03327136
231	0x3ece0bd1	0.4024339
232	0xbee05ea7	-0.43822214
233	0xbf58213b	-0.84425706
234	0x3e2a9a27	0.16660367
235	0x3b77c640	0.0037807375
236	0x3f6ec61f	0.9327106
237	0xbf61f81f	-0.8826923
238	0x3e9c04bf	0.3047237
239	0x3f08bf7f	0.534172
240	0xbbc651ec	-0.0060522463
241	0x3f6bee52	0.9216052
242	0xbf215773	-0.6302406
243	0xbec56a3d	-0.38557616
244	0xbd93fc38	-0.07225841
245	0xbebfba6d	-0.3744692
246	0x3f1c6659	0.6109367
247	0xbe71c1ba	-0.23609057
248	0xbed2c519	-0.41166
249	0xbe63fa10	-0.2226336
250	0xbd49dcf1	-0.04928297
251	0x3da0c2af	0.07849633
252	0xbf4b753e	-0.7947577
253	0xbc00aa97	-0.007853172
254	0x3e02fefd	0.12792583
255	0x3eef1e45	0.4670278

hidden2.bias f4 [64]
0	0x3e42d7f8	0.19027698
1	0x3da920c4	0.08258203
2	0x3d5ce880	0.053932667
3	0x3d814d8c	0.06313619
4	0x3e9086e9	0.28227928
5	0x3e47419d	0.19458623
6	0x3dd0d2d9	0.10196466
7	0xbe8bf5fe	-0.27336115
8	0x3ddc8a4d	0.10768566
9	0x3e6d8a50	0.23197293
10	0xbe2064eb	-0.15663497
11	0x3e2e917d	0.17047687
12	0xbe08d6f4	-0.13363248
13	0xbc90afe1	-0.01766199
14	0x3e091ff4	0.13391095
15	0x3e029f0c	0.12755984
16	0x3c0de844	0.0086613335
17	0xbe49867d	-0.1968021
18	0x3db27df0	0.08715427
19	0xbca024a1	-0.019548716
20	0x3d6149d9	0.055002067
21	0xbe342a11	-0.17594172
22	0x3e449215	0.19196351
23	0xbe05fa2d	-0.13083716
24	0xbe724cce	-0.23662111
25	0x3e398915	0.18118699
26	0xbdc9b57b	-0.09849068
27	0x3de8f209	0.113742895
28	0x3dc84e30	0.09780538
29	0x3c6477ee	0.013944609
30	0xbd9457f6	-0.0724334
31	0xbdb75116	-0.08951013
32	0x3e1fb3bb	0.15595905
33	0x3d5b5aeb	0.053553503
34	0x3df1ab80	0.11800289
35	0xbe167bc3	-0.14695649
36	0xbc716dce	-0.014735652
37	0xbd98e1ee	-0.07464968
38	0x3e6554bc	0.22395605
39	0xbd957a4e	-0.072987184
40	0xbee729b0	-0.45148993
41	0xbdf75544	-0.1207681
42	0x3d4d2c31	0.050090972
43	0x3db9e908	0.0907765
44	0x3d09b86e	0.03362315
45	0x3e07fcbb	0.13280003
46	0xbca0957a	-0.019602526
47	0xbb400337	-0.0029298791
48	0xbd6992c6	-0.05702474
49	0xbe464ce0	-0.19365263
50	0x3be670a3	0.0070324703
51	0xbee7d8a3	-0.45282468
52	0xbe199c23	-0.15000968
53	0xbd8e14ba	-0.06937547
54	0xbe8305bc	-0.25590312
55	0x3b9312c0	0.004488319
56	0x3c8b0533	0.016970253
57	0x3dd5416d	0.104128696
58	0x3ca4eacf	0.020131497
59	0x3d9b374b	0.07578906
60	0x3b27680f	0.0025544201
61	0xbdc96bf9	-0.09835047
62	0x3e20666a	0.15664068
63	0xbe1a6f20	-0.15081453

hidden3.weight f4 [128, 64]
0	0x3f0e77f2	0.5565177
1	0xbf1177e4	-0.56823564
2	0x3cc2dc58	0.023786709
3	0x3e87cabb	0.2652186
4	0xbf467d86	-0.77535284
5	0x3d254180	0.04034567
6	0xbf80e07b	-1.0068506
7	0xbf9b1501	-1.2115785
8	0x3e9c9123	0.3057948
9	0x3e82c1dd	0.2553853
10	0xbdcbf422	-0.09958674
11	0x3deff190	0.11715996
12	0xbdd0c11e	-0.10193084
13	0x3e0fbc26	0.14036617
14	0x3e4510dc	0.19244713
15	0x3ea8d5c9	0.32975605
16	0x3d3df1b3	0.04637308
17	0x3ce7273e	0.028216954
18	0x3d26d5a7	0.0407311
19	0xbe074788	-0.13210881
20	0xbdf47f81	-0.11938382
21	0x3d9618ce	0.0732895
22	0xbecf868c	-0.4053234
23	0xbf145485	-0.57941467
24	0x3e1a951d	0.15095945
25	0xbd0b99e5	-0.034082312
26	0x3dc549e8	0.09633237
27	0xbf1c7b6d	-0.6112583
28	0x3e996ef2	0.29967457
29	0x3e8530b5	0.26013723
30	0x3e21b90c	0.15793246
31	0x3dfa9554	0.12235513
32	0x3d671f1b	0.05642615
33	0x3df4b2e8	0.11948186
34	0x3e127381	0.14301874
35	0x3cc8fe7a	0.024535406
36	0xbe9074a4	-0.2821399
37	0xbe805729	-0.25066498
38	0xbd5f7241	-0.05455232
39	0x3d7642da	0.06012235
40	0xbeb39a83	-0.3507882
41	0xbd4a9838	-0.049461573
42	0x3eb0f449	0.34561375
43	0xbe7955f2	-0.24349192
44	0xbefa5061	-0.4888945
45	0x3e2a60d2	0.16638497
46	0x3e138f3c	0.14410108
47	0x3db9f8ee	0.09080683
48	0x3eda336f	0.42617366
49	0x3ef4da40	0.47822762
50	0xbe91011c	-0.2832116
51	0x3cfe3df3	0.031035399
52	0xbd3aa0e4	-0.045563594
53	0x3d44f925	0.048089165
54	0xbdd28035	-0.1027836
55	0xbd87812a	-0.06616433
56	0xbf184239	-0.5947605
57	0x3e25b733	0.16183166
58	0x3d648701	0.055792812
59	0xbb763996	-0.0037570945
60	0xbf222ce9	-0.6334978
61	0xbfdd5dad	-1.7294213
62	0xbee717f2	-0.45135456
63	0x3d723dfc	0.059141144
64	0xbfb47a57	-1.4099835
65	0xbda5b281	-0.080906875
66	0xbcc4dfb8	-0.024032459
67	0x3d775efd	0.060393322
68	0xbe8279d0	-0.2548356
69	0xbe111e9e	-0.14171836
70	0xbffe3383	-1.985947
71	0x3f3b27bb	0.731075
72	0xbd6f6eff	-0.058455463
73	0xbea9ac4a	-0.3313926
74	0xbbb37d57	-0.005477588
75	0x3e9042ff	0.28176114
76	0x3d673ab8	0.056452483
77	0x3eb91a8a	0.3615306
78	0x3e67680c	0.22598284
79	0x3ce37efd	0.027770514
80	0x3d397d94	0.045285776
81	0x3e70745a	0.23481885
82	0x3e698431	0.22804333
83	0xbcb279d8	-0.021786615
84	0xbe11a192	-0.1422179
85	0xbca9f2c0	-0.020745635
86	0xbf3e0cc3	-0.7423822
87	0xbd6e7052	-0.058212586
88	0x3e549eaa	0.2076365
89	0x3e3a6c86	0.18205461
90	0x3dbe423c	0.09289977
91	0x3eaf4420	0.34231663
92	0x3e8d3350	0.2757821
93	0xbf2529d4	-0.6451695
94	0x3d8c241a	0.06842823
95	0xbdd5e82f	-0.10444676
96	0x3e40c4c3	0.18825059
97	0x3e3aad51	0.18230177
98	0xbf6410f6	-0.8908838
99	0x3d358ceb	0.044323843
100	0xbf04641e	-0.51715267
101	0x3dac3691	0.08408845
102	0x3e172ed9	0.14763965
103	0x3d0ebd28	0.034848362
104	0xbea5fd9d	-0.32420054
105	0x3db6b5ac	0.0892137
106	0x3e96c5a2	0.29447657
107	0xbf5d273b	-0.86387986
108	0xbd792826	-0.060829304
109	0xbe3795bb	-0.17928211
110	0x3ba7ea59	0.005124372
111	0xbb388bc0	-0.002815947
112	0x3ea96227	0.33082697
113	0xbf40fa9d	-0.75382406
114	0x3d876515	0.06611077
115	0x3e055ab7	0.13022886
116	0x3c94c95e	0.018162426
117	0xbe2e2465	-0.17006071
118	0x3ea8a218	0.32936168
119	0xbdd62856	-0.10456912
120	0xbeac145b	-0.3360928
121	0x3c6b57f1	0.014364229
122	0xbf151408	-0.5823369
123	0xbebb54ce	-0.36588138
124	0xbde593c4	-0.11209825
125	0xc0289bcb	-2.6345088
126	0xbe4a2029	-0.1973883
127	0x3d7dfad3	0.062006783
128	0x3f07a200	0.5298157
129	0x3ee62662	0.4495116
130	0xbf7918a5	-0.9730323
131	0x3de70562	0.112803236
132	0x3babf7a6	0.005248028
133	0x39c21dd6	0.00037024793
134	0xbd8ce6dc	-0.068799704
135	0x3e1e83ca	0.15479961
136	0x3e4e942a	0.20173708
137	0x3d17eec2	0.03709293
138	0xbc64cdbb	-0.013965066
139	0x3c346d57	0.011012397
140	0xbd960744	-0.073256046
141	0x3ec8234f	0.39089438
142	0x3e580db5	0.21098979
143	0x3e913871	0.28363374
144	0xbd715704	-0.058920875
145	0x3d9eb554	0.07749429
146	0x3da18fc7	0.078887515
147	0x3e3cfc5a	0.1845564
148	0x3e7abe2a	0.24486604
149	0xbcbfb868	-0.023403361
150	0xbcc2602c	-0.023727499
151	0x3ca1b514	0.019739665
152	0x3db4924c	0.088169664
153	0xbfda8964	-1.7073178
154	0x3dfcbf58	0.123411834
155	0xbe896d70	-0.26841307
156	0x3e966ce4	0.29379952
157	0x3ee4aab4	0.44661486
158	0x3e965629	0.2936261
159	0xbf5dade3	-0.86593455
160	0xbe0741c8	-0.13208687
161	0x3e405ea9	0.1878611
162	0x3e98b826	0.29827994
163	0xbeeb8daa	-0.4600652
164	0x3f417ec3	0.7558405
165	0xbeab4bf6	-0.3345639
166	0xbf04d713	-0.5189068
167	0xbd11f255	-0.035631496
168	0xbf5fb569	-0.87386185
169	0x3ddb516e	0.10708891
170	0x3db7280c	0.08943185
171	0x3e7fea38	0.24991691
172	0x3dbd5a95	0.09245793
173	0x3e1ac2c6	0.15113363
174	0xbcc442f4	-0.023957707
175	0xbd9d8a27	-0.07692366
176	0x3e99bf26	0.30028647
177	0xbf897f5c	-1.0741992
178	0xbec70340	-0.38869667
179	0x3d9b6c19	0.07588977
180	0xbddb2c98	-0.10701865
181	0x3ec47009	0.38366726
182	0x3df5ca2a	0.1200145
183	0x3dfa7db6	0.12231009
184	0x3d0cd1a2	0.03437961
185	0xbefc6b40	-0.49300575
186	0xbd8bffb3	-0.0683588
187	0xbefb046d	-0.49026814
188	0xbdc5f11f	-0.09665131
189	0x3dd41b73	0.10356798
190	0xbdaeeb2e	-0.08540951
191	0xbcb44005	-0.022003183
192	0x3dbbc6d0	0.0916878
193	0xbc46ac07	-0.012125975
194	0xbd547cae	-0.051876716
195	0xbda42aa2	-0.08015944
196	0xbd6073e6	-0.05479803
197	0x3d034cbf	0.032055613
198	0xbe160ac7	-0.14652549
199	0xbdfcdd1c	-0.12346861
200	0x3bbb9319	0.0057243225
201	0xbd7000e2	-0.058594592
202	0xbd1788f0	-0.03699583
203	0xbdb66151	-0.089052804
204	0xbdaa7516	-0.083231136
205	0xbdefde70	-0.117123485
206	0xbdee4c42	-0.11635639
207	0xbdda5798	-0.106612384
208	0xbd709e0c	-0.058744475
209	0x3d9a21f1	0.07526005
210	0xbda2a630	-0.07941854
211	0x3d24f9d1	0.040277306
212	0xbe040a03	-0.12894444
213	0x3c6d7a30	0.014494464
214	0xbd3fc8a9	-0.046822224
215	0xbdce85f9	-0.10084147
216	0xbab4d122	-0.0013795237
217	0x3d9c4bd0	0.076316476
218	0xbd88e1aa	-0.06683667
219	0x3d900c10	0.07033551
220	0xbd1b54c4	-0.037922636
221	0xbdb4d6c1	-0.088300236
222	0x3d4e176b	0.050315302
223	0x3dc81fea	0.09771712
224	0x3da1044a	0.07862146
225	0x3d5541da	0.052064754
226	0xbe0fddb6	-0.1404942
227	0xbd7199f5	-0.058984715
228	0xbd5ff82f	-0.054680046
229	0xbdee3cca	-0.11632688
230	0x3cbe758d	0.023249412
231	0xbd062c70	-0.032757223
232	0xbddc8c3c	-0.10768935
233	0xbd6271e0	-0.05528438
234	0xbdd85a19	-0.1056406
235	0xba742f3c	-0.00093149
236	0xbdebc84f	-0.11512815
237	0xbd56ba44	-0.05242373
238	0xbceab27e	-0.028649565
239	0x3d632c8b	0.0554624
240	0xbdfd8574	-0.1237897
241	0x3cd64e92	0.026160512
242	0xbdeb5c50	-0.114922166
243	0xbe10f15a	-0.14154568
244	0x3d31c99e	0.043405168
245	0xbe1018e1	-0.1407199
246	0x3da4fb98	0.080558
247	0x3d5caf28	0.05387798
248	0xbdab858b	-0.08375081
249	0xbd561aef	-0.05227178
250	0xbd56e0cc	-0.052460477
251	0xbd48eee5	-0.049055953
252	0xbd891437	-0.06693309
253	0xbcf7a056	-0.030227821
254	0xbde910f4	-0.11380187
255	0xbdd57db4	-0.104243666

hidden3.bias f4 [128]
0	0xbe031b3b	-0.12803356
1	0xbe0f3df8	-0.13988483
2	0xbdb3c705	-0.08778194
3	0x3d961a67	0.073292546
4	0x3dd78614	0.1052362
5	0x3d46b7c6	0.048515104
6	0x3e0fae2a	0.14031282
7	0xbe2f1e68	-0.17101443
8	0xbdb48c2b	-0.088157974
9	0xbdf08b59	-0.117453285
10	0xbd8ec5a9	-0.069712944
11	0xbcfe69a2	-0.031056229
12	0x3e5c18aa	0.21493784
13	0x3e8a76a4	0.2704364
14	0xbd82bb44	-0.06383374
15	0x3d14c672	0.036322065
16	0xbc932843	-0.017963534
17	0xbd85ac3f	-0.06526994
18	0xbd8737f3	-0.06602468
19	0xbcc67546	-0.024225842
20	0xbd75c162	-0.059998877
21	0xbd5d63df	-0.054050323
22	0x3d627b5e	0.055293433
23	0xbee16700	-0.44023895
24	0x3e3d1d81	0.18468286
25	0x3e1e4d6c	0.15459222
26	0x3c534d71	0.012896881
27	0x3e005ceb	0.12535445
28	0x3d02f23d	0.031969298
29	0xbe4c8ff8	-0.19976795
30	0xbe350af0	-0.17679954
31	0xbe451853	-0.1924756
32	0xbd84dfe1	-0.06488014
33	0xbd0a6ddb	-0.033796173
34	0xbc59f9f1	-0.01330422
35	0x3dda89d7	0.10670822
36	0x3db31f0f	0.08746158
37	0xbdc38729	-0.09547264
38	0xbe4a56e4	-0.19759709
39	0xbd4bc953	-0.049752545
40	0x3dda47be	0.10658215
41	0x3d60d535	0.05489083
42	0x3d08ab68	0.03336659
43	0x3e079d0d	0.13243504
44	0x3d65a2f5	0.05606361
45	0xbe960a31	-0.2930465
46	0x3d0fecd2	0.03513796
47	0x3d092b0c	0.03348832
48	0xbd1d5c31	-0.038418
49	0xbed8fe02	-0.42381293
50	0x3e2833d3	0.1642602
51	0xbdd6aac3	-0.10481789
52	0xbe163555	-0.14668782
53	0xbdf27e03	-0.11840441
54	0x3dc0164c	0.09379253
55	0x3e46095d	0.1933951
56	0xba0fdc5a	-0.0005487852
57	0x3d9dc2f3	0.07703199
58	0x3cd0811f	0.025452195
59	0x3e1cbc18	0.15306127
60	0x3d3c1c6d	0.045925546
61	0x3e537517	0.20650135
62	0xbd9ea998	-0.07747191
63	0xbdb3e151	-0.0878321
64	0xbe0c8762	-0.1372352
65	0xbc021a8c	-0.0079409
66	0xbd9f396f	-0.077746265
67	0xbcd93ea9	-0.026519137
68	0x3e1b2a67	0.15152894
69	0x3a2ab24f	0.00065115554
70	0xbe10f0aa	-0.14154306
71	0x3e71af45	0.23602016
72	0x3bec5d94	0.007213304
73	0x3dc03c37	0.09386485
74	0x3d7cb2df	0.061694022
75	0xbe363a1f	-0.17795609
76	0xbca181d0	-0.01971522
77	0xbbb0d7bc	-0.0053968113
78	0xbd23ba7d	-0.03997277
79	0x3d7e0f85	0.06202652
80	0xbe23d338	-0.15998542
81	0xbdb9fd76	-0.09081547
82	0x3e275e38	0.16344535
83	0x3e3a11fc	0.18170923
84	0x3d157324	0.03648676
85	0x3dcc63db	0.099799834
86	0xbc7f8b37	-0.015597156
87	0x3d490f22	0.049086697
88	0x3e85b574	0.26115
89	0xbd4a6fae	-0.049422912
90	0x3e0c9c51	0.13731505
91	0x3e3d14fc	0.18465036
92	0xbddfd5eb	-0.109294735
93	0x3e567be2	0.20945695
94	0x3d432a85	0.04764797
95	0xbcabb71e	-0.02096134
96	0xbd9bab89	-0.07601077
97	0x3ddc0f07	0.10745054
98	0x3deedcef	0.116632335
99	0x3e14e4ba	0.14540377
100	0xbd8ab35a	-0.0677249
101	0xbd5bb526	-0.053639553
102	0xbddbf5f4	-0.10740271
103	0xbc8acd77	-0.016943676
104	0xbe6e89a5	-0.23294695
105	0xbe7d4b6a	-0.247358
106	0x3d671ab7	0.05642196
107	0xbded0397	-0.1157295
108	0x3e2c2089	0.16809286
109	0xbe6fca44	-0.23417002
110	0xbe03f9f1	-0.12888314
111	0xbd378324	-0.0448028
112	0xbe2ed332	-0.17072752
113	0xbd13061c	-0.0358945
114	0x3dbf308b	0.09335431
115	0xbdffea60	-0.12495875
116	0x3d6834d1	0.056690995
117	0xbca52784	-0.020160444
118	0x3dd25e90	0.102719426
119	0xbc52192e	-0.012823386
120	0x3e0dfaf7	0.13865267
121	0x3d35ef93	0.04441793
122	0xbc08ba10	-0.008345142
123	0x3df37c01	0.11888886
124	0xbc84063d	-0.016116256
125	0x3e6ad2e1	0.22932006
126	0x3e1791d0	0.14801717
127	0xbe16e173	-0.1473444

output.weight f4 [5, 128]
0	0x3c79f92b	0.01525716
1	0xbc61c633	-0.0137801645
2	0xbc21e926	-0.009882247
3	0xbca560c5	-0.020187745
4	0xbc1f9978	-0.00974118
5	0x3cdf9881	0.0272944
6	0xbd9cc6fc	-0.07655141
7	0xbc9ae402	-0.01890755
8	0xbd8898e2	-0.06669785
9	0x3ae4fd7a	0.0017470561
10	0x3beddcad	0.0072589726
11	0x3d6282a0	0.055300355
12	0xbef85f97	-0.4851043
13	0xbb61c52a	-0.0034449794
14	0xbdae1bb2	-0.08501376
15	0x3d0141ae	0.031556778
16	0x3d3dc2c9	0.04632834
17	0x3d246382	0.04013396
18	0xbdbc0478	-0.0918054
19	0xbbdc4e3a	-0.0067231925
20	0xbd541daa	-0.051786102
21	0xbd0be364	-0.034152403
22	0x3b66fec0	0.0035247058
23	0x3cde47ad	0.027133787
24	0x3c7a7ab8	0.0152880475
25	0x3d00440b	0.03131489
26	0x3cdda68d	0.027056957
27	0xbc53c670	-0.012925729
28	0x3d61e055	0.05514558
29	0x3c029ee8	0.0079724565
30	0xbbd28d1e	-0.006425514
31	0xbc7cf0af	-0.015438243
32	0x3c573273	0.013134587
33	0xbcfb5583	-0.030680424
34	0x3c58a24a	0.0132222865
35	0x3c588c6e	0.013217075
36	0xbbd8e067	-0.0066185477
37	0xbc796faa	-0.015224377
38	0xbd8151a6	-0.06314401
39	0xbb4bd453	-0.0031101897
40	0x3cc680ac	0.024231277
41	0x38d4baa8	0.00010143715
42	0xbcb0527d	-0.021523708
43	0xbb599623	-0.003320106
44	0xbc8ff912	-0.01757482
45	0xbd10fb86	-0.03539612
46	0x3cb273d2	0.021783743
47	0xbccbd3ea	-0.024881322
48	0x3dda192b	0.10649332
49	0xbcf34703	-0.029696947
50	0xbc740e4b	-0.014895986
51	0x3d3d1a59	0.046167705
52	0xbca2206b	-0.019790849
53	0xbc70da48	-0.01470048
54	0x3c562439	0.01307016
55	0x3c5e5291	0.01356949
56	0x3c47e696	0.012200972
57	0xbc6c6792	-0.01442899
58	0xbd911c3e	-0.07085465
59	0xba8e85a7	-0.0010873572
60	0xba7b935a	-0.0009596847
61	0x3cbda04d	0.023147726
62	0x3e077cd5	0.13231213
63	0x3c84d91f	0.016216813
64	0x3e88a9c4	0.2669202
65	0xbb8fedba	-0.004392353
66	0xbc4be76e	-0.012445314
67	0x3cad6263	0.021165079
68	0x3bee5c35	0.0072741755
69	0x3b102bd1	0.0021998773
70	0xbcc5099b	-0.024052432
71	0x39662415	0.00021947951
72	0x3c8f359c	0.017481618
73	0x3c6e38fa	0.014539951
74	0x3c8bfa34	0.01708708
75	0x3d5e4ed8	0.05427441
76	0x3c49ae7a	0.012309665
77	0x3bf4dd42	0.007472665
78	0x3c2ef647	0.010678834
79	0x3d79e301	0.061007503
80	0xb9238f90	-0.00015598373
81	0xbcd31989	-0.025769012
82	0x3c49363c	0.012280997
83	0x3b3ec3d6	0.0029108427
84	0x3d108b51	0.035289112
85	0x3d835b61	0.064139135
86	0x3da5a1fa	0.08087535
87	0xbc39cfd8	-0.011341058
88	0xbc94bcb8	-0.018156394
89	0xbc809489	-0.015695827
90	0x3d427aeb	0.047480505
91	0x3d881009	0.066436835
92	0xbd3c9e1e	-0.04604923
93	0xbe288c16	-0.16459689
94	0xbc52da14	-0.012869377
95	0xbd996c5a	-0.074913695
96	0x3d39926a	0.045305647
97	0x3beeea61	0.0072911237
98	0xbdcbbe0c	-0.09948358
99	0xbb6a8be2	-0.0035788943
100	0xbcd1b1bb	-0.025597444
101	0x3c89bc02	0.016813282
102	0x3c85b224	0.016320296
103	0x3ca63eb7	0.020293577
104	0xbce98551	-0.028505953
105	0x3cb49676	0.022044402
106	0xbcf2b412	-0.02962688
107	0xbc304f86	-0.010761147
108	0xbc50f51e	-0.012753753
109	0x3b96fc7e	0.004607736
110	0xbb53ce36	-0.0032318956
111	0xbb4a9a74	-0.0030914815
112	0xbd179018	-0.037002653
113	0x3e1b9f56	0.151975
114	0xbc49940f	-0.012303366
115	0x3da8b57b	0.0823774
116	0xbcadca17	-0.021214528
117	0xbc671f25	-0.0141065465
118	0xbc22bdcc	-0.009932946
119	0xbc17bc5c	-0.009261217
120	0x3cc4d708	0.024028316
121	0xbc13edb2	-0.009028839
122	0xbd7ff8f2	-0.062493272
123	0xbc5e9a36	-0.013586571
124	0xbd25ffe7	-0.04052725
125	0x3d3617e1	0.044456366
126	0xbd831910	-0.06401265
127	0xbce3d031	-0.027809234
128	0x3eabf186	0.33582705
129	0xbea47f8f	-0.3212857
130	0x3f23fb1a	0.64055026
131	0xbc2fa5ef	-0.010720714
132	0x3f0035b1	0.50081927
133	0x3e27c809	0.16384901
134	0xbc6b9d49	-0.014380761
135	0x3e854d46	0.26035517
136	0xbd4fa523	-0.050694596
137	0x3ef4c87a	0.478092
138	0x3f20958a	0.6272818
139	0xbda7296c	-0.081621975
140	0x3d03e6fb	0.032202702
141	0xbf0ad604	-0.5423281
142	0x3c265402	0.010151865
143	0x3eb94b53	0.3619028
144	0x3c377cb1	0.011199162
145	0x3d20bb6f	0.03924125
146	0x3ca0c5e1	0.019625606
147	0x3d61b813	0.055107187
148	0x3d164018	0.03668222
149	0xbd5b2df5	-0.053510625
150	0xbeede140	-0.46460915
151	0x3e875ef5	0.26439634
152	0xbd878d96	-0.06618802
153	0x3dee8e35	0.116482176
154	0xbd57e86c	-0.05271189
155	0xbeee424f	-0.46534964
156	0x3f611b54	0.87932324
157	0x3f37a70d	0.71739274
158	0x3f43872b	0.76378125
159	0x3d8de661	0.06928707
160	0x3ee792e9	0.4522927
161	0xbfc0da47	-1.5066613
162	0xbc9b15a0	-0.01893121
163	0x3d544d00	0.051831245
164	0x3cafcc36	0.02145968
165	0xbf29b840	-0.6629677
166	0x3d00f3bc	0.031482443
167	0x3ebd9458	0.3702724
168	0xbe4f1cf6	-0.20225891
169	0xbeaf8f91	-0.3428922
170	0x3f9639d8	1.1736403
171	0x3d9926c2	0.074780956
172	0x3da1ddf7	0.079036646
173	0x3ea02986	0.3128168
174	0xbedd5109	-0.43225887
175	0xbe49723b	-0.19672482
176	0xbd5d9b53	-0.054103207
177	0xbe99b07f	-0.30017468
178	0x3f18c179	0.59670216
179	0xbbf4a3e4	-0.0074658263
180	0x3be2c8ac	0.0069208946
181	0x3ee95b13	0.45577297
182	0xbe2b987c	-0.16757387
183	0x3e902032	0.28149563
184	0x3b04f35c	0.0020286655
185	0xbc1bfd71	-0.009520874
186	0x3d3d5b01	0.046229366
187	0x3efb470c	0.49077642
188	0xbe89145a	-0.2677334
189	0xbef29f7a	-0.47387296
190	0xbe398eb4	-0.18120843
191	0xbc401177	-0.011722914
192	0xbc6fd891	-0.014639036
193	0x3f27b9dd	0.6551798
194	0x3e8aa8ef	0.2708201
195	0xbdf4b202	-0.11948015
196	0x3e081cca	0.13292232
197	0xbf2e1fce	-0.6801728
198	0x3d903a75	0.070424
199	0xbe0c9b1e	-0.13731048
200	0xbfa7ae83	-1.3100132
201	0x3f17c613	0.5928661
202	0x3e723572	0.236532
203	0xbe886d46	-0.2664587
204	0x3e844447	0.2583334
205	0x3ec0c1ea	0.37647945
206	0x3f537211	0.82595927
207	0xbd41dea0	-0.047331452
208	0xbf909200	-1.1294556
209	0xbf290922	-0.6602956
210	0xbf1f6e8e	-0.6227807
211	0xbe1fc245	-0.15601452
212	0xbf083ede	-0.5322093
213	0x3c4d2f08	0.01252342
214	0xbd9dffe4	-0.07714823
215	0xbee639eb	-0.44966063
216	0x3dc9a160	0.09845233
217	0xbef7b4a2	-0.4838
218	0x3e86acc4	0.26303685
219	0xbd92c506	-0.071664855
220	0xbd2fa001	-0.0428772
221	0xbdae2c11	-0.08504499
222	0xbe294344	-0.16529566
223	0xbcb90213	-0.022583997
224	0xbd5229d9	-0.05130944
225	0x3e8263cb	0.2546676
226	0xbe45edbb	-0.19328968
227	0x3ba94f9a	0.00516696
228	0xbdc9f8b2	-0.09861888
229	0xbe10b727	-0.14132367
230	0x3d420042	0.047363527
231	0x3f545a4a	0.8295027
232	0xbee5c585	-0.44877258
233	0xbf7df8a1	-0.992075
234	0x3d4385ea	0.047735132
235	0x3d0d0424	0.034427777
236	0xbeaaeaed	-0.3338236
237	0x3edbf22c	0.429582
238	0xbf3663ca	-0.71246016
239	0x3d2b1940	0.041772127
240	0x3d81281c	0.063064784
241	0xbe313992	-0.17307118
242	0x3e92f0b2	0.2869926
243	0xbc7d344d	-0.015454364
244	0xbf8a3eb8	-1.080039
245	0xbe81a2d0	-0.2531953
246	0x3db91f06	0.090391204
247	0xbd1f9830	-0.038963497
248	0xbe8d9139	-0.2764986
249	0x3f290f59	0.66039044
250	0x3db95670	0.0904969
251	0xbd8ff63c	-0.07029387
252	0x3fabcbcf	1.3421572
253	0xbca5791b	-0.02019935
254	0x3e43f94a	0.19138065
255	0x3d4a4a99	0.049387548

output.bias f4 [5]
0	0xbdef273e	-0.11677407
1	0xbd6d633f	-0.057955977
2	0xbdbc3037	-0.09188884
3	0x3ccf4b60	0.025304496
4	0xbda618c5	-0.08110193
