models/MagneticPendulum/p-1_measure_x1*cos(30) + x2*sin(30)_N7_sep/al_model_state_dict.pth (torch, 46608 bytes, 7 tensors)

hidden1.weight f4 [32, 7]
000000 7b a5 08 3f 78 88 3d bd e7 bb 11 be 4d e5 9b 3e
       0.53377503 -0.046272725 -0.14231835 0.3044838
000010 58 85 45 be 0c 4a 72 3e 5d 99 4a bd ea e6 44 3e
       -0.19289148 0.23661059 -0.049462665 0.19228712
000020 d8 37 57 3d a0 8f 3d bd 74 b2 d6 3d d0 be 98 3c
       0.05254349 -0.04627955 0.10483256 0.018645674
000030 36 5b 0d 3e 03 d4 16 be 37 15 b6 be 66 df ea 3d
       0.13804325 -0.14729314 -0.3556306 0.11468391
000040 3d 19 54 3d a0 bd 83 bd 4f ea 89 3e 62 4b 99 3e
       0.05178188 -0.064326525 0.26936576 0.29940325
000050 99 21 74 be 86 84 66 be 87 10 92 3d b4 3e cc bd
       -0.23840941 -0.22511491 0.071320586 -0.09972897
000060 d1 09 20 3e 32 6b 0c 3e d6 b1 fd 3e 6d 1c 0b 3e
       0.15628745 0.13712767 0.4954974 0.13585062
000070 3e ae 9e be 73 f5 61 3e 4c 4b 7b 3e 94 d8 b0 3e
       -0.3099231 0.22066288 0.24540442 0.34540236
000080 63 88 81 3e 22 a7 13 bf e5 48 de be 04 44 94 bd
       0.25299367 -0.576769 -0.4341499 -0.072395355
000090 0a 2b 69 3e f5 51 e9 bc 1b 0e 77 3e 30 8d 67 be
       0.22770324 -0.028481463 0.24126475 -0.22612453
0000a0 43 4d 47 3f d3 41 84 be a0 3c 1f 3f 01 15 ed bd
       0.7785227 -0.2583147 0.6220188 -0.11576272
0000b0 20 cf c0 be 9c d2 2a 3c a8 43 8e be f7 6a d9 bc
       -0.37658024 0.01042619 -0.27785993 -0.026540263
0000c0 68 76 de 3c 39 47 40 bd 25 e4 c8 be 52 7f 97 be
       0.02715607 -0.046942923 -0.3923656 -0.29589325
0000d0 0b 39 26 bc 1b 34 20 3e c8 3a 19 3f 86 b5 1b 3e
       -0.010145436 0.15644877 0.5985532 0.15205964
0000e0 66 8a d4 3d c1 89 3d be c7 bb 49 3e 5d 64 07 3e
       0.1037796 -0.1850958 0.19700538 0.1322188
0000f0 bd c8 6f be fa bc f7 3e 81 b4 c2 3e b3 22 dd 3d
       -0.2341642 0.48386365 0.3802834 0.10797634
000100 12 aa 91 be 73 f4 69 be d3 b3 20 be 3b c2 2e 3e
       -0.28450066 -0.22847156 -0.15693597 0.1706628
000110 ce e4 0b bf 1b 4a aa be 03 61 3a 3e 76 ae 63 bd
       -0.54646003 -0.33259663 0.1820107 -0.0555863
000120 a6 61 27 3e 1f 9c 7b bb 3b c1 14 3e 20 68 8c 3d
       0.16345844 -0.0038392616 0.14526837 0.06855798
000130 36 6a e6 3d 2b 01 0a 3d 2e 18 d0 be e8 e6 80 3e
       0.11250727 0.03369252 -0.40643448 0.25176167
000140 34 dc e4 be af 7f c6 be af d9 a5 bd 68 c1 97 3e
       -0.44699252 -0.3876929 -0.080981605 0.29639745
000150 bc b5 be 3e d2 9c 08 be 7c 75 f5 be 0d ef ee 3e
       0.37248027 -0.13341072 -0.47941196 0.46666756
000160 23 de 42 3d 68 5e 2c 3e 9d ee 8e 3e 60 b5 01 bf
       0.047575127 0.16832888 0.27916422 -0.5066738
000170 44 66 45 3c 9a 4d 5c 3d ee 3b 72 be 40 25 4d be
       0.012048308 0.053784944 -0.23655674 -0.20033741
000180 5d 6e fb 3e cf f7 6c 3d 13 8a 34 be e2 61 57 bd
       0.49107638 0.057853516 -0.17630796 -0.052583583
000190 f0 f1 c7 3e 0e 55 d5 bd 30 8a 1a 3e ec 6a f0 3e
       0.3905177 -0.104166135 0.15091777 0.46956575
0001a0 c1 00 ba be 77 09 a5 bd ce 0c df 3e 3e 0d 99 bb
       -0.363287 -0.08058446 0.43564457 -0.004670768
0001b0 9e de 71 3f f2 7e f8 bd 17 4b 8c 3e a1 ec 2a 3e
       0.9448031 -0.12133588 0.2740104 0.1669183
0001c0 37 f8 c5 3e da 2b 36 be bb 71 a6 3d 49 78 8c 3e
       0.38665935 -0.17790166 0.08127161 0.2743552
0001d0 e1 93 4e 3e 1a e2 82 3e 6c 89 65 be 75 29 8e be
       0.20173599 0.25563127 -0.22415704 -0.27766004
0001e0 79 61 41 be 44 a2 93 bd a0 95 c0 3e 53 83 ae be
       -0.18884839 -0.07208684 0.37614155 -0.34084567
0001f0 af 07 07 3f 44 7c 4c be cf 30 6e be fe 20 2c 3e
       0.527461 -0.19969279 -0.23260807 0.1680946
000200 ab e5 b5 3e 21 ce db 3e c1 33 9d be 2b 49 9b 3e
       0.35526785 0.429307 -0.30703548 0.3032926
000210 cb aa 1d 3f 9a e2 2b 3e c1 03 16 3e f0 23 ea 3e
       0.61588734 0.1678566 0.1464987 0.45730543
000220 f6 9d 9d 3e fb 77 e0 3c 87 2f 11 bf fa 4b 60 be
       0.30784577 0.027400961 -0.56713146 -0.21903983
000230 83 93 fa be 1a 57 ad bd 73 ac 89 be fc a8 c3 bc
       -0.48940668 -0.08463879 -0.2688938 -0.023884289
000240 cc 0e 80 3e a7 61 79 be aa 5b 58 3c 63 99 a6 3d
       0.2501129 -0.24353658 0.013205448 0.08134725
000250 bd 85 7d 3e 17 48 f6 3e 38 54 c8 3d cb 45 e0 3e
       0.24758048 0.48101875 0.097816885 0.43803248
000260 14 82 09 3e c9 cf 01 bd 30 f7 84 be aa fe 27 be
       0.13428527 -0.0316923 -0.2596984 -0.1640574
000270 1b 58 d5 bd 5a f4 ef bd 2f 22 e8 3d 51 80 cb bd
       -0.104171954 -0.11716528 0.11334645 -0.09936584
000280 b2 6e 08 be 79 90 b6 3d 66 e0 71 3e 00 43 7a 3e
       -0.13323477 0.08914275 0.23620757 0.24439621
000290 58 8b 64 be 2d 85 c3 3d e4 90 00 bf a2 04 17 be
       -0.2231878 0.09546886 -0.50221086 -0.14747861
0002a0 ba e0 12 bf df 6d 29 be 2a f8 39 be 93 b6 4a 3e
       -0.57374156 -0.16545819 -0.18161073 0.19796209
0002b0 e2 f8 93 3d 72 b7 57 bb aa 10 2e 3f d4 62 39 3f
       0.07225205 -0.0032915738 0.6799418 0.72416425
0002c0 f0 51 57 3e d9 67 1e 3d 74 2e 0e 3d 6f d0 8a 3e
       0.2102735 0.038673256 0.03471227 0.27112147
0002d0 c0 0c a6 3d df ff 16 3e 2b bf c8 be a9 52 c9 bb
       0.081079006 0.14746045 -0.3920835 -0.006143887
0002e0 fc 6b 9a be 60 a8 94 3d 20 ce c1 be 6d c9 24 bf
       -0.3016051 0.072586775 -0.37852573 -0.6436985
0002f0 6e 8a f5 3d 00 39 ee be 46 2e 03 3e 5d c5 f9 bd
       0.11989294 -0.46527863 0.1281062 -0.12195847
000300 1a 42 6f be 3c 99 d0 bc c4 d4 ea 3e a9 d0 c3 be
       -0.2336506 -0.025463693 0.45865452 -0.38245133
000310 7c 54 15 3d 83 84 f2 3d 88 db d5 3e ee 8d 6c be
       0.036457524 0.11841681 0.41769052 -0.23101017
000320 87 f2 e2 3d 84 6f 13 bf 1d da 20 3f 85 b7 f2 3d
       0.11081415 -0.57592034 0.62832814 0.1185141
000330 c8 3f 5c 3e 00 e4 1b be f1 b0 0e be 10 42 03 3c
       0.21508706 -0.15223694 -0.13934685 0.008011356
000340 2f 1f 88 be 7b 5f 45 3e 5c 47 27 be 55 0b 36 3e
       -0.2658629 0.19274704 -0.16335815 0.1777776
000350 78 a8 5b be 14 cf 49 3e 01 30 b6 3e 01 f9 1b 3f
       -0.21450984 0.197079 0.355835 0.60926825
000360 5b 66 a0 3e f9 21 3d be 7d c0 36 be d8 5c fa 3e
       0.3132809 -0.18469991 -0.17846866 0.4889896
000370 0a d1 30 bf a4 0f 95 3e 60 b5 cb be 99 74 5c be
       -0.6906897 0.29113495 -0.39786816 -0.21528853

hidden1.bias f4 [32]
000000 25 be 10 3d 59 0a 8b be b4 9c 75 be 73 3d f6 3d
       0.035337586 -0.27156332 -0.23985559 0.12023439
000010 16 a0 64 3e 65 60 ae 3e 04 10 17 be c8 71 70 be
       0.22326693 0.34057918 -0.14752203 -0.23480904
000020 08 76 65 3e 0e fd 95 bd e4 db 41 be 56 66 d3 bc
       0.22408307 -0.07323657 -0.18931538 -0.025805634
000030 c0 46 68 be f1 97 d2 3d a2 4c ab 3e 27 e3 69 be
       -0.22683239 0.10282887 0.33456904 -0.22840558
000040 3b a0 ce be 8e 9f cd bb 14 03 bb 3d 12 87 48 3d
       -0.4035662 -0.006275124 0.091314465 0.048956938
000050 8b 24 b9 be 55 f8 0e be 2e 26 02 bf e8 4c 6c be
       -0.36160693 -0.13961919 -0.5083951 -0.23076212
000060 b2 4f 43 be ff 30 ff 3d 42 75 b0 3e a2 82 b4 be
       -0.1907337 0.12460517 0.3446446 -0.35255915
000070 b8 70 b5 3b 35 51 a1 3d b3 bf f2 3d 05 14 10 be
       0.0055371188 0.07876817 0.1185297 -0.14070137

hidden2.weight f4 [64, 32]
000000 ce ae 28 3c ba 8e de 3d 19 20 0d be 85 26 d5 bd
       0.010295583 0.10867067 -0.13781776 -0.10407738
000010 d0 7f d4 3d f9 a7 a6 3c d1 43 f2 bd 77 75 c8 3e
       0.10375941 0.020343767 -0.11829341 0.3915212
000020 7c cd c1 bd 81 e2 a9 bd 18 eb 9e 3d 86 3b aa be
       -0.09463021 -0.08295155 0.07759684 -0.33248538
000030 7c 95 8a 3e 6d 5b 1a be 30 f1 85 be da cd ad bd
       0.27067173 -0.15073939 -0.26160574 -0.08486529
000040 93 a5 01 bd d6 d4 47 3e 90 4c 03 be c3 75 c5 bc
       -0.031652045 0.19514784 -0.12822175 -0.024104005
000050 4d 1a f4 bc 7a fc 49 bd 56 c8 e4 bd 05 e3 48 bc
       -0.029797697 -0.049313046 -0.111710235 -0.012261157
000060 cd 33 e3 3d 5e 00 d6 ba 18 6a 91 3d 26 51 3a bd
       0.110938646 -0.0016327014 0.07100314 -0.045487545
000070 2b fc 15 bd 64 78 55 be 30 74 67 be 10 29 0c 3e
       -0.03661744 -0.20846707 -0.22602916 0.13687539
000080 48 1d 93 be a0 28 12 3d 6f 1f 28 be 73 91 a3 bd
       -0.28733277 0.035683274 -0.16418241 -0.079867266
000090 e6 e6 06 3d e5 da ab bd 02 1b d9 3e c4 16 f6 bc
       0.032935046 -0.0839136 0.42403418 -0.030040152
0000a0 f0 e5 5f bd 01 7f 71 3d ca 8f df bd 2b 3b 24 3e
       -0.054662645 0.05895901 -0.109160975 0.16038196
0000b0 9d 89 49 be b3 dd 1c 3e 70 48 e7 3c 53 3d 61 be
       -0.19681402 0.15318947 0.028232783 -0.2199605
0000c0 07 04 15 bd 48 c0 a2 bd 18 60 5a be ef 36 15 3e
       -0.036380794 -0.07946831 -0.2132572 0.14571737
0000d0 58 33 7d 3e a8 eb 14 be 6e ee 85 bd 74 cd ab 3a
       0.24726617 -0.1454302 -0.065396175 0.0013107494
0000e0 d6 96 b1 be 4d b3 21 be 14 49 8d 3d 1d b3 c8 be
       -0.3468539 -0.15791054 0.06898704 -0.39199153
0000f0 45 45 00 bc d6 40 3f 3c b1 ea 70 3c 48 af dd 3e
       -0.007829015 0.011673173 0.014704392 0.4329779
000100 35 ad b6 bd c0 4b 5b bc de 0f 7d bd cf 67 ce bd
       -0.08919755 -0.013384759 -0.06178271 -0.10078394
000110 e6 36 33 3d b6 d8 89 bd 6d bb 36 be d4 11 f2 3c
       0.043753527 -0.067307875 -0.17844935 0.029549517
000120 a4 69 05 be c1 47 d8 bd f8 7c c4 3d 23 9e 5c 3d
       -0.1302858 -0.10560561 0.095941484 0.05386175
000130 80 75 87 3d 8a 6f 08 be 7b 86 0f bd 8b 80 9d bd
       0.06614208 -0.13323799 -0.03504036 -0.07690533
000140 eb e4 f6 bd 1b 00 f2 bd 52 8b 03 3d ed 13 40 3c
       -0.120553814 -0.11816426 0.032115288 0.011723501
000150 43 25 10 be 02 89 07 be 1a 0d 1f be db c5 30 3e
       -0.14076714 -0.13235858 -0.15532342 0.17262976
000160 a3 4d bf bd 71 3d 70 bd 58 cf 03 be de 94 ef bd
       -0.0934098 -0.058652345 -0.12872064 -0.11698316
000170 60 dc 0c be b9 fd f5 bd 75 41 ad 3d b3 aa e2 bb
       -0.13755941 -0.120112844 0.084597506 -0.0069173216
000180 da bc 10 3d a4 d1 88 bd c8 d0 22 3e 01 2a 81 3e
       0.035336353 -0.06680611 0.15899956 0.2522736
000190 ca ec ac 3d 6f 23 14 3e 05 58 ab be 94 ee 2a 3e
       0.084436014 0.14466642 -0.3346559 0.16692573
0001a0 b4 51 23 be 00 68 c4 be a3 b6 e6 3d 05 aa 45 3e
       -0.15949136 -0.38360596 0.11265304 0.19303139
0001b0 a5 ee 6f 3e c6 e7 0f 3e f4 3e ad bc 52 84 73 3e
       0.2343088 0.14053258 -0.021148182 0.23780945
0001c0 50 88 32 bd 83 b9 ba 3d da 3d 2a bf 5e 19 f0 3d
       -0.04358703 0.09117415 -0.6650063 0.117235884
0001d0 69 d6 6e be 58 90 0c 3e 32 cf 4b 3c a9 73 a4 be
       -0.23323978 0.13726938 0.012439536 -0.32119492
0001e0 e8 f6 09 be 4f cf 0f 3e a6 51 a5 bd fa 4f 7c 3e
       -0.13473094 0.14043926 -0.08072214 0.24639884
0001f0 92 a1 75 be 6c 2f a0 bd bc d5 6a 3e 42 f2 81 be
       -0.23987415 -0.07821545 0.22933096 -0.2538014
000200 86 0d 28 be 2e 1f e8 3d ad ba 2a 3c d1 98 69 bc
       -0.16411409 0.11334072 0.010420484 -0.014257626
000210 69 c9 92 bd bd 0e e7 bd e8 bf f5 3c 73 ac aa 3d
       -0.07167322 -0.11282108 0.029998735 0.08333673
000220 1b 70 cd bc 91 b3 01 be 8d d2 33 3e be 17 17 bc
       -0.02507787 -0.12666155 0.17560787 -0.009221969
000230 4e 04 bf 3d 01 81 7b bc 1a 50 c4 3d 06 e3 d0 3d
       0.09326993 -0.015350581 0.09585591 0.10199551
000240 86 a5 1e be 43 1b 87 3d a1 c8 a9 bb af 4e 11 be
       -0.1549283 0.06596997 -0.0051813875 -0.14190172
000250 08 e8 64 bd cf 65 54 be b9 34 1d be 98 3d 00 be
       -0.055885345 -0.20741962 -0.15352143 -0.12523496
000260 3d 8c e9 3d 67 9e b5 bd a5 dc 9e bd db 60 f6 3c
       0.114037015 -0.088681035 -0.07756928 0.030075481
000270 d0 56 93 3d 8d 66 03 be b5 21 60 3c 24 25 73 3d
       0.071942925 -0.12832089 0.013679911 0.059361592
000280 aa 66 4f be 89 62 1d 3e 96 86 71 bd 29 9d 89 bd
       -0.20254007 0.1536962 -0.05896624 -0.06719429
000290 c7 5f 91 be f4 69 19 3e 76 29 6d 3d 02 2b b2 3d
       -0.28393385 0.14981824 0.05790087 0.08699609
0002a0 7e 03 ef bd 7d 91 95 bc fa 2f 67 bd ee 8f 75 be
       -0.11670588 -0.01825785 -0.05644224 -0.23980686
0002b0 6a d6 91 bc 7b 15 bd bc bf 6c a1 bd 53 d9 1d be
       -0.017802436 -0.023081532 -0.0788207 -0.15414934
0002c0 e6 d4 d7 bd 58 32 9c bd 87 d9 ca bc 2a 1f 51 be
       -0.10538654 -0.0762679 -0.024761928 -0.20422044
0002d0 d3 fb e5 3d b1 67 1c 3d 29 45 3c 3d 4a 9b c6 3d
       0.11229672 0.038184825 0.045964394 0.09697588
0002e0 b4 4e b6 bd 0a bc 1c 3e c8 aa 86 be 25 a7 39 3e
       -0.0890173 0.15306106 -0.2630217 0.18130167
0002f0 a2 49 9d bd 60 03 f2 3d ab 69 78 bd 58 59 94 3d
       -0.0768006 0.1181705 -0.060647648 0.072436035
000300 4b 7f 25 bd 94 00 20 be e5 dd d2 3d cf e1 60 3e
       -0.0404046 -0.1562522 0.10296229 0.21961139
000310 64 4f e2 3d e5 36 f1 3d 61 9b 14 be f5 a9 55 3e
       0.11050299 0.117780484 -0.14512397 0.20865615
000320 74 a1 39 be f6 68 a2 be ea 0d cb 3d 5a 89 99 3c
       -0.18127996 -0.31720704 0.09914763 0.018742252
000330 66 77 93 3e 62 54 7e bd df 0f 9b 3e 57 90 d3 3e
       0.2880203 -0.062092192 0.30285546 0.4132106
000340 04 2e e4 bd 4d c7 0b 3e 19 4f 08 bf 48 71 4b bc
       -0.11141589 0.13650246 -0.53245693 -0.012417145
000350 2b 49 81 bd 65 aa 00 3e 24 97 8f bd 31 da ce be
       -0.06312784 0.12565 -0.0701125 -0.40400842
000360 04 ed ea 3d ae 2b ff 3d a4 a1 2d bd 8f 46 c3 3e
       0.114709884 0.12459503 -0.04239048 0.3813977
000370 7f e6 a2 be b1 36 12 bc 2e 56 39 3e 75 d2 4f be
       -0.3181648 -0.008924172 0.18099281 -0.20295127
000380 9d 87 fb 3c c0 72 c4 bd 29 05 d5 bd de ba 14 be
       0.030704314 -0.09592199 -0.10401375 -0.14524409
000390 c2 de 40 3e f7 76 c4 be 13 df 41 bc 24 5e fb 3d
       0.18834975 -0.38372013 -0.01183297 0.12273815
0003a0 99 97 b7 3d 59 9c 51 3e eb 85 04 3d 4f cf b1 3c
       0.08964462 0.20469798 0.032354277 0.021705298
0003b0 bd 36 1b bd bc 6a 75 be ad b5 9d 3c 32 fd 11 3e
       -0.037894 -0.23966497 0.019251669 0.14256743
0003c0 cc 58 c9 3d 01 01 17 be 6c f0 8f bd 4b 8a 0a 3e
       0.0983139 -0.14746477 -0.07028279 0.13529317
0003d0 95 4b 16 3e e8 ea 82 be 7d 36 ed bd ac 1f b2 bd
       0.1467727 -0.25569844 -0.115826584 -0.08697447
0003e0 87 00 17 be 04 b7 1d be a3 ef 55 bd 23 e9 ac be
       -0.14746295 -0.15401846 -0.05223049 -0.3377162
0003f0 6e be 80 3e 26 19 dd bd a8 06 d6 be 63 f0 93 3e
       0.25145286 -0.10795812 -0.41801953 0.28894338

hidden2.bias f4 [64]
000000 82 e1 51 be 21 fc 88 3c bd 97 95 3d b2 0c ce 3c
       -0.2049618 0.016721787 0.073043324 0.025152538
000010 f1 ce 1e be 4f e4 39 be 39 1b e6 bd 5d 74 cf 3d
       -0.1550863 -0.18153499 -0.11235661 0.101296164
000020 42 a6 1d be 99 67 1c be 67 a1 87 bd 2e aa c1 3d
       -0.15395454 -0.15273894 -0.06622582 0.09456287
000030 ab 38 cf bd e3 61 9d 3d 71 b0 c1 bd b4 52 12 3e
       -0.101182304 0.07684686 -0.09457482 0.14289361
000040 d3 58 9d bd ab 38 f8 bc 73 4f 3d bd f5 d8 b2 3d
       -0.076829575 -0.030300459 -0.046218347 0.087327875
000050 52 a3 e4 bd cf 4c 70 be fe 1f a5 bd 28 dd ee bd
       -0.111639634 -0.234668 -0.08062743 -0.11663276
000060 e5 6d 87 bc 1e 12 d5 3d 9a cb 0c be da b2 03 be
       -0.016531894 0.10403846 -0.13749543 -0.12861195
000070 3a bf 64 bd d5 a5 0c be bd e3 03 bd 37 3b a3 bc
       -0.05584643 -0.13735135 -0.03219961 -0.019925697
000080 f5 a7 c5 bc 7b 53 84 bd 4e fe 90 bd 34 ae fa bc
       -0.02412794 -0.06461235 -0.07079755 -0.030600645
000090 cd df 37 be 9c 3e 99 3d 9f db 17 be 04 dd fa bd
       -0.17956467 0.07482645 -0.14829873 -0.12249187
0000a0 f6 6f 63 3c a4 e0 4a be 55 cd 2c 3d 74 a6 4d 3d
       0.013881674 -0.19812256 0.042188007 0.05020757
0000b0 c0 1c 02 3d fa ed 14 be 40 ec ab bd ca 60 4c be
       0.0317657 -0.14543906 -0.083946705 -0.19958797
0000c0 54 10 ee bd e7 14 0f 3e 13 be 31 3e 4a 06 9d bb
       -0.11624208 0.13972817 0.17357664 -0.0047920095
0000d0 78 ae 01 3d 80 e2 13 be 85 8b 3d be d3 e3 d1 bc
       0.031660527 -0.14441872 -0.18510254 -0.02562133
0000e0 35 c8 1d be 76 cc 83 3d e0 4f 99 3d 4b 3d 1b be
       -0.15408404 0.06435482 0.07485938 -0.151601
0000f0 08 bf 24 bd fe ca 2b be 60 79 6e bd 47 55 93 bd
       -0.040221244 -0.16776654 -0.05822122 -0.07194

hidden3.weight f4 [128, 64]
000000 b5 67 b5 3d 0c b1 49 be 6c d4 d7 bd 00 aa 67 3b
       0.08857671 -0.19696444 -0.10538563 0.003534913
000010 32 95 ec 3d 40 cc 03 3c c4 1e 0e 3d 0b 46 15 bd
       0.11551894 0.008044302 0.03469731 -0.03644375
000020 f0 e8 74 bc ac b5 b6 3d f0 d3 b1 3c f5 d5 cf bd
       -0.014948115 0.0892137 0.021707505 -0.10148231
000030 d6 4f 99 bd 60 0f c7 bd 50 08 f9 bc b0 2e 7f bd
       -0.074859306 -0.097197294 -0.030399472 -0.062300384
000040 bc 44 d6 3d 20 c3 f7 bd 62 b2 b5 3d 10 3b 23 be
       0.10462329 -0.12097764 0.088719144 -0.159405
000050 2f 27 1a 3c 73 38 18 3c 0e 6f 26 3d 56 28 d6 bd
       0.009408756 0.009290802 0.040633254 -0.10456912
000060 f8 c5 b2 bd f8 70 d9 bc 6c 19 81 3d 14 53 76 bd
       -0.08729166 -0.026543126 0.06303677 -0.060137823
000070 50 af 1e 3d 7d b2 c7 bd ae b9 ee bd 52 0c 3f bd
       0.03874141 -0.09750841 -0.11656509 -0.04664261
000080 70 3c da bc 70 71 97 3d 97 7d 58 3d f5 74 54 3d
       -0.026640147 0.07394683 0.052854147 0.05186935
000090 f4 59 a0 3d ea 0d c6 bd 98 98 f5 bd d0 d6 64 3c
       0.07829657 -0.09670623 -0.119919956 0.013967231
0000a0 08 ad 14 3d d6 ea c4 bd a2 3c d1 3d fe 2a 2c bd
       0.036297828 -0.09615104 0.10216643 -0.042033188
0000b0 23 be 9b bd fc 9a af 3d 44 37 e0 3d e8 55 9d 3c
       -0.07604625 0.08574483 0.10948041 0.019206002
0000c0 03 24 f7 bd 31 3c 80 bd 1f ee 18 be 9b 15 77 3d
       -0.120674156 -0.062614806 -0.14934586 0.06032334
0000d0 21 03 04 3d 68 b8 bf bc 9e b5 03 be c4 0a be 3d
       0.032229546 -0.023403361 -0.1286225 0.09279397
0000e0 4a 6d d1 bd 6c 6e 86 bd 4b 1c 59 3c d4 74 7e bd
       -0.10225923 -0.0656403 0.0132513745 -0.062123135
0000f0 88 06 c3 3c 4f 6c c1 3d 38 73 81 bc 50 a1 e7 bc
       0.023806825 0.09444486 -0.01580201 -0.028275162
000100 fb 3c 06 3e 75 4d e8 3a 8a 9b c0 bb 86 95 94 bd
       0.131092 0.0017723279 -0.0058779167 -0.07255082
000110 c2 57 c1 bd 36 a6 a2 3d 8b 91 cd bd 3e 86 43 bd
       -0.094405666 0.079418585 -0.10037526 -0.047735445
000120 f0 fd d1 bd a9 13 cf 3d c7 f4 b8 bd 33 c8 ee 3e
       -0.10253513 0.10111172 -0.090310626 0.46637115
000130 37 a4 10 be eb ee 70 bd 96 d2 59 3d fe 97 4c 3c
       -0.14125143 -0.0588216 0.053179346 0.01248741
000140 e6 52 24 be 05 51 93 bd 22 0c 05 3d d2 18 bc bd
       -0.16047248 -0.071931876 0.032482274 -0.091844216
000150 36 5a e4 3c cf 12 12 bc 5e 9d 81 bd 4b bd 0f 3e
       0.027875047 -0.008915617 -0.063288435 0.14037053
000160 e5 ed 29 3d 43 f4 46 be 24 e9 95 bd 62 f4 eb bd
       0.04148664 -0.19429116 -0.07319859 -0.11521222
000170 c5 eb 39 be 08 9b 83 bd 87 1a 96 3e 42 b4 23 bd
       -0.18156345 -0.06426054 0.29317114 -0.03996683
000180 68 fe a0 3d c6 aa 31 3c b5 bb 06 be 0a e4 e4 3d
       0.07861024 0.010843938 -0.13157542 0.111763075
000190 6b 61 04 be 91 1e af 3c d8 d6 f6 bd ee e4 7b be
       -0.12927787 0.02137688 -0.12052697 -0.24599048
0001a0 74 95 2a 3c 90 47 95 bc 7d 19 4e bd 94 05 09 be
       0.010411609 -0.0182226 -0.050317276 -0.13381034
0001b0 45 61 45 be 36 75 e3 bd 0e 4a 56 bd 78 3d ca bd
       -0.19275387 -0.111063406 -0.052316718 -0.098750055
0001c0 b0 50 a4 bc 41 e4 19 3e e4 af 6a be 6e 16 f1 3b
       -0.020058006 0.15028478 -0.2291866 0.00735741
0001d0 7a ba b7 be 7c f1 2d 3d d8 4c da bd 46 23 9f bd
       -0.35884458 0.042466626 -0.10659188 -0.077704
0001e0 f5 48 74 ba 39 d7 8e 3d 2b a7 17 3d 78 20 a7 3d
       -0.0009318733 0.06974644 0.03702466 0.0816049
0001f0 b0 6c 57 bc f7 73 52 bd 6d 89 83 3d c7 b9 d8 bc
       -0.013148472 -0.051380124 0.06422696 -0.026455773
000200 f7 b5 24 3e a7 b4 16 3e 5f 38 05 be 69 0b 62 3d
       0.16085039 0.14717351 -0.13009785 0.055186663
000210 b3 b7 d0 3c 05 ac b9 3b fe fa 1a 3e 2c 83 f4 3d
       0.02547822 0.0056662583 0.15134808 0.119390815
000220 3c 8c dc bd 88 87 3b bd 07 3f 26 bd 3d a3 16 3f
       -0.10768935 -0.04578355 -0.04058745 0.5884283
000230 7a 2b 6e be c8 d2 84 be a7 e6 a3 bb f1 cd 00 3e
       -0.23258772 -0.25942063 -0.005001861 0.1257856
000240 c7 dd 81 be 05 81 c0 3d ce 1a 52 bd 93 99 44 3d
       -0.25364515 0.093996085 -0.051295094 0.047998022
000250 21 8c b2 3e 2a 66 89 3d a9 46 e6 3d ab 16 a2 3d
       0.34872535 0.067089394 0.11243946 0.0791448
000260 cb 0c c5 bd 06 54 1a bd 00 0e 6a bd 20 76 42 bc
       -0.09621581 -0.037677787 -0.057142258 -0.0118689835
000270 a9 62 6a be 68 e0 8e 3b 1a d6 ba 3e d7 46 4d bd
       -0.22889198 0.0043602474 0.36491472 -0.050116386
000280 a5 e3 d7 bd 18 e2 ac 3c 08 f8 07 3d 9f f8 19 3e
       -0.105414666 0.021103904 0.033195525 0.15036248
000290 28 f8 c1 bc 26 1e a2 3d be 2e b7 3d f7 96 81 be
       -0.0236779 0.079159066 0.08944462 -0.2531049
0002a0 c4 0a 5c be 93 4b 1a 3d 38 4f 40 be b7 cc ba bd
       -0.21488482 0.03766973 -0.1878022 -0.091210775
0002b0 76 99 12 3d 80 ad 92 bd 5d 01 2b be c0 15 39 bd
       0.035790883 -0.07161999 -0.16699739 -0.045186758
0002c0 21 8f 79 3d 9a 85 9f bb c6 1f 7c bd aa b8 f6 3d
       0.060927514 -0.0048682215 -0.06155374 0.120469406
0002d0 03 89 22 be e6 37 87 bd 42 f8 b3 3c 37 bf 41 bd
       -0.15872578 -0.06602459 0.021968964 -0.047301497
0002e0 39 c6 08 bc 17 29 83 3d c2 ec 5e 3d 82 e6 56 3e
       -0.008348041 0.06404322 0.05442501 0.20986369
0002f0 54 14 41 bd b6 40 77 bc 78 6a b2 3c 13 9d e4 3c
       -0.047138527 -0.015091112 0.021779284 0.02790693
000300 cc d6 10 3e 75 97 0c bd 1c 49 f2 bb d8 a2 ad bd
       0.14144439 -0.03432413 -0.007393969 -0.084783256
000310 77 9a bd bd 17 ae 35 bd 48 ef 7e bd 15 30 84 bc
       -0.092579775 -0.04435548 -0.062239915 -0.016136209
000320 84 73 28 3d a8 1c 88 ba 69 5f eb 3d c4 66 1d 3e
       0.04112579 -0.0010384517 0.114928074 0.15371233
000330 ec a0 2f be 46 d5 53 bd 2b 54 98 3d 9e f2 09 be
       -0.1715123 -0.051717065 0.07437929 -0.13471457
000340 da 25 0c be 31 d3 da 3d 5e f0 85 bd f2 ef 14 3e
       -0.13686314 0.10684813 -0.06539987 0.14544657
000350 ff 69 b5 3d c0 7d b8 bc c2 a6 fd 3d 4b 8f eb bd
       0.08858108 -0.0225209 0.12385322 -0.1150194
000360 22 17 ae 3d a1 f6 ca bd 14 31 73 3d 40 03 b4 bb
       0.08500506 -0.09910322 0.059372976 -0.0054935515
000370 66 8f 55 3c 4e 6c 03 3d 1e 2c 8e 3d c2 96 9a 3d
       0.013034677 0.03208571 0.069420084 0.07548286
000380 ac c3 9f 3d c0 84 ca bc 1c b5 f0 bd 7e 7a 64 3d
       0.07800993 -0.024721503 -0.11753294 0.05578088
000390 5c b1 34 bb ab d8 83 bc 3c e9 23 3d df b4 58 bc
       -0.0027571535 -0.016094526 0.04001735 -0.013226717
0003a0 cc 44 00 3d f1 36 e2 39 3f 41 f8 3b 2f b9 f6 3b
       0.03131561 0.00043147014 0.0075761373 0.0075294
0003b0 6e 01 78 bc c3 62 0f bd 42 6f 16 bd c6 62 e7 3d
       -0.01513706 -0.035006296 -0.036727197 0.112981364
0003c0 6f 58 65 3d 38 23 fd bd 09 57 88 bc 7f 00 66 3b
       0.05599254 -0.12360233 -0.016643064 0.003509551
0003d0 d8 30 0c be 1e a0 ea 3d 3c ed 2f bd a7 8c 8a bb
       -0.13690507 0.11456321 -0.042950854 -0.004228193
0003e0 2c f1 b5 3d c5 dc 9a bd 98 61 07 bd 20 54 d6 3c
       0.088838905 -0.0756164 -0.033052057 0.02616316
0003f0 b8 cd 9a bc af b3 d6 bd 75 37 75 3c ae 0a 84 ba
       -0.018896922 -0.10483491 0.014966835 -0.0010073984

hidden3.bias f4 [128]
000000 2f 76 c6 bd be 9b 23 bd 76 ce be 3c 35 4d 9b bd
       -0.096905105 -0.03994345 0.023291808 -0.075830854
000010 1c 0e f7 bd d0 74 86 be f4 f5 db bd e9 0a eb bd
       -0.12063238 -0.26260996 -0.10740271 -0.1147669
000020 5d 9a 15 be 8f 80 1c be d5 75 92 bd fd d3 a9 bd
       -0.14609666 -0.15283416 -0.07151381 -0.08292387
000030 91 29 37 bd 42 2f a7 bd 6a 09 07 be ef 94 a0 bd
       -0.044717375 -0.081633106 -0.13187185 -0.07840907
000040 e0 90 c6 bd d0 b0 76 3d 0b ff 9a 3d be 74 0a be
       -0.096956015 0.060227215 0.07568177 -0.13521096
000050 e6 7b cc bd 83 ee 51 be 29 80 3f 3d 63 83 b4 bd
       -0.09984569 -0.20501141 0.046753082 -0.088141225
000060 a8 ab c2 bd 81 2e 43 bd 6e c8 cd bd a5 31 99 3d
       -0.09505397 -0.04765177 -0.100479946 0.07480172
000070 02 4f e4 bd ff 5a 9c 3d ea 92 66 bd e0 b0 d6 bd
       -0.11147882 0.07634544 -0.056292452 -0.10482955
000080 10 3d f4 bc 7a 73 06 bc 4d 1d 49 bd 51 d1 02 be
       -0.029814273 -0.008206243 -0.04910021 -0.1277516
000090 17 16 c0 bc 98 6c 80 bd 13 cd 6c bd d4 9f 87 bd
       -0.023448033 -0.062707126 -0.05781276 -0.06622282
0000a0 c6 8c 50 bd 24 0f 72 be f0 0c 81 bd 33 67 bb bd
       -0.050915502 -0.23638588 -0.06301296 -0.09150543
0000b0 26 8d 9d 3c 19 a0 e1 bd b4 e1 da bd 9e 2f c2 bd
       0.019232344 -0.11016864 -0.10687581 -0.094817385
0000c0 eb 2b 1d bd 09 20 f0 3d 20 9a fb bd 2a 00 b8 bd
       -0.03837196 0.1172486 -0.122852564 -0.08984406
0000d0 32 f1 b1 bd ab be 9c bd fa c8 20 be e0 7f 40 bd
       -0.086885825 -0.076535545 -0.15701666 -0.04699695
0000e0 da 06 ee bc ad 20 f8 3b bf 02 a6 3c 09 58 a4 bd
       -0.029056001 0.0075722546 0.020264981 -0.08024604
0000f0 87 24 3f bd f0 23 fe bd f1 11 04 3e f4 ea 3f bd
       -0.046665695 -0.12409198 0.12897469 -0.046854928
000100 79 35 73 bd c2 9b b4 bc 66 72 60 bd f8 54 b9 bd
       -0.059377167 -0.022046927 -0.0547966 -0.0904941
000110 45 fc 97 3c b8 15 20 be c9 30 8c bd ce 25 1e be
       0.018552909 -0.15633285 -0.068452425 -0.15444109
000120 98 67 0a bd 84 0b 0d be 9c a0 d6 bc 1c 5b 8f 3d
       -0.0337902 -0.13773924 -0.026199631 0.069997996
000130 5f 25 cc bd e9 5a aa bd 55 4f e7 bd ae 5d 48 bd
       -0.099680655 -0.08318121 -0.11294428 -0.048917465
000140 14 1f 20 bc 28 ad f8 bd 59 db c8 3d 46 90 c3 bd
       -0.009773035 -0.12142402 0.09807462 -0.09549002
000150 83 f9 ab bd d1 d5 4b bd b4 e0 d8 bd ee 4e d9 bd
       -0.083972 -0.049764458 -0.10589734 -0.10610758
000160 45 6a 0a bd 6b a3 06 bd 7b f6 e7 bd 49 3b 89 bd
       -0.033792753 -0.03287069 -0.11326309 -0.06700761
000170 73 fd 26 3c 70 5f df bc 4d 77 17 3b 41 51 d0 bc
       0.010192263 -0.027267188 0.002311188 -0.02542937
000180 e7 d0 01 3c a5 73 ef bd 0c 83 05 bb 3d 95 42 be
       0.007923341 -0.11691979 -0.00203723 -0.19002242
000190 fb f3 ed bd ce a3 fc bd a1 42 d5 bd f7 b5 fe bd
       -0.11618801 -0.12335931 -0.10413099 -0.12437051
0001a0 7a 0f 27 bd 9d d5 42 bd ca 7f fb bd 04 a7 24 bd
       -0.040786244 -0.047567 -0.12280233 -0.04019834
0001b0 3f 01 9d bc 0d 67 8f bc 24 cc 98 bd bc 6e e0 3c
       -0.019165633 -0.017505193 -0.07460812 0.027396552
0001c0 22 46 5f bd 4c b1 d2 bd 8d c7 b4 bd 20 87 8c bd
       -0.054510243 -0.10287723 -0.08827124 -0.068617105
0001d0 0b 96 c5 bd af 8c 74 bc d9 ef 9b bd e0 92 d5 bd
       -0.09647759 -0.01492612 -0.07614107 -0.10428405
0001e0 05 85 cb bd 3d 87 06 bc fa a3 94 3d 70 01 e5 3d
       -0.09937481 -0.008210954 0.072578385 0.11181915
0001f0 b2 5b 19 be 5b 69 ea bd fd 49 f9 bb 45 f9 02 be
       -0.14976385 -0.11445876 -0.007607697 -0.12790401

output.weight f4 [1, 128]
000000 47 5e e0 3c 2f 4d 18 bc 1c ca 52 bd d4 3a 8e 39
       0.027388705 -0.009295746 -0.051462278 0.0002712818
000010 83 ac 80 3a 0a 41 4b 3d 24 b2 85 3c 32 c2 b5 3b
       0.0009817037 0.049622573 0.016320296 0.0055468315
000020 91 45 d0 3b 02 96 61 3d 78 5f 40 bc 85 93 af bc
       0.006355949 0.0550747 -0.0117415115 -0.021432647
000030 e5 1d 20 bd 68 f1 75 bc 70 ec 4a bb 4f 15 72 bb
       -0.03909101 -0.015011169 -0.0030963682 -0.003693897
000040 6b 6a 0d 3e 42 5c 70 3d 76 9b 7b bd f5 75 4f 3d
       0.13810126 0.058681734 -0.061427556 0.050649602
000050 9f c7 13 3b 9b 3f a8 ba 3b d1 48 be aa 17 ae 3b
       0.0022549403 -0.0012836339 -0.19611065 0.0053128796
000060 34 bc f7 bc 70 ec 0c bc 0b db 85 bd 85 94 98 3c
       -0.03024111 -0.008601293 -0.0653592 0.018625507
000070 4c 76 fb 3c df e5 0a 3d fa 5e 8c 3a ee 49 43 bd
       0.030696057 0.03391063 0.0010709458 -0.047677927
000080 6c 2d 7e 3c 70 89 da bd 23 ab 02 bc 0f 43 4a bc
       0.015513759 -0.106707454 -0.0079753725 -0.01234509
000090 e2 6f 28 bc 4c 1e 81 3c ba 8d c6 3a c7 72 e7 3b
       -0.010280581 0.015761517 0.0015148439 0.007063243
0000a0 68 61 5a 3c 43 4e ba 3c 33 8f ae bb 64 29 3c 3c
       0.0133288875 0.022742396 -0.0053271293 0.011484478
0000b0 e5 31 ea bd e6 e7 64 b9 69 02 54 bd 1f b1 db bc
       -0.11435298 -0.00021830163 -0.05176011 -0.026817856
0000c0 02 ba 46 3d 18 4a a6 3d 6f 5c 88 3d c7 96 26 3d
       0.048517235 0.08119601 0.06658255 0.040671136
0000d0 e5 a7 a1 3d 6b f1 aa bb 3f d9 3f 39 6e ac 03 bc
       0.078933515 -0.0052167675 0.0001829611 -0.008036716
0000e0 75 2f 82 bc 6c 58 8f bc 2f 9d a9 3e d0 e3 c4 bb
       -0.01589177 -0.017498218 0.33127734 -0.0060086027
0000f0 b6 82 c8 3b 7b 85 39 3c 9e 5b d5 3d 39 94 c5 3c
       0.0061190976 0.011323328 0.10417865 0.02411853
000100 5b 28 80 3c 53 ea c0 bd b9 e3 ea bc eb 52 a8 39
       0.015644243 -0.09419694 -0.02867304 0.00032105236
000110 14 b4 48 3a e3 56 87 bc 8e 69 f8 bb ef 31 2f 3c
       0.0007656228 -0.016520923 -0.0075809425 0.010693057
000120 56 5f 8f 3b d9 d0 59 3c 9c 17 c4 3d 06 12 7c 3d
       0.0043753786 0.013294422 0.09574816 0.061540626
000130 9f af 7b 3b e2 17 ce bc c8 74 9f bb 37 b1 a0 bd
       0.003840424 -0.025157873 -0.0048662163 -0.07846301
000140 96 a8 ae 3a af f4 ea bc 9b 25 33 3d 45 22 9d bd
       0.0013325389 -0.028681127 0.043737035 -0.07672552
000150 3d e8 a5 3b 6d cb 6a 3c ce db 19 bc 97 a6 4d 3c
       0.0050630854 0.014330727 -0.009390784 0.012551925
000160 9f 71 96 3c 7b e9 e4 3c 98 26 92 bb 5e 0f d1 3b
       0.018364726 0.027943363 -0.004460167 0.0063800057
000170 ea 9e d6 bc 76 82 d7 bd 4e 14 49 3e 24 b6 c9 bd
       -0.026198823 -0.1052293 0.19636652 -0.09849194
000180 63 ea e5 3b 73 88 93 ba 31 36 01 bc 29 b7 47 3d
       0.0070164665 -0.0011255875 -0.007886455 0.04875866
000190 00 ce 08 3c 60 3f 0d bb e3 eb ab 3c 0b d9 ea 3c
       0.0083498955 -0.0021552667 0.020986503 0.028667947
0001a0 6e 2f 2e bc c0 81 52 3b ce 74 c5 3c 4d 4e e6 bd
       -0.010631425 0.0032120794 0.024103548 -0.112454034
0001b0 22 be 7b 3b 63 3c 34 bc b1 2c ed 3c d5 1f 37 be
       0.0038412889 -0.011000725 0.028951975 -0.17883237
0001c0 27 c1 94 3c 45 53 44 bb a8 0e b4 3c 34 b8 1a 3c
       0.018158508 -0.002995686 0.021979645 0.0094433315
0001d0 f7 e0 68 b9 ad 32 af 3b 6d 38 ed bb 7a c2 2f bd
       -0.0002220905 0.005346617 -0.0072393925 -0.042910077
0001e0 84 11 a7 bb a5 e1 1d be b9 e3 5d 3d 4f 94 a5 3d
       -0.0050985236 -0.15418108 0.05417225 0.08084928
0001f0 d7 f1 4b 3c 79 ba 88 3e 9e 5c c1 bc aa 28 3e bc
       0.012447796 0.26704767 -0.023603734 -0.011606375
