models/MagneticPendulum/p-1_measure_x1*cos(30) + x2*sin(30)_N7_sep/q_model_state_dict.pth (torch, 182802 bytes, 10 tensors)

hidden1.weight f4 [32, 7]
0	0x3ec67552	0.38761383
1	0xbea480fd	-0.3212966
2	0x3dcfdd51	0.10149635
3	0x3f8dba05	1.1072394
4	0xbe0818c7	-0.13290702
5	0x3ef2fd71	0.47458985
6	0xbe509b18	-0.20371664
7	0x3e44e6ea	0.19228712
8	0x3d5737d8	0.05254349
9	0xbd3d8fa0	-0.04627955
10	0x3dd6b274	0.10483256
11	0x3c98bed0	0.018645674
12	0x3e0d5b36	0.13804325
13	0xbe16d403	-0.14729314
14	0xbe213793	-0.15743856
15	0xbe0b18d9	-0.13583697
16	0xbf3fccc1	-0.74921805
17	0xbf688632	-0.90829766
18	0x3f74fa0d	0.9569405
19	0x3e029c58	0.12754953
20	0x3e100ea0	0.14068079
21	0xbeee5177	-0.46546528
22	0xbd863d3a	-0.06554647
23	0xbf86069a	-1.0470765
24	0xbfa28933	-1.269812
25	0x3d5749eb	0.052560728
26	0x3eff6597	0.49882194
27	0x3d5fcf01	0.054640774
28	0xbecd6a38	-0.401201
29	0x3e7a9691	0.24471499
30	0xbeebebd8	-0.46078372
31	0x3fcfeb63	1.6243709
32	0x3e822dcf	0.25425574
33	0x3eb7ee07	0.35923788
34	0xbeb56b34	-0.35433352
35	0xbe104565	-0.14088972
36	0x3f28b91d	0.6590746
37	0xbe64ac1b	-0.22331278
38	0x3ee6b363	0.45058736
39	0xbe2ced8c	-0.16887492
40	0x3ef36dd7	0.4754474
41	0xbe96d837	-0.29461834
42	0x3f0730f3	0.52809066
43	0xbcd8192d	-0.026379192
44	0xbd7bab57	-0.0614427
45	0xbf0f041e	-0.5586566
46	0xbe0714dc	-0.13191551
47	0xba878b33	-0.0010341167
48	0xbe2edc0b	-0.17076127
49	0xbb474a0f	-0.0030409133
50	0xbf17b125	-0.59254676
51	0x3d3234c5	0.043507356
52	0x3eb89fe8	0.360595
53	0xbee27255	-0.44227853
54	0x3e93d4e4	0.2887336
55	0x3d8991a9	0.067172356
56	0x3e710c09	0.23539747
57	0xbe56747d	-0.20942874
58	0x3f72aa3b	0.94791
59	0x3f976de8	1.1830416
60	0x3e4ab7ad	0.19796629
61	0x3ed40f55	0.41417947
62	0xbd28c544	-0.041203752
63	0x3eef4fde	0.4674062
64	0xbe4a4899	-0.19754256
65	0xbea8d025	-0.32971302
66	0xbdf6c28a	-0.12048824
67	0x3f069ea8	0.5258584
68	0xbe1c3118	-0.15253103
69	0xbf0dd167	-0.5539765
70	0x3f007710	0.50181675
71	0xbd1f3b13	-0.038874697
72	0x3e90f5ec	0.28312624
73	0xbf6d6967	-0.92738956
74	0x3e18803f	0.14892672
75	0xbee2be04	-0.44285595
76	0x3de3c89d	0.11122248
77	0x3e97bdc6	0.29636973
78	0xbeeea69c	-0.46611488
79	0x3f58e62e	0.84726226
80	0xc00f2e1d	-2.2371895
81	0xbe4c842d	-0.19972296
82	0xbf03d12d	-0.5149105
83	0xbd956a5b	-0.07295676
84	0x3e1f155f	0.15535496
85	0xbf65eb87	-0.8981251
86	0xbe9ae285	-0.30250946
87	0x3f6ad92f	0.91737646
88	0xbe134aec	-0.14384049
89	0x3ea31d7b	0.3185843
90	0x3e87b239	0.2650316
91	0xbe406440	-0.18788242
92	0xbddc3cfd	-0.1075382
93	0xbcab78ed	-0.020931685
94	0xc03d3eca	-2.9569573
95	0xbe207498	-0.15669477
96	0xbf653668	-0.8953614
97	0xbc6bcb29	-0.014391699
98	0xbf111922	-0.56678975
99	0xbdb648a4	-0.08900574
100	0x3fd2b5ba	1.6461709
101	0xbf6301aa	-0.88674414
102	0x3eece46f	0.4626803
103	0xbd6a0139	-0.057130072
104	0xbe903762	-0.28167254
105	0xbee41c47	-0.44552824
106	0x3f32b019	0.69799954
107	0xbed9acf0	-0.42514753
108	0x3f23b2fa	0.6394497
109	0xbe05c29f	-0.13062523
110	0xbe20747a	-0.15669432
111	0x3eb15434	0.34634554
112	0x3f1d6865	0.6148742
113	0xbeb026c2	-0.3440457
114	0x3db5120f	0.08841335
115	0x3fa6b333	1.3023437
116	0x3f06a1ac	0.5259044
117	0x3e94e657	0.29081985
118	0xbe87b7a0	-0.26507282
119	0xbf52f639	-0.82406956
120	0xbf244c44	-0.6417887
121	0xbe4179f5	-0.18894179
122	0x3ecddd77	0.40208027
123	0xbea95b04	-0.33077252
124	0x3f03c56b	0.5147311
125	0xbe6d9807	-0.23202525
126	0xbf08deed	-0.5346516
127	0x3e5c9b3a	0.21543589
128	0x3f0185a7	0.5059456
129	0x3fd96efc	1.6986995
130	0xbcba080e	-0.022708919
131	0x3eb39730	0.35076284
132	0x3e85fe68	0.2617066
133	0x3eacbbbc	0.3373698
134	0x3eeabee7	0.45848772
135	0x3f76d2e5	0.9641555
136	0x3f7b4a1c	0.98159957
137	0x3bcbe2cf	0.006222106
138	0xbf3528a8	-0.7076516
139	0xbe5ad001	-0.2136841
140	0xbe862444	-0.26199543
141	0xbc642a5d	-0.013926116
142	0xbf7a93c8	-0.97881746
143	0x3f214069	0.6298891
144	0xbd395cd2	-0.045254536
145	0xbf169e2f	-0.5883512
146	0x3e78b7bc	0.24288839
147	0x3e83f8ad	0.25775662
148	0x3ed8edab	0.42368826
149	0x3eb2d11c	0.34925163
150	0xbfb794c2	-1.4342272
151	0x3ea21e54	0.31663764
152	0xbf18c983	-0.5968248
153	0x3bc9e692	0.0061615193
154	0xbf008947	-0.5020947
155	0xbe8674e7	-0.26261064
156	0xbe291ca5	-0.16514833
157	0xbee06532	-0.43827206
158	0x3ee82f32	0.45348507
159	0x3e57392d	0.21017905
160	0xbede3b71	-0.43404725
161	0x3ed961f1	0.42457536
162	0x3e373fd1	0.17895438
163	0x3ed535c2	0.41642576
164	0xbefc6c88	-0.49301553
165	0xbebc330f	-0.36757705
166	0x3ead219e	0.3381471
167	0xbe28ac6d	-0.16472025
168	0xbef34373	-0.47512397
169	0xbe7ac2ff	-0.24488448
170	0xbe625af7	-0.22105013
171	0x3d01394d	0.031548787
172	0xbdb4cd2c	-0.08828196
173	0x3fadb510	1.3570881
174	0x3e9043b4	0.28176653
175	0x3f280291	0.65628916
176	0x3ea94ad6	0.33064908
177	0x3ed0d6c9	0.40788868
178	0xbe91eecc	-0.285025
179	0x3ec3c765	0.38238063
180	0x3e91da16	0.284867
181	0xbd839720	-0.06425309
182	0xbf0a62e9	-0.54057175
183	0xbd1b1755	-0.037864048
184	0xbf82e053	-1.0224708
185	0x3f07f41e	0.5310687
186	0xbe9ad090	-0.30237246
187	0x3ece4a5b	0.40291104
188	0xbe23e8d8	-0.16006792
189	0xbf0e854f	-0.5567216
190	0x3f2938cd	0.66102296
191	0x3ebcc0f9	0.36865976
192	0xbe6a3d82	-0.22875026
193	0xbdfdbeab	-0.12389883
194	0x3f01ed18	0.507524
195	0xbe457eac	-0.19286603
196	0x3eaf5225	0.3424236
197	0x3d90a62b	0.07062944
198	0x3fca5afd	1.5809017
199	0xbf35daa2	-0.7103673
200	0x3e2f1cda	0.1710085
201	0xbf08eb23	-0.5348379
202	0x3ebe5926	0.3717739
203	0xbc52660d	-0.012841714
204	0x3e83b3ab	0.25723013
205	0xbedb4ab2	-0.42830426
206	0x3fe04aed	1.7522866
207	0x3e1615f8	0.14656818
208	0x3f7719ff	0.9652404
209	0x3e0df05c	0.13861221
210	0x3d487a32	0.04894466
211	0x3e4e11d4	0.20123988
212	0xbfdfa277	-1.7471455
213	0xbe8e3c5c	-0.27780426
214	0x3dcd71a4	0.10031441
215	0x3f16b712	0.58873093
216	0x3e9d4736	0.30718392
217	0xbea5595d	-0.3229474
218	0xbed8cedf	-0.4234533
219	0x3f0c0af7	0.5470423
220	0x3ebe2b71	0.37142518
221	0x3f1a4f21	0.6027699
222	0xbf3d88b8	-0.7403674
223	0xbdf40874	-0.11915675

hidden1.bias f4 [32]
0	0x3e00ed16	0.12590441
1	0xbe8b0a59	-0.27156332
2	0x3d858e4d	0.06521282
3	0x3e09a018	0.13439977
4	0x3e9123df	0.2834768
5	0x3def25d5	0.11677138
6	0xbdda1c66	-0.10649948
7	0xbe8c43f6	-0.273956
8	0x3e118daf	0.14214204
9	0xbe99aaea	-0.3001321
10	0xbe032840	-0.12808323
11	0x3dfabc75	0.122429766
12	0xbccd7c86	-0.025083791
13	0x3dd1df76	0.102477
14	0x3e4b28ce	0.19839785
15	0xbea67faa	-0.32519275
16	0xbe86e9b8	-0.26350188
17	0xbce4a032	-0.027908418
18	0x3ddcf76e	0.10789381
19	0x3d9e28e2	0.077226415
20	0xbc288369	-0.010285237
21	0xbc34bfa9	-0.0110320235
22	0xbeb6b38a	-0.35683852
23	0xbe9d9121	-0.30774787
24	0xbe8c4a95	-0.27400652
25	0x3e83ec07	0.25766012
26	0x3e496d33	0.19670562
27	0xbd89ea35	-0.067341246
28	0x3d53c192	0.051698275
29	0x3d73daaf	0.059534725
30	0x3d9a4283	0.07532217
31	0xbe7ab123	-0.24481635

hidden2.weight f4 [64, 32]
0	0x3d575f63	0.052581202
1	0x3dde8eba	0.10867067
2	0xbea9eda0	-0.33189106
3	0x3d718196	0.058961473
4	0x3e8f19f8	0.279495
5	0x3e8e5ad2	0.27803665
6	0xbd890344	-0.06690076
7	0x3bf750e8	0.0075474866
8	0xbd2dca3f	-0.042429205
9	0xbea784bc	-0.32718456
10	0xbda14966	-0.07875328
11	0xbecebf8a	-0.40380508
12	0xbe416bc3	-0.18888764
13	0xbe30f331	-0.1728027
14	0xbda033f1	-0.07822407
15	0x3e99ba54	0.3002497
16	0xbd7ba21d	-0.0614339
17	0x3e270df9	0.16313924
18	0x3c5197c7	0.012792534
19	0xbe846506	-0.25858325
20	0xbd710b85	-0.058848877
21	0xbe0620f0	-0.13098502
22	0xbef531c4	-0.4788953
23	0xbe4231a5	-0.1896425
24	0x3e5f7a49	0.21823992
25	0x3d766697	0.06015643
26	0x3e8a270b	0.26982912
27	0xbdf1af3a	-0.11801
28	0xbf18abb1	-0.5963698
29	0x3d9bcbcf	0.07607233
30	0x3e430998	0.19046628
31	0x3e63b7e5	0.22238119
32	0x3d8558f7	0.06511109
33	0x3d1228a0	0.035683274
34	0xbedad56a	-0.42740947
35	0xbe19bc29	-0.15013184
36	0x3d7918ea	0.060814776
37	0x3de99c7a	0.11406799
38	0xbeaeed48	-0.34165406
39	0xbeec69bc	-0.4617442
40	0xbda2fea9	-0.07958729
41	0xbe0efc18	-0.13963354
42	0xbf2c4cbf	-0.67304605
43	0xbe66916a	-0.22516409
44	0xbc5e069f	-0.013551383
45	0xbe4768df	-0.19473599
46	0xbeac3c80	-0.33639908
47	0xbe719bae	-0.23594543
48	0xbe88f247	-0.26747343
49	0xbf053d1c	-0.5204637
50	0xbe6c3929	-0.2306868
51	0x3cb75196	0.02237777
52	0x3ecc2361	0.39870742
53	0x3daf609c	0.08563349
54	0xbe054a00	-0.1301651
55	0xbf7efcfd	-0.9960478
56	0x3e59a985	0.21256073
57	0xbd00573d	-0.031333197
58	0x3e2b8b4b	0.16752355
59	0xbed7b670	-0.42131376
60	0xbee1e494	-0.44119704
61	0x3e8135ff	0.25236508
62	0x3ede23ac	0.4338659
63	0x3e345a55	0.17612584
64	0xbdc5ff24	-0.09667805
65	0xbc5b4bc0	-0.013384759
66	0xbd8e0c16	-0.06935899
67	0xbe05aadc	-0.13053459
68	0x3c895d23	0.016768044
69	0xbe021b19	-0.1270565
70	0xbe21fa15	-0.15818055
71	0x3cd6ef57	0.026237173
72	0xbe42aa9a	-0.19010392
73	0xbdaa4583	-0.083140396
74	0x3cf1cfcd	0.029518032
75	0x3c1eb882	0.009687545
76	0x3dce592b	0.10075601
77	0xbe2588f8	-0.1616553
78	0xbbd6a28a	-0.006550138
79	0xbd5e9cc4	-0.054348722
80	0xbdccf7dd	-0.10008214
81	0xbe0f49c6	-0.13992986
82	0x3cd69eb7	0.026198728
83	0xbd7049b7	-0.05866405
84	0xbe273ff9	-0.16332997
85	0xbe138430	-0.14405894
86	0xbe1da833	-0.15396194
87	0x3e316921	0.1732526
88	0xbd6eb017	-0.0582734
89	0xbdf8b566	-0.12143974
90	0xbe0f4650	-0.13991666
91	0xbdbedfaa	-0.09320004
92	0xbe6d3b30	-0.2316711
93	0xbe39df1f	-0.1815152
94	0x3cb7d205	0.022439012
95	0x3d02af52	0.03190548
96	0xbdce6642	-0.10078098
97	0xbd88d1a4	-0.06680611
98	0xbea91ad8	-0.33028293
99	0x3e11b23e	0.1422815
100	0x3e136977	0.143957
101	0x3dc394fe	0.095499024
102	0xbe439bf4	-0.1910246
103	0x3e63aa27	0.22232877
104	0xbe364af5	-0.17802031
105	0xbd2e7679	-0.042593453
106	0xbe906554	-0.28202307
107	0xbddac211	-0.106815465
108	0x3d84e900	0.06489754
109	0x3d6ce9cb	0.05784015
110	0xbeeb225b	-0.4592465
111	0xbebe3a15	-0.37153688
112	0xbe98923a	-0.29799062
113	0x3ea90ed9	0.3301914
114	0xbe619281	-0.22028543
115	0x3d8bdc45	0.068291225
116	0x3c65c31f	0.014023571
117	0x3bb52c10	0.0055289343
118	0x3e0e28b4	0.13882715
119	0xbd9be53b	-0.076120816
120	0xbe95a12d	-0.2922453
121	0x3e22f85b	0.15915053
122	0x3e02e880	0.12784004
123	0xbe1287f8	-0.1430968
124	0xbe9456bd	-0.28972426
125	0xbe2452dc	-0.16047233
126	0x3e96fb4e	0.29488605
127	0xbc929d8a	-0.017897386
128	0xbe42111e	-0.18951842
129	0x3de81f2e	0.11334072
130	0xbba05bae	-0.0048937416
131	0xbd172081	-0.036896233
132	0xbdd14d9b	-0.1021988
133	0xbdc8ebb4	-0.09810582
134	0x3c63255e	0.0138638895
135	0x3d975b24	0.073904306
136	0xbd424dc7	-0.047437456
137	0xbdab3072	-0.083588496
138	0x3e1c78b8	0.15280426
139	0xbd96adac	-0.07357344
140	0x3e035f5e	0.12829348
141	0xbd0b5179	-0.034013245
142	0x3db15145	0.08658079
143	0x3dd0e306	0.10199551
144	0xbda9fc5b	-0.08300086
145	0x3d5e3111	0.054246012
146	0xbd930081	-0.071778305
147	0xbe114eaf	-0.14190172
148	0xbd8b775a	-0.06809874
149	0xbe301783	-0.17196469
150	0xbe0875d4	-0.13326198
151	0xbe003d98	-0.12523496
152	0x3d582368	0.05276814
153	0xbdf0f498	-0.117654026
154	0xbdd25b39	-0.102713056
155	0x3d986fee	0.07443224
156	0x3d9b4ddd	0.075832106
157	0xbe26e8fd	-0.16299815
158	0x3d0cde5a	0.03439174
159	0x3b6a250b	0.0035727646
160	0xbe3149e4	-0.17313343
161	0x3e1d6289	0.1536962
162	0xbddc4b2b	-0.10756525
163	0xbdb75f6f	-0.089537494
164	0xbe2a31c0	-0.1662054
165	0x3de0d1cc	0.109775156
166	0x3be38bc4	0.0069441516
167	0x3e186cb1	0.14885212
168	0xbd1d763e	-0.038442843
169	0x3dc4c8aa	0.09608586
170	0xbda5eca2	-0.08101775
171	0xbe2fb625	-0.17159326
172	0x3ce87800	0.028377533
173	0xbd885ecc	-0.06658706
174	0xbd8d2910	-0.06892598
175	0xbdc2ace8	-0.095056355
176	0x3b6fd5c0	0.003659591
177	0x3d4ff178	0.050767392
178	0x3d0a48a5	0.033760685
179	0xbe46af19	-0.19402732
180	0x3daee87e	0.08540438
181	0xbd089700	-0.03334713
182	0x3df9b456	0.121925995
183	0x3da6a778	0.08137411
184	0xbe0e8e2e	-0.13921425
185	0x3df1472a	0.117811516
186	0xbe40fd7c	-0.18846697
187	0x3d6b8ea4	0.05750908
188	0xbd216505	-0.03940298
189	0x3d0cfd5f	0.03442132
190	0xbdecf6bd	-0.11570499
191	0x3dd9a806	0.10627751
192	0xbdd0b6bc	-0.10191104
193	0xbe200094	-0.1562522
194	0xbe358f71	-0.177305
195	0x3e6fa15d	0.23401399
196	0x3e7f355b	0.24922697
197	0x3d9e432f	0.07727658
198	0xbcc51bd2	-0.024061117
199	0x3d6354b6	0.05550071
200	0xbdcd1366	-0.100134656
201	0xbe84881d	-0.25885096
202	0xbe7f98ad	-0.24960585
203	0xbe2720ee	-0.16321155
204	0xbe480171	-0.195318
205	0xbda7226b	-0.081608616
206	0x3d8fcb88	0.070212424
207	0x3c7e501a	0.015522027
208	0xbbe0f1f0	-0.0068647787
209	0x3d99cdb9	0.075099416
210	0xbdc8a5b4	-0.0979723
211	0xbe615b4f	-0.22007488
212	0xbe621ab6	-0.22080502
213	0xbd863c29	-0.065544434
214	0xbe1dcbe9	-0.15409817
215	0xbf033d7d	-0.512657
216	0x3f03e8f4	0.51527333
217	0x3e50e430	0.20399547
218	0x3e874a91	0.26424077
219	0x3eba6d76	0.36411637
220	0xbf0189a6	-0.5060066
221	0x3e2dab33	0.16959839
222	0x3ee34945	0.44391838
223	0xbd3c2607	-0.045934703
224	0x3e10f42e	0.14155647
225	0xbdc472c0	-0.09592199
226	0xbe985f77	-0.29760334
227	0xbd9a3a71	-0.07530678
228	0x3eaff2fe	0.34365076
229	0xbd2a0cd5	-0.041516144
230	0xbdceb3cd	-0.10092888
231	0x3ca2fbc7	0.019895447
232	0x3e1a8577	0.15089975
233	0x3d8d075c	0.06886169
234	0xbe01a4fc	-0.12660593
235	0xbee64348	-0.44973207
236	0xbd6691f9	-0.056291554
237	0xbf0f617d	-0.5600813
238	0x3db1bb70	0.08678329
239	0x3d296538	0.041356295
240	0x3f20706b	0.62671536
241	0xbea248cf	-0.31696174
242	0x3c988dda	0.018622328
243	0xbd7d36b3	-0.061819743
244	0x3bdac146	0.006675872
245	0xbf484965	-0.7823699
246	0xbdf1eb04	-0.11812404
247	0x3e83ed3c	0.25766933
248	0xbe273513	-0.1632884
249	0xbdb715a4	-0.089396745
250	0xbd0b916b	-0.03407423
251	0xbe8a1c83	-0.26974878
252	0xbe3456c5	-0.17611225
253	0x3e784b6c	0.24247521
254	0xbdcf0b98	-0.10109633
255	0xbe8fc4cb	-0.2807983

hidden2.bias f4 [64]
0	0xbc89aac2	-0.016805056
1	0x3dbf933d	0.09354255
2	0x3d3c42bf	0.04596209
3	0x3b6e5bca	0.0036370629
4	0xbe2f47f5	-0.17117293
5	0xbe413f5c	-0.18871826
6	0xbdb029f7	-0.08601754
7	0x3e2a1ca1	0.16612484
8	0xbe305b60	-0.17222357
9	0xbc89c95b	-0.016819647
10	0x3d9057c2	0.070479885
11	0x3db05ac3	0.086110614
12	0xbe40cc97	-0.18828045
13	0xbe60e8d0	-0.21963811
14	0x3ba86140	0.005138546
15	0x3e159db5	0.14610942
16	0x3d0b997c	0.03408192
17	0xbd7e47de	-0.062080257
18	0xbd935e07	-0.07195669
19	0x3e04e593	0.129782
20	0xbd8a0799	-0.067397304
21	0xbd500f06	-0.050795577
22	0x3a38d4a7	0.00070507306
23	0xbd2f5545	-0.04280593
24	0xbcc2e3dc	-0.023790292
25	0x3de58b7a	0.11208244
26	0xbe3d6780	-0.18496513
27	0xbe6e7b23	-0.2328916
28	0x3c4c4f06	0.0124700125
29	0x39d2d23e	0.00040210964
30	0x3aba41ee	0.0014210322
31	0x3e0df057	0.13861214
32	0xba9e1cd3	-0.0012063034
33	0xbdef6cfd	-0.1169071
34	0x3d1292ac	0.03578441
35	0xbe007104	-0.12543112
36	0xbe8c186a	-0.27362376
37	0x3dc3260c	0.09528741
38	0xbdeed974	-0.1166257
39	0x3ce49004	0.027900703
40	0x3e04457a	0.12917128
41	0xbe8446c4	-0.2583524
42	0x3c417511	0.011807696
43	0x3e37fdcf	0.17967914
44	0x3d443c51	0.047909085
45	0xbe21b789	-0.1579267
46	0x3d7272d3	0.059191536
47	0xbe758e07	-0.2397996
48	0x3db62d72	0.08895387
49	0x3df3e7b9	0.11909432
50	0x3e17fb68	0.14841998
51	0x3be1b4fc	0.00688803
52	0x3e0e7ea3	0.13915496
53	0xbd6433f5	-0.055713613
54	0xbd82f666	-0.06394653
55	0xbcd1fc60	-0.025633037
56	0xbe3b9932	-0.18320158
57	0x3d237f39	0.03991625
58	0x3dd2b1a6	0.1028779
59	0xbc5f4825	-0.01362804
60	0xbdc98ce2	-0.098413244
61	0xbd9caaeb	-0.076497875
62	0x3d89037b	0.06690117
63	0x3d505803	0.050865185

hidden3.weight f4 [128, 64]
0	0x3dc2b203	0.09506609
1	0xbe1182ac	-0.14210004
2	0xbdd7d46c	-0.10538563
3	0xbcaa9e7b	-0.020827523
4	0x3dec9532	0.11551894
5	0x3c03cc40	0.008044302
6	0x3c2a23d0	0.010384515
7	0xbd541bb2	-0.051784225
8	0xbc74e8f0	-0.014948115
9	0x3d0a7c35	0.03380986
10	0x3d8a34b9	0.06748337
11	0xbde1ef0c	-0.11031923
12	0xbdc0ed20	-0.09420228
13	0xbdc70f60	-0.097197294
14	0xbda93efe	-0.08263968
15	0xbda2a85d	-0.07942269
16	0x3d2e455d	0.04254662
17	0xbe349097	-0.17633282
18	0x3db5b262	0.088719144
19	0xbe0874cf	-0.13325809
20	0xbd617023	-0.055038583
21	0xbd36ddd7	-0.044645157
22	0x3d548607	0.05188563
23	0xbe03f17b	-0.12885086
24	0xbe09d7e6	-0.13461265
25	0xbc9eef66	-0.019401263
26	0x3d084877	0.033272233
27	0xbd765314	-0.060137823
28	0x3c6d94e4	0.01450083
29	0xbd50f6c8	-0.0510166
30	0xbe16197a	-0.14658156
31	0xbd0fa0fa	-0.03506563
32	0xbd47257a	-0.048619725
33	0x3cd781b8	0.026306972
34	0xbc44f503	-0.012021306
35	0x3d36a6f3	0.04459281
36	0x3d5d544c	0.05403547
37	0xbe2379ec	-0.15964478
38	0xbdf59898	-0.119919956
39	0xbd2a4b5a	-0.041575767
40	0x3c44f19f	0.012020498
41	0xbdc4ead6	-0.09615104
42	0x3d4328c9	0.047646318
43	0xbd19c438	-0.037540644
44	0xbe1a9906	-0.15097436
45	0x3cf8f1e7	0.030388786
46	0x3d6c4c15	0.057689745
47	0x3bb3654c	0.005474722
48	0xbd841c25	-0.06450681
49	0xbcf2d4ac	-0.029642425
50	0xbdff474f	-0.12464773
51	0x3c22c375	0.009934296
52	0x3c1984ba	0.009370023
53	0xbda76da2	-0.08175208
54	0xbe37eb57	-0.17960869
55	0x3d5a322c	0.053270504
56	0xbdd57033	-0.10421791
57	0xbdf5aa4d	-0.11995373
58	0x3d3cfc98	0.04613933
59	0xbdc396d0	-0.095502496
60	0x3cc30688	0.023806825
61	0x3d8a5aea	0.06755622
62	0xbd8a2e89	-0.06747157
63	0xbdbd0f1d	-0.09231398
64	0xb854d12c	-5.0739545e-05
65	0x3da4dcd6	0.080499336
66	0x3ca30c31	0.019903274
67	0x3dffa02b	0.124817215
68	0xbde5523c	-0.111973256
69	0x3cdf6161	0.027268114
70	0x3da71319	0.081579395
71	0xbdc6bfc0	-0.09704542
72	0xbdd1fdf0	-0.10253513
73	0x3dda658c	0.106639
74	0x3e6fdea8	0.2342478
75	0xbeabdd61	-0.33567336
76	0xbfa76fcd	-1.3080994
77	0x3e8a8a53	0.27058658
78	0x3a84bf68	0.0010127844
79	0xbde7aa94	-0.11311832
80	0x3e68b9e3	0.2272716
81	0xbf9e03ce	-1.2344911
82	0x3b965360	0.004587576
83	0x3d1eb3cb	0.038745683
84	0xbf763e15	-0.9618848
85	0x3d8057b8	0.06266731
86	0xbdcfc989	-0.10145862
87	0xbee50839	-0.44732836
88	0xbee7e3a6	-0.4529087
89	0xbdb8866c	-0.09010014
90	0xbe42580d	-0.18978901
91	0xbddaf15c	-0.10690567
92	0x3da731eb	0.08163818
93	0xbd5d74bd	-0.05406641
94	0xbe4fa367	-0.20277177
95	0x3e8ccb8b	0.2749904
96	0x3dceda20	0.10100198
97	0xbf4cd218	-0.8000808
98	0x3e9f6a46	0.31135768
99	0xbfefce76	-1.8734882
100	0xbf335f9e	-0.70067775
101	0xbe3e7292	-0.18598393
102	0xbdf6d6d8	-0.12052697
103	0xbc9e3e30	-0.019316763
104	0x3e6c5f6f	0.2308328
105	0xbcf1f021	-0.029533448
106	0xbd94024b	-0.07227
107	0x3e2e3724	0.17013222
108	0xbe1e4589	-0.15456213
109	0xbee63f6c	-0.44970262
110	0xbf0d8c84	-0.55292535
111	0xbda63290	-0.08115113
112	0xbde2a403	-0.11066439
113	0x3c933382	0.017968897
114	0xbe01fe4e	-0.12694666
115	0xbe61aa8f	-0.22037719
116	0xbf85d57b	-1.0455774
117	0x3dc294f8	0.0950107
118	0xbd984be0	-0.07436347
119	0x3e124e7d	0.14287753
120	0xbf06ea42	-0.527012
121	0x3f1957fe	0.5989989
122	0xbe1185c1	-0.1421118
123	0x3e212e10	0.15740228
124	0x3c98334a	0.018579144
125	0xbee5b314	-0.44863188
126	0x3e8a3a95	0.2699782
127	0x3e2b28a8	0.16714728
128	0x3e808c44	0.25107014
129	0x3ba0b44f	0.004904307
130	0xbd2549d0	-0.040353596
131	0x3d9d0304	0.07666591
132	0x3cc480ee	0.02398726
133	0xbd69579c	-0.056968316
134	0x3cf2d39a	0.029641915
135	0x3e6904d5	0.2275575
136	0xbddc8c3c	-0.10768935
137	0xbcbf7794	-0.023372449
138	0xbe6e02ef	-0.23243307
139	0xbdc25873	-0.094895266
140	0xbe234451	-0.1594403
141	0x3e831f44	0.2560979
142	0xbe04ab6c	-0.12956017
143	0x3ddac329	0.10681755
144	0x3d576777	0.052588906
145	0x3d018857	0.031624164
146	0xbdf9547c	-0.12174317
147	0xbe53be33	-0.20678024
148	0x3dd37f66	0.10327034
149	0xbe8028f5	-0.25031248
150	0xbdd4c26a	-0.10388644
151	0x3e85e592	0.2615171
152	0x3dee276e	0.11628614
153	0xbc9c9322	-0.019113127
154	0xbec34f99	-0.38146666
155	0xbd81b7bd	-0.063338734
156	0x3e2f48fb	0.17117684
157	0x3e2fe109	0.17175688
158	0xbd518d78	-0.051160306
159	0xbea0500f	-0.3131108
160	0xbf1b2393	-0.60601157
161	0xbdef0de6	-0.11672573
162	0x3de9d50a	0.11417587
163	0x3e8574d4	0.26065695
164	0x3e7369bc	0.23770803
165	0x3a939bc8	0.0011261636
166	0x3db72ebe	0.08944462
167	0xbcee1904	-0.029064663
168	0xbd1efed0	-0.038817227
169	0xbd07e798	-0.03317985
170	0xbd511229	-0.05104271
171	0xbdf8c69c	-0.12147257
172	0xbe0e0772	-0.13870028
173	0xbec2357a	-0.37931424
174	0xbe9022ec	-0.28151643
175	0xbecb9406	-0.3976137
176	0x3eb95c20	0.36203098
177	0xbdccf136	-0.10006945
178	0xbe7bf596	-0.24605402
179	0x3f0aa47b	0.5415723
180	0x3f062fbe	0.524166
181	0xbe616ccd	-0.2201416
182	0x3d2f1485	0.04274418
183	0xbf6e1ba9	-0.93010956
184	0xbf2cd78e	-0.6751641
185	0xbe220244	-0.15821177
186	0xbde237da	-0.11045809
187	0x3e3143db	0.17311041
188	0xbc8c4260	-0.017121494
189	0xbe906d49	-0.28208378
190	0xba519ca5	-0.0007996059
191	0x3d229be6	0.039699458
192	0x3e1a6c62	0.15080407
193	0xbe0d9901	-0.13827898
194	0xbd9cecd2	-0.076623574
195	0xbe7b5d9a	-0.24547425
196	0xbe1d8135	-0.1538132
197	0xbdb89a47	-0.09013801
198	0xbea70120	-0.32618046
199	0x3e650539	0.22365274
200	0x3d287384	0.04112579
201	0xbe779854	-0.24179202
202	0xbe1eb408	-0.15498364
203	0x3e7b1b6c	0.2452218
204	0xbe6cbb8b	-0.23118417
205	0xbed11a23	-0.40840253
206	0x3b682cb3	0.0035427033
207	0xbd3e33bf	-0.046436068
208	0xbec12a9e	-0.37727827
209	0xbe154e5b	-0.14580671
210	0xbdbd273a	-0.092359975
211	0x3ebf8595	0.37406603
212	0xbf10ebcb	-0.5660979
213	0x3ea579d2	0.32319504
214	0x3f0a1a30	0.5394621
215	0xbd117470	-0.035511434
216	0xbdd5d1ec	-0.1044043
217	0xbe76dc80	-0.24107552
218	0x3dbe5834	0.09294167
219	0x3bf2d065	0.0074100965
220	0xbe0410db	-0.12897055
221	0xbe15453b	-0.1457719
222	0x3e739435	0.23787005
223	0x3e240c0c	0.1602022
224	0x3ee76fd2	0.452025
225	0xbeca09aa	-0.39460498
226	0xbeabeba6	-0.33578223
227	0xbe537cba	-0.20653048
228	0xbeb4f1ae	-0.35340637
229	0x3dbe11fe	0.092807755
230	0x3d23e93c	0.04001735
231	0xbf1e3d3a	-0.61812174
232	0xbe14440f	-0.14479087
233	0xbca32386	-0.0199144
234	0xbe5ccdb3	-0.21562843
235	0xbe0e7b64	-0.13914257
236	0x3dc23eb0	0.09484613
237	0xbe075534	-0.13216096
238	0x3e9e000a	0.30859405
239	0xbf8825cb	-1.0636533
240	0x3de7476e	0.11292921
241	0xbd5f530f	-0.05452257
242	0x3ee8dff2	0.45483357
243	0xbee3db1c	-0.44503105
244	0xbeb1c7b6	-0.3472268
245	0x3e1b3ff0	0.15161109
246	0xbe05e91b	-0.13077204
247	0xbf1f8c18	-0.6232314
248	0x3babf658	0.0052478723
249	0x3da2d927	0.07951575
250	0x3e5cad97	0.21550594
251	0xbf28679d	-0.657831
252	0x3d269549	0.040669713
253	0x3dc40507	0.095712714
254	0x3e9b217a	0.30298978
255	0xbd2a3a55	-0.041559536

hidden3.bias f4 [128]
0	0xbe0dc1b6	-0.13843426
1	0x3e23b0c7	0.15985404
2	0x3dfc5bbd	0.12322185
3	0x3daa654c	0.08320102
4	0xbe86964f	-0.2628655
5	0xbea7be56	-0.32762402
6	0xbe0e7632	-0.13912275
7	0xbccc0405	-0.02490426
8	0xbebefbc6	-0.37301463
9	0xbdf80012	-0.121093884
10	0xbd8df04e	-0.069306
11	0x3c795b41	0.0152195105
12	0x3e09b822	0.13449147
13	0xbde21580	-0.11039257
14	0xbd79d69f	-0.060995694
15	0x3ce0abdc	0.027425699
16	0xbe3f8308	-0.18702328
17	0x3de1e4d7	0.11029976
18	0x3dffe10a	0.12494095
19	0xbe08882b	-0.13333194
20	0x3db3fc92	0.08788408
21	0x3d318351	0.043338124
22	0x3e2f283a	0.17105189
23	0xbd41c188	-0.047303706
24	0x3d5bdf87	0.05367997
25	0xbd0ab215	-0.03386124
26	0xbbdd9806	-0.0067625074
27	0x3ddcb7d5	0.10777251
28	0xbd23f96c	-0.04003279
29	0x3e237627	0.1596304
30	0x3baa365a	0.0051944675
31	0xbe21f805	-0.15817268
32	0x3df2e97b	0.11860939
33	0x3d40867d	0.047003258
34	0x3dab59bd	0.083667256
35	0xbe117681	-0.14205362
36	0x3da07ab1	0.078359015
37	0x3da6f1f5	0.081516184
38	0x3d231d13	0.03982265
39	0x3cbc15c8	0.022959605
40	0xbcf1eab3	-0.029530859
41	0xbe10a1b7	-0.1412419
42	0x3e19f1ea	0.15033689
43	0x3dcc9907	0.09990125
44	0xbd92cfbe	-0.0716853
45	0x3dcde7b8	0.100539625
46	0xbe17fe9a	-0.14843217
47	0x3d14fc4e	0.03637343
48	0x3d0b47f3	0.034004163
49	0x3e503ef0	0.20336509
50	0xbe0b0864	-0.1357742
51	0x3c9c1f75	0.019057969
52	0xbe1adcb4	-0.15123254
53	0x3dab27b4	0.08357182
54	0xbe226b75	-0.15861304
55	0xbe5859af	-0.21127962
56	0x3d8e13c0	0.06937361
57	0x3cbf8448	0.023378506
58	0xbd020bc6	-0.03174951
59	0x3dd54dad	0.10415206
60	0x3e4427c0	0.19155788
61	0x3d4d67e3	0.050147902
62	0x3e14a710	0.14516854
63	0x3d1ee145	0.038789053
64	0xbd7f40fa	-0.062317826
65	0x3cfd18a8	0.030895546
66	0x3dfbf949	0.12303407
67	0xbe102b1d	-0.14078946
68	0x3e15aaaf	0.14615892
69	0xbdfe1cb7	-0.12407821
70	0x3e0c95d1	0.13729025
71	0xbe588136	-0.2114304
72	0x3e2a654d	0.16640206
73	0xbe197340	-0.1498537
74	0x3bfc438c	0.007698482
75	0x3d3d3587	0.046193626
76	0xbdd505ce	-0.10401498
77	0xbd5112b9	-0.051043246
78	0x3cfa6dbd	0.030569905
79	0xbd428574	-0.047490552
80	0x3e1815fc	0.14852136
81	0xbe1924c8	-0.14955437
82	0x3e2836ab	0.16427104
83	0xbe063018	-0.13104284
84	0xbdbc3790	-0.09190285
85	0xbd8b5ead	-0.06805167
86	0xbdd5ee07	-0.10445791
87	0xbd133538	-0.035939425
88	0x3e20b231	0.15692975
89	0xbdd1601e	-0.10223411
90	0x3bae0f51	0.0053118845
91	0x3b595605	0.0033162844
92	0x3dd4fc9e	0.103997454
93	0x3e5ccc7d	0.21562381
94	0x3d8bc8dc	0.0682542
95	0x3e001a7f	0.12510107
96	0x3e2f2baa	0.171065
97	0x3c0bb6cc	0.008527469
98	0x3e1d8492	0.15382603
99	0x3b5cec94	0.0033710347
100	0x3c8ea4af	0.017412512
101	0xbdfca3ce	-0.12335931
102	0xbed3983b	-0.4132708
103	0x3e3bf0a1	0.18353511
104	0x3dfd79a1	0.123767145
105	0xbd90590b	-0.070482336
106	0xbdb98a69	-0.09059603
107	0xbdca0912	-0.09865011
108	0x3dd293a7	0.10282069
109	0x3e0fc386	0.1403943
110	0xbdd21d5a	-0.102595046
111	0x3bdfcd84	0.0068299193
112	0x3d2da926	0.04239764
113	0xbe392187	-0.18079196
114	0x3d95a8cb	0.07307585
115	0xbdd1c40e	-0.102424726
116	0x3e3f3e4f	0.18676113
117	0x3e04158c	0.12898844
118	0x3e155a22	0.14585164
119	0xbe6dce67	-0.23223267
120	0x3db6cc5e	0.08925699
121	0x3b802c64	0.003911542
122	0x3e1cb85f	0.15304707
123	0x3e0629cb	0.1310188
124	0xbcc414e2	-0.023935739
125	0xbe15dc85	-0.14634903
126	0x3dac382d	0.08409152
127	0xbddbce5f	-0.107327215

hidden4.weight f4 [256, 128]
0	0x3d6e71bb	0.05821393
1	0xbd0e32a6	-0.03471627
2	0x3ed3fc8d	0.41403618
3	0xbe8c0817	-0.27349922
4	0x3e8cf7ff	0.27532956
5	0xbb52509c	-0.0032091504
6	0x3c85b224	0.016320296
7	0x3dc1906c	0.094513744
8	0x3e1420e4	0.14465672
9	0x3db195cf	0.08671152
10	0x3dc21355	0.094763435
11	0xbc013aea	-0.007887581
12	0xbefb32e6	-0.4906227
13	0xbd4280e3	-0.047486197
14	0xbdc44f46	-0.09585433
15	0xbf01ecd4	-0.50751996
16	0x3cd75018	0.026283309
17	0x3e1a6c58	0.15080392
18	0xbd3bdfe4	-0.045867816
19	0x3d748d75	0.059705216
20	0xbbbd7fac	-0.005783042
21	0x3d2191d9	0.03944573
22	0xbeaf8718	-0.34282756
23	0xbc2a807b	-0.010406609
24	0xbd88af27	-0.06674033
25	0x3dd3bc7c	0.10338685
26	0xbe968c7a	-0.2940405
27	0xbe816432	-0.25271755
28	0xbddfc038	-0.10925335
29	0xbeeb23fd	-0.45925894
30	0xbd489385	-0.04896881
31	0xbbf8cbe9	-0.0075926674
32	0xbe478822	-0.19485524
33	0xbeef6e5f	-0.46763894
34	0xbe2946ef	-0.16530965
35	0xbe9322e4	-0.28737557
36	0x3d54b03d	0.051925886
37	0x3dcc8361	0.09985996
38	0x3d21fe87	0.039549377
39	0xbd7b406a	-0.061340727
40	0xbc4d2b1a	-0.012522483
41	0x3d1bb406	0.03801348
42	0xbd80306e	-0.06259237
43	0x3d2dff8b	0.042480033
44	0xbf05918d	-0.5217522
45	0xbdb5e562	-0.08881642
46	0xbd7e7f2a	-0.06213299
47	0xbd9945b6	-0.074839994
48	0xbf7a6a15	-0.9781812
49	0x3edc8356	0.4306895
50	0x3cf11610	0.029429466
51	0xbdf927a5	-0.12165765
52	0x3d5f3e24	0.05450262
53	0xbf125683	-0.57163256
54	0xbc51397b	-0.012770052
55	0xbdc9d1e1	-0.09854484
56	0x3dde6e02	0.10860826
57	0x3a1be3c0	0.0005946718
58	0x3d86880a	0.06568916
59	0x3d239a33	0.039941978
60	0x3e198afa	0.14994422
61	0xbe5d5219	-0.21613349
62	0xbe591f13	-0.2120326
63	0xbf220129	-0.6328302
64	0xbd54327e	-0.051805966
65	0x3d972118	0.07379359
66	0xbe7966e5	-0.24355657
67	0xbcc4f857	-0.024044199
68	0x3ec311d7	0.38099548
69	0xbd27ccfc	-0.040966973
70	0xbe73d476	-0.23811516
71	0x3c812f44	0.015769608
72	0xbece5ef1	-0.4030681
73	0x3ca93f43	0.020660048
74	0x3d2c6ed5	0.042097885
75	0xbe407131	-0.18793179
76	0xbce4fd75	-0.027952889
77	0xbd9d258e	-0.076731786
78	0xbf02d479	-0.5110546
79	0xbd9a8f87	-0.07546907
80	0x3d4cfe8b	0.05004744
81	0xbe15ae2c	-0.14617223
82	0xbf3a754e	-0.7283524
83	0xbd3ced1f	-0.046124574
84	0xbca7e89b	-0.020496657
85	0x3b56b0b9	0.0032759144
86	0xbd18bcf6	-0.037289582
87	0xbcc5c7ab	-0.02414306
88	0x3e4325ff	0.19057463
89	0x3d8c6b85	0.06856445
90	0xbe62f6da	-0.22164479
91	0xbee7347c	-0.4515723
92	0x3a996643	0.001170345
93	0xbda3096c	-0.079607815
94	0x3e4fb150	0.20282483
95	0xbf6f6338	-0.9351077
96	0xbe422d4e	-0.18962595
97	0xbdafb698	-0.08579749
98	0xbf197390	-0.5994196
99	0xbf90e344	-1.1319356
100	0xbdfc039e	-0.123053774
101	0xbb0d3f60	-0.0021552667
102	0x3e9e528a	0.30922347
103	0xbc2eeba0	-0.010676295
104	0xbdadbd21	-0.08483339
105	0x3d2c7bad	0.042110134
106	0x3d6f53c7	0.058429506
107	0xbd82a343	-0.06378796
108	0xbd5bb275	-0.053636987
109	0x3cf81acb	0.030286213
110	0x3c41973a	0.01181584
111	0xbe30a6c6	-0.17251119
112	0xbe96800a	-0.2939456
113	0xbdea29c7	-0.1143375
114	0xbec46938	-0.38361526
115	0x3d3c4ae4	0.04596986
116	0xbdca1679	-0.098675676
117	0x3e01f3db	0.1269068
118	0xbf3e51f0	-0.74343777
119	0x3e113f9a	0.14184418
120	0xbe2435a2	-0.16036084
121	0xbe8be6cd	-0.27324525
122	0xbf2d3a40	-0.6766701
123	0xbeb0b3f7	-0.34512302
124	0xbe1620a2	-0.14660886
125	0x3da74d13	0.081689976
126	0xbecdd1bf	-0.40199086
127	0xbd6b12c3	-0.05739094
128	0xbd7784c4	-0.06042935
129	0xbdde1ae9	-0.108449765
130	0x3e22796e	0.15866634
131	0xbd2268ec	-0.039650843
132	0x3e9659ca	0.2936538
133	0x3ddf2bba	0.10897012
134	0x3d420042	0.047363527
135	0x3dbe430b	0.09290131
136	0xbda7ec09	-0.08199317
137	0xbd7d6d50	-0.061871827
138	0x3e9f7489	0.31143597
139	0xbde16688	-0.110058844
140	0xbda9394c	-0.08262882
141	0x3c406ed0	0.01174517
142	0xbe72e913	-0.23721723
143	0xbdab06d9	-0.083509155
144	0x3d440364	0.047854796
145	0x3d4a99f9	0.049463246
146	0x3d38424f	0.04498511
147	0xbd67ec82	-0.056622036
148	0xbd965f1f	-0.07342362
149	0x3cedc179	0.029022919
150	0xbe0cdb07	-0.13755427
151	0x3d88efab	0.06686338
152	0xbdf7101a	-0.12063618
153	0xbebd2be7	-0.36947557
154	0xbf4195ea	-0.75619376
155	0xbed2da5a	-0.41182214
156	0xbe53a09c	-0.20666736
157	0x3e0ad064	0.13556057
158	0xbbbf73b2	-0.0058426494
159	0x3dca98bc	0.09892413
160	0xbd81daf5	-0.06340591
161	0x3ea3c4e2	0.31986147
162	0xbe265c9a	-0.16246262
163	0xbe2de908	-0.16983426
164	0x3cf56722	0.029956404
165	0xbda91673	-0.08256235
166	0xbf171fed	-0.5903309
167	0xbddf41cf	-0.10901224
168	0x3ce4db48	0.027936593
169	0xbe8a0550	-0.26957178
170	0xbd7cc74f	-0.061713513
171	0xbd83e73e	-0.0644059
172	0xbf3d8438	-0.74029875
173	0x3d831fc4	0.06402543
174	0x3ce47bf0	0.02789113
175	0xbdebdf6d	-0.115172245
176	0xbd2d302b	-0.042282265
177	0x3e407ec6	0.1879836
178	0xbd252794	-0.040320948
179	0xbf179f36	-0.5922731
180	0x3db69e09	0.089168616
181	0xbd5bfd84	-0.05370857
182	0x3dcf469e	0.10120891
183	0xbd88d7fb	-0.0668182
184	0xbdeaa606	-0.11457448
185	0x3c1b47d6	0.009477576
186	0xbda427bf	-0.080153935
187	0x3f1f0f82	0.6213304
188	0xbd451dde	-0.048124187
189	0xbfc3c726	-1.529515
190	0xbd2c2432	-0.042026706
191	0x3d0cb421	0.03435147
192	0xbcdc24c7	-0.026873006
193	0x3dd019d9	0.1016118
194	0x3e84b2de	0.25917715
195	0xbe07a1b8	-0.13245285
196	0x3e3300c3	0.1748076
197	0x3cc2a861	0.02376193
198	0xbc06fa6b	-0.008238415
199	0xbdb96d00	-0.09053993
200	0x3cbaca90	0.022801667
201	0xbd28294a	-0.041055
202	0xbebe4472	-0.37161595
203	0x3d0950e9	0.033524428
204	0xbdaf4a83	-0.08559134
205	0x3dc958f9	0.09831423
206	0xbe40650c	-0.18788546
207	0x3cba80be	0.022766467
208	0x3c4fdc74	0.012686837
209	0xbe7f2e79	-0.24920072
210	0xbce1f1e2	-0.027581159
211	0xbdb3195b	-0.087450705
212	0x3da20083	0.07910254
213	0x3ccbd62c	0.024882399
214	0x3ba93d60	0.005164787
215	0xbf26be64	-0.65134263
216	0x3d33c689	0.04389051
217	0xbbc46dda	-0.0059945406
218	0xbe05a4a4	-0.13051087
219	0xbe7eafcf	-0.24871753
220	0x3dca6c0b	0.09883889
221	0x3e6b03c4	0.22950655
222	0x3d7e728a	0.06212095
223	0xbe965e2b	-0.2936872
224	0x3d3f7e2b	0.046751183
225	0x3d4efbe6	0.050533198
226	0xbcd1dea7	-0.025618864
227	0x3e3aa0e7	0.18225442
228	0x3c6a6483	0.01430619
229	0xbc9aec90	-0.01891163
230	0xbed0e639	-0.40800646
231	0xbcf61ea4	-0.030043907
232	0x3e5a2821	0.2130437
233	0x3c616dc8	0.013759084
234	0x3da95315	0.082678
235	0xb9f608a2	-0.00046927208
236	0xbd950892	-0.07277025
237	0x3e1b22b8	0.15149963
238	0x3d0b63ad	0.034030605
239	0x3d71362d	0.058889557
240	0x3d5dc631	0.05414409
241	0x3bb29038	0.005449321
242	0xbe2f2a6b	-0.17106025
243	0x3d3123bf	0.04324698
244	0xbd606858	-0.05478701
245	0x3dbacd76	0.0912122
246	0xbe15089f	-0.1455407
247	0x3e2313ec	0.15925568
248	0x3e20d114	0.15704757
249	0xbe74f797	-0.23922573
250	0x3d31f731	0.04344863
251	0x3ebd1c74	0.3693577
252	0xbdae4e8a	-0.08511074
253	0xbcbe25b4	-0.023211338
254	0xbd99d786	-0.07511811
255	0x3d09d75b	0.033652645

hidden4.bias f4 [256]
0	0x3d06c38a	0.032901324
1	0x3d69091c	0.056893453
2	0xbd5e7da0	-0.054319024
3	0x3cab84a7	0.020937277
4	0x3dc0f3b0	0.0942148
5	0x3da65916	0.081224605
6	0xbd9ec58b	-0.07752522
7	0x3ddba6dc	0.10725185
8	0x3da8c6a5	0.082410134
9	0xbdbe8eb3	-0.093045615
10	0x3c7e86e9	0.015535095
11	0x3d5b0e06	0.05348017
12	0xbdc7371f	-0.097273104
13	0xbd88cfc2	-0.06680252
14	0x3de4d8a8	0.111741364
15	0x3dd94120	0.10608125
16	0xbd8638fc	-0.06553838
17	0xbd83348e	-0.064065084
18	0xbdf829d5	-0.12117354
19	0x3cbc312f	0.022972671
20	0xbdb69d7f	-0.08916759
21	0xbc814fa8	-0.015785053
22	0xbcdd3770	-0.027003974
23	0xbc597881	-0.013273359
24	0x3e37e0b2	0.17956808
25	0xbe0237b8	-0.12716568
26	0xbda41546	-0.0801187
27	0xbdbc96b6	-0.09208433
28	0xbdacb89a	-0.084336475
29	0xbdb8f1eb	-0.09030517
30	0x3d0e1406	0.034687065
31	0x3db1ad05	0.08675579
32	0xbdf082ae	-0.11743675
33	0x3ca4663e	0.020068284
34	0xbd96d062	-0.073639646
35	0x3dd07635	0.10178796
36	0xbdb280f1	-0.08716
37	0xbd676080	-0.056488514
38	0x3dcef563	0.101053976
39	0x3d135875	0.03597303
40	0xbda53c3b	-0.08068129
41	0xbdeb32c0	-0.11484289
42	0x3dce3d87	0.10070329
43	0xbd23b8c6	-0.039971136
44	0x3e219534	0.15779573
45	0xbd7e76b7	-0.062124934
46	0x3d5c9eef	0.05386251
47	0x3c787533	0.015164661
48	0x3dcbb0a6	0.099458024
49	0xbe0f1544	-0.13972956
50	0xbc5ac6e9	-0.013353088
51	0xbe0d8681	-0.1382084
52	0x3d776462	0.060398467
53	0x3da064b5	0.07831708
54	0xbd0d9727	-0.03456798
55	0x3d8c1d20	0.06841493
56	0x3d93a8e2	0.07209946
57	0x3cdbd65d	0.026835615
58	0xbd8da8d0	-0.06916964
59	0xbd6a2cc3	-0.057171594
60	0xbb667f2f	-0.0035171022
61	0x3b0a1de4	0.0021074945
62	0xbe210333	-0.15723877
63	0x3e35c447	0.17750655
64	0x3dc11c6d	0.0942925
65	0xbdb93a34	-0.090443045
66	0x3d889d58	0.06670636
67	0x3d5c9c5e	0.05386006
68	0xba6298d1	-0.0008643987
69	0xbdbd077f	-0.092299454
70	0xbd2ba534	-0.041905597
71	0x3d289871	0.041161004
72	0x3e1c7ac5	0.15281208
73	0x3d7a9959	0.0611814
74	0x3ac8ee1e	0.0015329754
75	0xbe008477	-0.12550531
76	0xbddfba86	-0.109242484
77	0xbdedc980	-0.11610699
78	0x3df81ee5	0.12115268
79	0xbdeb40a1	-0.11486936
80	0x3c20563f	0.009786188
81	0x3d6be40f	0.05759054
82	0x3cee13bb	0.029062143
83	0xbdf91d7f	-0.12163829
84	0x3d326f1f	0.043563005
85	0xbe178476	-0.14796624
86	0xbc6b38e6	-0.014356827
87	0x3ddf9ec1	0.10918952
88	0xbd5d6c55	-0.05405839
89	0x3dddbc81	0.1082697
90	0xbd6e90d2	-0.05824358
91	0x3dee1665	0.11625365
92	0x3dfb078d	0.122572996
93	0xbdbfc390	-0.093634725
94	0x3cc73936	0.024319272
95	0xbd9f4880	-0.077775
96	0xbcf6128e	-0.030038144
97	0xbd2146d5	-0.03937419
98	0x3d8f2432	0.069893256
99	0x3bec8b77	0.007218774
100	0xbdaf9c2d	-0.0857471
101	0x3c2cd4c6	0.010548776
102	0xbd987abf	-0.07445287
103	0xbd2cc677	-0.04218146
104	0x3c8fec5a	0.017568756
105	0xbe257549	-0.16158022
106	0xbd9c646f	-0.07636344
107	0xbd994f9b	-0.07485887
108	0xbdd88525	-0.1057227
109	0x3cbf346c	0.023340426
110	0xbb94a886	-0.004536691
111	0xbcb542f3	-0.02212665
112	0xbde503a2	-0.111823335
113	0x3d960c09	0.07326514
114	0xbc634d8e	-0.013873471
115	0x3e09b1ee	0.13446781
116	0x3e0663e3	0.13124041
117	0x3da8fab2	0.08250941
118	0xbdce0fe3	-0.10061624
119	0x3d0701d9	0.032960746
120	0xbdb46605	-0.08808521
121	0xbd9b366e	-0.07578741
122	0xbd6dfc2b	-0.058101814
123	0x3d6ab7d8	0.057304233
124	0x3d7660f3	0.06015105
125	0xbcb86a2f	-0.02251157
126	0x3d468fb1	0.04847688
127	0xbc2b6c59	-0.010462844
128	0x3d6b4aa8	0.057444245
129	0x3d9cb45b	0.076515876
130	0xbd7e5e91	-0.062101904
131	0xbe0b53eb	-0.13606231
132	0x3db60518	0.0888769
133	0x3d96581b	0.073410235
134	0xbd90977f	-0.070601456
135	0xbdbb8303	-0.09155848
136	0x3de9d562	0.11417653
137	0xbe40d027	-0.18829404
138	0xbcaa5a3a	-0.020794977
139	0x3d86b582	0.065775886
140	0x3ceba7d7	0.028766556
141	0xbe21ab41	-0.15787984
142	0xbac20ff0	-0.0014805775
143	0xbd8cc434	-0.0687336
144	0x3e35406d	0.17700358
145	0xbde634f3	-0.11240568
146	0xbdb3f041	-0.08786059
147	0x3dd6cf07	0.10488706
148	0x3cb44aa5	0.02200825
149	0xbe08bd3a	-0.13353434
150	0x3dff7bb6	0.12474768
151	0xbe1787ba	-0.1479787
152	0xbd2dd97d	-0.04244374
153	0xbdb5d79f	-0.08879017
154	0xbd2e92b1	-0.042620365
155	0xbd0a8eac	-0.03382747
156	0xbc02c05c	-0.007980432
157	0xbbb6da60	-0.0055802315
158	0xbca8aa93	-0.020589149
159	0x3e1272c5	0.14301594
160	0xbcbbfead	-0.022948587
161	0x3d40bfa4	0.047057763
162	0x3d598b70	0.053111494
163	0xbd9497f6	-0.07255547
164	0xbe674df2	-0.22588328
165	0x3cf438e2	0.02981228
166	0x3d9cc4a2	0.07654692
167	0x3d1be84b	0.03806333
168	0x3d92e458	0.07172459
169	0x3dc70556	0.097178146
170	0xbde88594	-0.11353603
171	0xbcd4c89f	-0.02597457
172	0x3e079205	0.13239296
173	0xbe090260	-0.13379812
174	0xbdb64631	-0.08900107
175	0x3cfd7df7	0.030943854
176	0x3d95f47f	0.073220246
177	0xbc2747c1	-0.010209979
178	0x3e1828d4	0.14859325
179	0x3d5f6a60	0.054544806
180	0x3d92108e	0.07132064
181	0xbd0de43e	-0.034641497
182	0xbd8766fa	-0.06611438
183	0xbe0ceb15	-0.13761552
184	0xbdbb65f9	-0.09150309
185	0xbe5ff083	-0.21869092
186	0x3dd0eff5	0.10202018
187	0x3e3a5963	0.18198161
188	0x3dda3f66	0.106566235
189	0xbdf7990b	-0.120897375
190	0x3da19011	0.078888066
191	0xbd1bb081	-0.038010124
192	0x3e15ae27	0.14617215
193	0x3defe63f	0.11713838
194	0x3e05854f	0.13039134
195	0x3e0950a3	0.13409667
196	0xbdce9899	-0.100876994
197	0xbd5a0cc1	-0.05323482
198	0xbd610107	-0.05493262
199	0xbd3a122e	-0.045427494
200	0x3e010410	0.12599206
201	0x3db6bfb1	0.08923281
202	0x3e22aff6	0.15887436
203	0xbe2014e3	-0.15632968
204	0x3e1156fd	0.1419334
205	0xbc893d36	-0.01675282
206	0xbd9bc9d7	-0.07606857
207	0xbd9eb7dd	-0.07749913
208	0x3ce99443	0.02851308
209	0x3df227fa	0.11824031
210	0xbe03f228	-0.12885344
211	0x3c8bc72e	0.01706275
212	0x3d82d928	0.063890755
213	0x3dbfe678	0.0937013
214	0xbd5ca42d	-0.053867508
215	0xbc31e7c6	-0.010858482
216	0x3da3df83	0.08001616
217	0xbdc6238d	-0.096747495
218	0xbe451e1b	-0.19249766
219	0x3c9d2a9b	0.019185355
220	0xbc7b7317	-0.015347264
221	0xbcbf62fe	-0.023362633
222	0xbe44a981	-0.19205286
223	0xbe0c7d50	-0.13719678
224	0xbd559e9b	-0.05215321
225	0x3d13db22	0.036097653
226	0xbd83b0ba	-0.06430192
227	0xbde9fcb2	-0.11425151
228	0xbb1d9faf	-0.0024051478
229	0xbdebe26d	-0.11517797
230	0x3da0cb14	0.07851234
231	0x3c5d1ada	0.013495171
232	0x3d3f5eba	0.046721198
233	0xbda42a03	-0.080158256
234	0xbda16f41	-0.07882548
235	0xbcc441b6	-0.023957115
236	0xbe1f1d2e	-0.15538475
237	0xbdc3413a	-0.09533925
238	0xbcfa029d	-0.030518824
239	0xbd5e55ee	-0.054281168
240	0xbdde248e	-0.10846816
241	0xbe0cc70d	-0.13747807
242	0xbd864b7f	-0.065573685
243	0x3e22324b	0.15839498
244	0xbd215d8d	-0.039395858
245	0x3c8726d8	0.016498014
246	0xbdec5589	-0.11539752
247	0x3db2de12	0.08733763
248	0x3d41916b	0.047257822
249	0x3da4b30c	0.08041963
250	0x3cf823a5	0.030290434
251	0xbbc3f0f1	-0.00597965
252	0x3c767b73	0.015044081
253	0x3c9aae4e	0.018881943
254	0x3dc85b73	0.097830676
255	0x3decd95a	0.11564894

output.weight f4 [4, 256]
0	0x3e09c1f7	0.13452898
1	0x3d9e8deb	0.077419125
2	0xbd48a092	-0.048981257
3	0x3d14c099	0.036316488
4	0x3d8db319	0.06918926
5	0xbe186fc6	-0.14886388
6	0xbe287eb0	-0.16454577
7	0x3def5261	0.116856344
8	0xbe5f0e50	-0.21782804
9	0xbcc8a0b4	-0.024490692
10	0x3e2819c1	0.16416074
11	0xbb90c3e6	-0.004417884
12	0xbd64ed13	-0.055890154
13	0xbdcd7574	-0.10032168
14	0xbc63dfa4	-0.013908301
15	0x3c1d9f3b	0.009620483
16	0xbe81b722	-0.25335032
17	0x3d82b87c	0.06382844
18	0xbd0b0c14	-0.033947065
19	0x3db5b7a0	0.08872914
20	0x3b85c31a	0.004082096
21	0xbec318c7	-0.3810484
22	0xbe5fc62e	-0.21852943
23	0x3d672638	0.056432933
24	0xbdbb6af1	-0.09151257
25	0xbd79f01d	-0.061020005
26	0x3d1eb9c8	0.038751394
27	0x3ed2fed3	0.4121004
28	0x3d87356b	0.066019855
29	0x3c785dbe	0.015159069
30	0xbcd16de3	-0.025565093
31	0xbdbc8f7d	-0.09207056
32	0xbcdf19c3	-0.027233964
33	0x3e26f1a9	0.16303124
34	0xbd761a0b	-0.06008343
35	0x3e1e5858	0.15463388
36	0xbd65d197	-0.056108084
37	0xbe90101f	-0.281373
38	0x3e4acdeb	0.19805114
39	0x3dbf8a9d	0.0935261
40	0xbe1d84e9	-0.15382732
41	0xbd465936	-0.048424922
42	0x3cc4e682	0.024035696
43	0xbd4dfed2	-0.050291844
44	0xbd719a60	-0.058985114
45	0x3de768a0	0.112992525
46	0x3caf30e1	0.021385612
47	0xbe231889	-0.15927328
48	0xbc3b7790	-0.01144208
49	0x3a579e84	0.000822522
50	0x3e8bda9d	0.27315226
51	0x3d923437	0.071388654
52	0x3d95d55a	0.07316084
53	0x3dc47934	0.0959343
54	0xbe45403f	-0.19262789
55	0xbf338a33	-0.7013275
56	0x3db3962c	0.087688774
57	0xbd9f84c7	-0.07788997
58	0xbc7085ff	-0.014680385
59	0x3f11e4c2	0.5698968
60	0xbe52e436	-0.20594868
61	0x3c5cb657	0.013471208
62	0x3e38c69a	0.1804451
63	0xbdd32953	-0.10310616
64	0xbe14ce51	-0.14531828
65	0x3d0e4baf	0.034740146
66	0xbd224982	-0.039620884
67	0xbd2e3708	-0.04253295
68	0x3e469933	0.19394378
69	0xbd150a03	-0.0363865
70	0x3de417b9	0.11137337
71	0x3c85dd00	0.016340733
72	0xbf015ca0	-0.5053196
73	0xbdfe2f41	-0.12411357
74	0x3e03368a	0.12813774
75	0xbd4477de	-0.047965877
76	0x3e5ca5c8	0.21547616
77	0xbdfe7919	-0.12425441
78	0x3d141690	0.03615433
79	0x3c1b76ee	0.009488804
80	0xbe37b275	-0.1793917
81	0x3e1ebb60	0.15501165
82	0xbe5eace5	-0.21745642
83	0xbca3d34c	-0.019998215
84	0xbe93d8ff	-0.28876492
85	0x3c876c5c	0.016531162
86	0xbd49d655	-0.04927667
87	0x3daf75c5	0.08567385
88	0xbe021fde	-0.12707469
89	0x3e14b91c	0.14523739
90	0x3db10756	0.08643977
91	0x3d14b652	0.036306687
92	0x3d103dfb	0.03521536
93	0x3e066b2d	0.13126822
94	0x3daee763	0.08540227
95	0x3c891381	0.016732933
96	0xbdc7e41f	-0.097603075
97	0xbbcf1e9d	-0.006320788
98	0x3e31ac76	0.17350945
99	0xbe94a0f0	-0.29029036
100	0xbc1bd02d	-0.009510082
101	0x3dd30327	0.10303336
102	0xbdf4acba	-0.119470075
103	0x3cbdbc85	0.023161182
104	0x3d496fcc	0.049178883
105	0x3d02a83b	0.03189872
106	0xbcc40bd3	-0.02393142
107	0x3d5e5763	0.054282557
108	0xbd1d932c	-0.038470432
109	0xbe31bab9	-0.17356385
110	0xbd01a18e	-0.03164821
111	0x3c4f8435	0.012665798
112	0xbcaebc16	-0.02132992
113	0xbc126d02	-0.008937122
114	0x3da71f2e	0.08160244
115	0xbea1612e	-0.31519455
116	0xbd4f29c7	-0.05057695
117	0xbddf491d	-0.10902617
118	0x3c6f292f	0.014597221
119	0x3ce08f54	0.027412094
120	0xbdff3a6e	-0.124623165
121	0xbdb6f041	-0.089325435
122	0x3d10ad4d	0.035321523
123	0xbcc4135e	-0.023935016
124	0x3b6aacfa	0.0035808668
125	0x3de8459d	0.11341403
126	0xbea0eeb8	-0.31432128
127	0xbe106782	-0.14101985
128	0xbd6a10ee	-0.05714505
129	0xbbe3b01c	-0.006948484
130	0x3d041108	0.032242805
131	0xbd698228	-0.057008892
132	0xbda3c79a	-0.07997055
133	0xbe19a785	-0.1500531
134	0xbd028571	-0.03186554
135	0xbd1683c5	-0.03674676
136	0xbda710eb	-0.08157524
137	0xbdb233d7	-0.08701294
138	0xbc018e35	-0.00790744
139	0xbe085c28	-0.13316405
140	0x3e268dbb	0.16265003
141	0xbd00ca17	-0.031442728
142	0x3c79b6cb	0.015241335
143	0xbc25f416	-0.010128995
144	0xbd994175	-0.07483188
145	0x3cc36a73	0.02385447
146	0xbce0d121	-0.02744347
147	0xbec3ca3c	-0.3824023
148	0x3815fa81	3.575767e-05
149	0x3e57c23b	0.21070187
150	0xbd8c747f	-0.06858157
151	0xbc4726ed	-0.012155277
152	0x3cb14df2	0.021643613
153	0x3d92a392	0.07160105
154	0x3e52a1ac	0.20569485
155	0xbb29775b	-0.0025858495
156	0xbcc986de	-0.024600442
157	0x3e86924c	0.2628349
158	0xbe09d48d	-0.13459988
159	0xbe224b86	-0.15849122
160	0x3d45cb64	0.04828967
161	0xbdf097da	-0.117477134
162	0xbdb6abdd	-0.08919499
163	0x3d23719f	0.03990328
164	0xbe080ab1	-0.13285328
165	0x3df2fa11	0.11864103
166	0x3dab6292	0.0836841
167	0x3e051f79	0.13000287
168	0xbeaca289	-0.33717754
169	0x3dac5ff0	0.08416736
170	0xbe6f1b5e	-0.23350284
171	0x3d495e40	0.04916215
172	0xbe4bc6ea	-0.19900098
173	0xbb9d1a82	-0.0047944197
174	0x3d213a11	0.039362017
175	0xbcb7a9ce	-0.022419836
176	0x3df98825	0.12184171
177	0x3c7419ee	0.01489876
178	0x3d9c4b4e	0.07631551
179	0x3d0245ad	0.03180473
180	0xbe791ed2	-0.24328163
181	0xbe6452ae	-0.22297165
182	0xbcd0aa69	-0.025471883
183	0x3d34cc42	0.044140108
184	0xbd5cf161	-0.053941134
185	0xbe3e71d3	-0.18598108
186	0x3e836827	0.256654
187	0xbe68ae2b	-0.2272269
188	0xbe4468d3	-0.19180612
189	0xbd8c0724	-0.068372995
190	0xbe7043c4	-0.2346335
191	0x3f9627ea	1.1730931
192	0xbda3d40b	-0.07999428
193	0xbe28a4a8	-0.16469061
194	0x3dc289fa	0.09498973
195	0x3d63b29a	0.05559025
196	0xbd193b0c	-0.037409827
197	0x3d087034	0.03331013
198	0xbd9d1718	-0.076704204
199	0xbc4a0283	-0.0123297
200	0xbd0021d1	-0.03128225
201	0x3da5c3a9	0.0809396
202	0x3dd65fe3	0.10467508
203	0x3d804a70	0.06264198
204	0x3e2b4c1e	0.16728255
205	0xbf17725d	-0.5915888
206	0xbb83ca4a	-0.0040219175
207	0xbd2422c0	-0.040072203
208	0x3be8683e	0.0070925048
209	0x3dcc0d50	0.09963477
210	0xbd71d60f	-0.059042033
211	0xbdc37a48	-0.09544808
212	0xbd9b7978	-0.07591528
213	0xbd8398c8	-0.06425625
214	0x3e02216f	0.12708066
215	0x3d7ac3ad	0.061221767
216	0xbe617a43	-0.22019295
217	0xbcb6b2f8	-0.022302136
218	0x3d41c595	0.04730757
219	0x3d46fd29	0.048581276
220	0x3d4563cf	0.048190888
221	0x3c9638e9	0.018337684
222	0xbd1f3c49	-0.03887585
223	0x3d466b5e	0.048442237
224	0xbe0a7127	-0.13519727
225	0xbd5c8e7a	-0.053846814
226	0x3ba4a554	0.0050245915
227	0xbd0fa464	-0.035068884
228	0xbd89e6f6	-0.067335054
229	0x3e2fc2e5	0.1716419
230	0x3e2d545f	0.16926716
231	0x3d96c065	0.07360915
232	0x3d95f8d9	0.073228545
233	0xbd4442ca	-0.047915258
234	0xbcfdda0f	-0.030987768
235	0x3c3a8f28	0.01138667
236	0x3e7a7c24	0.24461418
237	0xbda7bb17	-0.081899814
238	0xbe2341ef	-0.1594312
239	0xba822f4c	-0.0009932308
240	0xbd21b262	-0.03947676
241	0xbd8462c2	-0.06464149
242	0x3e6613c0	0.22468472
243	0xbcb4630f	-0.022019891
244	0x3d550851	0.052009884
245	0xbe6514fb	-0.22371285
246	0x3ca6893c	0.02032911
247	0xbf1634c8	-0.5867429
248	0x3dad2623	0.084545396
249	0xbdd4fee5	-0.1040018
250	0xbdf463d3	-0.119331025
251	0x3cea7c01	0.028623583
252	0x3e696e05	0.22795875
253	0xbd115beb	-0.03548805
254	0xbe22fdf7	-0.15917192
255	0xbe30f94d	-0.172826

output.bias f4 [4]
0	0x3d8deb35	0.06929628
1	0xbda40fb5	-0.080108084
2	0x3d013336	0.03154298
3	0xbb3465fd	-0.002752661
