models/DoublePendulum2/separate_nets__alphalimit_None_N9/al_model_state_dict.pth (torch, 46864 bytes, 7 tensors)

hidden1.weight f4 [32, 9]
00000000: 0fc9 8e3d cc1f 9abd a0c1 e6bd 4625 4c3e
00000010: db5c bdbe 9a3c 863e 8d70 e7bd c5ac acbb
00000020: 622e 733e 0024 533c 7d4b 573d dce6 24bc
00000030: dade 083d 115a a8bd e8b7 0a3c 1514 80bd
00000040: 9455 2e3d 2d81 983c d038 353d 18e6 9bbd
00000050: 610a 3e3d 9829 26be cf57 d0bd 418f 1ebe
00000060: b002 a5bc efdf c33c 19c3 d33d ac8c 83bd
00000070: f436 a6be 2ee0 5f3e 569c 223e d198 af3e
00000080: 7169 523e 75a7 c0bd bd8f 43be e089 b8be
00000090: ecdf 523e 2d26 b4bd 7641 203e db4e e8bc
000000a0: 721d 713e 74ab b0bc a7fd 853e 7395 3c3e
000000b0: 809e 18be 8a8f 083e 2bda 0ebe f549 963d
000000c0: 5573 84be 457a 0fbe d2b3 d0ba 5635 02be
000000d0: 179b b53e 4cda b6bd 441d 093e 0b85 1e3e
000000e0: 6031 883e 342c 9bbd 508a 923d 4eac 283e
000000f0: 5930 49be 715a 8b3e 055a 323e 596e 443e
00000100: 7b52 8fbd 3dcf b43c b9b9 8bbd 27f6 c53c
00000110: 24be 6dbe 28ab a0be 2afb 8e3e 55c1 303d
00000120: ba45 2f3e 5526 00be 6a37 b73e bc71 983c
00000130: 8688 2ebc 2eef 723e 20c2 d6be cb02 843e
00000140: 3a11 adbe 7df9 e1bd fadf 753d 310e 31be
00000150: e16d fa3b 7f94 c8bd 4b5c 60be 0443 563e
00000160: 58f9 adbd 400d 293e 73ae 283e 4161 b9bd
00000170: 54c5 7ebd 4616 8d3d ec0b a6bd edec 42be
00000180: 3c50 423e fca8 d1bd 40dc a8be f645 bdbd
00000190: f2aa 833e dde0 b3bb b9f1 023e 9f49 a03d
000001a0: c603 03be c91e 1bbe fc7c 273e d960 34be
000001b0: 9299 76bb 3f97 5e3d 64fc 9e3e 39ef 863e
000001c0: a4b6 6a3e 0419 18be f2ee 693d ceb1 e5bd
000001d0: 4987 443e a099 3a3d e8a7 70be f1f3 fdbd
000001e0: 3866 dbbd 3417 78bd c63f 843e 8ed6 01be
000001f0: 4590 653e bd51 41be c4cf e53a 8217 de3d
00000200: 5608 cdbb c3cf b73d e417 f0bc 2545 463e
00000210: 9417 213e 67dc 363e 84d2 813e c0fd ea3d
00000220: 0e8d 223d c5f4 9dbb 53ff 42be bcb9 9cbe
00000230: 4efd 94be 5cd9 893c b7e7 9c3d 02b5 8f3e
00000240: 8181 543d a62e 7cbd a780 353e 8408 663d
00000250: 0ff6 e73d bb72 a53e 325f 4bbd ce56 963e
00000260: 084d 7ebd a807 32be bf0d 86be 287e 63bd
00000270: 12d1 2bbe 1506 9dbe 2d34 343e 24f4 bb3d
00000280: 94f1 8ebe d22f 12bc 3b0b a43d e48f fb3d
00000290: 5316 38be 8338 fa3c d35c 85bd 1cef b13c
000002a0: 6adb bdbe f849 a6be 9a10 85bb 570f ae3d
000002b0: 571a bc3d eea9 c93d d554 a23e 46c1 253e
000002c0: 6733 a93e 898d e23d 0e48 4b3e 5022 223e
000002d0: 97e0 9cbd dd22 d2ba ecb1 5bbe 360e de3d
000002e0: b91b 82be dca8 6e3d a66a 6ebe ab1c eebd
000002f0: 6be1 04be e79f 0dbe 8f6d 933d 09eb 44be
00000300: 87b6 ecbc b731 27be 841b 8f3e 4818 73bd
00000310: 02f4 0f3f a5c5 633b c4ca 083e 01b5 07be
00000320: d7cd 8c3e e8fd 6dbe 73ab 853e 44f0 3dbe
00000330: 59f9 213e 8531 1dbd 9334 6bbc c494 f93c
00000340: 30e9 bd3d 6236 f33d ad48 dcbd b167 053e
00000350: 279a ecbd 19a9 803e 620b 2a3e c2c9 883e
00000360: 5fa4 cd3d c061 04be 058e 5abc a33c 723e
00000370: f4e8 7abe 4547 5a3e 4fa7 85be 36a9 02be
00000380: 0b1c b23d 51f7 68be e797 213e d6df 6a3e
00000390: c13f 263e e8c9 b53e 6e59 00be 2697 7dbe
000003a0: c0ee 1a3e d133 28be d906 87be 8311 b03d
000003b0: ea55 56bd c2bf 2f3e 168c ac3c 4ae8 b6bd
000003c0: 4ae4 51be d987 4e3e 76f4 a23d 503e a4bd
000003d0: 6f3b 05be 9d6e 1c3d e6dd 8cbe c04d 7ebe
000003e0: 67e8 8cbe 8e3f 823e 1623 c73e b49f f5bc
000003f0: 7b60 3cbb cc09 88bd db3f a53d eb44 573b
0.06971943 -0.07525596 -0.112674 0.19936094 -0.36984906 0.2621811 -0.11300764 -0.005269619
0.23748162 0.012887001 0.052562226 -0.010064807 0.033415653 -0.08220304 0.008466698 -0.0625383
0.042562082 0.018616283 0.044243634 -0.07612246 0.046396617 -0.16226804 -0.10172998 -0.15484335
-0.020142883 0.02391049 0.10339946 -0.064233154 -0.324638 0.21862862 0.1587995 0.34296277
0.20548035 -0.0940694 -0.190978 -0.3604269 0.20593232 -0.08796344 0.15649971 -0.028357914
0.23546389 -0.02156613 0.26170084 0.18416385 -0.14904213 0.13336006 -0.13950412 0.07338325
-0.2586924 -0.14011486 -0.0015922731 -0.12715659 0.35469887 -0.089283556 0.1339007 0.1548044
0.2660017 -0.075767905 0.07155287 0.16471979 -0.1964735 0.2721744 0.17417152 0.1918272
-0.06998154 0.022071475 -0.06822533 0.024165226 -0.23217064 -0.31380582 0.27925998 0.043153126
0.17116442 -0.12514623 0.35784465 0.01860892 -0.010652667 0.23724052 -0.4194498 0.2578338
-0.33802205 -0.11033914 0.060028054 -0.1729057 0.007642493 -0.097939484 -0.21910207 0.20924002
-0.08494824 0.1650896 0.16472797 -0.09051753 -0.062199906 0.06889014 -0.08107743 -0.19035693
0.1897592 -0.10237309 -0.32980537 -0.092418596 0.25716358 -0.0054894523 0.12787522 0.07826542
-0.12794408 -0.15148462 0.16356272 -0.1761507 -0.0037628156 0.05434346 0.31051934 0.26354387
0.22921234 -0.14853293 0.05711264 -0.11215554 0.19192232 0.045556664 -0.23501551 -0.12400044
-0.10712856 -0.060569003 0.25829905 -0.12679502 0.22418316 -0.18878837 0.0017533232 0.108443275
-0.0062570972 0.08975174 -0.029308267 0.19362314 0.1573165 0.17857514 0.25355923 0.1147418
0.0396853 -0.0048204386 -0.19042711 -0.30610454 -0.29099506 0.016827278 0.076613836 0.28067786
0.051881317 -0.061567925 0.17724858 0.056160465 0.11326229 0.32314095 -0.049651332 0.29363102
-0.06208518 -0.17385733 -0.26182362 -0.055540234 -0.16778973 -0.30668703 0.17598028 0.091774255
-0.27918684 -0.008922534 0.080099545 0.12283304 -0.17977266 0.030544525 -0.065118454 0.021720462
-0.37081462 -0.3247831 -0.004060817 0.084990196 0.091847114 0.09846865 0.31705347 0.16187009
0.3304703 0.11062152 0.19851705 0.15833402 -0.076600246 -0.0016032119 -0.2145459 0.10842554
-0.25411776 0.058266506 -0.2328287 -0.11626562 -0.12976615 -0.13830529 0.07198631 -0.19230284
-0.02889563 -0.16327558 0.2795068 -0.05934933 0.562317 0.0034755256 0.13358599 -0.13252641
0.27500793 -0.23241389 0.26107368 -0.18548685 0.15817775 -0.038377304 -0.014355796 0.030466445
0.092729926 0.11875607 -0.10756049 0.13027836 -0.1155284 0.2512901 0.16605905 0.2671643
0.10041117 -0.12927914 -0.013339524 0.23655944 -0.24502927 0.2131625 -0.2610421 -0.12759861
0.08696755 -0.22750594 0.15780602 0.22936949 0.16235258 0.35505605 -0.12534115 -0.2476469
0.15130138 -0.16426016 -0.26372412 0.0859709 -0.052328028 0.17162994 0.021062892 -0.089310244
-0.20497242 0.2016901 0.079567835 -0.08019698 -0.13010953 0.038191427 -0.27513045 -0.24834347
-0.2752106 0.25439113 0.38893956 -0.029983379 -0.002874403 -0.066424936 0.0806882 0.0032847475

hidden1.bias f4 [32]
00000000: 2aa0 39be 0bf8 cfbd 742a 2ebe 3034 b9be
00000010: 2b13 3a3e e120 3d3e b09f 21be 128b acbe
00000020: 7977 39be 1599 26be 0e2e b0be 12ba bfbe
00000030: 5184 83be fbbe 90be f078 34be e4a6 7cbe
00000040: 1465 26be fc87 a0be b745 afbe 6dba 8f3e
00000050: 5f76 febd f824 943e b41c 46be c4eb 85be
00000060: 4ac9 eebe 8cef 94be 6c18 4d3e 560e c9be
00000070: f80d 9abe cff1 bb3d 7588 7cbd 2108 d6bd
-0.18127504 -0.10154732 -0.17008382 -0.36172628 0.18171374 0.18469574 -0.15783572 -0.33699852
-0.18111981 -0.16269334 -0.34410137 -0.37446648 -0.25686887 -0.28270707 -0.17624259 -0.24673039
-0.16249496 -0.31353748 -0.34232876 0.2807192 -0.12424921 0.28934455 -0.19346887 -0.26156437
-0.46637946 -0.2908901 0.20028847 -0.3926875 -0.30088782 0.09176981 -0.061653573 -0.10450769

hidden2.weight f4 [64, 32]
00000000: f0aa babd a98d e4bc 2c20 d5bd e2f4 84bc
00000010: 9513 97bd 480d 60be 07eb e3bd d4c8 91bd
00000020: 22eb 30be d7d8 46bd 8666 943c e30c 403d
00000030: 0e6c 9abd d15e b6bd 12a7 4dbc 1e70 453d
00000040: 54e8 5cbe f2b4 9abd 6364 0f3d 852b cbbd
00000050: 012d ecbd ac58 75be 61d8 85be abdc 373e
00000060: 8608 bc3d 3939 cdbd 545b 20be 4772 673d
00000070: 01dc 96bd e6a1 4bbe f9c7 bd3c 3fbc c93c
00000080: 8061 91bd 8c69 e0bd f93b d13d 3f4c fb3d
00000090: acd8 113e efd7 853c f81e 9d3d e33b 62bd
000000a0: 01dd ffbd 3d6b 50be d7b1 a13d 4c3b 5bbd
000000b0: b2bf 083d 95c9 923b 4249 3abe cae6 b4bd
000000c0: ee7a 563b 4dd8 17bd f210 33be cda8 353d
000000d0: 806f 163c e53a 80bd 67f5 583d d9e1 943c
000000e0: 74be 92bd 3b68 023e d184 7e3d 49f8 b7ba
000000f0: f4bc 0fbd 73d0 3dbe bafc ce3d ed99 89bd
00000100: 6af5 e9bd 2e1f e83d 1294 803d bc2f 333d
00000110: 0492 0fbd 86f6 61bd e8bf f53c e514 0c3e
00000120: b861 cf3c 7230 abbd 8dd2 333e 40c6 773b
00000130: 5519 0f3e d478 303d 0342 223e 06e3 d03d
00000140: bf93 b8bd e250 fe3d 000f 953a af4e 11be
00000150: 3cba 17bd e763 23be b192 bbbd 983d 00be
00000160: ee9d f73d bc1e 18bd 3035 fabc 967e ad3d
00000170: d056 933d 14ef eebd 7e6c 853d 5ecd 993d
00000180: f057 53be 60e4 083e d1d1 29be ee5e 21be
00000190: 70a7 2dbe 9cbc 013e 332c 9cba c5aa e53d
000001a0: dc56 c5bc b3b0 c03d 2e4c 33bd 50ba 4dbe
000001b0: ebc5 00be aab6 a6bd 78fa 14bc 26c3 31be
000001c0: 4c28 91bd c9a4 95bd ce9a 823d 7cb7 37be
000001d0: 28c8 9d3d 5263 9dbb 4366 aa3d 32a5 a53d
000001e0: 9281 08be 1f9b b73d 3968 49be 9dd9 133e
000001f0: 2d97 afbd c304 673d 3011 f9bd 613d 6e3d
00000200: 70d3 f13b 6526 06be 59f9 383d bf0c a13d
00000210: cfc3 3a3e 49db 8ebb e4cf 4a3e a149 0a3e
00000220: 95de 19be e0f9 e0bd 2e58 373d b2ef ddbd
00000230: b491 853d 2d9f 1fbe e8bc 303e 367b 9c3c
00000240: 8de7 d4bc 2feb d9bc dc0d 3fbe de2c d0bc
00000250: 39c6 f03c ce3b 9bbd 643e 24bd f361 96bc
00000260: 4f34 233e 1792 d23d 25e5 293e d531 6b3e
00000270: e089 f2bd 53b2 003e 7c00 9e3d 9cec 88bd
00000280: b8c2 2f3d c682 e9bd e5e6 e8bc 10cc 913d
00000290: e3cd b83d ef5b 21be 4dd1 40be 76ab e83d
000002a0: b6d7 fd3c f9b4 ca3d 7429 3e3d 9bc3 dbbd
000002b0: 60cd a63d bdd5 49be 95ee ed3c e6a7 a33d
000002c0: 2e6c 943d a3ca b4bd bcb2 f4bd 5454 cd3b
000002d0: b408 3cbe 5e7e 42be d124 58be b98b 02be
000002e0: d435 0abd 5d44 13be d829 fdbd c6d7 28be
000002f0: 5686 de3d 746f d4bd c4ea 1ebe 264c 88bb
00000300: 7f59 07be 3b0e e13d 252d df3d c9e3 31be
00000310: 84fd 23be b598 2cbe 40b4 1fbe b8d1 b43c
00000320: 9000 33be 310c 13be 7256 a53d c89c 90bd
00000330: 3410 90bd ffc0 15be eb93 ef3c 5fb2 073d
00000340: 59f0 8bbd e494 09be c0fd 193d bb8c 91bb
00000350: 5d9c 343d c008 20bc c0e8 dcbc ee20 0cbe
00000360: 127a e63d c353 49bc 98d3 35be f71b 1c3e
00000370: dab5 633d 7c3a 15be 8f32 dbbd 68af 9abd
00000380: b5ff d0bd f3e9 5d3d 67e5 5bbe d11e 8e3d
00000390: 497d 5cbd 1fe4 263e be25 a8bd ac38 9fbd
000003a0: 62c3 f13d d6d3 42be 0a55 febd d827 4f3b
000003b0: 0dcd 323e 5b43 f5bd e98d 1ebe 950d debd
000003c0: e30d 13be d565 1abe 2ca7 28bd ed47 1abe
000003d0: c1ff 9bbc fd6c 56bd 2bcb 02be c470 c6bd
000003e0: 2c53 193d 863d 823d ba65 a53d 0d6f e9bc
000003f0: d3a6 77be ad49 92be f2fb b7bd 39f5 c0bd
-0.09114635 -0.02789958 -0.10406527 -0.01623005 -0.07376782 -0.21880066 -0.11128812 -0.07118383
-0.17277196 -0.04854664 0.018115293 0.04688729 -0.07540141 -0.089048035 -0.01255204 0.048202626
-0.21573001 -0.07554044 0.035007846 -0.0992041 -0.11532021 -0.23959607 -0.26141647 0.17955272
0.09181313 -0.1002068 -0.15659839 0.056505468 -0.07366181 -0.19885978 0.023166643 0.024625896
-0.07098675 -0.109576315 0.10216517 0.12270402 0.1424281 0.016338317 0.076719224 -0.055232894
-0.12493325 -0.20353408 0.078952484 -0.053523347 0.03338594 0.004479597 -0.18192008 -0.08833082
0.003272708 -0.037071515 -0.17486933 0.044350434 0.009181857 -0.06261233 0.05296841 0.018174099
-0.07165232 0.12735073 0.062138382 -0.0014035787 -0.03509231 -0.18536548 0.101067975 -0.06718812
-0.11423762 0.11334072 0.06278242 0.043746695 -0.03505136 -0.055166744 0.029998735 0.13679846
0.02531515 -0.083588496 0.17560787 0.0037807375 0.13974507 0.04308398 0.15845494 0.10199551
-0.09012555 0.12417771 0.0011372268 -0.14190172 -0.03704284 -0.15956078 -0.091588385 -0.12523496
0.120906696 -0.037138686 -0.03054294 0.0847141 0.071942925 -0.11666694 0.06514834 0.07509874
-0.20639014 0.13368368 -0.16583945 -0.15758869 -0.16958404 0.12669605 -0.0011915028 0.11214212
-0.02408927 0.09408703 -0.043773822 -0.20090604 -0.125755 -0.08140309 -0.0090929195 -0.173596
-0.07087764 -0.07306821 0.06377183 -0.17941087 0.077041924 -0.0048030997 0.08320286 0.08088149
-0.13330677 0.08965134 -0.19668664 0.14438482 -0.08573756 0.056401026 -0.121614814 0.058164004
0.0073799416 -0.13100584 0.04515967 0.07863759 0.18238758 -0.004359637 0.19805866 0.1350465
-0.15026315 -0.1098516 0.04476183 -0.10836734 0.06521931 -0.15588064 0.17259562 0.01910172
-0.025989318 -0.026601402 -0.1865763 -0.02541202 0.029391395 -0.07579766 -0.040098563 -0.018357253
0.15937923 0.10281771 0.16591318 0.22968228 -0.11842704 0.12568025 0.07714936 -0.06685755
0.042910308 -0.11401896 -0.028430412 0.07119 0.09023645 -0.15757726 -0.18829842 0.113608286
0.030986648 0.09897799 0.04642625 -0.10730668 0.08144641 -0.19710441 0.029044429 0.079910085
0.07247196 -0.088277124 -0.119481534 0.006266156 -0.18362695 -0.18993518 -0.21107794 -0.12748612
-0.03374274 -0.14381547 -0.12361497 -0.16488561 0.10865466 -0.103728205 -0.15519243 -0.004159468
-0.13217734 0.10989042 0.108972825 -0.1737205 -0.16014677 -0.16855128 -0.15596104 0.022072658
-0.17480683 -0.1436012 0.08073129 -0.07061154 -0.070343405 -0.14624403 0.029245337 0.033129092
-0.06832952 -0.13435704 0.03759551 -0.004441825 0.044094432 -0.009767711 -0.026966453 -0.13684437
0.11253752 -0.012288037 -0.17756498 0.15245043 0.05559335 -0.14573091 -0.10703003 -0.07552987
-0.10205022 0.05417819 -0.21474229 0.069394715 -0.05383042 0.16297959 -0.08210324 -0.07774481
0.118048444 -0.19026121 -0.12418564 0.0031609442 0.17461033 -0.11975738 -0.15483822 -0.10842434
-0.14360766 -0.15077908 -0.041175053 -0.150665 -0.019042851 -0.052350033 -0.12772815 -0.09689477
0.037432835 0.06359391 0.080760434 -0.028495336 -0.24184732 -0.28571835 -0.08983602 -0.094217725

hidden2.bias f4 [64]
00000000: 801f 843d ceba 40be 5c9d 18be efe1 62bc
00000010: 98e9 463e a0bc 7ebd a9ac e8ba 609b f5bc
00000020: 6f96 e1bd 9f9b 213e 50d8 1b3e 80ba d0bd
00000030: 1463 33be 1f5a 23be e988 b2bd 5199 35bd
00000040: cfa4 633d c031 2fbe dcd0 0a3e 4149 f4bd
00000050: 760e 183d e836 bfba 901d e13a 96a1 3ebe
00000060: 5694 0dbe 2676 80bd b53b 7b3d 18dc d2bd
00000070: 638f afba cc07 00be 3c30 39be 1f84 38bd
00000080: daec a0bd ce55 db3d e0c3 9fbc 5e19 bf3d
00000090: 78db 4b3d add9 25be d536 3abe ff95 14bd
000000a0: 75e9 803a 1f0f 25be 4cb8 fc3d c257 91bd
000000b0: 48b9 1cbe ca93 2d3d 23e4 263e f081 dfbb
000000c0: a411 bdbd 1321 9ebc 6670 05be b682 443d
000000d0: 8ba6 1a3e 98e0 17bd c37c 53be 4a11 0c3e
000000e0: 990d 4dbe 32c2 1abe 9af4 2d3d 3dcb e6bd
000000f0: 3b9f 033c 15d2 0d3e f6dc b4bd fae5 b8bd
0.06451321 -0.1882126 -0.14903778 -0.013847812 0.19425046 -0.062191606 -0.0017751652 -0.029981315
-0.11015021 0.15782021 0.15219235 -0.10191822 -0.17518264 -0.15952347 -0.0871752 -0.044335667
0.055577096 -0.17108822 0.13556236 -0.119280346 0.037123166 -0.0014588507 0.0017174948 -0.18616328
-0.13826117 -0.06272535 0.061336238 -0.10295886 -0.0013394173 -0.12502974 -0.18084806 -0.045047875
-0.07857676 0.10709725 -0.01950258 0.0933101 0.04976985 -0.16196318 -0.1818498 -0.03627586
0.0009835201 -0.1611905 0.12339839 -0.070968166 -0.15305054 0.04237727 0.16297965 -0.0068209097
-0.0923188 -0.01930288 -0.13031158 0.04797622 0.15102594 -0.037079424 -0.20653062 0.1367847
-0.20024718 -0.15113142 0.0424696 -0.112692334 0.008033569 0.13849671 -0.088312075 -0.090282395

hidden3.weight f4 [128, 64]
00000000: 484d ed3d 70ec ae3c 0c96 323d 903e 28bd
00000010: 58db dcbd 404e a03c aa55 97bd 3a66 84bd
00000020: f0fd d1bd 6e51 db3d ded2 abbd cc1f 143d
00000030: 70b3 d23c 78d0 b03d e8ce 8b3d c03a b3bd
00000040: 88f5 623d 5a09 82bd 6053 963b 8478 39bd
00000050: 982c dbbd c838 193d 60d1 aabd b67d fa3d
00000060: a857 4e3d 101a 31bd 24e9 95bd 62f4 ebbd
00000070: cc11 81bd b603 a7bd 8039 5c3c b81b f53c
00000080: 7001 de3d 40a5 893c 6002 d0bc 6845 64bd
00000090: 680b 90bc 5852 873d d8d6 f6bd 8263 eabd
000000a0: 5402 4a3d fcf2 1dbd f088 17bd 48f6 a4bd
000000b0: 1675 aabd dcb6 bfbd 78cf 9bbd e010 eabd
000000c0: 0c9e 70bd 9c62 cd3d 8aa7 8dbd 7095 c23d
000000d0: a885 d7bd 307a 6d3c 90ad 29bc 0452 c1bd
000000e0: 803b 473b 7a3c d53d 8053 67bd 861a eb3d
000000f0: b06c 57bc 08e5 21bd 2cbd 7c3d ea1f c83d
00000100: ccfa b83d b1a9 853d becf e4bd dae9 3dbd
00000110: 5b5f 133c c554 b4bd 0e0b 663d 87fd 99bc
00000120: 695c 03be b0e0 81bd 846b 9fbd 6415 443d
00000130: d57d aabd d6f6 f0bc 174b 8fbc 6990 563d
00000140: e31f d0bd f899 b03d 2bcd aabd 44d1 36be
00000150: ec7c 2b3d d630 8fbd 89f8 b73d 94c8 d13d
00000160: 286d b8bd 173b ae3a d81b 9fbd 1bf3 84bc
00000170: 6830 b5bc c00b 47bb 732b bebd 59d1 ddbd
00000180: abb6 8bbd e404 de3c 4e93 c53b 2921 9abd
00000190: 6418 8fbc 80f9 4dbb be2e b73d 04d0 01be
000001a0: b3e2 8ebd f882 91bc 5e14 1dbd 9bff 9cbd
000001b0: 6660 bf3d 61d2 7fbc b39e c93b 709a a6bd
000001c0: 2aeb 183e 8c0b 18be 98cc d6bc ca21 983d
000001d0: 9402 823d e7a7 62be 0142 d53d 1f7b 8abd
000001e0: 8e9a a5bb ea2b 933d a48d 3fbd 5644 093e
000001f0: a0d2 c7bd 4774 b0bd ada5 b33b df75 943d
00000200: 9c45 9d3d 227d c6bd 8044 65bc 5619 a6bd
00000210: b99e fcbd 8387 fdbd 3797 bfbd 9c0f 67bd
00000220: 50f2 aa3c 3c3c 5cbd 2b45 2e3d 782f c43d
00000230: c28f cfbd d2be b23c 6a3a 553d 8b31 f9bd
00000240: 1e31 85bd 84fe b93d 4f57 fdbd c2ea da3d
00000250: ed0c b3bc 1ca7 0c3c 5bae a33d eead 99bd
00000260: 3f1d ce3d e272 09be 5d24 2a3d f04f fdbc
00000270: 2c49 8a3d b638 25bc eabd 0cbe e481 79bc
00000280: 4e0d 933d f864 80bd 2ad7 0dbe 6aa9 27bd
00000290: 1bbc a2bc 4dd8 f53c 3ce9 233d 4e25 17bd
000002a0: 8ba8 d4bc 7d3d 19bd 647d 583c 233a 873c
000002b0: a869 4f3d 2764 12bd ef06 30bd 48e9 8b3d
000002c0: 6e67 143e 6daa febd 3006 cf3c 5953 ab3d
000002d0: cea0 6bbd 0ad5 ed3d 5ffb f3bd 3326 68bd
000002e0: af78 91bc 7131 75bd 0bf4 56bd 3907 413d
000002f0: db2b cebc 7195 8dbd 8eb7 173e 3ed0 1bbd
00000300: 156f 48bd b3e8 983d b813 e43c b413 18be
00000310: a889 203d d044 7bbd 570f 073e 3e64 e6bc
00000320: 0c52 c7ba 3bfa 21ba 13ec abbd 52e0 c5bd
00000330: 7479 74bd 2edd fe3c 2fb4 9a3d 2daf 6dbc
00000340: 1b52 68bd 28a6 26bd daa5 d3bd eb64 0cbe
00000350: 6195 2d3d f4a2 12be 8354 983d 41ff fe3c
00000360: 8833 5abd f171 68bc cdbd 8fbd 47aa 0dbe
00000370: 6f4d c3bb b0b5 d5bd 2caa d8ba 8b73 62bd
00000380: ae63 dfbd 725f 17be 868d b13d a6ef e13c
00000390: 5f4a b13d a054 3f3d 6465 643d ce7e 5e3d
000003a0: 3f6a 5a3d 001b a03c faf6 81bc 0311 af3d
000003b0: 59cf 733d 14f0 b1bd 4dc5 553d 37a5 a43d
000003c0: ea67 f6bd 0f62 0bbe e8cf b2bc e50c e7bd
000003d0: b8ba b73d fa76 86bc 7ecd d3bd 4097 423d
000003e0: 6de9 663d bb6c dd3c 23d2 be3d ef79 febd
000003f0: a0d4 c13c f2e4 b0bd 2080 2c3d 475c 903c
0.11587006 0.021352977 0.043600127 -0.04107529 -0.10784024 0.019568563 -0.07389386 -0.06464811
-0.10253513 0.10708891 -0.08389829 0.036163136 0.025720328 0.08633512 0.068265736 -0.0875144
0.055409938 -0.0634944 0.004587576 -0.04528095 -0.10701865 0.037407666 -0.08340716 0.12231009
0.050376564 -0.043237746 -0.07319859 -0.11521222 -0.063022226 -0.08155005 0.013441443 0.029920444
0.10840118 0.01680243 -0.025391757 -0.055730253 -0.017583564 0.06607503 -0.12052697 -0.11444761
0.049318627 -0.038561806 -0.03699583 -0.08054787 -0.083231136 -0.093610495 -0.07607931 -0.11429
-0.058744475 0.10028574 -0.06916721 0.09501159 -0.1052354 0.014494464 -0.010356322 -0.09439471
0.0030400455 0.104119256 -0.056476116 0.11479668 -0.013148472 -0.03952506 0.061703846 0.09771712
0.09032211 0.06526507 -0.11172436 -0.046365596 0.0089949025 -0.08805231 0.056162886 -0.01879765
-0.1282822 -0.06341684 -0.07784179 0.047871962 -0.08324782 -0.029414576 -0.01749186 0.052383814
-0.10162332 0.08623117 -0.08339914 -0.17853266 0.04186718 -0.069917366 0.08982951 0.10243335
-0.09005195 0.0013292757 -0.07768983 -0.016229203 -0.022117808 -0.0030371994 -0.09285631 -0.108309455
-0.068219505 0.027101941 0.006029523 -0.07525856 -0.017467685 -0.0031429231 0.08944462 -0.12677008
-0.06976833 -0.017762646 -0.0383495 -0.076659404 0.093445584 -0.015614123 0.0061529516 -0.08134925
0.14933458 -0.14848155 -0.026220605 0.0742832 0.06348148 -0.22134362 0.1041298 -0.06761765
-0.0050538247 0.0718611 -0.04676594 0.13404974 -0.097569704 -0.08615928 0.0054823966 0.072490446
0.076792926 -0.09691836 -0.013993382 -0.08110301 -0.123349614 -0.123793624 -0.09355014 -0.05641137
0.020867497 -0.05376838 0.042546432 0.095793664 -0.101348415 0.021819506 0.05205766 -0.12167653
-0.06503509 0.09081748 -0.123701684 0.10689308 -0.02185675 0.008584764 0.0799224 -0.075038776
0.10064172 -0.1342273 0.041538585 -0.030921906 0.06752238 -0.010084322 -0.13744321 -0.015228722
0.07180272 -0.06269258 -0.1385161 -0.04093305 -0.019865086 0.030010367 0.04001735 -0.03690081
-0.025959274 -0.037412155 0.013213489 0.016507214 0.05063787 -0.035740044 -0.042975362 0.06831604
0.1449258 -0.1243485 0.025271505 0.08365507 -0.057526402 0.116128996 -0.119131796 -0.056677055
-0.017757742 -0.059861604 -0.05247883 0.04712603 -0.025167396 -0.06913269 0.14816114 -0.038040392
-0.04893406 0.07466259 0.027841434 -0.14851266 0.03919378 -0.06134492 0.13189445 -0.028123971
-0.0015206947 -0.000617895 -0.08394637 -0.09661926 -0.05968614 0.031111326 0.075538985 -0.014507097
-0.056718927 -0.040685803 -0.10334368 -0.13710372 0.042378787 -0.14319974 0.07437994 0.031127574
-0.0532718 -0.014187322 -0.070186235 -0.13834487 -0.0059601585 -0.10435045 -0.0016530207 -0.05528597
-0.10907684 -0.14782503 0.086695716 0.027580094 0.08656763 0.046711564 0.055760756 0.05432015
0.05332398 0.019544125 -0.015864838 0.085481666 0.059523914 -0.086883694 0.052190114 0.08039325
-0.12031539 -0.13611625 -0.021827653 -0.11281756 0.08971161 -0.016414154 -0.10341929 0.047507524
0.056374956 0.027029386 0.09317424 -0.12425601 0.023660958 -0.08637418 0.042114377 0.017622126

hidden3.bias f4 [128]
00000000: 90d9 f8bc 5c65 e5bc 7360 103d 9a1d a1bd
00000010: 689a b5bc b25d c4bd a088 1e3e 9d77 e6bd
00000020: b917 a13c c20e e0bd f8c3 df3b 2ecd ffbc
00000030: d09a 7fbd 60c4 afbc eee0 c63d c5f7 773d
00000040: b23a 8c3d e29a efbd a47d 3c3d 92f0 e0bd
00000050: 34a7 57bd f004 d8bc aee7 97bd e808 803c
00000060: 3443 ad3d 017e adbd 43cf 2cbd 4503 713b
00000070: 9d56 343e d7d6 443e eddd bbbb a84c fe3c
00000080: 1b7d 853d 02c1 aabc e8f6 733c fbcf acbd
00000090: da8d d23d a284 15be 3183 22bd 2e1f 3e3e
000000a0: 0eb0 433d 0dde 4ebd 610a bcbd f754 0dbd
000000b0: 0cad 153d c1f9 4abb 4bfe 69bd 9f19 8f3c
000000c0: 9f5f 033e 1b54 d4bd 36df 62bd 8964 15bd
000000d0: 70b3 e53d 0790 243d 1979 2d3e 19dc c3bd
000000e0: 3b1c 4c3d 3b97 883d 45ce 8cbb 1b6a 323d
000000f0: d7a5 8fbd 6766 ffbd c468 a33d 4cac fcbd
00000100: 059e 293e ee50 b9bd b601 a8bd dae0 563d
00000110: 8d5c 4c3c 94a5 123e 400f 9a3b afa8 113d
00000120: 223b ff3d bb5d 493e ec1f 77bd 2abb 4bbd
00000130: 5065 1ebd b80e 02bd 5488 d8bd d7bf 1abc
00000140: 2527 153d 7f77 3a3d 44a1 c1bd f379 3c3e
00000150: beec e1bb 3525 bf3c 4a7c 0abe a805 60bd
00000160: e466 973c fdff 85bc 16d8 c0bd fb7b 623d
00000170: fa07 843b bfb0 863d faea 94bd 45e2 73bd
00000180: 92d0 dd3d 0231 f0bd 0066 dd3d e96e e43c
00000190: 6d2c 0c3e 4fd0 2d3e 039c cd3d 44ee 0e3e
000001a0: 33cc df37 d58a 323e b40b 10bd 2abb a5bc
000001b0: 30ee 88bc b922 dbbd 2ce0 a3bd 5481 cf3d
000001c0: 7cec 2a3e 0bf8 583d 33e5 243e 9021 3c3e
000001d0: e441 f13c 4e9f c6bc a6ca 58bd f650 e83d
000001e0: a969 74bd 166c ebbc 4ccf 303e be7b d5bc
000001f0: 56f0 39bd b78c a33d 632f 303d 64aa 5cbd
-0.03037718 -0.028002433 0.03524823 -0.07866974 -0.022168353 -0.095881835 0.15481806 -0.11253283
0.019664632 -0.10940315 0.006828781 -0.031225767 -0.0624035 -0.021455944 0.09710871 0.060539026
0.06847133 -0.116994634 0.046018258 -0.10983385 -0.05264969 -0.026369542 -0.07417236 0.015629247
0.084600836 -0.08471299 -0.042189848 0.003677563 0.17611165 0.1922258 -0.0057332427 0.031042412
0.065180026 -0.020843986 0.01489041 -0.084381066 0.10280962 -0.14601377 -0.039675895 0.18566582
0.04777532 -0.050504733 -0.09181667 -0.034504857 0.036541983 -0.0030971619 -0.05712728 0.017468272
0.12829445 -0.10367604 -0.05538865 -0.03647283 0.112158656 0.040176418 0.16940726 -0.09563465
0.04983161 0.0666947 -0.00429705 0.04355822 -0.07014053 -0.124707036 0.07978967 -0.123375505
0.16564186 -0.09048639 -0.08203451 0.05246053 0.012473238 0.14320976 0.004701525 0.03556126
0.124624506 0.19664662 -0.060333177 -0.04973904 -0.038670838 -0.03175232 -0.105728775 -0.009445152
0.036414284 0.045524117 -0.09454587 0.18405895 -0.006894677 0.023333171 -0.13523975 -0.054692894
0.01848168 -0.016357416 -0.09416215 0.05529402 0.004029271 0.065766804 -0.07271381 -0.05954196
0.10830797 -0.117280975 0.108104706 0.027884917 0.13688822 0.16973995 0.100395225 0.13958079
2.667876e-05 0.17435773 -0.03516741 -0.020230848 -0.01671514 -0.10699982 -0.08001742 0.10132089
0.16691774 0.052970927 0.16103058 0.18372178 0.029450364 -0.024245884 -0.052927636 0.11343567
-0.059671078 -0.028738063 0.17266577 -0.026059981 -0.045395218 0.079858236 0.04301394 -0.053873435

output.weight f4 [1, 128]
00000000: 6866 3dbc 5ce3 523b cea0 bcbc 8389 3ebc
00000010: 9972 f43c fde3 93bd b70f d0bd a1a3 293d
00000020: f1c8 cc3c 10be be3b 302d 723d 576b 983d
00000030: 5065 b5bb 941c abbd f10f e0bd ba8f ddbd
00000040: d246 4e3c e2b2 75bd 4248 643d 2ffe 89bd
00000050: 62fb d6bc cd6a 163c f6bc 18bd d8d1 a73c
00000060: 48d6 95bb f381 7f3d bcd9 583c 7096 5c3c
00000070: 999c 02be 38e9 b9bd 1d29 0b3d b9a2 09bd
00000080: c949 18bb 332b ccbc b2f4 413b b84c 483c
00000090: 60e7 a4bd f2a2 bf3c 473a 523c b1cb d7bd
000000a0: b373 7ebc 332e e23c fb0f 4d3d d0e1 96bd
000000b0: b35d ecbc 664a 333d 63b5 483d bfcc b7bd
000000c0: 15a4 31bd e55b 733c c260 23bb f54c ccbb
000000d0: 28ad 05bd 8e22 71ba 002d f1bd aa92 51bd
000000e0: 34b0 beb9 6a20 eebd a229 383d 998b cb3c
000000f0: 9db0 883a e48c 233c 5c2b 9ebd 00d6 1eba
00000100: 50b7 f7bd e0f4 483b b9f5 7b3c b9ab e1bc
00000110: 85c5 d23c 3870 10bd 0065 043d b5b8 0f3d
00000120: ed87 cfbd 0c40 ebbd 9f84 213d c81f 2cbb
00000130: 78d9 81bd bc1c 3eba 5014 79bd 4a21 2e3d
00000140: d407 d1bb a195 f53c 99ff 0fbb 2fd7 c4bd
00000150: 9497 79bd 3263 17bc 512c 70bb 4721 a03d
00000160: d46f 01be 9225 8c3d 7e55 70bc f627 543c
00000170: 326a 4dbc 90f9 c4bc b09c b8bb c6c5 953d
00000180: a5d0 b7bd e33a 923d b4a3 3cbd 24c8 a4bb
00000190: 7bc2 7bbd 5aa9 e2bd c8d2 f2bd 98c4 e8bd
000001a0: 4f3c abbc e996 70bd c55a 8a3d f579 13bd
000001b0: 5a37 31bd c43f 183b e173 b53c eda9 e3bd
000001c0: ee25 c5bd 0eed 42bc 8039 a8bd b99a 08be
000001d0: 6b9d eab9 867b cabc a83a 423d efc4 6bbd
000001e0: 2eb3 3f3d 5a62 95bc 7cd1 abbd 7ff9 f7ba
000001f0: ec27 81bc 1f1e 5cbc 0e9b 9f3c a053 c53b
-0.01156006 0.0032178974 -0.023025896 -0.011629465 0.0298398 -0.0722122 -0.10159247 0.041415814
0.02499816 0.005820997 0.059125125 0.074423485 -0.005535759 -0.0835506 -0.109405406 -0.10818429
0.012590127 -0.05998505 0.055732973 -0.06737935 -0.026242916 0.009180737 -0.037289582 0.020485803
-0.0045726635 0.06237979 0.013235506 0.0134636015 -0.1275505 -0.09077686 0.033974756 -0.03360245
-0.0023237339 -0.024922943 0.0029595313 0.012225322 -0.08051944 0.023393128 0.012831277 -0.10536898
-0.0155305145 0.02760992 0.05006407 -0.07367289 -0.028853273 0.043772124 0.04900111 -0.08974599
-0.04336937 0.014853452 -0.0024929498 -0.00623476 -0.032635838 -0.00091985695 -0.11776161 -0.05116526
-0.00036370906 -0.11627276 0.04496158 0.024846839 0.0010428611 0.009982321 -0.07723114 -0.000605911
-0.12095511 0.0030663535 0.015378409 -0.027547704 0.02572895 -0.03526327 0.032322884 0.03508826
-0.10133348 -0.11486825 0.039433118 -0.002626406 -0.06340307 -0.00072522066 -0.060810387 0.042512216
-0.006379107 0.029978575 -0.0021972416 -0.096113555 -0.06093557 -0.009239959 -0.0036647508 0.07818847
-0.12640315 0.068431035 -0.01466882 0.012948981 -0.012537526 -0.024044782 -0.005633913 0.07313113
-0.08975343 0.07140138 -0.046054557 -0.0050287414 -0.061464768 -0.110674575 -0.118566096 -0.11365622
-0.02090278 -0.05873767 0.06755594 -0.03600498 -0.043265678 0.0023231367 0.022149982 -0.11116395
-0.09626375 -0.011897339 -0.08214092 -0.13340272 -0.00044749244 -0.024717104 0.04741922 -0.057560857
0.04680174 -0.018235374 -0.08389565 -0.001891896 -0.015766107 -0.013434916 0.019483116 0.006021932
