models/InvPendulum2/measure_x2/model_state_dict_1.pth (torch, 47852 bytes, 8 tensors)

hidden1.weight f4 [32, 5]
000000 8c f6 6b 3e b2 20 4a be 74 8e b1 bd 2c f2 56 3e
       0.23043269 -0.19739035 -0.08669749 0.20990819
000010 60 90 d7 be 3c 70 19 3f a2 ad f4 be 15 4e 95 3e
       -0.42102337 0.5993688 -0.4778872 0.29161134
000020 cc 91 7c 3e 91 bd 48 3d 26 33 83 3e b8 3c 1f bf
       0.24664992 0.04900891 0.2562496 -0.62202024
000030 32 f6 6f 3e 84 71 4e bf 26 11 df 3c a8 ce 26 be
       0.2343376 -0.8064196 0.027229857 -0.1628977
000040 00 05 98 3e 02 c2 f5 3c 7e d9 b9 3e 05 2e a6 bd
       0.29691315 0.029999737 0.36298746 -0.08114246
000050 94 23 ee bd 7a f5 96 be 3d 8c ad 3e 49 53 20 be
       -0.1162788 -0.2948416 0.33896056 -0.15656771
000060 d5 ee 2d bf 31 fd e2 3e 02 d1 95 3e 36 56 8a 3e
       -0.67942554 0.44333795 0.29261023 0.270189
000070 58 e1 03 bf e7 d9 94 3e 42 94 1c 3e 9e d8 14 3f
       -0.5151572 0.29072496 0.15290931 0.5814303
000080 55 c3 16 3f 6e 8e 09 bf c9 a5 06 bf 8b 0a 8f be
       0.58891803 -0.53732955 -0.5259672 -0.2793773
000090 5a 97 88 3e 13 59 33 be c2 d9 8e 3e af ee 3f bc
       0.26677972 -0.17514448 0.2790051 -0.011714621
0000a0 3c ac e0 3e ac c1 41 be 7a b6 ab 3e 00 88 ad 3b
       0.43881404 -0.18921536 0.33537656 0.0052957535
0000b0 1b 41 71 be 34 64 6b 3e 5c 16 73 be 2c af 06 3e
       -0.23559992 0.22987443 -0.23738998 0.1315276
0000c0 44 3c 04 be b0 d3 48 bd ea ab 9b be 0c 9a a1 bd
       -0.12913615 -0.049030006 -0.30404598 -0.0789071
0000d0 f7 51 b4 3d fd b8 8e be 66 79 b8 3e 54 ed 1d 3f
       0.08804696 -0.2787551 0.3603012 0.6169026
0000e0 b4 0a de bd 7b d2 80 be e3 26 de 3e b9 96 87 3e
       -0.10841885 -0.25160584 0.43389043 0.2648218
0000f0 05 6a 5f be b0 19 91 3e db 07 92 3e 55 46 d8 3e
       -0.21817787 0.2833991 0.28521618 0.4224116
000100 87 66 b3 be 78 11 4b be de 0a f1 bd 38 fa 53 be
       -0.3503916 -0.19830883 -0.11769651 -0.2070092
000110 15 47 64 be a7 93 86 be c7 43 06 3e 88 37 bb bd
       -0.2229274 -0.26284525 0.13111793 -0.09141451
000120 83 1a 83 3e bb 18 03 be b9 29 c3 3d 15 ac 6b be
       0.25606164 -0.12802403 0.09529442 -0.23014863
000130 18 c4 e5 3d ca f1 b3 3e 76 10 da be ed 8d f4 3c
       0.112190425 0.35145408 -0.42590684 0.029852832
000140 ce 2a e9 be 99 4a d7 be 66 0c b2 ba ad b6 a4 bd
       -0.4554047 -0.420491 -0.0013584017 -0.08042655
000150 3c 11 9a 3d 9a bd 83 3e ab 5c ee be 88 d2 61 3e
       0.075228184 0.25730592 -0.46555075 0.22052968
000160 11 8e fe bd d0 03 91 3e 21 64 32 3e fc 89 23 bf
       -0.12429441 0.2832322 0.17421009 -0.6388242
000170 36 4e e2 3e 34 94 e1 3e 8f 75 b9 be b1 09 0d bf
       0.44200295 0.44058383 -0.36222503 -0.5509291
000180 ab 71 32 3e c4 ff b5 3d 35 d4 62 be 75 e5 99 be
       0.17426173 0.08886674 -0.22151263 -0.30057874
000190 0e 63 db 3e ab 4e 8d 3d c4 da 8e 3e 5a 64 7a 3f
       0.4284901 0.0689977 0.2790128 0.97809374
0001a0 40 2b 5b be 24 e3 8a be 0a bc 5a 3e ba a6 41 be
       -0.21403217 -0.2712642 0.21360794 -0.18911257
0001b0 24 d9 b8 3e da 2b 35 3c d4 69 f7 3e 68 01 0f 3f
       0.36103165 0.011057818 0.48322928 0.5586152
0001c0 a2 2a 8e 3e df a0 f3 be 9f 15 80 3e b1 40 ae 3e
       0.277669 -0.47583672 0.25016496 0.3403373
0001d0 bb fc 14 3f eb c1 c5 3e 8a 87 0e bf 55 d2 72 be
       0.58198136 0.3862451 -0.55675566 -0.23713048
0001e0 ef 5f 7a be 54 e5 82 bd e4 70 6e 3e 84 c7 df bd
       -0.24450658 -0.06391397 0.23285252 -0.109267265
0001f0 48 0c 9a 3e c4 2f 0b bf 51 af 2e bf 04 11 9b bc
       0.30087495 -0.5436976 -0.6823626 -0.018929012
000200 94 fd a2 3e 00 0e 82 3e 01 dc 9c be 03 5c b8 bd
       0.3183409 0.25401306 -0.306366 -0.09001925
000210 3b 1f dd 3e bb 55 07 3f 54 96 c3 3e 5b e9 a5 3e
       0.4318789 0.5286519 0.3820063 0.324046
000220 72 a2 8d 3e 28 ca df 3d 9e 61 99 be 45 16 bd be
       0.27662998 0.1092723 -0.29957289 -0.36931053
000230 b9 7a b7 be 51 7d 7e bd f6 fa 9d be ba 58 bc bd
       -0.35835817 -0.06213123 -0.3085553 -0.09196611
000240 dc e9 ea bd c2 f6 47 3e 04 5c 9e 3e 19 da 6d bd
       -0.114703864 0.19527724 0.30929577 -0.058069322
000250 93 56 9f 3e b7 21 2b 3f 2b b0 90 bd 63 f2 e9 3e
       0.31120738 0.6684832 -0.070648514 0.4569274
000260 99 99 b3 bc 58 3c 1a 3e 4f 02 05 bf 70 ad db bc
       -0.021923827 0.15062082 -0.5195665 -0.0268161
000270 da 96 94 be 70 c9 08 3e 4b 9e cc 3e 62 17 99 be
       -0.2902134 0.13358092 0.39964518 -0.29900652

hidden1.bias f4 [32]
000000 84 1b ab be ec 0e b5 bd 02 ae b2 bd 46 52 b1 3e
       -0.3341943 -0.08840737 -0.087245956 0.34633082
000010 f9 b1 88 be 62 36 18 be ef 4d d2 bd 4a b5 86 be
       -0.26698282 -0.14864495 -0.10268771 -0.26310188
000020 1c 79 b6 be d8 b6 50 be 96 ca 86 be a0 5f 33 be
       -0.35639274 -0.2038225 -0.26326436 -0.17516947
000030 88 15 b4 3c 75 6d 96 bd b7 b6 8e bd fd eb e2 3e
       0.021982923 -0.07345096 -0.06968444 0.4432067
000040 5b 6a d2 3e 63 4a 64 be 15 60 66 be 66 f6 16 3f
       0.41096768 -0.22294001 -0.2249759 0.58969724
000050 85 90 f4 bd 00 aa 62 be 2a dd cc be 5d b9 69 bd
       -0.119416274 -0.22135162 -0.40012485 -0.05706154
000060 00 21 be be eb bb f1 3e f6 ee 9a be 2c ad b5 be
       -0.37134552 0.47213683 -0.30260438 -0.35483682
000070 46 61 53 be b6 4c af be b3 fc 0b 3d 23 63 be be
       -0.20642576 -0.34238213 0.03417654 -0.3718501

hidden2.weight f4 [64, 32]
000000 89 0b aa bd 1d 63 ea be 45 75 a3 3e a3 b1 36 be
       -0.083029814 -0.45778742 0.31925407 -0.178412
000010 0b 35 50 3e 8c 5e 5a 3c 5e d1 a9 3e 91 77 c8 3a
       0.20332734 0.013328206 0.33167547 0.0015294423
000020 3c 5d 2f 3d be d9 05 be bd 32 e3 bc f9 71 c8 3c
       0.042813525 -0.13071343 -0.027734155 0.024468409
000030 8b 7a 9b 3d f2 e0 81 3d 11 ee 8e bd 55 ab 67 3d
       0.075917326 0.06341733 -0.06979001 0.05655988
000040 3f 8a a2 3d 15 5b 1b bd f8 6b 20 3e ab 53 02 3e
       0.079365246 -0.03792866 0.15666187 0.1272723
000050 15 33 61 3e cb 3c d9 ba 68 d8 87 3e 7b 11 8e 3e
       0.21992142 -0.0016573904 0.26532292 0.27747712
000060 a5 3e cc 3d c7 8e 03 be fc ea c8 3b 7f de 19 3e
       0.09972886 -0.12847434 0.006131528 0.15026282
000070 f7 7d 18 3e dd e4 61 3e 39 fa e4 bd 9a d2 12 3d
       0.14891802 0.2205996 -0.11180539 0.035845377
000080 26 fe b0 3d 40 a1 83 be 10 5a ec bd 6b 7b 2c 39
       0.08642225 -0.2570896 -0.115406156 0.00016449175
000090 44 0c 52 bd e2 b2 60 3d 09 4b 53 be c4 7b 06 be
       -0.05128123 0.054858096 -0.20634092 -0.1313315
0000a0 cd 3b 32 3e 58 3f 1a bd 37 b3 e3 bd 1e f2 46 be
       0.17405625 -0.037658066 -0.11118167 -0.19428298
0000b0 d6 65 ae bd 27 7e 66 3c 8d d3 74 3d 40 83 96 be
       -0.085155174 0.014068163 0.059772063 -0.2939701
0000c0 21 f6 6f be d2 87 86 bd 4b a5 8b b9 da 6a f1 bc
       -0.23433734 -0.065688744 -0.000266353 -0.029469896
0000d0 ef 26 16 bf 51 01 d8 bd 7f 78 a0 be 5c e0 e9 bd
       -0.5865316 -0.10547126 -0.3134193 -0.11419746
0000e0 b4 5e 25 be f4 c8 33 3d 7f ae 2b 3e c1 45 87 bd
       -0.16149408 0.043892816 0.16765784 -0.066051014
0000f0 72 c2 0d be 01 b8 7d be 3b 97 03 3d 40 8b 29 be
       -0.13843706 -0.24777223 0.032126646 -0.16557026
000100 36 cd d0 3d a4 32 c7 bd ee b8 29 bd 54 28 a4 3d
       0.10195391 -0.09726456 -0.04143613 0.080155045
000110 73 d7 84 bd 90 c2 0c 3e 3d ff a4 bd b3 2c 3c 3e
       -0.06486406 0.13746095 -0.08056495 0.18376426
000120 74 30 33 3d f5 7c f0 bd 5a 94 e5 bd 32 ec 7c be
       0.04374738 -0.11742584 -0.112099364 -0.24699476
000130 52 9f a2 3e fc 3a 9e be f8 05 8b 3d 64 cb 4e 3d
       0.31762177 -0.30904377 0.06788248 0.050486937
000140 cf c1 f8 bc b4 bd 00 bb 8b 54 f5 be de 0b 6c bd
       -0.030365853 -0.0019644322 -0.47916064 -0.057628505
000150 40 0d 24 bf 83 dd b9 bd 08 8c dc bd 6f 03 3c bd
       -0.6408272 -0.09075453 -0.10768896 -0.045901712
000160 b4 da a7 bd 80 94 3c 3d 51 e4 9d 3e cc 3e 3c 3d
       -0.08196011 0.046040058 0.30838254 0.045958325
000170 66 69 b6 be 6b b6 d1 be ea 8c c0 3d 58 ae cc 3c
       -0.35627288 -0.40959486 0.09401877 0.024985477
000180 58 2b 09 bd 1c fe e2 3c 60 c9 3f bc cd d0 03 be
       -0.0334886 0.02770906 -0.011705726 -0.1287262
000190 ba e4 cb 3d 26 79 a6 3d 4c c7 b5 bb dc 5d f2 bd
       0.099557355 0.08128576 -0.0055474397 -0.118343085
0001a0 27 d5 99 bd 80 8a 1f 3b 37 d3 f3 bd 0b 25 c9 bd
       -0.07511359 0.0024344027 -0.119055204 -0.098215185
0001b0 6d dc 19 bd 23 bf 88 bd ec a7 cf 3c ad e4 83 bd
       -0.03756373 -0.066770814 0.025348626 -0.06440101
0001c0 7a 01 2a bd b6 9e a0 bd 2a 6d 25 be 46 39 0b 3e
       -0.041505314 -0.07842772 -0.16154924 0.13596067
0001d0 24 24 0a 3d 3f 80 0f 3e 0e a2 23 bd fa c2 66 bd
       0.033725873 0.14013766 -0.03994947 -0.056338288
0001e0 45 32 3c be 75 e9 a9 bd 32 6a ed 3d 70 4c 31 be
       -0.18378551 -0.082964815 0.11592521 -0.17314315
0001f0 a3 b6 8a bd 4e 93 dc 3d 6e f2 ab 3d 5a ae 85 3d
       -0.067731164 0.10770284 0.08395849 0.065273955
000200 dc 53 0f bd c0 4b 5b bc 8d b5 4e bd 70 83 a4 bd
       -0.034992084 -0.013384759 -0.05046611 -0.08032882
000210 02 8e 6f 3d 72 9f 76 bd a1 c0 eb bd 74 d1 ca 3c
       0.05848504 -0.060210653 -0.115113504 0.024758078
000220 84 d7 02 be 60 87 1a bd b6 01 b9 3d f4 4d 87 3d
       -0.12777525 -0.03772676 0.090335295 0.06606665
000230 54 a9 0a 3e f2 a5 0b be f5 3c 6f bc 1c c8 8b bd
       0.13541156 -0.13637522 -0.014601936 -0.06825277
000240 e5 22 ea bd 87 aa cb bd f8 3d 08 3d 0a 8c 3e 3b
       -0.11432437 -0.09944635 0.033262223 0.002907517
000250 55 cd b8 bd 57 ce 0b be c8 fa 15 be 90 a8 20 3e
       -0.09023539 -0.13652931 -0.14646447 0.15689301
000260 9d 1f 4d bd ed 0f 63 bd 6b f9 28 bd 51 14 b5 bd
       -0.050078977 -0.05543511 -0.04125349 -0.08841766
000270 50 78 25 be bf 89 d4 bd 25 4a bd 3d 44 b3 1e 3d
       -0.16159177 -0.103778355 0.092426576 0.03874518
000280 ae 6c 7f bd 04 18 56 3e 50 19 e6 3d 15 c2 52 3e
       -0.062359504 0.20907599 0.11235297 0.20581849
000290 e9 11 ae 3e b2 b9 71 bd 95 15 6e 3e 6f 5b b9 bd
       0.3399804 -0.059014983 0.2325042 -0.09050643
0002a0 24 a9 d3 bd 62 57 31 be 34 dd eb 3d aa 78 89 3d
       -0.103349954 -0.1731849 0.115168005 0.06712468
0002b0 97 2c 6a 3d 87 94 ad bb 78 d5 04 bd 51 79 6d be
       0.05717143 -0.005297247 -0.032430142 -0.2319081
0002c0 9f 2b 01 bc 8d fd 5b bd f6 3b e2 3d 3d ea fb bc
       -0.007883935 -0.0537086 0.11046593 -0.030751342
0002d0 10 8f 17 3f dd 0e 41 be 04 4b a9 3e 21 fb 0a 3e
       0.5920267 -0.18853326 0.33065045 0.1357236
0002e0 49 42 51 be 48 a9 25 3e c7 c6 53 3e 11 16 e8 3c
       -0.20435442 0.16177857 0.20681296 0.028330835
0002f0 0e 25 47 bc fd 11 6a 3e 53 02 0c 3e 20 a2 0f be
       -0.012154831 0.22858424 0.13672762 -0.1402669
000300 6a f5 e9 bd be e0 b4 3d 55 69 8a 3f a7 e2 6d be
       -0.11423762 0.08831929 1.0813395 -0.23230992
000310 cf c2 b1 3d 24 e7 0e bd 26 44 1e 3e 0f 4c f6 3d
       0.08679735 -0.0348884 0.15455684 0.12026226
000320 b8 61 cf 3c 72 30 ab bd e1 74 53 3d db 17 a4 3d
       0.02531515 -0.083588496 0.051625136 0.080123626
000330 f0 fb fd 3d 58 d5 a2 3d 35 84 5b bd b8 cc e1 b8
       0.12401569 0.07950848 -0.05359288 -0.00010766968
000340 d7 fc 4c be 18 82 04 3f c5 40 f0 3d 8f 98 28 bf
       -0.20018326 0.5176101 0.11731104 -0.65857786
000350 89 78 c6 bf bd 28 8d be 2e 5a 33 3e d7 1b 01 be
       -1.5505534 -0.27570143 0.1751487 -0.12608276
000360 30 90 f5 3d 0b 2b 46 be 88 12 82 bd 58 66 b9 3d
       0.11990392 -0.19352357 -0.06351191 0.09052724
000370 22 f6 f4 3b dd 04 5f be 70 50 b8 3c 12 ee 09 3e
       0.0074756304 -0.21779199 0.022499293 0.13469723
000380 20 ee 0f be da f8 8b 3e 82 d7 9f 3e 0e e3 82 be
       -0.14055681 0.27338296 0.31219107 -0.25563854
000390 3a 44 1b be 20 42 b4 3d 4e 59 a7 bd a1 46 af 3e
       -0.15162745 0.08801675 -0.081713304 0.34233573
0003a0 a0 21 3d 3c aa c8 c4 3d 1e 0a d0 bd 63 11 34 be
       0.011543661 0.09608586 -0.1015818 -0.17584758
0003b0 67 33 20 3e 11 4e 26 be 26 9e d1 3d cb f1 81 be
       0.15644608 -0.16240717 0.102352425 -0.25379786
0003c0 52 ec 8e bd 14 80 f1 bc 26 c0 9f 3e 89 2f f8 be
       -0.06978668 -0.029480018 0.31201285 -0.48473766
0003d0 44 3b 8d 3d 05 17 14 3e 10 73 9f 3e 55 dd 49 3d
       0.0689607 0.14461906 0.31142473 0.049283344
0003e0 91 16 2b be 55 1c f0 3d 93 7f ad bc 23 6e c3 3d
       -0.16707827 0.11724154 -0.021178996 0.09542491
0003f0 31 c9 10 3e 7d 0a 01 3e 0a cd c7 bd 3c 88 1e 3e
       0.14139248 0.12601657 -0.09755905 0.15481657

hidden2.bias f4 [64]
000000 84 c2 5a bd fc 2d 35 3d 31 92 a0 bd 5b 2c 91 bd
       -0.05340816 0.044233307 -0.07840384 -0.07088538
000010 cb 13 88 bd 6b ca 87 be 89 fe a6 3d 3d de 64 be
       -0.066444 -0.2652162 0.081540175 -0.22350402
000020 e7 53 30 be f3 2a 1b be 9d 29 88 3e 86 65 2d 3d
       -0.17219506 -0.15153103 0.26594248 0.04233315
000030 14 a6 6c 3d fc 2b 15 be e6 8f 77 bd ca 8d d7 3c
       0.057775572 -0.1456756 -0.060439967 0.026312727
000040 ae 02 68 be 39 bd 35 be 87 06 40 bc ea 1b 15 be
       -0.22657272 -0.17747964 -0.011720306 -0.1456143
000050 32 ac fa bd c0 01 8d bd 53 14 30 be 5b aa 1d be
       -0.12239875 -0.068850994 -0.17195253 -0.15397017
000060 ec 39 67 be bf e9 c9 3e c4 54 a7 bb fd 40 4d bd
       -0.22580689 0.39436147 -0.0051065404 -0.050110806
000070 06 b6 2d be be 31 5c bd 4e d3 77 bd 82 38 a5 be
       -0.16963968 -0.053758375 -0.06050425 -0.32269675
000080 38 4b f4 3d 46 a2 62 bd 9c 5d b9 bd 73 67 2a be
       0.11928409 -0.055330537 -0.09051058 -0.16641025
000090 f2 6f 2c be a9 f2 21 bd 44 e6 f2 bc 7b 93 22 be
       -0.16839579 -0.03953806 -0.029650815 -0.15876572
0000a0 80 73 cb ba a0 d4 52 bd af 8e 19 be 0b 9a 3c be
       -0.0015522093 -0.051472306 -0.14995836 -0.18418138
0000b0 78 5e 8f be f8 66 5b bd 24 90 65 be de 2b e0 bd
       -0.2800176 -0.053564996 -0.22418267 -0.10945867
0000c0 89 da 0b 3e 21 75 8a bd 7e 42 81 be 81 ae f5 bd
       0.13657583 -0.06760622 -0.25246042 -0.119961746
0000d0 18 04 f1 bd 71 cc 89 bd 4a 67 66 bd 44 f4 be bd
       -0.11768359 -0.06728447 -0.056250848 -0.09323934
0000e0 06 0f af bd b9 d1 7f 3e a9 e1 2e be ae dc 2b be
       -0.08547787 0.24982347 -0.1707827 -0.16783401
0000f0 95 0e 41 bc 62 be 16 be 14 df 7c 3e 87 24 ae be
       -0.011783262 -0.14721063 0.24694473 -0.34012243

hidden3.weight f4 [128, 64]
000000 64 2f ec 3d 61 86 06 3e ec ce b1 3d 00 fc d4 3a
       0.115324765 0.13137199 0.08682045 0.0016249418
000010 78 be 2e bd 2f 84 7e 3d 9d ad ca be d0 8c d8 3d
       -0.042662114 0.06213778 -0.3958558 0.10573733
000020 10 54 60 be 59 e6 54 bd 73 98 47 3e 4c 0f 45 3d
       -0.21907067 -0.05197749 0.19491749 0.04811029
000030 ef 42 69 bd c6 27 43 be e3 86 b9 3c 22 f5 ea 3d
       -0.0569486 -0.19058141 0.022647327 0.114725366
000040 85 52 84 3d 9d 2b 65 bf f1 ff 0a bd 13 c9 77 3e
       0.06461052 -0.89519674 -0.03393549 0.24197797
000050 50 0c 51 bc 23 57 8c bd 11 2c b5 bb 58 7f b7 bc
       -0.012759283 -0.068525575 -0.0055289348 -0.02239959
000060 3d af 55 3e 93 6c 0e be d7 4f 9c bf a5 59 02 be
       0.2086763 -0.13908605 -1.2211865 -0.12729509
000070 84 a5 c9 3d 4f 63 d1 bd b1 dc 85 bc 9e cd 01 3f
       0.09846023 -0.1022402 -0.016340585 0.5070437
000080 60 b3 7a 3d 35 e3 e9 3c 26 77 2b 3e 6e e9 1b be
       0.06120622 0.028550724 0.1674467 -0.15225765
000090 5b 2e 8c be 7b b2 a4 bd 07 51 2e be a0 d7 77 3c
       -0.27379116 -0.08041855 -0.17023097 0.015127093
0000a0 0a c9 ad 3d 29 d0 0d 3e cd 5f 7e bc e4 fc 41 3f
       0.08485611 0.13848938 -0.01552577 0.75776505
0000b0 73 7b 4e 3d be 8f f8 bd 4b d9 5a 3e e6 e7 98 bd
       0.0504107 -0.12136792 0.21371953 -0.07466106
0000c0 dd 2e 46 be 7a e0 86 3d 19 48 e3 3e 42 c2 31 3c
       -0.19353814 0.06585784 0.44390944 0.010849537
0000d0 00 da 2e bd ad 37 43 bd 7f ec 01 be 19 32 be bc
       -0.04268837 -0.04766052 -0.12687872 -0.023217248
0000e0 9b f7 08 be c6 97 b8 be a2 ff bc 3d ec cb 0a bd
       -0.13375704 -0.36053294 0.092284456 -0.03388588
0000f0 ab 65 33 bf d1 fb 15 3e 75 44 b3 be a5 24 0b 3f
       -0.7007701 0.14646842 -0.35013166 0.5435279
000100 f8 2c 2c 3e 34 e5 15 bd 5f 74 91 bc 20 f4 e7 ba
       0.16814029 -0.03659554 -0.017755685 -0.0017696656
000110 c7 f8 95 3d 6c fa 7f 3e f1 a7 9c 3d 28 f9 1c 3e
       0.07322841 0.24997872 0.0764922 0.1532942
000120 5a 9d 19 3e 02 b9 05 3e f1 8f d9 bd bf d7 b8 3d
       0.15001431 0.13058856 -0.10623158 0.09025525
000130 c8 d5 0e be ef 52 e3 bd 05 db 54 3b c0 8b 38 bb
       -0.13948739 -0.11099803 0.0032479179 -0.002815947
000140 28 e4 37 3e 86 0d 25 3f c1 2c c2 3d 5b 2d 2f 3d
       0.17958128 0.6447376 0.094811924 0.042767864
000150 e0 48 27 3c 84 6a 66 3c f8 d0 2f be 26 1f 80 3d
       0.010210246 0.014063481 -0.17169559 0.06255941
000160 03 0b 74 3e db 80 76 be 02 f9 5d 3e 37 7f cd bc
       0.23832326 -0.24072592 0.2167702 -0.025085075
000170 f2 84 9a 3d f8 e8 94 be 5b b6 b3 bd 6b 96 e3 3e
       0.075448886 -0.2908399 -0.08775016 0.44450697
000180 69 0f 1b be 8d 8b 58 3d 03 70 8d 3e 76 96 a3 3d
       -0.15142597 0.05286746 0.2762452 0.079876825
000190 20 d5 a8 3d fd 3c 2f bd 33 ef 7f be d0 d6 64 3c
       0.08243775 -0.042782772 -0.24993591 0.013967231
0001a0 08 ad 14 3d e4 f5 61 3c 07 9b e7 3d 9a 06 6c 3f
       0.036297828 0.013791535 0.11308866 0.92197573
0001b0 d4 bb c7 3e 6e 6a 88 bc 10 08 e4 3d ab 24 3f 3d
       0.3901049 -0.016652312 0.1113435 0.04666583
0001c0 f9 8d 82 be 0f c0 4a bb 3c e0 54 3e 2c e4 a6 3d
       -0.25498942 -0.003093723 0.20788664 0.08148989
0001d0 a4 9a b2 3d 77 94 5e be 6e 72 aa be 6c b5 de 3c
       0.087209016 -0.21736322 -0.33290428 0.027186118
0001e0 b6 9d 3b be 5e ce d0 be a2 44 b6 3d 5d 21 22 bd
       -0.1832188 -0.40782446 0.088998094 -0.0395826
0001f0 65 35 79 3f 02 96 4f 3f 6b 71 4e 3d c7 1d 09 be
       0.973471 0.8108827 0.050401133 -0.13390265
000200 a7 75 9d be 05 b0 5a bd b9 8b 85 bc 10 84 31 bd
       -0.30753824 -0.05339052 -0.016301977 -0.043338835
000210 58 db dc bd ea 0f f2 be 2c 6e 75 be 1f af d1 bd
       -0.10784024 -0.47277766 -0.23967808 -0.1023848
000220 fd cb 01 be 0a 09 02 3e 32 ab 12 3d b2 ed 19 be
       -0.12675472 0.1269876 0.035807796 -0.1503208
000230 e7 79 5e 3c 8e 18 0a bd 60 11 1b 3d b5 52 b4 bd
       0.0135788685 -0.033714823 0.037858367 -0.088048376
000240 26 bb b2 bd d9 31 4d bc ad b4 23 bd e5 ad c5 bd
       -0.08727102 -0.012524092 -0.039967228 -0.096523084
000250 98 2c db bd c8 38 19 3d d5 91 04 be bc 99 de bd
       -0.10701865 0.037407666 -0.12946256 -0.10869166
000260 69 be 12 be ff 8d 6b be 77 f3 dd be 8a 7e d0 bd
       -0.14330448 -0.23003386 -0.4334981 -0.101803854
000270 16 90 99 be b7 01 ff bd 80 39 5c 3c e2 7d a0 be
       -0.2999274 -0.12451499 0.013441443 -0.3134604
000280 13 f8 1f 3e 7e 5c de bd 23 ef 84 bd 29 13 05 3d
       0.15621977 -0.10857485 -0.06490924 0.032488976
000290 9d a2 87 bd 95 3f 4d bd 1d 77 9b be 82 63 ea bd
       -0.06622813 -0.050109465 -0.30364314 -0.11444761
0002a0 54 02 4a 3d 68 10 73 be cd c1 d7 be c6 8c aa be
       0.049318627 -0.23736727 -0.42140046 -0.33310527
0002b0 4f f8 d9 3d 18 8e 3a be df a7 76 be 14 12 10 bd
       0.10643064 -0.18218267 -0.24087475 -0.03517349
0002c0 46 67 86 3c ce 72 aa 3d 2a c0 1c be 75 82 c4 bd
       0.016406666 0.083226785 -0.1530768 -0.09595195
0002d0 24 1c ef bd 51 57 65 3d ee 92 be bd 5f ce 78 be
       -0.11675289 0.055991475 -0.09305368 -0.24297474
0002e0 e1 9e 20 be d5 3e bc 3b 16 ca 75 bd 86 1a eb 3d
       -0.15685607 0.005744795 -0.060007177 0.11479668
0002f0 c5 b2 09 be f9 3a 85 be 5f 69 31 3e 4f 20 8e 3d
       -0.13447101 -0.26021555 0.17325352 0.06939756
000300 5a 3c f4 3c 7a d6 6f 3d 7a 53 15 be 6e 06 fe bc
       0.029813934 0.05855415 -0.14582625 -0.031008925
000310 c0 cd 5e 3c e1 54 97 bd 12 f8 2e 3d 98 5f 83 bd
       0.013598859 -0.07389236 0.042717047 -0.064147174
000320 29 01 3f be e0 71 62 bd 8c fc b8 bd e2 f4 b7 3c
       -0.18652786 -0.05528438 -0.090325445 0.022455636
000330 35 b5 05 be bb ea 3c bd 90 a7 52 3c 74 c6 5c 3d
       -0.13057406 -0.046122294 0.012857333 0.053900197
000340 8e 6f fd bd 11 d9 96 3d 22 e3 b3 bd 4d 79 20 be
       -0.12374793 0.07365621 -0.087835565 -0.15671273
000350 f4 36 51 3d e0 36 96 bd d2 fb 40 3d 9f 48 c2 3c
       0.051077798 -0.07334685 0.047115155 0.023716269
000360 78 bf 82 bd a2 13 a2 bd 59 0d 98 bd db 64 a9 bc
       -0.06384176 -0.07913901 -0.07424421 -0.020677974
000370 00 fa 9d b9 ff e7 94 bd 80 4a a7 bd 85 08 41 bd
       -0.00030131638 -0.07270812 -0.081685066 -0.047127265
000380 18 ee f2 bd 21 c4 f2 bc 93 5a b2 bc b9 08 11 bd
       -0.11861819 -0.029634537 -0.021771705 -0.03540871
000390 91 82 8a bd 21 62 ad bb 5c 8e 0e 3d ec 0b e6 bd
       -0.06763185 -0.005291239 0.034803733 -0.11232743
0003a0 ec 12 64 bd fe d7 ff bc 25 48 a2 bd e9 5a af bd
       -0.055682108 -0.031230923 -0.07923917 -0.085622616
0003b0 af 7c 59 3d ac 22 01 be ea 38 f0 3b af d7 ce bd
       0.053097423 -0.12610883 0.0073310034 -0.10099732
0003c0 cf a4 4e 3d 82 5d 39 be ae bb 0b bd 4b ea 84 3d
       0.050450142 -0.18102077 -0.034114532 0.0649
0003d0 c5 e1 96 3d b8 2c 01 be f1 cf 5b 3c 59 8c fa bd
       0.07367281 -0.12614715 0.013416276 -0.122338004
0003e0 8e 1e 26 bd ad b4 03 bd 81 3c 01 bc 32 02 c5 3d
       -0.040556483 -0.032154728 -0.00788796 0.09619559
0003f0 6f 79 a1 bc f0 5f 53 bd 4f 09 2c bd 73 28 e6 3c
       -0.019711224 -0.051605165 -0.042001065 0.02809546

hidden3.bias f4 [128]
000000 06 cd db bd f1 e5 e6 bd c7 4e 69 3d 84 6b 45 bc
       -0.107324645 -0.112743266 0.056959894 -0.0120495595
000010 61 f6 a1 ba fe 6d 2d be d5 60 3d bd a4 41 73 be
       -0.0012356752 -0.1693649 -0.046234924 -0.23755509
000020 6e d5 86 bd 93 fc d4 bd 75 41 d4 bc 53 00 83 bd
       -0.06583677 -0.10399737 -0.025910119 -0.06396546
000030 19 b0 f0 bd aa 92 05 be 1c 00 2a be 75 d6 1f be
       -0.11752338 -0.13044229 -0.16601604 -0.15609153
000040 9e 09 bd bd bf d3 4b be c3 34 11 bd 3c 27 97 bd
       -0.0923035 -0.19904993 -0.035450708 -0.0738053
000050 74 a6 9e be e9 d4 e3 bd e3 3a ba bd d2 90 37 ba
       -0.3098637 -0.11124594 -0.09093263 -0.0007002476
000060 2a fa d9 bc 64 38 4d bc 4e 08 e7 bd 1c 42 03 be
       -0.026608545 -0.012525652 -0.11280881 -0.12818187
000070 6b a6 f4 3d 3d 9b 9a bb 9c 8d 37 bd c4 9d 5b bd
       0.11945804 -0.004718213 -0.044812784 -0.053617254
000080 f8 48 e8 bd 52 8b 92 bd b0 08 38 be f9 a3 4e be
       -0.11342043 -0.071554795 -0.17972064 -0.20179738
000090 b0 59 94 3b 43 09 cf bd bd 49 15 be 3d 82 55 bc
       0.004527293 -0.101091884 -0.1457891 -0.0130315395
0000a0 bd 9d f6 bd 84 fb ea bd d9 24 2c 3d d8 63 3e be
       -0.12041805 -0.11473754 0.04202733 -0.18592775
0000b0 59 75 7d be ec 61 5b be a4 b9 e0 bc 27 a0 8a bd
       -0.24751796 -0.21424073 -0.02743227 -0.06768828
0000c0 f6 6a e3 bd 47 b3 0d be dc 45 fb bd 90 8e 01 3e
       -0.111043856 -0.1383792 -0.12269184 0.1265204
0000d0 4e e7 ae bd 9d 8f 01 be ed a4 a9 bd 59 d4 c8 bd
       -0.085402116 -0.1265244 -0.0828341 -0.09806127
0000e0 58 58 2d bc df e0 be bd 93 f4 ee 3d fb 1e b1 3d
       -0.010580145 -0.093202345 0.116677426 0.08648487
0000f0 6d 2d d0 bd d9 15 9d 3d d6 a3 44 be 69 ad e1 bd
       -0.10164914 0.07670183 -0.19203123 -0.110194035
000100 c6 d9 87 bd ff 4c b6 bc 7f 0a cd bd 8a 16 ef bd
       -0.06633334 -0.022253511 -0.100117676 -0.11674221
000110 8f f2 e5 bd f7 35 3d be 7d 20 0e be 03 62 96 bd
       -0.11227905 -0.18477617 -0.13879581 -0.07342913
000120 8f dd 0a be 9c 01 ac bd 88 00 11 be e7 93 22 be
       -0.1356108 -0.083987445 -0.14160359 -0.15876733
000130 98 c2 51 bc 09 21 f7 bb bc 72 18 be 22 37 ee bd
       -0.012802742 -0.00754178 -0.14887518 -0.116316095
000140 8a 07 03 be f4 22 b0 bd de 3d 5e bd ed 07 22 be
       -0.12795845 -0.08600417 -0.05425822 -0.15823336
000150 f6 0f 0c be 88 03 ab be 66 24 fa 3d 14 8c 23 bd
       -0.13677964 -0.33401132 0.12213974 -0.03992851
000160 ac ac 81 bd 63 0d f3 bd 41 44 2f bd cf 04 2c bd
       -0.06331763 -0.11867788 -0.0427897 -0.041996773
000170 b3 00 b5 3d a1 af 1a bd 09 36 9c 3d 3b b8 29 be
       0.08838024 -0.03776515 0.07627494 -0.16574185
000180 f0 92 be bc a8 47 09 bd 72 b2 c2 bd 8e e4 af bd
       -0.023263425 -0.033515602 -0.09506692 -0.08588515
000190 c7 1a be be 3b f7 ff bd 6e 6a 91 bd c5 6c 8b bd
       -0.37129804 -0.12498327 -0.07100378 -0.068078555
0001a0 c1 f2 6f bd 7a f7 05 be ea 64 d4 3d e9 20 3a bd
       -0.058581118 -0.13082686 0.1037081 -0.04544154
0001b0 86 2b 2a bd 7a f0 e8 bd df ae 0b be 86 e1 29 bd
       -0.041545413 -0.11373992 -0.13640927 -0.04147484
0001c0 fa e2 08 3c 44 56 ec 3b 6a 83 1a be d8 8d 6d bd
       0.008354897 0.007212432 -0.15089193 -0.0579966
0001d0 57 69 ed bd 43 07 93 bd 7a c9 e8 bd ea 55 ef bc
       -0.115923576 -0.071791194 -0.113665536 -0.029215772
0001e0 64 48 8d be ad 09 bc 3c 29 74 2f bd 99 f3 44 3d
       -0.27594292 0.022953833 -0.04283539 0.048083875
0001f0 16 a9 f9 bc ea ad 32 be f2 52 08 3c 4e e8 b6 bc
       -0.030476134 -0.17449155 0.008320557 -0.022327568

output.weight f4 [4, 128]
000000 8c eb ec 3d b3 df 84 be f6 4f 52 3c db 13 09 bb
       0.115683645 -0.2595192 0.012836447 -0.0020916376
000010 ce dc 40 3d ea 9f e8 3b c1 ae dd bb 9e d9 2b 3e
       0.047085576 0.0070991414 -0.006765217 0.16782233
000020 05 10 fe bc a8 94 64 3c 89 51 f5 3c 3b b7 fc 3b
       -0.031013498 0.013951458 0.029946106 0.0077122725
000030 f0 a4 4b be 02 7a be bc 3e 76 fd bd 66 d8 e9 bd
       -0.19887137 -0.023251537 -0.123760685 -0.11418228
000040 51 ce 0f 3d 92 3e 9c be 2b fb dc 3d b8 64 40 bd
       0.035108868 -0.30516487 0.10790094 -0.046971053
000050 4d 69 23 bf a0 8e cb ba 0f af 01 bc 5e c2 3a bd
       -0.6383255 -0.0015530176 -0.007915272 -0.04559552
000060 46 b4 77 3f b4 9b d2 bc 34 51 75 bd 70 96 c4 3e
       0.9675945 -0.02570901 -0.059891894 0.38396025
000070 f4 70 16 3c f8 66 10 3c fd bd 60 3c 1c d1 b3 3c
       0.009182204 0.008813612 0.013717172 0.021950297
000080 12 83 9b 3e e9 83 15 bd 93 78 8e 3c 6b c7 05 bd
       0.30373436 -0.036502752 0.017391479 -0.032660883
000090 26 30 0a bc 9c 5e 51 3d fe 39 c3 bd 1d 61 b9 3c
       -0.008434331 0.051115617 -0.095325455 0.022629315
0000a0 d0 ab 68 3d 1d c3 9f be 47 ce b2 3c c9 9c 8b bd
       0.05680448 -0.31203547 0.021826876 -0.06817014
0000b0 da 0a 94 3e 6b 6a 9d be 7a 95 93 bb a1 a8 86 bd
       0.2891453 -0.30745253 -0.004503903 -0.06575132
0000c0 b2 27 37 3b 49 14 fb bb b8 c2 c1 bc b5 3e f6 3c
       0.0027947244 -0.0076623303 -0.02365242 0.030059198
0000d0 80 80 06 bd cf 67 8e 3e ed f1 94 3b 01 df 24 bb
       -0.03283739 0.27813575 0.0045454414 -0.0025157335
0000e0 bf 5b bd 3c 0d dd fd 3c f1 3a 0c 3d 26 cd 08 bd
       0.023115037 0.030989194 0.0342359 -0.03339877
0000f0 ce 58 2c 3d 4f 35 03 bd 6d 22 1e 3e be e3 a1 bc
       0.04207688 -0.03203326 0.1544282 -0.019761916
000100 36 32 00 3c 1d ba b8 bd 0b 9c e7 bc 3f 56 e1 3a
       0.007824471 -0.09019873 -0.02827265 0.0017191841
000110 e6 d3 3d 3c 32 c7 dd bc 81 09 72 bc 58 84 ad 3d
       0.011586165 -0.027072523 -0.014772774 0.08472508
000120 fc a5 2e bd 72 f9 90 bc 49 18 e2 3a e1 1c 07 bf
       -0.042638764 -0.01769707 0.0017249669 -0.5277844
000130 df 52 6f bc df a2 0b 3d 2d e6 41 bd 75 4d 0e 3f
       -0.01460716 0.034090873 -0.047338653 0.5558694
000140 09 6c 64 3d 90 2b fc 3c ea a8 33 bb 54 50 f0 3c
       0.055767093 0.030782491 -0.0027413913 0.029335178
000150 c7 81 a2 3b a6 24 3f 3f a9 d8 fb bd 8a 76 69 bd
       0.0049593183 0.74665296 -0.12297184 -0.056997813
000160 44 c9 85 b9 cd ed 06 be 54 00 5b 3e 98 51 fb 3e
       -0.0002551769 -0.13176651 0.21386844 0.4908569
000170 f8 a8 84 3d 59 b6 89 3e a9 13 15 bd 77 b6 1f be
       0.06477541 0.26896933 -0.036395703 -0.15596949
000180 54 b4 fa bb 34 2c 74 bd db 78 c6 3d cf 3f ad 3c
       -0.0076508913 -0.059612468 0.0969102 0.02114859
000190 45 37 7f bf 6c 09 10 bc f6 32 1d bc 6d 7d a5 3e
       -0.9969371 -0.008791309 -0.00959467 0.32322255
0001a0 9d 5f 5c 3e 9f fc 50 3c 08 44 8e 3d 7b 44 9e bd
       0.21520849 0.012755542 0.0694657 -0.07727905
0001b0 74 94 89 3c 61 3d 9c 3b 12 a5 1d 3b f6 a7 28 3b
       0.01679442 0.004768059 0.0024054688 0.0025734878
0001c0 52 ca 1a 3f 6f 8d bf 3d 26 72 59 3d e9 4d 48 3d
       0.60464966 0.09353148 0.053087376 0.048902426
0001d0 75 8b 1d 3d f7 d2 40 3d 21 73 21 bd 1d 72 31 bd
       0.038463075 0.04707619 -0.039416436 -0.043321718
0001e0 20 7b 97 3d ad e2 4f 3b 79 41 28 3b 16 f6 fc 3b
       0.07396531 0.0031720803 0.002567379 0.0077197654
0001f0 e9 b7 20 bd 62 70 8c be ad 74 c0 3c da 6b 87 bc
       -0.03923789 -0.2742949 0.023493135 -0.01653092
000200 a9 17 9d bd 6d 7c 31 3b 3b 2f 00 3f ff 55 3e 3b
       -0.076705284 0.002708222 0.5007207 0.0029042957
000210 95 b3 58 3d d7 e6 13 bd c8 2b 47 bf df 28 f9 bd
       0.052905638 -0.036108818 -0.7780118 -0.12165999
000220 0d 2a b4 3b 5d 57 0e be 7c d7 c1 3d cc 39 13 3d
       0.005498177 -0.13900514 0.094649285 0.03594379
000230 f3 66 05 3d e1 47 bb bd 34 dd 93 bd 3e c3 d7 bc
       0.032568883 -0.09144569 -0.072199255 -0.026338216
000240 e3 d6 c9 3c 56 85 55 3c 0c c2 f8 bc d7 8a 97 bd
       0.024638599 0.013032278 -0.030365966 -0.073995285
000250 37 19 ee 3c af e4 9b 3c 04 4e e2 3c a6 04 16 3d
       0.029064758 0.019029943 0.027625091 0.036625527
000260 88 ed f3 bc af 44 d4 3d 86 c5 e3 3c 64 d1 4c 3d
       -0.02977635 0.10364663 0.027804147 0.050004378
000270 7f 62 35 bf d1 d7 3e be 3d 6e 8a 3c b9 a2 09 bd
       -0.7085342 -0.18637015 0.016898269 -0.03360245
000280 8c 03 aa bc 48 8b 44 bd 7d 05 18 3d 7d ca c8 3c
       -0.020753644 -0.04798439 0.03711461 0.024510616
000290 f0 cb 2a 3d ff b0 fa bc e6 88 a8 3d 2e 83 b9 bd
       0.041698396 -0.030601976 0.08229236 -0.09058224
0002a0 91 34 b7 bb 5f f3 33 bd 6d fa 28 3f 2a 2a d7 bd
       -0.005590983 -0.04393327 0.6600712 -0.10506089
0002b0 03 91 03 bd a5 8d e1 3c 33 2a ad 3e ac 3c 8f bd
       -0.032120716 0.027533362 0.33821258 -0.06993994
0002c0 b8 fb ce 3d fe 4e 13 bd cb 47 0d bb 38 07 a8 3e
       0.10106605 -0.035964005 -0.0021557685 0.32818007
0002d0 2d 22 b5 3c 12 50 5f bc 91 da 85 be c5 9d b9 be
       0.022111023 -0.01362993 -0.26143315 -0.3625318
0002e0 b3 3d ba 3c 7f df 18 bd 58 f1 66 3f 8d f1 67 3f
       0.022734499 -0.037322517 0.9021201 0.9060295
0002f0 4c 48 4a be c4 a1 e8 3e 94 f2 42 be f2 7c 70 be
       -0.19754142 0.45435917 -0.19037849 -0.23485163
000300 c8 e8 9e be 81 77 0a 3e ae ce ef bc 3b 17 96 bd
       -0.31036973 0.1352215 -0.029273357 -0.073286496
000310 58 2e 97 3c 47 5c 8d be 3a 57 ba 3c 4e 0f c4 bc
       0.018454716 -0.27609465 0.022746671 -0.02393308
000320 9b 38 71 bf 0c fc 82 bf 27 e9 08 bc be 4b 45 bd
       -0.94227 -1.0233169 -0.008356369 -0.048167937
000330 b4 0d 18 bf e4 ac 21 bf e2 07 aa bd ad d6 e2 3d
       -0.5939591 -0.63154435 -0.08302285 0.110761024
000340 a8 b2 47 3d ad d6 8e bc 8a 31 5b bd 03 7b 11 3c
       0.048754364 -0.01743635 -0.05351404 0.008879426
000350 de e5 0b be fe ab d9 bb 1d 4f f1 3d fe 35 50 3d
       -0.13661906 -0.0066428175 0.11782668 0.05083274
000360 20 7a 95 be 09 d2 a4 3c be d2 90 3d 36 81 61 b8
       -0.29194736 0.020119684 0.07071446 -5.3764517e-05
000370 c9 52 2a 3f 7d 3f f8 bb be d4 e9 3d 17 01 d9 bd
       0.6653257 -0.007575928 0.114175305 -0.10595911
000380 6b 74 b8 bd 99 8c 66 3d 3f a4 c3 bd d1 90 d0 bc
       -0.0900658 0.056286428 -0.09552812 -0.025459679
000390 0b 6b 35 3d b1 0a 0c 3e 32 9a 89 3e e6 52 d3 bd
       0.044291537 0.13675953 0.26875454 -0.10318546
0003a0 16 08 4b 3d a5 f0 15 3c e7 6e 79 3f 26 4a a6 3b
       0.04956826 0.009151612 0.9743485 0.005074757
0003b0 8e d3 65 bf cd 15 02 bd 9e 6e 84 bc 3c d0 45 bf
       -0.8977593 -0.031759072 -0.016166028 -0.77270865
0003c0 96 2d c8 3b 36 d6 da 3d f7 56 f9 bc 3a 96 a7 bd
       0.00610895 0.10685389 -0.030436976 -0.0818295
0003d0 43 1a cc 3d 1e f9 a0 bc aa b0 61 3c de d4 27 bf
       0.099659465 -0.019650038 0.01377503 -0.65559185
0003e0 e7 ba 97 bd 76 37 b6 bd 20 55 eb bd 77 e9 19 3f
       -0.07408696 -0.08897297 -0.11490846 0.60121864
0003f0 14 db c5 bc e4 8e 1e bd ea ed 59 3b 08 ed 5a bc
       -0.024152316 -0.03871049 0.003325338 -0.013362177

output.bias f4 [4]
000000 69 52 bc 39 ac 74 05 be 82 d4 db 3c b0 e6 b4 bb
       0.00035919555 -0.13032788 0.02683473 -0.005520664
