models/InvPendulum2/measure_x1_N5/model_state_dict.pth (torch, 47852 bytes, 8 tensors)

hidden1.weight f4 [32, 5]
0	0x3ee608b9	0.4492853
1	0xbe36669e	-0.17812583
2	0xbd8ac5eb	-0.06776031
3	0x3f111108	0.5666661
4	0xbf0410bc	-0.51588035
5	0x3ea8747b	0.32901368
6	0xbe386f0d	-0.18011113
7	0x3eee2230	0.46510458
8	0xbd297249	-0.041368756
9	0x3e8f5208	0.27992272
10	0x3d80800c	0.06274423
11	0x3e381809	0.17977919
12	0x3f23f72e	0.6404904
13	0xbe6d0bbc	-0.23149008
14	0xbe0b8285	-0.13624008
15	0xbc26a449	-0.010171005
16	0xbc44dbfd	-0.01201534
17	0xbdafe92d	-0.085893966
18	0x3f2acb54	0.66716504
19	0x3e27dc2a	0.1639258
20	0xbe140375	-0.14454444
21	0xbe79a422	-0.24379018
22	0xbdca4d35	-0.09878007
23	0xbe47fa30	-0.19529033
24	0xbdef27c5	-0.11677507
25	0x3d9a8365	0.07544593
26	0x3ed70217	0.41993782
27	0x3e8ce3f6	0.2751767
28	0xbed28cb2	-0.41122967
29	0x3ef71f33	0.4826599
30	0xbe18b4fa	-0.14912787
31	0x3f2fea2d	0.687167
32	0x3edd2240	0.43190193
33	0xbf0fea47	-0.56216854
34	0xbe47a4eb	-0.19496505
35	0xbe8c1fc7	-0.27367994
36	0x3f0ce709	0.5504003
37	0xbece00c8	-0.4023497
38	0x3ea92969	0.33039406
39	0xbc79fefd	-0.015258548
40	0x3f182d79	0.59444386
41	0xbe1941e2	-0.14966539
42	0x3f279bae	0.65471923
43	0xbdefe346	-0.11713271
44	0x3dd1e5d9	0.10248918
45	0x3e9fcf9a	0.31213075
46	0xbef8718f	-0.48524138
47	0xbdd19abd	-0.10234592
48	0xbeda30a3	-0.42615232
49	0x3d03b556	0.032155357
50	0xbef1f259	-0.4725521
51	0xbe522765	-0.2052284
52	0xbcb0e39d	-0.02159291
53	0xbec3c748	-0.38237977
54	0x3eb5616f	0.35425898
55	0x3ed752ff	0.42055508
56	0x3d71c228	0.059023052
57	0xbf405a29	-0.75137573
58	0x3df13655	0.11777941
59	0x3edf0bb0	0.43563604
60	0xbebfe0c3	-0.37476167
61	0x3ea7d027	0.32775995
62	0x3f10d3f7	0.5657343
63	0x3f054930	0.520648
64	0xbf0bab04	-0.54557824
65	0xbdab479e	-0.08363269
66	0x3ead78c7	0.33881208
67	0xbc2c2c2b	-0.010508577
68	0xbed9f78c	-0.42571676
69	0xbec0d991	-0.3766599
70	0x3ea3f71a	0.3202446
71	0x3d42904e	0.0475009
72	0x3cef4bba	0.029210914
73	0x3da4844d	0.08033047
74	0x3e997664	0.29973137
75	0x3e701d5a	0.23448697
76	0x3eb82f15	0.3597342
77	0x3e81fed8	0.25389743
78	0xbebd9dd2	-0.3703447
79	0x3ec3b2e6	0.38222426
80	0xbe8855a8	-0.2662785
81	0xbed630db	-0.4183415
82	0xbe330d94	-0.17485648
83	0xbedd254d	-0.4319252
84	0x3e285f3e	0.16442582
85	0xbeba00a6	-0.3632862
86	0xbf1ee32d	-0.6206539
87	0x3eb79b39	0.35860613
88	0x3affe596	0.0019523378
89	0x3d94fcff	0.07274818
90	0xbd7e580f	-0.062095698
91	0xbf1e1c6e	-0.6176213
92	0x3df37af4	0.11888686
93	0x3e382b23	0.17985205
94	0xbeb18770	-0.34673643
95	0xbe92075b	-0.28521237
96	0x3e9a1eaa	0.3010152
97	0x3e27aeb8	0.16375244
98	0xbe2bed23	-0.16789679
99	0x3d6b546c	0.057453558
100	0x3eca92c3	0.39565095
101	0x3c583a9c	0.013197567
102	0x3f87a9b3	1.0598663
103	0x3e6e7328	0.23286116
104	0x3c879b0a	0.01655342
105	0xbeee07ed	-0.46490422
106	0x3eacbb12	0.33736473
107	0xbecbb1de	-0.3978414
108	0x3e888272	0.26662022
109	0xbc58633f	-0.013207256
110	0x3dc4b189	0.09604175
111	0x3f07b4cf	0.53010267
112	0x3eab55a8	0.33463788
113	0xbf03a5cb	-0.51424855
114	0x3e4dd69d	0.201014
115	0x3ea5bd68	0.32371068
116	0xbd1e5271	-0.03865284
117	0x3f88c9bf	1.0686568
118	0xbe4ab070	-0.19793868
119	0xbd94c0cf	-0.07263338
120	0xbe33ac89	-0.17546286
121	0xbd8a2e1c	-0.06747076
122	0x3f3d5278	0.7395396
123	0xbf140c24	-0.57831025
124	0x3ed907b9	0.42388704
125	0xbea1c5e1	-0.31596282
126	0xbf22407c	-0.63379645
127	0xbdc576ef	-0.096418254
128	0xbcc118b8	-0.023571357
129	0x3e950b23	0.2911006
130	0xbe964632	-0.2935043
131	0x3e86b23f	0.26307866
132	0x3f1ac365	0.604544
133	0x3f148be9	0.58025986
134	0x3ec052ab	0.3756307
135	0x3f033a57	0.51260895
136	0x3edc5c51	0.43039182
137	0x3d9860ee	0.07440363
138	0xbf22acc5	-0.63544875
139	0xbe9b7baf	-0.303678
140	0xbe38ed51	-0.18059279
141	0x3d0ef080	0.034897327
142	0xbf6a0496	-0.9141325
143	0xbd8290d6	-0.063752815
144	0xbda5f6a8	-0.081036866
145	0xbe31e192	-0.17371204
146	0x3dd93cc5	0.10607294
147	0x3eff9042	0.49914747
148	0x3ee6193d	0.4494113
149	0x3eed0d7c	0.4629935
150	0xbe41b679	-0.18917264
151	0x3eaa4046	0.33252162
152	0xbe92eff1	-0.28698686
153	0x3e5e4108	0.21704495
154	0xbe31333e	-0.17304704
155	0xbe6d4550	-0.23170972
156	0xbf035c43	-0.51312655
157	0xbe0b9331	-0.13630368
158	0x3efc87da	0.49322397
159	0xbc2c6b79	-0.01052367

hidden1.bias f4 [32]
0	0xbe51f213	-0.205025
1	0x3e3653c8	0.17805398
2	0x3e0ea36b	0.13929527
3	0x3e5ccdba	0.21562853
4	0xbe826f19	-0.25475386
5	0x3df5e94d	0.12007389
6	0xbdfcb423	-0.12339046
7	0x3dbf053e	0.09327172
8	0xbc398c9d	-0.011325029
9	0xbe1225ef	-0.14272283
10	0xbe19a026	-0.15002498
11	0x3e06df09	0.13171019
12	0x3c78ebea	0.015192965
13	0x3e0e09f3	0.13870983
14	0x3ea1458e	0.3149838
15	0x3ea3b9d4	0.31977713
16	0x3e9df13f	0.3084812
17	0x3b8823c3	0.0041546538
18	0xbe605871	-0.21908738
19	0x3eacef4b	0.33776316
20	0x3b46bbda	0.003032437
21	0x3d34555e	0.044026725
22	0xbe92d877	-0.28680775
23	0xbb6f7a9a	-0.0036541582
24	0xbe8eeb9f	-0.2791414
25	0x3eb7b301	0.35878757
26	0xbe9b57e0	-0.3034048
27	0xbe430c17	-0.1904758
28	0xbad29225	-0.0016065283
29	0xbe8dceb9	-0.2769678
30	0x3e3a5394	0.18195945
31	0xbe5f3a45	-0.21799572

hidden2.weight f4 [64, 32]
0	0x3d76166a	0.06007997
1	0x3db8a73c	0.090162724
2	0x3e54e10f	0.20788978
3	0xbe56b000	-0.20965576
4	0x3d9b6b46	0.0758882
5	0x3e99ad74	0.30015147
6	0x3c9ae3f4	0.018907525
7	0xbe21a663	-0.15786128
8	0x3de60cb8	0.11232895
9	0xbea311c9	-0.31849506
10	0x3e95859f	0.29203507
11	0xbe174d3e	-0.1477556
12	0x3e49fa71	0.19724442
13	0x3dc0179f	0.09379505
14	0xbd827e85	-0.06371788
15	0x3cad96f4	0.021190144
16	0x3d0e2ea5	0.034712452
17	0x3e70a820	0.23501635
18	0x3ee72c8f	0.45151183
19	0x3db7a4b4	0.089669615
20	0xbeb33d6d	-0.35007802
21	0x3de74f49	0.11294419
22	0x3db038f2	0.086046115
23	0xbd3b3060	-0.04570043
24	0xbe11b5ed	-0.14229555
25	0xbe190efe	-0.14947125
26	0xbe48cce1	-0.19609405
27	0x3e420d0d	0.18950291
28	0xbe5aa889	-0.21353354
29	0x3da454c3	0.080239795
30	0xbe07965a	-0.13240948
31	0xbf43475b	-0.76280755
32	0x3d9b7b12	0.07591833
33	0xbe0b79cc	-0.1362068
34	0xbdfc650a	-0.12323959
35	0x3df18475	0.11792842
36	0x3e08401a	0.13305703
37	0x3e0bde99	0.13659133
38	0x3c896cfe	0.016775604
39	0xbdfca276	-0.123356745
40	0x3df3f56e	0.119120464
41	0xbe3b324e	-0.18280908
42	0xbd56b80c	-0.052421615
43	0x3db3f600	0.08787155
44	0xbd83756e	-0.06418882
45	0x3d8fff58	0.07031125
46	0x3e00551a	0.12532464
47	0xbe19439a	-0.14967194
48	0xbe165d0a	-0.14683929
49	0x3a03784a	0.0005015178
50	0xbd0dfe4d	-0.03466635
51	0xbd8a274f	-0.06745779
52	0xbef30cc0	-0.47470665
53	0x3cb41d70	0.021986693
54	0xbe04b936	-0.12961277
55	0xbe002d37	-0.12517248
56	0xbe3baef2	-0.18328455
57	0x3e19d46a	0.15022436
58	0xbebdb574	-0.370525
59	0xbdf5911a	-0.119905666
60	0xbe8d4f48	-0.2759955
61	0xbea680b0	-0.32520056
62	0x3b6db684	0.0036272118
63	0xbe8fff56	-0.28124493
64	0xbe5625fa	-0.20912924
65	0x3e7fbed7	0.24975143
66	0x3d208aa2	0.03919471
67	0x3b888fdc	0.00416754
68	0x3e1a7628	0.15084136
69	0x3e9b7a91	0.30366948
70	0xbf37d5d1	-0.7181063
71	0x3e2ecece	0.17071077
72	0x3d879792	0.066207066
73	0xbf929711	-1.1452352
74	0x3e7ee035	0.24890216
75	0xbe01dd0d	-0.1268198
76	0x3e5932c9	0.21210779
77	0xbe123079	-0.14276303
78	0x3dc911a5	0.098178186
79	0x3dcd3970	0.10020721
80	0xbc533bc3	-0.012892666
81	0x3dac8825	0.08424405
82	0xbf0a47a9	-0.54015595
83	0xbd9ae810	-0.07563794
84	0xbec98cab	-0.39365134
85	0xbd28e2a4	-0.041231766
86	0x3ea62f75	0.32458082
87	0xbf7eb69e	-0.994974
88	0xbece18a8	-0.40253186
89	0x3d0f55cb	0.034993928
90	0xbdd0be1c	-0.101925105
91	0x3e519640	0.20467472
92	0xbf6a1e33	-0.9145233
93	0xbf3cd194	-0.7375729
94	0xbdecb18c	-0.11557302
95	0xbf09ad10	-0.537797
96	0x3d9cf877	0.076645784
97	0x3dadc4d3	0.08484807
98	0x3d2d7df2	0.04235644
99	0xbd0b52dd	-0.03401457
100	0x3db5dac2	0.08879615
101	0x3dde5c4e	0.108574495
102	0x3e1a6344	0.1507693
103	0xbd7a1eb3	-0.061064433
104	0xbe459712	-0.1929591
105	0xbb901557	-0.004397075
106	0x3c05e9d4	0.008173425
107	0x3b7f19b3	0.003892523
108	0x3de573b5	0.1120371
109	0xbddd6494	-0.108101994
110	0x3da81f21	0.08209062
111	0xbd0b263d	-0.033972014
112	0xbd089812	-0.03334815
113	0xbd80c3db	-0.062873565
114	0xbebcdc79	-0.36886957
115	0x3e68b93e	0.22726914
116	0x3d7aaee3	0.06120194
117	0x3e724021	0.23657276
118	0xbd468537	-0.048466887
119	0xbcbc69ef	-0.022999732
120	0xbebb2d51	-0.3655801
121	0xbcfa714f	-0.030571608
122	0x3e50997c	0.2037105
123	0xbdc63d8a	-0.096797064
124	0xbe628d5e	-0.2212424
125	0x3e3f476a	0.18679586
126	0x3e3b9e06	0.18322
127	0x3e15a566	0.14613876
128	0xbd5909a5	-0.052987713
129	0xbd08f5cc	-0.033437535
130	0xbd5bdce3	-0.05367745
131	0xbdae88e7	-0.08522206
132	0x3d97166e	0.07377325
133	0xbd769f72	-0.060210653
134	0xbdcb62e4	-0.09930971
135	0x3d2443b4	0.04010363
136	0xbe16a55d	-0.14711519
137	0xbd1a8760	-0.03772676
138	0x3db901b6	0.090335295
139	0x3d874df4	0.06606665
140	0x3e053e24	0.13011986
141	0xbe0fcbb7	-0.14042555
142	0xbb23924f	-0.0024959033
143	0xbd55d270	-0.052202642
144	0xbdf3c7f9	-0.11903376
145	0xbdf536dd	-0.11973355
146	0x3cc65973	0.024212575
147	0xbaf38355	-0.0018578569
148	0xbde2839f	-0.11060261
149	0xbdff2fb8	-0.124602735
150	0xbe15fac8	-0.14646447
151	0x3e1c99ba	0.15293017
152	0xbcf6d4d8	-0.030130789
153	0xbd7aaed4	-0.061201885
154	0xbd964011	-0.073364384
155	0xbdb51451	-0.08841766
156	0xbe258b5c	-0.16166443
157	0xbdd489bf	-0.103778355
158	0x3db4fd3c	0.08837363
159	0x3c983a76	0.018582564
160	0x3cb56565	0.022143075
161	0xbd4f0344	-0.050540224
162	0x3e480412	0.19532803
163	0x3e340501	0.17580034
164	0x3e39c5ef	0.18141912
165	0x3de691d8	0.11258286
166	0xbc3f641d	-0.011681584
167	0xbd86a5b9	-0.06574578
168	0x3dd6ed65	0.10494498
169	0xbe63c37d	-0.22242542
170	0x3e3fae71	0.18718888
171	0xbd82b621	-0.063823946
172	0xbc7a0672	-0.015260326
173	0x3cc75abe	0.024335261
174	0xbe0785f2	-0.1323469
175	0xbd3f456c	-0.046697065
176	0x3e0d35c1	0.13790037
177	0xbdd820cb	-0.1055313
178	0xbdc89d7e	-0.09795664
179	0x3e1496b0	0.14510608
180	0x3f0b093f	0.54310983
181	0xbcc15613	-0.023600614
182	0xbdae502d	-0.08511386
183	0x3eb83361	0.359767
184	0x3e4922d7	0.19642197
185	0x3e7e697d	0.24844928
186	0x3e3e8a4d	0.18607445
187	0xbeb7ecde	-0.35922903
188	0x3e32675b	0.1742224
189	0xbd8a52d9	-0.06754083
190	0x3e16a5a7	0.14711629
191	0x3e285136	0.1643723
192	0xbe0780a8	-0.13232672
193	0x3d4dd4c6	0.050251745
194	0x3adbf402	0.0016781094
195	0x3bd3589e	0.006449773
196	0xbd031dcd	-0.032010842
197	0xbd835566	-0.06412773
198	0xbdb2cb14	-0.0873014
199	0x3e2aa502	0.16664508
200	0xbddc93bb	-0.10770365
201	0xbe6a6cfd	-0.22893138
202	0x3dc8443a	0.09778638
203	0x3c7ce81a	0.015436197
204	0x3e3fe20c	0.18738574
205	0x3b8f8d69	0.004380871
206	0x3e1b61a7	0.1517397
207	0x3dd1affa	0.10238643
208	0xbe00b7b7	-0.12570082
209	0x3e1f01e9	0.15528072
210	0x3e3d35f5	0.18477614
211	0xbe443ee1	-0.19164611
212	0xbe87b5cd	-0.2650589
213	0xbe445f67	-0.19177018
214	0xbdd789c8	-0.105243266
215	0xbeac1b7f	-0.33614728
216	0x3abee940	0.0014565364
217	0xbdad128a	-0.08450802
218	0xbe717bb4	-0.23582345
219	0xbd39a7b2	-0.045325942
220	0xbe27fa4b	-0.16404073
221	0xbe46891a	-0.19388238
222	0x3d94bc91	0.07262529
223	0x3dd1b37c	0.10239312
224	0xbda25206	-0.07925801
225	0x3e7fcab4	0.24979669
226	0x3de0dbb9	0.10979409
227	0xbd839426	-0.064247414
228	0xbe18ddb9	-0.1492833
229	0x3e9e3210	0.3089757
230	0x3db05bdb	0.0861127
231	0xbea9b282	-0.33144003
232	0xbdea9234	-0.11453667
233	0x3eaa6a53	0.33284244
234	0x3d1e3179	0.0386214
235	0x3d43d818	0.047813505
236	0x3dae3551	0.08506263
237	0x3d664665	0.056219477
238	0x3d4f9abb	0.05068467
239	0xbd55d1a5	-0.052201886
240	0x3d0b16e2	0.03395737
241	0x3ebd5d5a	0.36985284
242	0x3e8cae70	0.27476835
243	0xbe385e5d	-0.18004747
244	0xbdda01fd	-0.106449105
245	0xbec6dabc	-0.38838756
246	0xbed895d6	-0.42301816
247	0x3d4b19c9	0.049585138
248	0x3e308d3e	0.1724138
249	0x3e55a2a6	0.20862827
250	0xbece547d	-0.40298834
251	0x3e31010a	0.17285553
252	0xbe130f4c	-0.14361304
253	0xbe83837f	-0.2568626
254	0xbe60315c	-0.21893829
255	0x3e84591b	0.25849232

hidden2.bias f4 [64]
0	0x3d4d425d	0.050112117
1	0x3e230abe	0.15922067
2	0x3c00ca70	0.007860765
3	0x3b0410d5	0.0020151634
4	0xbd91e61b	-0.07123967
5	0xbd77efc5	-0.060531396
6	0x3e158e6f	0.14605115
7	0x3c95cb6b	0.018285474
8	0xbdc44f97	-0.09585493
9	0xbdf75544	-0.1207681
10	0x3e2b24d0	0.16713262
11	0x3e1e266a	0.15444341
12	0x3d8c7c0b	0.06859597
13	0xbd2d9b72	-0.042384572
14	0x3c926360	0.017869651
15	0x3d0ddc3a	0.034633853
16	0x3d1c3f97	0.03814658
17	0xbd523889	-0.051323447
18	0x3df43e66	0.11925964
19	0xbdf9317e	-0.12167643
20	0xbdfaac32	-0.12239875
21	0xbd162779	-0.036658738
22	0xbd83ac18	-0.06429309
23	0xbcebbd63	-0.02877683
24	0x3d9bf5a4	0.076152116
25	0x3e4b72de	0.19868037
26	0x3d893645	0.06699804
27	0x3d9d5090	0.07681382
28	0xbd72f942	-0.059319742
29	0xbdb6843e	-0.08911942
30	0xbcec1518	-0.028818652
31	0xbdb1af25	-0.08675984
32	0x3d85dd70	0.065363765
33	0x3de73526	0.11289434
34	0x3db4ffd0	0.08837855
35	0xbd9625fe	-0.07331465
36	0xbc6c289b	-0.014413978
37	0x3e3f4ff9	0.18682851
38	0xbd777ae8	-0.060419947
39	0xbe22937b	-0.15876572
40	0xbacb7380	-0.0015522093
41	0x3c9ab850	0.018886715
42	0x3b8465a2	0.004040436
43	0x3c6ee137	0.014580063
44	0xbdc642a1	-0.09680677
45	0x3dab1816	0.083542034
46	0xbd2bb66b	-0.041922014
47	0x3da4f21c	0.08053991
48	0x3e016d23	0.12639289
49	0xbe05ce5f	-0.13067006
50	0xbd3c0a08	-0.045908004
51	0x3d9ad56d	0.07560239
52	0x3d41fbb4	0.047359183
53	0x3da73aed	0.08165536
54	0x3c7d69d1	0.015467123
55	0x3c50f9ea	0.012754897
56	0xbd6b7248	-0.057482034
57	0x3dd4ec60	0.103966475
58	0x3d289179	0.04115436
59	0xbd9b0c24	-0.07570675
60	0x3dd539fc	0.1041145
61	0xbc7dda43	-0.015493932
62	0x3e1d4836	0.15359578
63	0xbe199260	-0.14997244

hidden3.weight f4 [128, 64]
0	0xbe203638	-0.15645683
1	0x3e5f12b9	0.21784486
2	0x3ecd1105	0.40052047
3	0xbc9f06bc	-0.01941239
4	0xbd50d126	-0.05098071
5	0xbdc6b9c2	-0.09703399
6	0xbd4867b9	-0.048927043
7	0x3e40cbbe	0.18827721
8	0xbd58f7e7	-0.052970793
9	0xbd4a9838	-0.049461573
10	0x3d136779	0.03598735
11	0x3e912aae	0.28352875
12	0xbdf5d79a	-0.12004013
13	0x3c591b35	0.013251116
14	0x3d61f9a7	0.055169728
15	0x3dc922ca	0.098210886
16	0x3ebeb347	0.37246153
17	0xbe14e758	-0.14541376
18	0x3e209126	0.1568037
19	0x3e5c6a74	0.21524984
20	0xbc510c50	-0.012759283
21	0x3cb574f6	0.022150498
22	0x3c814546	0.015780102
23	0xbd3856bf	-0.045004603
24	0xbd60e932	-0.054909892
25	0x3e68044a	0.22657886
26	0xbe8edb00	-0.2790146
27	0xbc8eaea4	-0.01741726
28	0xbddfecc7	-0.109338336
29	0xbe05c945	-0.1306506
30	0xbd1f5934	-0.03890343
31	0xbdd9c450	-0.10633147
32	0x3b4da366	0.003137791
33	0xbc1b9bad	-0.009497565
34	0x3db34370	0.08753097
35	0xbc9a1150	-0.018807083
36	0xbd9d5fb8	-0.076842725
37	0x3e0d438f	0.13795303
38	0xbd92e4f1	-0.07172573
39	0x3c77d7a0	0.015127093
40	0x3dadc90a	0.08485611
41	0xbe8dbedf	-0.27684686
42	0x3e6204c4	0.2207213
43	0xbe457f55	-0.19286855
44	0xbeae42e2	-0.34035403
45	0xbd95a5b1	-0.07306994
46	0xbd499c5f	-0.049221393
47	0xbe17515d	-0.14777131
48	0x3de78758	0.11305112
49	0xbd95c4d4	-0.073129326
50	0x3e2ae1f9	0.16687764
51	0x3e8da7aa	0.2766698
52	0x3d9138e7	0.070909314
53	0xbb0ca634	-0.002146137
54	0x3e08670d	0.13320561
55	0x3d710c0f	0.05884939
56	0xbd9ba08b	-0.075989805
57	0x3e648fc6	0.2232047
58	0x3dfc0584	0.123057395
59	0x3e209082	0.15680125
60	0xbeb24c5b	-0.3482388
61	0xbdbc998f	-0.092089765
62	0xbe4411aa	-0.19147363
63	0x3dae3330	0.08505857
64	0x3e554110	0.208256
65	0xbdb3a7cc	-0.08772239
66	0xbcc0f409	-0.023553865
67	0xbdabb69b	-0.083844386
68	0x3e053aec	0.13010758
69	0xbbe5b428	-0.0070100017
70	0x3e20dd0a	0.1570932
71	0x3d80f2da	0.0629632
72	0x3d73485a	0.05939517
73	0x3db6b5ac	0.0892137
74	0xbddb0232	-0.10693778
75	0x3dafc22e	0.08581959
76	0xbdc9497f	-0.098284714
77	0xbe1115e6	-0.1416851
78	0xbd2e5de7	-0.04257002
79	0xbc70ead0	-0.014704421
80	0x3e9d421b	0.30714497
81	0xbe247659	-0.16060771
82	0x3d4388cd	0.047737885
83	0xbd1b2920	-0.037881017
84	0x3c2748e0	0.010210246
85	0x3e71845a	0.23585644
86	0x3dcc74ac	0.09983191
87	0xbd9d693f	-0.0768609
88	0xbe3be038	-0.18347251
89	0xbd776d22	-0.06040681
90	0xbc6db9c7	-0.014509625
91	0xbe1a0adb	-0.15043204
92	0xbb9df8b9	-0.00482091
93	0x3d1f4019	0.038879488
94	0xbdeeb9ae	-0.11656509
95	0xbb18792b	-0.002326558
96	0x3b48475b	0.003056011
97	0x3da08ad3	0.078389786
98	0x3e172498	0.14760053
99	0x3da77d1a	0.08178158
100	0x3dbd1584	0.092326194
101	0xbc9d0adf	-0.019170223
102	0xbe3b78bb	-0.18307774
103	0x3c64d6d0	0.013967231
104	0x3d14ad08	0.036297828
105	0xbdc48430	-0.09595525
106	0x3dc8af3d	0.09799049
107	0xbeb0913b	-0.34485802
108	0xbe9a16be	-0.30095476
109	0x3e130755	0.14358266
110	0x3c9f7806	0.019466411
111	0x3da9f5b3	0.082988165
112	0xbba2be69	-0.0049665463
113	0x3cf9d4ea	0.030497033
114	0x3ae6b01c	0.0017600092
115	0x3e3270db	0.17425863
116	0x3eeb5670	0.45964384
117	0x3c462a13	0.012094992
118	0x3d98a95c	0.07454178
119	0x3d22c08b	0.039734405
120	0xbe01f61c	-0.1269154
121	0xbdd7ff34	-0.10546723
122	0x3deaac39	0.1145863
123	0xbd25f629	-0.04051796
124	0xbd5aa225	-0.05337729
125	0x3de7ca42	0.113178745
126	0xbe3cc10e	-0.1843302
127	0xbcddac8b	-0.027059814
128	0x3e47d23a	0.19513789
129	0xbb44f3e9	-0.0030052608
130	0x3e934e48	0.2877066
131	0xbd3d657a	-0.046239354
132	0xbddcdb58	-0.10784024
133	0xbdcde5ba	-0.100535825
134	0xbd96d83f	-0.073654644
135	0xbe5e5a94	-0.2171424
136	0xbdc76e60	-0.09737849
137	0x3ddb516e	0.10708891
138	0xbd1f4be9	-0.038890753
139	0x3e78f1c7	0.2431098
140	0xbb141422	-0.0022595008
141	0x3de94571	0.11390198
142	0x3e2392e5	0.15974005
143	0xbdbc6a84	-0.09200004
144	0x3ddf0d5a	0.108912185
145	0xbd936f2e	-0.0719894
146	0x3d4343ca	0.04767207
147	0x3c0c35fe	0.008557795
148	0xbddb2c98	-0.10701865
149	0x3d5e9ccc	0.054348752
150	0xbe97f828	-0.29681516
151	0x3d929874	0.071579844
152	0x3d3593af	0.044330295
153	0x3ca112a3	0.019662207
154	0xbdddea96	-0.10835759
155	0xbd555002	-0.052078255
156	0xbd86c722	-0.0658095
157	0xbe64ae33	-0.22332077
158	0x3c5c3980	0.013441443
159	0x3d2ed069	0.042679224
160	0x3d8a11f1	0.06741703
161	0xbd7ef075	-0.062241036
162	0x3cbcefe3	0.023063606
163	0xbd644568	-0.055730253
164	0xbda45c0f	-0.08025371
165	0x3d9acd82	0.07558729
166	0xbce6bb8a	-0.028165597
167	0xbdea6382	-0.11444761
168	0x3d4a0254	0.049318627
169	0xbc6d488b	-0.014482628
170	0x3e3e6af4	0.18595487
171	0xbdb58a17	-0.08864229
172	0xbda8fa85	-0.08250908
173	0xbe1de66f	-0.15419935
174	0xbd1729ff	-0.036905285
175	0xbecda1fa	-0.4016264
176	0xbd919839	-0.07109112
177	0x3da4cdd1	0.08047069
178	0xbddc820e	-0.107669935
179	0x3da9c8d8	0.08290261
180	0x3e85c36b	0.26125655
181	0xbd564b93	-0.052318167
182	0x3e59f0b0	0.21283221
183	0xbcebea71	-0.028798314
184	0x3e112063	0.14172511
185	0x3e6161fc	0.22010034
186	0xbe321235	-0.17389758
187	0x3e188616	0.148949
188	0x3c173e9c	0.009231236
189	0x3ce2556a	0.02762862
190	0x3e3459d8	0.17612398
191	0x3da6e87f	0.08149814
192	0x3e6eff52	0.23339584
193	0xbd36550a	-0.044514693
194	0xbe052f22	-0.13006261
195	0xbdc1d37d	-0.09464166
196	0x3cdda0a9	0.027054148
197	0x3d49473f	0.04914021
198	0x3d024ba3	0.031810414
199	0x3e71d8c3	0.23617844
200	0xbda9597b	-0.0826902
201	0xbd6271e0	-0.05528438
202	0xbd673c23	-0.056453835
203	0xbc9f3a03	-0.019436842
204	0xbda82bfa	-0.08211513
205	0x3df13552	0.11777748
206	0xbd087bfc	-0.033321366
207	0x3d4089f0	0.047006547
208	0x3dbd0764	0.09229925
209	0x3e25c58e	0.16188642
210	0xbe668597	-0.22511898
211	0xbdfcea64	-0.12349394
212	0x3d5136f4	0.051077798
213	0x3d9a73d6	0.07541625
214	0x3e477f78	0.19482219
215	0x3e2d1346	0.16901883
216	0x3d59aa61	0.053141
217	0xbd2aa95d	-0.041665424
218	0xbcc18fb4	-0.023628093
219	0xbd3da83b	-0.046303015
220	0x3d1bdf8b	0.038054984
221	0x3e0e7541	0.13911916
222	0xbda74a80	-0.081685066
223	0xbe9775ee	-0.2958216
224	0xbec2b392	-0.38027626
225	0x3e0427fa	0.12905875
226	0xbe186504	-0.14882284
227	0xbd80dec4	-0.06292489
228	0x3d58cdb9	0.052930567
229	0x3d1c634a	0.038180627
230	0x3d434add	0.047678817
231	0xbde60bec	-0.11232743
232	0xbd6412ec	-0.055682108
233	0xbd08ca68	-0.033396155
234	0x3d7f292a	0.062295116
235	0x3cf5579e	0.029949006
236	0x3c3d26d5	0.011544903
237	0xbb62ae52	-0.0034588766
238	0x3da51573	0.08060732
239	0x3c4089db	0.011751617
240	0x3d02c45c	0.031925544
241	0x3e805c6a	0.25070506
242	0xbe11731d	-0.14204068
243	0x3e96eea2	0.29478937
244	0x3e78ad31	0.24284817
245	0xbe20dcd8	-0.15709245
246	0xbd63c9ff	-0.05561256
247	0x3d23d2f7	0.039996114
248	0x3d867b94	0.065665394
249	0x3e5e7158	0.21722925
250	0xbc32782c	-0.010892909
251	0x3d526e59	0.051374767
252	0xbe958993	-0.29206523
253	0xbeb844aa	-0.35989887
254	0xbe8f6abb	-0.28011116
255	0x3cfc0ffd	0.030769343

hidden3.bias f4 [128]
0	0xbcede8da	-0.029041696
1	0x3dbbf879	0.09178252
2	0x3db41778	0.08793539
3	0x3d8a4019	0.06750507
4	0xbcc66c56	-0.02422158
5	0x3d762d1e	0.06010162
6	0xbd8392da	-0.06424494
7	0xbdbfbb0a	-0.09361847
8	0xbcf7d3f7	-0.03025244
9	0x3ce170a9	0.02751954
10	0x3da62d45	0.08114103
11	0x3d15edb9	0.036603663
12	0x3dc8cacc	0.098043054
13	0xbde12c8a	-0.10994823
14	0x3e023e4b	0.12719075
15	0x3da94054	0.08264223
16	0xbd97a51d	-0.0740454
17	0xbda390ea	-0.079866245
18	0x3daa8686	0.083264396
19	0xbd2ccc28	-0.042186886
20	0xbe97163d	-0.29509154
21	0xbe0c5b2a	-0.13706651
22	0x3d088cfb	0.033337574
23	0x3d2378e9	0.03991023
24	0x3d7bbe6b	0.061460894
25	0x3ca0720d	0.019585634
26	0xbd12b20c	-0.03581433
27	0xbd8df2a2	-0.06931044
28	0xbda4547f	-0.08023929
29	0x3e06a541	0.13148977
30	0x3d95911f	0.0730307
31	0xbd5b9dc4	-0.053617254
32	0x3c427c32	0.011870431
33	0x3c90980e	0.01765063
34	0xbd90b184	-0.070651084
35	0xbd7198d0	-0.058983624
36	0x3dab3a26	0.083607
37	0x3d70a7ec	0.058753893
38	0xbdda441b	-0.10657521
39	0x3e0fd597	0.14046322
40	0xbde44a9e	-0.111470446
41	0x3d6d7bc9	0.05797938
42	0x3daf340e	0.085548505
43	0x3c7e926b	0.015537838
44	0x3c9b2969	0.018940644
45	0xbcb07114	-0.021538295
46	0xbbc76ca6	-0.00608595
47	0xbd663b40	-0.05620885
48	0xbb8d435b	-0.004311008
49	0xbe0b056e	-0.1357629
50	0x3de8b1e9	0.11362059
51	0x3d972649	0.07380349
52	0xbc987f28	-0.01861532
53	0xbd970291	-0.073735364
54	0x3d94d481	0.072670944
55	0xbb4e83f6	-0.003151176
56	0x3e10afac	0.14129514
57	0x3c91b743	0.017787581
58	0x3d88822e	0.06665455
59	0x3dc7e624	0.09760693
60	0xbb423620	-0.0029634312
61	0x3d1f389e	0.038872354
62	0x3e01fe66	0.12694702
63	0xbc17f69e	-0.009275107
64	0x3cfa75e9	0.030573802
65	0x3d8257e0	0.06364417
66	0xbd155c00	-0.03646469
67	0xbb0d3bf5	-0.002155063
68	0xbd6e134d	-0.058123875
69	0xbcd088a9	-0.02545579
70	0xbe008727	-0.12551557
71	0xbe180a03	-0.14847569
72	0xbd233812	-0.039848395
73	0xbd8fd4bb	-0.07022997
74	0x3c94aced	0.018148864
75	0xbd867391	-0.06565011
76	0x3e073eba	0.13207522
77	0xbe038f91	-0.12847735
78	0xbe5541f0	-0.20825934
79	0xbd3cf6c4	-0.04613377
80	0xbdf116a7	-0.11771899
81	0xbd21e1c1	-0.039521936
82	0x3dbaf8f0	0.09129512
83	0xbdfc2bdc	-0.12313053
84	0x3db069c6	0.08613925
85	0xbd30a2d3	-0.04312403
86	0x3da9a0b5	0.082826056
87	0x3a5f4a26	0.0008517824
88	0xbcd23a99	-0.025662707
89	0xbd85c0b0	-0.06530893
90	0x3d94feb5	0.07275144
91	0x3e2b855a	0.16750088
92	0xbd8576b0	-0.065167785
93	0x3e3c54e5	0.1839176
94	0x3c642faa	0.01392738
95	0xbe2f8263	-0.17139582
96	0x3dea56a4	0.11442307
97	0x3c263ef9	0.01014685
98	0x3e0f1715	0.13973649
99	0xbd9f58a6	-0.0778058
100	0x3d8199ee	0.06328188
101	0x3d730d3e	0.0593388
102	0xbc127162	-0.008938165
103	0x3d94710d	0.07248125
104	0xbd7d2894	-0.061806276
105	0xbdbc1888	-0.091843665
106	0x3d4673ab	0.048450153
107	0x3cf3826f	0.029725282
108	0xbbbce975	-0.005765135
109	0xbc9e477e	-0.0193212
110	0xbde0a306	-0.10968594
111	0x3bf81c46	0.00757173
112	0x3dc21c40	0.094780445
113	0x3e443aa1	0.1916299
114	0xbe141ca7	-0.14464055
115	0x3d6df7e2	0.058097728
116	0xbdc9eb9d	-0.09859393
117	0x3dee9031	0.11648596
118	0xbe09f33b	-0.13471691
119	0x3d6b85c0	0.0575006
120	0xbd0c85e1	-0.034307364
121	0x3d551be4	0.05202855
122	0x3dcbcf5a	0.099516585
123	0xbd049516	-0.032368742
124	0x3e20fa31	0.1572044
125	0x3cbc80db	0.023010662
126	0x3c9a813f	0.018860457
127	0x3bb1d71e	0.0054272553

output.weight f4 [4, 128]
0	0xba900c01	-0.0010989906
1	0x3d0161ab	0.031587284
2	0x3c79f78b	0.015256773
3	0xbde7516f	-0.11294829
4	0xbcb660fb	-0.02226304
5	0xbe0f60e9	-0.14001812
6	0x3d3b12cf	0.045672234
7	0xbe2d1951	-0.16904189
8	0x3cfdcb81	0.030980827
9	0xbddca6ee	-0.10774027
10	0x3ccfb2c7	0.025353802
11	0xbc82a026	-0.015945505
12	0xbc8e8330	-0.01739654
13	0x3d2766dc	0.04086958
14	0xbd2e3339	-0.04252932
15	0x3c41282e	0.011789365
16	0x3d1a4523	0.03766359
17	0xbd97a61c	-0.0740473
18	0x3c9bea75	0.019032696
19	0xbd8a48ca	-0.06752165
20	0x3cd83f38	0.026397333
21	0xbd5cad64	-0.053876296
22	0xbde08cc0	-0.10964346
23	0x3d0a23e8	0.03372565
24	0x3e2b2ff2	0.16717508
25	0xbd19341c	-0.03740321
26	0xbc89a3f4	-0.016801812
27	0x3df6cf91	0.12051309
28	0x3d7dc44e	0.06195479
29	0x3e1481c0	0.1450262
30	0x3c873dce	0.016508963
31	0x3cb3d11c	0.021950297
32	0x3dc5621c	0.096378535
33	0x3dee34ad	0.11631141
34	0x3c0fcf53	0.008777457
35	0xbd8fa9bf	-0.070147984
36	0x3aad4a74	0.0013221041
37	0xbe3ce90a	-0.18448272
38	0xbdae79af	-0.08519303
39	0x3da53dcc	0.080684274
40	0x3da3ddf6	0.0800132
41	0xbc47d3a0	-0.012196451
42	0x3d2a2ab3	0.041544627
43	0xbbcda50f	-0.00627578
44	0x3e203695	0.15645821
45	0xbcacb576	-0.021082621
46	0x3d6eb799	0.05828056
47	0xbce832f3	-0.028344607
48	0x3d8c9152	0.06863655
49	0xbd16d26a	-0.03682176
50	0xba74f6c1	-0.00093446305
51	0x3c5bbc79	0.013411635
52	0x3d0b396d	0.033990312
53	0x3e0f966f	0.1402223
54	0x3ddac41d	0.10681937
55	0xbde106a2	-0.10987593
56	0x3db128cc	0.086503595
57	0xbd94128e	-0.072301015
58	0x3e22429c	0.15845722
59	0x3db68e6d	0.08913884
60	0xbde697c2	-0.11259414
61	0xbda983e9	-0.08277113
62	0x3d80412d	0.06262431
63	0xba819db4	-0.0009888918
64	0x3d2c7dd6	0.042112194
65	0xbcf4e584	-0.029894598
66	0xbdc20392	-0.09473337
67	0xbc908fa0	-0.01764661
68	0x3e79f093	0.24408178
69	0x3d55c60a	0.052190818
70	0xba6effd3	-0.00091171
71	0x3b9f7e79	0.0048673716
72	0xbb2a4638	-0.0025981795
73	0xbcfc7f43	-0.030822402
74	0xbd12be9e	-0.035826318
75	0xbc85d122	-0.016335074
76	0xbd9bb960	-0.07603717
77	0x3ab15258	0.0013528569
78	0xbda62d8b	-0.081141554
79	0xbd01c1bb	-0.031678896
80	0x3e62ede7	0.22161065
81	0x3d48e149	0.049042974
82	0xbdd06d47	-0.10177093
83	0x3d24fe98	0.040281862
84	0x3b52fe1a	0.0032194913
85	0x3ba7001f	0.00509645
86	0xbe01cd77	-0.12676035
87	0xbe2421ee	-0.16028568
88	0x3d14aa47	0.0362952
89	0x3c5443e1	0.012955637
90	0xbcf74656	-0.030184906
91	0x3e0d5008	0.13800061
92	0x3e28efe0	0.16497755
93	0x3e1a0d5a	0.15044156
94	0xbdf6f024	-0.12057522
95	0x3bd502e9	0.006500591
96	0x3ce7c5b2	0.02829251
97	0xbe29d9ea	-0.16587034
98	0x3db746ad	0.08949027
99	0x3ca43431	0.020044418
100	0x3d5b600e	0.0535584
101	0x3d8b8ce6	0.068139836
102	0x3cf32d8b	0.029684803
103	0x3e96c859	0.29449728
104	0xbcf2ffb8	-0.029662952
105	0x3e1f813f	0.15576647
106	0x3bee4ac8	0.007272098
107	0xbd8a9e9f	-0.06768536
108	0xbd35ae23	-0.044355523
109	0xbdc955c8	-0.098308146
110	0xbd659ef3	-0.05605979
111	0xbd9c95da	-0.076457694
112	0x3de690ca	0.11258085
113	0x3dc71ac9	0.09721906
114	0x3d38c16a	0.04510633
115	0xbd3cebbe	-0.04612326
116	0x3d992d04	0.07479289
117	0xbcc81651	-0.024424704
118	0xbd0ee485	-0.034885902
119	0x3d047854	0.032341316
120	0x3d303635	0.043020446
121	0xbcd62668	-0.02614136
122	0x3d80977e	0.06278895
123	0x3ca3f702	0.020015243
124	0x3c242463	0.010018441
125	0x3cac6d9d	0.021048361
126	0x3d66d8a0	0.056358933
127	0xbd38aaaa	-0.045084633
128	0xbeba404a	-0.36377174
129	0xbded1bad	-0.11577544
130	0xbc9126d7	-0.017718716
131	0xbd90bd83	-0.070673965
132	0x3da14b72	0.07875718
133	0xbdc5c31e	-0.09656356
134	0xbdf06f84	-0.1174002
135	0x3db265c9	0.0871082
136	0xbd314788	-0.04328111
137	0xbc4598d7	-0.012060366
138	0x3d8dde2f	0.06927144
139	0x3e90a6a0	0.28252125
140	0xbc0dbc0c	-0.008650791
141	0x3d210862	0.039314635
142	0xbe32bed8	-0.17455614
143	0xbe5b69f4	-0.21427137
144	0xbac080b9	-0.00146868
145	0xbd3c3fd4	-0.04595931
146	0x3e857be5	0.26071087
147	0xbd9d2245	-0.07672552
148	0x3ba93d6c	0.0051647928
149	0x3d92d250	0.0716902
150	0xbd09004a	-0.03344754
151	0x3d67cc48	0.056591302
152	0x3e07deea	0.13268629
153	0x3eca64f1	0.39530137
154	0x3c3fdcd3	0.011710363
155	0xbd0df9ae	-0.03466194
156	0xbd85d10e	-0.06534015
157	0xbd0381ff	-0.032106396
158	0x3e9b5649	0.30339268
159	0xbd09a2b9	-0.03360245
160	0x3d61ca09	0.055124316
161	0xbe754b0b	-0.23954408
162	0x3d78373b	0.060599547
163	0xbcae6f59	-0.02129333
164	0x3ba89d6b	0.005145719
165	0xbd3ccf61	-0.04609621
166	0x3ccf24c4	0.025286086
167	0xbd839ad0	-0.064260125
168	0x3ac3c42e	0.0014935785
169	0x3ccee675	0.025256375
170	0x3f8304e8	1.0235872
171	0xbda427e7	-0.08015423
172	0x3e505c95	0.20347817
173	0x3e581432	0.21101454
174	0x3da1dda2	0.07903601
175	0xbd8aa932	-0.06770553
176	0xbd6f4f86	-0.05842545
177	0x3c657dc4	0.014007036
178	0xba9f39bc	-0.0012147943
179	0x3bf2ddd0	0.007411696
180	0x3e955689	0.29167584
181	0x3c79cbd5	0.015246351
182	0xbd47a9a9	-0.048745785
183	0xbd9d38d1	-0.076768525
184	0xbd41ac03	-0.047283184
185	0xbe8319d7	-0.25605652
186	0x3d7f3a7d	0.06231164
187	0x3df4dd95	0.11956326
188	0xbd5db8e8	-0.05413142
189	0x3dee674f	0.11640798
190	0xbd2b834d	-0.041873265
191	0x3e2be0dc	0.16784996
192	0xbde115c0	-0.109904766
193	0x3c47728f	0.012173309
194	0xbaa931b8	-0.0012908494
195	0x3d03b42d	0.03215425
196	0x3dba3138	0.09091419
197	0x3f1f31ee	0.6218556
198	0x3cf178b8	0.029476508
199	0xbca7c7e2	-0.020481054
200	0xbdfd4199	-0.123660274
201	0xbe8ac384	-0.27102292
202	0x3e95085f	0.2910795
203	0xbc636b9c	-0.013880637
204	0xbd961346	-0.07327895
205	0xbbbaadd5	-0.005696992
206	0xbdb32bf2	-0.08748616
207	0x3d86515d	0.065584876
208	0x3e8cf6d5	0.27532068
209	0x3d3baba7	0.045817997
210	0xbd26cb60	-0.040721297
211	0xbc8384c0	-0.016054511
212	0xbe0e0c76	-0.13871941
213	0x3c7e4fd3	0.015521961
214	0xbcb79ea8	-0.02241452
215	0x3d6420ac	0.05569522
216	0xbd86b7ec	-0.06578049
217	0x3d5743c7	0.052554872
218	0xbea79574	-0.3273121
219	0xbd0785ad	-0.033086468
220	0xbb4df25d	-0.0031424977
221	0xbcd4325e	-0.025902923
222	0x3d150bd9	0.036388252
223	0x3e971281	0.29506305
224	0xbe1c3fd6	-0.15258726
225	0x3be8b0e6	0.007101166
226	0xbddde3f7	-0.108344965
227	0xbbccabe3	-0.0062460764
228	0xbb26a92f	-0.002543043
229	0xbdc51274	-0.0962266
230	0xbd907dcc	-0.07055244
231	0xbebaf3d6	-0.36514157
232	0xbbeea8d4	-0.0072833095
233	0x3e6ed209	0.2332231
234	0x3d8e47b8	0.06947273
235	0xbd66f586	-0.056386493
236	0xbcfbbbf5	-0.030729273
237	0xbd120d8d	-0.035657454
238	0x3cb5da88	0.02219893
239	0xbdb37a14	-0.08763519
240	0xbd4dee3a	-0.05027602
241	0xbd3a57cc	-0.045493886
242	0xbd8d0a51	-0.06886733
243	0xbe7b7be7	-0.24558984
244	0x3d979ef5	0.074033655
245	0xbdb06f2f	-0.086149566
246	0x3d2f723f	0.042833563
247	0x3c996398	0.018724248
248	0x3ebe4540	0.3716221
249	0x3ca7e376	0.020494204
250	0xbd939257	-0.072056465
251	0x3b904b08	0.0044034757
252	0xbc91c94c	-0.017796181
253	0xbc1be65d	-0.009515372
254	0x3bb5c228	0.005546827
255	0x3c9cdb40	0.019147515

output.bias f4 [4]
0	0x3cd2e34b	0.025743147
1	0xbe429276	-0.19001183
2	0xbd8f959b	-0.07010957
3	0xbd0b33b2	-0.033984847
