models/DoublePendulum2/alphalimit_10000_N6/model_state_dict.pth (torch, 49516 bytes, 8 tensors)

hidden1.weight f4 [32, 6]
0.014019749 -0.2700716 -1.1675247 2.5145602 -0.47413918 0.52669257 0.046058778 0.81707245
-0.55714613 0.4190791 -0.017561683 0.33322158 0.25227147 -0.4399969 0.9626486 -1.7570732
0.58149517 -0.8398562 0.1800835 0.33939558 -0.5975139 -2.8491118 -0.21056065 -0.10747306
0.049300056 -0.079439975 1.3874382 -0.7366294 -0.31522158 0.34259585 0.33966705 0.40781072
0.8618403 1.1480078 -0.21729468 0.44923463 0.5328366 -0.37991482 1.2716199 -1.0481886
1.4025825 -0.81279206 0.54916 -0.32749653 -0.94829476 1.8611875 0.006807932 -0.018634992
-0.021799263 -0.13081942 -1.5843745 -1.9926903 0.3078548 -0.57052624 0.7428733 0.80559427
-0.49112326 -0.5695432 0.7321793 0.03642927 -0.5225052 0.38033086 -1.2695744 1.4109184
-0.42604136 0.38225657 0.78411674 0.09254639 -0.868255 -0.52479696 1.0017964 -0.2997457
0.22635712 -0.13667847 0.5535227 -0.4301507 0.41008535 0.1106222 -0.58304936 0.27538165
-1.3639115 1.0944724 0.123004 0.21940874 0.97396046 -0.40257648 0.30570328 -0.26695195
-0.15396534 0.10642938 0.28415084 -0.6147848 0.886268 -2.8219411 -0.37250784 -0.34149155
0.5956341 0.035747856 1.8190699 0.7008137 0.45854965 -0.19126947 0.27417615 -0.014941284
-1.7100092 -0.76908076 0.114942186 0.19247659 0.5443983 0.36364052 1.1930009 2.2575846
0.37166134 -0.09264485 -0.030094812 0.4371303 -0.18648162 3.703351 -0.2614005 0.58475596
-0.7725203 0.49801847 1.0103899 -1.0071845 0.24233043 -0.30460635 -0.6863704 -0.03247665
-1.3123465 -0.075456366 -0.55253446 -0.09538879 0.5855297 0.37056407 1.0570292 1.737746
0.7573167 0.5734119 -0.5439144 -0.61453307 -1.363728 -2.090074 -0.30123892 -0.29227716
-0.063696355 -0.030852593 -1.9497803 0.91776276 0.34843308 0.026693715 0.028395029 0.6307118
0.706189 -2.0931997 -0.49669877 -0.30546603 -0.1756415 -0.3646199 0.8598148 2.9810371
-0.67039955 0.16570903 0.32546413 0.20705849 -1.0911001 1.0586847 -0.48321337 0.30291456
-0.7659899 -0.37017694 0.42894953 0.6931978 -0.3304935 -0.38879526 0.6608872 0.452541
1.7031157 1.1843705 0.1923185 0.3787853 0.71680033 0.098053515 -0.79170907 -0.70947623
-0.6121616 0.8744012 -0.62573487 -0.80175364 -0.1658543 -0.6007711 0.25770083 0.04558652
00000000: 17b3 653c d346 8abe 7371 95bf 8eee 2040
00000010: 5fc2 f2be 53d5 063f 21a8 3c3d a92b 513f
00000020: 21a1 0ebf 8991 d63e 85dd 8fbc 059c aa3e
00000030: ba29 813e 4647 e1be 2370 763f c6e7 e0bf
00000040: dedc 143f d100 57bf cf67 383e 42c5 ad3e
00000050: acf6 18bf d957 36c0 369d 57be d61a dcbd
00000060: dbee 493d 6db1 a2bd 9397 b13f bf93 3cbf
00000070: b964 a1be b968 af3e d7e8 ad3e 91cc d03e
00000080: 91a1 5c3f ebf1 923f 7f82 5ebe 1502 e63e
00000090: fb67 083f 3284 c2be 71c4 a23f 0b2b 86bf
000000a0: d387 b33f 2413 50bf c095 0c3f a0ad a7be
000000b0: 72c3 72bf 643b ee3f 1315 df3b 69a8 98bc
000000c0: 5e94 b2bc 87f5 05be c9cc cabf 7a10 ffbf
000000d0: 259f 9d3e 020e 12bf f22c 3e3f 6d3b 4e3f
000000e0: 8274 fbbe 95cd 11bf 1a70 3b3f dc36 153d
000000f0: e7c2 05bf baba c23e 6a81 a2bf f998 b43f
00000100: 1822 dabe 22b7 c33e e0bb 483f f688 bd3d
00000110: f645 5ebf 1859 06bf dd3a 803f 4578 99be
00000120: 29ca 673e 71f5 0bbe aab3 0d3f b63c dcbe
00000130: b5f6 d13e e48d e23d b942 15bf d3fe 8c3e
00000140: a794 aebf ac17 8c3f 85e9 fb3d afac 603e
00000150: 7955 793f 811e cebe 2485 9c3e edad 88be
00000160: 17a9 1dbe a6f7 d93d 387c 913e 8962 1dbf
00000170: 76e2 623f af9a 34c0 59b9 bebe fbd7 aebe
00000180: 7a7b 183f 586c 123d 48d7 e83f 8768 333f
00000190: 05c7 ea3e 25dc 43be d160 8c3e 4acc 74bc
000001a0: 95e1 dabf 7ae2 44bf cf66 eb3d 9518 453e
000001b0: b05d 0b3f 172f ba3e 41b4 983f 447c 1040
000001c0: 654a be3e 95bc bdbd 6589 f6bc 8bcf df3e
000001d0: 0af5 3ebe b403 6d40 49d6 85be 91b2 153f
000001e0: e4c3 45bf 47fc fe3e 7554 813f 6ceb 80bf
000001f0: 7825 783e 5df5 9bbe f8b5 2fbf 3c06 05bd
00000200: f8fa a7bf de88 9abd e672 0dbf 335b c3bd
00000210: 46e5 153f 93ba bd3e bc4c 873f 766e de3f
00000220: 82df 413f 1fcb 123f f93d 0bbf 0a52 1dbf
00000230: a48e aebf c6c3 05c0 fd3b 9abe 5aa5 95be
00000240: 3c73 82bd 94be fcbc 6792 f9bf 80f2 6a3f
00000250: d265 b23e c7ac da3c b19c e83c 5476 213f
00000260: cdc8 343f fcf6 05c0 4d4f febe 0b66 9cbe
00000270: 5edb 33be 76af babe d31c 5c3f 50c9 3e40
00000280: 4e9f 2bbf a1af 293e 3ca3 a63e 2407 543e
00000290: 2ba9 8bbf fb82 873f be67 f7be 9e17 9b3e
000002a0: ea17 44bf d587 bdbe 469f db3e 6975 313f
000002b0: 7236 a9be 2c10 c7be e72f 293f 74b3 e73e
000002c0: b2ff d93f 7499 973f 24ef 443e 26f0 c13e
000002d0: 3a80 373f 48d0 c83d 72ad 4abf 3ca0 35bf
000002e0: 9fb6 1cbf c2d8 5f3f 2930 20bf ba3f 4dbf
000002f0: b6d5 29be 23cc 19bf 5df1 833e eeb8 3a3d

hidden1.bias f4 [32]
0.0024127304 0.02893012 0.10454477 -0.023462873 0.024503244 0.122431815 0.17173912 -0.018368365
0.08736891 -0.18044329 0.103930086 -0.10544122 0.035742875 -0.0011758181 -0.03720296 0.020302406
0.06520923 0.13220151 0.047579233 0.026231708 -0.1111988 0.10003225 0.14901167 0.14453246
0.12591426 -0.06606125 -0.016962606 0.14461675 -0.35431078 0.17780477 -0.07094624 -0.23626253
00000000: e61e 1e3b dcfe ec3c 921b d63d 3635 c0bc
00000010: 07bb c83c 88bd fa3d 61dc 2f3e 4179 96bc
00000020: 79ee b23d 20c6 38be 4cd9 d43d 91f1 d7bd
00000030: 1f67 123d e91d 9aba 2262 18bd 3b51 a63c
00000040: 6b8c 853d d55f 073e 71e2 423d e1e3 d63c
00000050: 32bc e3bd b5dd cc3d 8496 183e 5100 143e
00000060: abef 003e 1f4b 87bd 2af5 8abc 6a16 143e
00000070: 3968 b5be 7412 363e 434c 91bd ceee 71be

hidden2.weight f4 [64, 32]
-0.050229847 -0.07805227 -0.07479084 -0.57436544 0.20383817 0.18011259 -0.061274286 -0.14504458
-0.4321479 -0.3573767 0.012147692 0.41064027 -0.022501621 0.71832824 0.7012891 0.43043882
-0.12591757 -0.29900733 0.7133184 -0.04970519 0.42810068 0.03180199 -0.18189485 -0.17486717
-0.23233606 -0.2812219 0.1869519 -0.07540108 -0.127807 0.06572981 0.8223502 0.23271929
0.6058574 0.037916087 -0.0004245838 0.3006635 0.21839076 0.08935773 -0.18032001 0.37260592
0.2804821 -0.60047597 0.10137904 -1.0289029 0.1057087 -0.40063235 0.07646615 -0.33937657
-0.26705426 0.13745882 -1.1688716 -0.20684409 -0.4340229 0.06217474 -0.21700177 0.08198425
-0.119804546 0.46033305 0.58689505 0.017852785 -0.5550832 -0.20140146 -1.0379118 0.031542763
0.47364643 -0.13617164 -0.1022277 0.20825678 0.13095437 0.15513527 -0.06544589 0.084860735
-0.13802019 0.21398042 -0.11152952 0.33299986 -0.03499607 -0.50977284 -0.039958227 -0.7808158
0.056542687 0.04500845 -0.2878333 0.42389962 0.3189033 0.11208697 -0.012998174 -0.1636981
-0.14225033 0.030551048 0.14449513 -0.15026793 -0.5848738 0.1419198 0.42472023 -0.25775978
-0.034992084 -0.013384759 -0.03357111 -0.06516703 0.07377325 -0.060210653 -0.09930971 0.04010363
-0.12777525 -0.03772676 0.090335295 0.06606665 0.15049674 -0.12057002 0.0015369952 -0.052202642
-0.09887417 -0.09944635 0.044536427 0.018495202 -0.09023539 -0.124602735 -0.14646447 0.1732526
-0.030130789 -0.040877 -0.06500397 -0.08841766 -0.16166443 -0.103778355 0.10805096 0.03874518
0.39282915 -0.24995515 0.13407342 0.3015019 0.2707791 0.09346661 0.088189915 -0.036832176
-0.13826764 -0.37740278 0.110536754 0.42292124 0.12308904 -0.38514146 -0.4538083 -0.6347363
0.015048484 0.014045783 -0.40180546 0.14752127 -0.011976571 -0.0409176 0.10355233 0.017878447
-0.006701495 0.26317748 0.20470196 0.08442764 -0.24420895 -0.13750517 0.20315786 -0.80967546
0.059384692 0.3607295 -0.25361893 0.11631571 -0.64990765 -0.08098644 -0.1284658 0.5112752
0.2396742 -0.02221474 0.039147485 -0.50500584 0.10009906 0.2579339 0.75164545 0.2522685
-0.49573532 0.32334578 -0.045800045 -0.2370666 -0.45442992 -0.5642406 -0.08041044 -0.4544541
0.12799129 -0.10596474 -0.18102668 0.22117029 -0.14577268 -0.10865683 0.11814436 -0.23523992
-0.019287845 0.35652462 -0.10580966 -0.013233918 -0.33846322 0.08116599 0.008743052 0.28327158
0.17189322 0.38403788 -0.047237836 -0.42018536 0.07101102 0.01598074 0.29474095 -0.05585275
-0.37171265 0.09930529 -0.0452961 -0.20154983 0.0091003785 0.046263713 -0.008297447 0.237535
-0.084057994 0.023499945 -0.17106919 0.113672376 -0.50749135 0.007980221 0.13831826 0.49869168
0.08344415 -0.20136067 0.28184777 0.14488441 0.2676256 0.10572162 0.35224494 0.31014872
-0.018507667 -0.50604725 0.10776817 -0.06728845 0.17438047 -0.8186781 0.2747021 -0.25984663
0.05121067 0.16115627 -0.36165604 -0.26752 -0.38311106 -0.026081862 0.058485806 -0.039960403
0.18588355 0.21910271 0.062260244 0.21291645 -0.120604865 0.2034453 0.20997289 0.0065822233
00000000: d0bd 4dbd ded9 9fbd f12b 99bd 9d09 13bf
00000010: f4ba 503e 6f6f 383e bffa 7abd 9186 14be
00000020: 7d42 ddbe 14fa b6be 1d07 473c 713f d23e
00000030: 5255 b8bc 5ce4 373f af87 333f 7a62 dc3e
00000040: 89f0 00be 7d17 99be 099c 363f ab97 4bbd
00000050: 0330 db3e ce42 023d a542 3abe 6110 33be
00000060: 81e9 6dbe 51fc 8fbe 5270 3f3e e26b 9abd
00000070: d7df 02be 5a9d 863d 8b85 523f f74d 6e3e
00000080: 7819 1b3f e64d 1b3d ac9a deb9 91f0 993e
00000090: d4a1 5f3e 2f01 b73d cfa5 38be 34c6 be3e
000000a0: 5a9b 8f3e cbb8 19bf d09f cf3d 17b3 83bf
000000b0: ce7d d83d af1f cdbe 499a 9c3d c4c2 adbe
000000c0: 56bb 88be 01c2 0c3e 969d 95bf f0ce 53be
000000d0: 4038 debe f1aa 7e3d b635 5ebe 5ce7 a73d
000000e0: 165c f5bd c6b0 eb3e c13e 163f 0140 923c
000000f0: ef19 0ebf 2f3c 4ebe 4bda 84bf fc32 013d
00000100: c981 f23e 9470 0bbe c25c d1bd 4441 553e
00000110: e718 063e c8db 1e3e 7f08 86bd 77cb ad3d
00000120: 2a55 0dbe af1d 5b3e 9769 e4bd f57e aa3e
00000130: 0a58 0fbd 7980 02bf 3dab 23bd 8be3 47bf
00000140: 4e99 673d c85a 383d e35e 93be 5f09 d93e
00000150: 4b47 a33e da8d e53d 4bf6 54bc 7aa0 27be
00000160: 12aa 11be 3146 fa3c 88f6 133e d6df 19be
00000170: 4aba 15bf 6d53 113e ee74 d93e 17f9 83be
00000180: dc53 0fbd c04b 5bbc dc81 09bd 4b76 85bd
00000190: 6e16 973d 729f 76bd e462 cbbd b443 243d
000001a0: 84d7 02be 6087 1abd b601 b93d f44d 873d
000001b0: d11b 1a3e 6aed f6bd 0075 c93a 70d2 55bd
000001c0: 8a7e cabd 87aa cbbd d46b 363d 4083 973c
000001d0: 55cd b8bd b82f ffbd c8fa 15be 2169 313e
000001e0: d8d4 f6bc a46e 27bd cd20 85bd 5114 b5bd
000001f0: 5c8b 25be bf89 d4bd d249 dd3d 44b3 1e3d
00000200: e720 c93e 3ef4 7fbe 8b4a 093e 755e 9a3e
00000210: 8fa3 8a3e 6c6b bf3d ea9c b43d 56dd 16bd
00000220: 0896 0dbe f03a c1be 1861 e23d 2289 d83e
00000230: 1b16 fc3d 4331 c5be 9059 e8be 147e 22bf
00000240: eb8d 763c 4920 663c 72b9 cdbe d10f 173e
00000250: 6139 44bc 3799 27bd 3e13 d43d d275 923c
00000260: 3798 dbbb 33bf 863e 649d 513e 66e8 ac3d
00000270: e911 7abe 28ce 0cbe 9d08 503e e446 4fbf
00000280: 5d3d 733d 89b1 b83e 57da 81be ee36 ee3d
00000290: 5960 26bf 38dc a5bd 8a8c 03be eee2 023f
000002a0: 276d 753e b0fb b5bc 1d59 203d 1048 01bf
000002b0: bc00 cd3d ea0f 843e d66b 403f 5629 813e
000002c0: 05d1 fdbe 948d a53e d498 3bbd 96c1 72be
000002d0: 0aab e8be 1272 10bf 3bae a4bd 35ae e8be
000002e0: 2610 033e 0b04 d9bd 0f5f 39be 777a 623e
000002f0: 6f45 15be 7987 debd acf5 f13d bce2 70be
00000300: 8b01 9ebc 658a b63e bcb2 d8bd 13d3 58bc
00000310: 0d4b adbe 5b3a a63d 053f 0f3c f908 913e
00000320: c704 303e 9da0 c43e 767c 41bd 8922 d7be
00000330: 3a6e 913d 0aea 823c 49e8 963e dac5 64bd
00000340: 1f51 bebe 9260 cb3d 6788 39bd 1463 4ebe
00000350: c119 153c 057f 3d3d 04f2 07bc 603c 733e
00000360: 9926 acbd f582 c03c c32c 2fbe 10cd e83d
00000370: f4ea 01bf 79bf 023c 4da3 0d3e 8454 ff3e
00000380: c4e4 aa3d 7e31 4ebe 5a4e 903e 945c 143e
00000390: 3906 893e 9484 d83d 7359 b43e d0cb 9e3e
000003a0: 649d 97bc 508c 01bf 8fb5 dc3d 87ce 89bd
000003b0: cb90 323e e394 51bf c1a5 8c3e 9e0a 85be
000003c0: 48c2 513d 2606 253e fb2a b9be 62f8 88be
000003d0: 2227 c4be a1a9 d5bc d08e 6f3d 85ad 23bd
000003e0: 4258 3e3e 765c 603e 9904 7f3d c506 5a3e
000003f0: afff f6bd f753 503e 2203 573e b1af d73b

hidden2.bias f4 [64]
0.026872542 0.11538853 0.0854565 -0.07331465 -0.012339794 0.043765903 -0.038973637 -0.04223441
0.0068488386 -0.046193913 -0.097136304 0.03169468 -0.053689975 0.1311291 -0.14886041 0.083236724
0.10402933 -0.15288982 -0.015397503 0.09763601 0.044636443 0.124393955 0.075240806 0.053460147
-0.112007484 0.03647937 0.08772678 -0.097075246 0.08722966 -0.10310746 0.16892326 -0.22688934
0.077158354 0.048365157 0.10419158 0.029648772 -0.084044285 -0.049918227 -0.13386422 0.15069145
-0.092077136 -0.06353595 0.09489344 0.13481458 -0.100247025 0.05677553 0.027898448 0.12365573
0.051161565 0.0665827 0.0153954895 0.17705071 0.037553605 -0.103877775 0.06390238 0.008789578
0.10230421 -0.0064590997 -0.18599369 0.027622327 0.07363041 -0.049680036 0.025751607 0.22351769
00000000: ce23 dc3c d250 ec3d d103 af3d fe25 96bd
00000010: d92c 4abc e043 333d d2a2 1fbd fdfd 2cbd
00000020: 396c e03b d435 3dbd 66ef c6bd 48d2 013d
00000030: 05ea 5bbd b546 063e dd6e 18be 0478 aa3d
00000040: 540d d53d 268f 1cbe cf45 7cbc 63f5 c73d
00000050: b4d4 363d 42c2 fe3d da17 9a3d 07f9 5a3d
00000060: 2e64 e5bd 646b 153d 19aa b33d 63cf c6bd
00000070: 77a5 b23d 012a d3bd 38fa 2c3e ae55 68be
00000080: 3305 9e3d 8b1a 463d 6562 d53d fbe1 f23c
00000090: 691f acbd 0e77 4cbd b413 09be dc4e 1a3e
000000a0: f092 bcbd 231f 82bd 7e57 c23d d50c 0a3e
000000b0: 504e cdbd 758d 683d 498b e43c 373f fd3d
000000c0: ca8e 513d 835c 883d 5d3d 7c3c c84c 353e
000000d0: cfd1 193d dfbd d4bd 40df 823d 2a02 103c
000000e0: df84 d13d dba6 d3bb 2175 3ebe 3848 e23c
000000f0: 8acb 963d 4b7d 4bbd 09f5 d23c d2e1 643e

hidden3.weight f4 [128, 64]
0.035655126 0.0034996686 0.06548575 -0.018807083 -0.23560373 -0.3511881 -0.28344727 -0.20060907
-0.14854321 -0.123961344 -0.004189637 -0.0077048973 0.21963228 0.060933147 -0.0057585347 -0.13626388
0.11384752 -0.18209876 0.09158547 0.14368013 0.027615242 -0.16595769 0.20651615 0.17215039
-0.05580968 -0.057554632 0.39535835 -0.14990255 0.051598076 -0.020552197 -0.007948911 0.012644296
0.30256188 -0.42962018 -0.16983141 -0.12899126 0.04552442 0.3518021 0.03469731 -0.0101477
0.36460736 0.20242977 0.07218981 -0.1192168 -0.009648371 -0.103703156 -0.0037146427 0.06938671
0.429666 -0.30121776 0.19556057 -0.18081513 0.4394519 -0.005841762 0.40284726 0.24558651
-0.16276549 -0.23990823 0.044232268 0.13173336 0.10929676 -0.0014527541 -0.13972636 -0.061779335
-0.06769259 0.06410938 0.040782474 0.08178158 0.040009797 -0.09670623 -0.15589374 0.0046735387
0.036297828 -0.09615104 0.10216643 -0.023321219 -0.08281587 0.07638339 0.10948041 0.019206002
-0.078739114 0.01356633 -0.10153261 0.07704252 0.037188828 -0.030599758 -0.13979998 0.08281599
-0.10225923 -0.10443908 0.06461235 -0.062123135 -0.013390544 0.06417563 -0.025613187 -0.028275162
0.11587006 -0.020077521 0.03320475 -0.051005226 -0.10784024 0.010884036 -0.07389386 -0.074248105
-0.110812515 0.07179327 -0.0936468 -0.0036686347 -0.012935277 0.04724381 0.061243087 -0.09781092
0.046819963 -0.10274492 -0.033117663 -0.055148296 -0.113209404 0.037407666 -0.113758996 0.11234078
0.019344589 -0.074398 -0.07319859 -0.124066226 -0.07348747 -0.08155005 -0.017836608 0.020908311
0.10840118 0.01680243 -0.025391757 -0.055730253 -0.017583564 0.03860009 -0.14783633 -0.13776584
0.022803633 -0.038561806 -0.03699583 -0.10778325 -0.083231136 -0.093610495 -0.07607931 -0.14176978
-0.058744475 0.10028574 -0.06916721 0.06763101 -0.1052354 0.014494464 -0.010356322 -0.09439471
0.0030400455 0.07798915 -0.056476116 0.11479668 -0.013148472 -0.03952506 0.03425392 0.09771712
0.08046702 0.046567954 -0.11172436 -0.025459558 -0.013844878 -0.056968316 0.058411643 -0.027519211
-0.10768935 -0.08222622 -0.10777233 0.020799633 -0.11795495 -0.03150943 0.012857333 0.053900197
-0.09613858 0.058872063 -0.08021812 -0.095790714 0.051077798 -0.07334685 0.06324647 0.05387798
-0.060671628 -0.05455987 -0.057142258 -0.0118689835 -0.027610911 -0.0030371994 -0.081685066 -0.104243666
0.4462851 -0.6732356 -0.28593644 -0.06292489 -0.37022096 0.15350193 0.029705666 -0.26884693
-0.5003908 -0.003944948 -0.020530164 -0.31618515 -0.27268848 0.40912098 0.004925637 -0.76020336
-0.06525329 -1.1557202 -0.5480688 0.85864705 -0.29223475 -0.54399884 0.32052022 -0.46903825
-0.03921141 -0.2813129 0.35441145 -0.5121335 -0.27979076 -1.026744 -0.1338346 0.017226005
0.7533192 -0.03049941 -0.12244345 -0.20167339 -0.76638675 0.1858479 -0.088483036 -0.48867038
0.4410778 -0.0067418753 0.17616138 0.13967 0.39465693 1.2967585 -0.4824396 0.20752224
0.2962063 -0.6407412 -0.48162273 0.17907988 0.676128 0.022744283 0.3080944 0.4328912
0.41290534 -1.5211805 0.06278667 0.45665225 0.08043902 -0.0015784204 0.1217646 0.090983085
00000000: 1c0b 123d b25a 653b 651d 863d 5011 9abc
00000010: 1b42 71be edce b3be 0020 91be 776c 4dbe
00000020: b61b 18be 72df fdbd 3949 89bb 5d79 fcbb
00000030: 49e7 603e 0995 793d 17b2 bcbb c288 0bbe
00000040: e328 e93d 1978 3abe 2a91 bb3d e220 133e
00000050: 5c39 e23c d0f0 29be f878 533e 3148 303e
00000060: b198 64bd 68be 6bbd 696c ca3e 0e80 19be
00000070: 8158 533d 155d a8bc 263c 02bc 052a 4f3c
00000080: 64e9 9a3e 2df7 dbbe 49e8 2dbe 4916 04be
00000090: d077 3a3d 681f b43e c41e 0e3d 8a42 26bc
000000a0: d1ad ba3e c049 4f3e 40d8 933d f027 f4bd
000000b0: 3314 1ebc 5262 d4bd 5d71 73bb 9f1a 8e3d
000000c0: 2ffd db3e 3739 9abe 0841 483e 9a27 39be
000000d0: d7ff e03e 406c bfbb ff41 ce3e 087b 7b3e
000000e0: ffab 26be 81aa 75be e52c 353d 1ce5 063e
000000f0: fbd6 df3d 576a beba 6d14 0fbe 540c 7dbd
00000100: 6aa2 8abd c74b 833d 860b 273d 1a7d a73d
00000110: 50e1 233d ea0d c6bd 9ca2 1fbe 7c24 993b
00000120: 08ad 143d d6ea c4bd a23c d13d 240c bfbc
00000130: 5e9b a9bd e56e 9c3d 4437 e03d e855 9d3c
00000140: f941 a1bd 5045 5e3c 54f0 cfbd 78c8 9d3d
00000150: 5053 183d 58ac fabc ba27 0fbe 6e9b a93d
00000160: 4a6d d1bd 28e4 d5bd 7b53 843d d474 7ebd
00000170: 0364 5bbc 836e 833d bfd2 d1bc 50a1 e7bc
00000180: 484d ed3d 9d79 a4bc b401 083d dbea 50bd
00000190: 58db dcbd f552 323c aa55 97bd 640f 98bd
000001a0: acf1 e2bd 5a08 933d e5c9 bfbd 7a6d 70bb
000001b0: 7cee 53bc ba82 413d 08da 7a3d 1751 c8bd
000001c0: 4ac6 3f3d ee6b d2bd 63a6 07bd 2ee3 61bd
000001d0: 55da e7bd c838 193d 7afa e8bd ec12 e63d
000001e0: 8b78 9e3c fb5d 98bd 24e9 95bd 6f16 febd
000001f0: 9980 96bd b603 a7bd 141e 92bc e847 ab3c
00000200: 7001 de3d 40a5 893c 6002 d0bc 6845 64bd
00000210: 680b 90bc 211b 1e3d 6862 17be 7d12 0dbe
00000220: afce ba3c fcf2 1dbd f088 17bd 77bd dcbd
00000230: 1675 aabd dcb6 bfbd 78cf 9bbd 192c 11be
00000240: 0c9e 70bd 9c62 cd3d 8aa7 8dbd 2182 8a3d
00000250: a885 d7bd 307a 6d3c 90ad 29bc 0452 c1bd
00000260: 803b 473b c7b8 9f3d 8053 67bd 861a eb3d
00000270: b06c 57bc 08e5 21bd d74d 0c3d ea1f c83d
00000280: e5cb a43d 0abe 3e3d becf e4bd 9090 d0bc
00000290: a1d5 62bc 9c57 69bd 0c41 6f3d f86f e1bc
000002a0: 3c8c dcbd 3866 a8bd bdb7 dcbd fe63 aa3c
000002b0: 5d92 f1bd 0810 01bd 90a7 523c 74c6 5c3d
000002c0: 4ee4 c4bd d523 713d 6649 a4bd ec2d c4bd
000002d0: f436 513d e036 96bd 5e87 813d 28af 5c3d
000002e0: d082 78bd 2c7a 5fbd 000e 6abd 2076 42bc
000002f0: 4730 e2bc c00b 47bb 804a a7bd b47d d5bd
00000300: 7b7f e43e 2b59 2cbf 4366 92be c4de 80bd
00000310: 9a8d bdbe 9c2f 1d3e 4c59 f33c 4ea6 89be
00000320: 9d19 00bf 9f44 81bb e02e a8bc 05e3 a1be
00000330: d39d 8bbe 4e78 d13e 3d67 a13b b09c 42bf
00000340: 84a3 85bd a4ee 93bf 3d4e 0cbf 4bd0 5b3f
00000350: cb9f 95be 8243 0bbf 3a1b a43e c825 f0be
00000360: 259c 20bd 3f08 90be 6b75 b53e 2e1b 03bf
00000370: bc40 8fbe 596c 83bf f00b 09be 8d1d 8d3c
00000380: 87d9 403f e6d9 f9bc a2c3 fabd 7883 4ebe
00000390: ec31 44bf e94e 3e3e 9836 b5bd 0133 fabe
000003a0: f3d4 e13e f3ea dcbb a663 343e a705 0f3e
000003b0: 7910 ca3e 2ffc a53f 5302 f7be b680 543e
000003c0: 5aa8 973e 9e07 24bf 4197 f6be b760 373e
000003d0: b916 2d3f 3852 ba3c 8dbe 9d3e eaa3 dd3e
000003e0: 5468 d33e 0bb6 c2bf 4c96 803d 53ce e93e
000003f0: 37bd a43d 00e3 ceba b85f f93d 5755 ba3d

hidden3.bias f4 [128]
0.08908317 -0.08587821 -0.10719784 0.0072658937 0.20687431 0.0020535327 -0.093102805 0.25606138
-0.09780231 0.05230931 -0.02120122 0.09113327 0.1231755 0.0646142 0.03518286 0.076037854
-0.047664545 -0.046173874 0.12954172 0.039217122 0.13336693 -0.00029731824 0.0072219158 -0.08678205
0.13555193 -0.27934095 0.10395305 0.06190514 -0.060645606 0.07988011 0.1961454 0.012403705
-0.07994666 0.32183686 0.11717885 0.054299925 -0.12643662 -0.20026644 -0.30239326 0.12222452
0.028677508 -0.25638342 -0.35534155 0.0161832 0.20912454 -0.01635491 -0.12679893 -0.1220322
-0.100151084 0.035857566 0.13328601 -0.11393195 0.1896786 0.044766646 0.1991806 0.055503648
-0.08132353 0.037661582 0.011403967 0.051937014 -0.09604907 0.17349362 0.118785545 -0.20672607
0.14486733 0.06787849 0.17138402 0.08180974 0.13143292 -0.018767115 0.11600911 -0.10458936
0.033286523 -0.04933887 0.1967243 0.08759596 0.11719259 -0.033236284 -0.13601628 0.07795505
0.1783035 0.19304194 -0.122852564 0.07237726 -0.012650147 0.2511132 -0.19953397 0.11646095
0.0077655353 0.027428001 0.034301355 -0.01996817 0.20134005 0.10076823 0.19174623 0.18321873
-0.05899144 0.0009069364 -0.0020550988 0.11932124 -0.056391213 -0.11846649 0.07449254 -0.09625539
0.20968802 -0.18587351 0.043523643 0.11966154 0.036826126 -0.03214445 0.16974075 0.040772375
0.20502602 -0.038828727 0.00612148 -0.3780805 -0.1272852 0.066845044 0.08879656 0.25738788
0.13426062 0.09953486 -0.055851832 0.15946402 0.24697337 0.12031752 -0.083567254 -0.13434932
00000000: 3d71 b63d eae0 afbd 8b8a dbbd bc16 ee3b
00000010: dcd6 533e 9094 063b afac bebd 7a1a 833e
00000020: 944c c8bd 4942 563d 2eae adbc 14a4 ba3d
00000030: 7043 fc3d 7354 843d e71b 103d bcb9 9b3d
00000040: e63b 43bd d120 3dbd 96a6 043e 22a2 203d
00000050: 5791 083e 61e1 9bb9 d2a5 ec3b caba b1bd
00000060: 20ce 0a3e c705 8fbe 56e5 d43d 3e90 7d3d
00000070: 8767 78bd 2f98 a33d 57da 483e e938 4b3c
00000080: 13bb a3bd cdc7 a43e 77fb ef3d 9969 5e3d
00000090: 9a78 01be a512 4dbe 4ad3 9abe d950 fa3d
000000a0: 18ed ea3c b044 83be 54ef b5be a192 843c
000000b0: be24 563e bbfa 85bc 94d7 01be 05ec f9bd
000000c0: 031c cdbd 62df 123d 217c 083e 2755 e9bd
000000d0: 1b3b 423e 3b5d 373d 00f6 4b3e cb57 633d
000000e0: f38c a6bd 0843 1a3d b4d7 3a3c e8bb 543d
000000f0: 60b5 c4bd 50a8 313e d645 f33d 00b0 53be
00000100: 1a58 143e e103 8b3d 4b7f 2f3e dd8b a73d
00000110: 5a96 063e 7ebd 99bc 2f96 ed3d f232 d6bd
00000120: 7357 083d 8e17 4abd 1872 493e 8365 b33d
00000130: ab02 f03d c522 08bd da47 0bbe e6a6 9f3d
00000140: 3195 363e c9ac 453e 209a fbbd 873a 943d
00000150: 9042 4fbc e991 803e a252 4cbe 1483 ee3d
00000160: 0876 fe3b b0b0 e03c 947f 0c3d 4a94 a3bc
00000170: 162c 4e3e 935f ce3d 2059 443e b19d 3b3e
00000180: 02a1 71bd 79bf 6d3a d6ae 06bb b25e f43d
00000190: 79fa 66bd 8f9e f2bd 8b8f 983d 8c21 c5bd
000001a0: 75b8 563e a055 3ebe d945 323d 1c11 f53d
000001b0: fed6 163d e6a9 03bd 85d0 2d3e ef00 273d
000001c0: 57f2 513e df0a 1fbd b296 c83b c493 c1be
000001d0: 0d57 02be 0ee6 883d f9da b53d 58c8 833e
000001e0: 9e7b 093e efd8 cb3d e4c4 64bd 894a 233e
000001f0: 96e6 7c3e 0869 f63d 4f25 abbd de92 09be

output.weight f4 [7, 128]
-0.025800467 -0.04471637 0.025493346 -0.1376353 0.02861815 -0.009825878 0.63700634 0.11449479
0.59847116 -0.044313394 -0.09454791 -0.067025006 0.030921137 0.028973201 -0.36040565 0.58450806
0.046254482 0.34498507 -0.21344918 -0.03835407 0.11670273 0.09243463 0.0029014512 -0.08117277
-0.19818217 0.336891 1.3269743 1.2750183 -0.048495363 -0.32598364 -1.065527 -0.13731788
0.13441238 0.11436149 0.009973506 -0.44119653 0.114171684 0.6247491 0.2025305 0.015145416
0.039508186 0.26000094 -0.0963794 -0.86615455 0.054530647 0.27248797 -0.20046668 0.11508425
0.18839756 0.024266489 -0.8555812 0.056130987 1.0578084 -0.6418518 -0.024091646 0.008402936
0.72546095 -0.4252339 -0.4667078 -0.01393719 0.0062217996 0.9443179 0.028155332 -0.016386757
0.015731962 -0.3501704 0.043166757 -0.003230693 0.09410744 0.40994358 0.02283675 0.2842477
-0.44228828 0.14208904 -0.01206019 -1.4358708 0.020048825 -0.07772357 -0.026376398 0.009926955
0.09424392 0.01696068 0.06658255 -0.070462115 0.17879131 -0.06278484 0.025622487 0.73507243
-0.028590992 -0.03337855 1.1440057 -0.0101686 0.026898732 0.99557024 0.1289298 0.0590855
0.016882833 -0.0037955262 0.047379024 0.06726591 1.1688313 -0.49257603 -0.075531706 0.88563246
-0.003182781 0.62991 0.05119147 0.079802535 -0.028002875 -0.24946117 -0.0610342 -1.0192685
-0.37716475 -1.7650054 0.09409515 -0.58609104 -0.07702334 0.033782955 -0.06017998 0.19662023
-0.0860393 0.038344305 -0.0017807472 0.070694946 -0.04209409 -0.69705343 -0.05448402 -0.93911964
-0.2271057 -0.08967335 -0.009999095 1.7347174 -0.13337359 0.010161627 0.4665721 -0.12591891
0.46940002 0.005405923 0.041853033 -0.21868423 0.003546453 0.15404774 0.4488065 0.06458999
-0.009628693 0.50880057 0.39081374 -0.040134724 -0.06960084 0.03418922 0.0118597485 -0.051236916
0.43642616 -0.45154473 -0.41023082 -0.407405 -0.011072735 1.0564085 -1.163535 -0.5260305
-0.54855824 0.6564875 0.020503283 0.35483566 0.03608214 0.97328144 0.6418778 -0.061516672
-0.1238325 -0.35113165 0.5199637 -0.13280232 -0.15068151 0.5022188 0.037111137 -0.015133734
0.79447556 -0.021708736 0.39191785 -0.0820103 0.21261562 -0.19174397 0.023791254 0.38869616
-0.1588835 0.7312377 -0.06192506 0.062413983 -0.004065743 0.7459826 -0.105386294 0.098904766
-0.20124947 -0.5389783 -0.1799506 -0.13549553 -0.09613606 -0.44993082 -0.11373103 -0.56896967
-0.3842688 0.6120812 0.08771956 2.2061312 -0.35641575 -0.026437836 -0.0010140373 -0.07019446
-0.12310214 -0.11679817 -0.04727433 -0.18225878 0.046344556 -0.32645348 -0.06379005 -0.17185435
0.044911887 -0.013667508 0.032638513 -0.0027263395 -0.053875 0.39249596 -0.03960956 -0.053114343
-0.03571453 -0.079132564 0.07873026 -0.18451086 -0.20463896 0.8975146 -0.06865209 -0.019262847
-0.27745354 -0.33783323 0.07851512 -0.109321356 -0.18872598 0.088679224 -0.4280131 -1.3268356
-1.0114186 -0.5683002 -0.020976119 0.09925396 0.02020423 -0.040299993 -0.34206674 -0.73530686
0.65235955 -0.06691815 -0.012281918 -0.14785992 -0.31833354 0.39292103 0.09482453 0.11249435
00000000: 805b d3bc 8328 37bd 6cd7 d03c 45f0 0cbe
00000010: 9c70 ea3c b8fc 20bc d912 233f 3f7c ea3d
00000020: 6835 193f f681 35bd 56a2 c1bd 6844 89bd
00000030: 534e fd3c 3559 ed3c 1787 b8be 52a2 153f
00000040: 5775 3d3d e2a1 b03e 6c92 5abe 2819 1dbd
00000050: d701 ef3d 5e4e bd3d 4626 3e3b e93d a6bd
00000060: 44f0 4abe fa7c ac3e 4bda a93f cd33 a33f
00000070: 13a3 46bd 54e7 a6be 3063 88bf 0f9d 0cbe
00000080: 66a3 093e 5b36 ea3d eb67 233c 83e4 e1be
00000090: d8d2 e93d 8fef 1f3f 2864 4f3e 7b24 783c
000000a0: 56d3 213d d81e 853e 9062 c5bd 4ebc 5dbf
000000b0: 875b 5f3d 8b83 8b3e 2347 4dbe 4bb1 eb3d
000000c0: 4aeb 403e 84ca c63c 5f07 5bbf 9be9 653d
000000d0: 4466 873f 6650 24bf d85b c5bc 78ac 093c
000000e0: cfb7 393f 42b8 d9be 53f4 eebe d058 64bc
000000f0: 3de0 cb3b d1be 713f 03a6 e63c 853d 86bc
00000100: 51e0 803c 8949 b3be a0cf 303d 09ba 53bb
00000110: 67bb c03d 20e4 d13e 2314 bb3c ea88 913e
00000120: 9c73 e2be ca7f 113e 1a98 45bc 9dca b7bf
00000130: 6f3d a43c 892d 9fbd 5113 d8bc aba4 223c
00000140: f502 c13d 20f1 8a3c 6f5c 883d 714e 90bd
00000150: 1215 373e 5795 80bd 40e6 d13c b52d 3c3f
00000160: a837 eabc f2b7 08bd c76e 923f 339a 26bc
00000170: bb5a dc3c b1dd 7e3f 2c06 043e a303 723d
00000180: de4d 8a3c 5dbe 78bb 8210 423d b6c2 893d
00000190: 449c 953f ed32 fcbe 5eb0 9abd cfb8 623f
000001a0: 3496 50bb c841 213f 26ae 513d 836f a33d
000001b0: 4966 e5bc c072 7fbe fffe 79bd 6477 82bf
000001c0: bd1b c1be b2eb e1bf f5b4 c03d 100a 16bf
000001d0: 6abe 9dbd ff5f 0a3d 487f 76bd d056 493e
000001e0: 5f35 b0bd eb0e 1d3d f667 e9ba 83c8 903d
000001f0: da6a 2cbd 1872 32bf a32a 5fbd 256a 70bf
00000200: 668e 68be a9a6 b7bd 3fd3 23bc 380b de3f
00000210: 1693 08be f47c 263c 8ae2 ee3e e3f0 00be
00000220: 3355 f03e 2b24 b13b 166e 2b3d c2ee 5fbe
00000230: 9c6b 683b b1be 1d3e f7c9 e53e c247 843d
00000240: aac1 1dbc c140 023f bd18 c83e 4f64 24bd
00000250: e38a 8ebd ff09 0c3d 644f 423c cddd 51bd
00000260: 4073 df3e df30 e7be c609 d2be 6397 d0be
00000270: 6b6a 35bc 6538 873f b7ee 94bf efa9 06bf
00000280: 506e 0cbf 910f 283f 80f6 a73c 05ad b53e
00000290: deca 133d f928 793f 1a52 243f e8f8 7bbd
000002a0: e59b fdbd 87c7 b3be 571c 053f 55fd 07be
000002b0: 414c 1abe 6991 003f d901 183d 7bf3 77bc
000002c0: c062 4b3f 85d6 b1bc 75a9 c83e 04f5 a7bd
000002d0: e9b7 593e 8858 44be e0e5 c23c 2f03 c73e
000002e0: 5bb2 22be 6532 3b3f 22a5 7dbd cea5 7f3d
000002f0: ed39 85bb b7f8 3e3f c5d4 d7bd 958e ca3d
00000300: 5714 4ebe 7bfa 09bf f844 38be 57bf 0abe
00000310: fce2 c4bd 555d e6be d0eb e8bd ffa7 11bf
00000320: e1be c4be 5bb1 1c3f 50a6 b33d 4131 0d40
00000330: 207c b6be 2994 d8bc 72e9 84ba 1dc2 8fbd
00000340: fa1c fcbd e133 efbd baa2 41bd 0ca2 3abe
00000350: cad3 3d3d e924 a7be 5ca4 82bd 96fa 2fbe
00000360: 87f5 373d afed 5fbc f6af 053d 63ac 32bb
00000370: 08ac 5cbd 3bf5 c83e a23d 22bd 6d8e 59bd
00000380: 6649 12bd 4110 a2bd 553d a13d 6af0 3cbe
00000390: e08c 51be 84c3 653f 7899 8cbd 1ecd 9dbc
000003a0: 640e 8ebe 7af8 acbe 89cc a03d e0e3 dfbd
000003b0: 6241 41be 749d b53d 8824 dbbe c0d5 a9bf
000003c0: 2a76 81bf 1f7c 11bf 1cd6 abbc a945 cb3d
000003d0: 5783 a53c 9b11 25bd 5f23 afbe 123d 3cbf
000003e0: 0901 273f 620c 89bd 193a 49bc 9768 17be
000003f0: 9dfc a2be f22c c93e 5d33 c23d 7063 e63d

output.bias f4 [7]
-0.052944183 -0.1617722 0.010750995 -0.21859267 0.07232314 0.0884168 0.47946024
00000000: 00dc 58bd 9da7 25be f124 303c c2d6 5fbe
00000010: 281e 943d de13 b53d d07b f53e
