models/MagneticPendulum/p1.0_measure_['x1dot', 'x2dot']_N[6, 6]_sep/al_model_state_dict.pth (torch, 47760 bytes, 8 tensors)

hidden1.weight f4 [32, 12]
00000000: f9c3 073e 5c75 2dbd 1bf7 7dbe d0ac a93e
00000010: 7431 b9be faa0 8dbd 5c52 66bd ea8b bc3d
00000020: 04f9 fd3d 4cd1 00be 2dfc ab3e d8f5 7a3d
00000030: 091f eb3c d64c 84bd 9a98 7d3c 5eb5 903e
00000040: ff34 e4bd 6697 0cbe 5a3f 103e 7fb2 00bd
00000050: 90bc b6be 87d6 84be eb26 21be 2466 5cbd
00000060: 49e3 9c3c 7133 6a3d bd9e a33d 81bf 533e
00000070: 7c93 16bf c69f fd3d c2cb b53d d55a 533d
00000080: ca2e 353e da3b 43be 92c9 12bf 32b3 bebd
00000090: 1263 c03d a9fc a43c 285d 113e 2e55 933c
000000a0: 3d94 033f 3135 3cbe 1a8c 4e3e 0473 9abc
000000b0: c496 aebe 1211 a13e ec49 e4bb cf75 47bd
000000c0: 05c6 be3d eb9d d1bc 2c00 8abe 6642 86be
000000d0: d65f 763e c7ef f63c 34d6 633d 1601 da3d
000000e0: b818 373e 576f e2be 5413 903e 3102 a73e
000000f0: 56a4 0dbe 52eb 393e 207e 093e 9e9f 5a3e
00000100: 252d c2be ee46 9dbc 2e2d 1bbd b9b9 713d
00000110: 71eb 79be 2c6d 82be bf61 b83e f8b4 1d3c
00000120: 4a03 1c3d ed62 6f3c 81c2 263d ac62 d83a
00000130: a57e bc3e 7fa4 9b3d 7661 adbe c77e 8f3c
00000140: f58d 4dbe 1bbd dabe e83c f1bd 8ae3 933d
00000150: be7c 023e faaa d5bb 3ba3 e6be a891 dc3e
00000160: a025 a13e 7a80 adbd 0f07 e13d 46a9 48bd
00000170: fc18 ad3d e22e 003e a03d a8be 9526 1fbe
00000180: 7351 993d 296f 1f3c 2e24 babd e6c6 15be
00000190: f4d1 e13e 9268 85bc 7ae0 5f3e 8980 68bd
000001a0: 84bd 59be f6f6 83be 82fd 193f c1f5 a93d
000001b0: 039b 0e3e fcc9 253c e721 5fbd 51b5 123c
000001c0: f3f9 283f 8a72 81bd b832 9cbd 19a9 89ba
000001d0: fe57 993e b94d 3fbd 5675 d5be f81a ac3d
000001e0: fe98 96bd 9069 483d 77fd d23e e6aa 83be
000001f0: f1d2 ad3e 09f6 dbbb a67b 04be 9b96 26bd
00000200: 84f4 953d 4ad5 bb3e c2f9 73be d6ec 61bd
00000210: 0ba8 4f3e e26a 3b3e 7ad0 1e3e 5623 883e
00000220: 1f8d 513e 19c4 88bd b00a 4dbe 8f1d 1bbe
00000230: 8a7b 8dbe 5593 b9bd 99d0 90be b317 4d3e
00000240: 2941 b33c 1e54 57bc ae63 1d3e 8e4e acba
00000250: 263c e53e 331e 4c3e 8a05 d2bc cc20 1e3e
00000260: dd4b 9abe 7ac6 81bd ebbd 94be f480 34be
00000270: c166 6fbd bcbf 2a3b 75f6 8ebd caf9 a9bd
00000280: 47a3 0bbf 4f81 e13d c1fa c63d 0ed3 093d
00000290: 7b45 bfbe 4812 243e 3a47 b8be 8b49 3c3a
000002a0: ae8c 77be 1e02 37bd c25c a2bd e6d6 61bd
000002b0: 095d c03e 071d 273e bbee 8b3e 5783 c03d
000002c0: d237 3c3e cfb4 50bd 23d6 b6be 081c 4c3e
000002d0: 367c 01be 5011 6ebd 25dd 97be 87fc bbbd
000002e0: f3b1 e3be 7f4a 173e f07e ccbd 7457 6fbd
000002f0: e712 023e 349e 5dbe 3f01 703e 7797 80bb
00000300: e7bb 44be 1c29 8d3d e4c9 8b3e 00eb a9be
00000310: db2b cf3e 0b56 943e 33bc 7c3d 3cfc 37bd
00000320: 1ac0 6d3e 1c4c 94be 4c9b c83e f615 b2bd
00000330: abae 6b3c f310 0abd 2a11 c5bd c89c 203e
00000340: d3ad 57bb 8bc3 11bc b3cd 93bc d70f 2f3e
00000350: 9bff 28bd 1adb e63e d788 fc3e d1ff d9bc
00000360: 024c 3a3e 35b1 2dbe 43c1 39be e33c c93e
00000370: 212a b3be 518a 883d 2562 31be c03f 30be
00000380: 7a86 6bbd 5f6f 48be 5e01 003e f2e8 7a3e
00000390: 2220 9a3e 702e 063e f1de e0bd 80b4 febe
000003a0: 36c8 423d 77c5 383e acfb 58be 84c7 e7bc
000003b0: 9de0 0cbe 8f14 3d3e d4cf a63e 5dd2 82be
000003c0: 5df0 00be 89a7 6fbd 2a66 483e 0373 1f3d
000003d0: d395 d2be 092e 9c3c 91b7 07be ac63 63bd
000003e0: 5da1 06be c448 9c3e 7e8f 073f 9a60 afbd
000003f0: 3c1b bc3d ee98 153c c9ab b7bc ba71 b0bc
0.13258351 -0.04234825 -0.24801295 0.33139658 -0.36170542 -0.069154695 -0.056230888 0.09206374
0.124010116 -0.1257984 0.33590832 0.06126961 0.028701322 -0.06459968 0.015478278 0.28263372
-0.11142921 -0.13729629 0.14086667 -0.031420227 -0.35690737 -0.2594492 -0.15737502 -0.053808346
0.019151347 0.057177965 0.07989261 0.20678522 -0.58818793 0.1238399 0.08876754 0.051600296
0.1769363 -0.190658 -0.5733882 -0.093115225 0.09393896 0.020140009 0.14195693 0.017984953
0.5139807 -0.18379666 0.20170632 -0.018853672 -0.340994 0.31458336 -0.00696682 -0.048696335
0.09315113 -0.025587996 -0.26953256 -0.26222533 0.24059996 0.030143632 0.055624202 0.106447384
0.17880523 -0.4422557 0.28139746 0.3261886 -0.1383222 0.18156174 0.13427019 0.21349952
-0.37925068 -0.019198861 -0.037884884 0.05901501 -0.2440622 -0.25473917 0.36012074 0.009625666
0.038089074 0.014610988 0.040712837 0.0016508899 0.36815372 0.075997345 -0.3386342 0.017516507
-0.20073684 -0.427224 -0.11779195 0.07221134 0.12742898 -0.006520626 -0.4504641 0.43079877
0.31474018 -0.084717706 0.109876744 -0.048989557 0.08452031 0.12517884 -0.32859516 -0.15542062
0.07486238 0.0097310925 -0.09088932 -0.14626655 0.44105494 -0.016285215 0.21862975 -0.056763206
-0.212637 -0.25774354 0.6015245 0.08298827 0.1392632 0.010118958 -0.05447569 0.008954362
0.6600639 -0.06320675 -0.07626861 -0.0010502666 0.29949945 -0.04670498 -0.41691083 0.084035814
-0.073534 0.048928797 0.41209003 -0.25716323 0.33949998 -0.0067126793 -0.12937793 -0.040670972
0.07322028 0.36686164 -0.23825744 -0.055157505 0.20278947 0.18302491 0.15509215 0.2658946
0.2046399 -0.06678028 -0.20023608 -0.15147994 -0.27633315 -0.090613045 -0.28284147 0.20028572
0.021881657 -0.013142614 0.15370056 -0.001314597 0.44772452 0.19933395 -0.025637407 0.15442199
-0.30136004 -0.063366845 -0.29051146 -0.17627317 -0.058447603 0.0026054224 -0.06980602 -0.082995966
-0.54546016 0.11010992 0.09715796 0.033648543 -0.37357697 0.16022599 -0.35991842 0.00071825896
-0.24174759 -0.044679753 -0.079278484 -0.055136584 0.3757098 0.16319667 0.27330574 0.09400051
0.18380669 -0.050953683 -0.35710248 0.19932568 -0.12645039 -0.05812198 -0.29660907 -0.09179025
-0.44471702 0.14774512 -0.09985149 -0.05843301 0.12702523 -0.21642381 0.23437975 -0.003924306
-0.19212304 0.068926066 0.27302468 -0.33187103 0.40463147 0.28971896 0.06170292 -0.044918284
0.23217812 -0.28964317 0.39180982 -0.08695595 0.014384906 -0.03370757 -0.096224144 0.15684807
-0.0032910004 -0.008896719 -0.018042421 0.17095886 -0.04125939 0.45089036 0.4932315 -0.02661124
0.18193057 -0.1696213 -0.1814013 0.39304265 -0.3499308 0.06667007 -0.17322595 -0.17211819
-0.057501294 -0.19573735 0.12500522 0.24502924 0.3010264 0.13103652 -0.10980023 -0.49747086
0.047554217 0.18044077 -0.21189755 -0.028293379 -0.13757558 0.18464874 0.32580435 -0.2555112
-0.12591691 -0.058509383 0.19570222 0.038928043 -0.41129932 0.01906492 -0.13253619 -0.055514976
-0.13147493 0.30524266 0.52953327 -0.08563347 0.09184882 0.0091307 -0.02242078 -0.021538604

hidden1.bias f4 [32]
00000000: 2010 4abe fb22 c13d 2b99 353d fee6 8c3d
00000010: 731e 93bd 95b4 12be 169e 073d 516f ed3d
00000020: 710b 7a3d 720f b2bd 5fb7 1f3e b352 9ebc
00000030: 3099 883e f3c5 4d3e 93d2 8f3e 9d62 523e
00000040: 63ce 22be 58a2 8b3e ed87 0dbe 9b48 64be
00000050: ba53 80bd 7438 19be 993d 3abe 8f53 77be
00000060: 6745 633e 8650 d9bd 2791 96bd a394 863e
00000070: 2a12 143e c2c0 7ebe 5df5 9cbd fbd0 1d3e
-0.19732714 0.094305 0.044335525 0.06879996 -0.07183542 -0.14326699 0.033109747 0.115934975
0.061046068 -0.08694352 0.15597294 -0.019326543 0.26679373 0.20095043 0.28090343 0.2054543
-0.15899043 0.27272296 -0.13821383 -0.22293322 -0.062659696 -0.14962941 -0.1818756 -0.24152969
0.22194444 -0.10611062 -0.07351904 0.26285276 0.14460054 -0.24878219 -0.07663987 0.15411751

hidden2.weight f4 [64, 32]
00000000: f523 97be 1acd 133e 4aea d6bd 35c2 39be
00000010: 9a33 efbd dc82 a9bd f88c d6bb 6a56 0e3e
00000020: 07f1 21bd 12a4 af3e 0708 fabd aca3 ebbd
00000030: d23e 5d3d 068e dabd d20a a4bd 1707 02be
00000040: 1095 b7be 8967 4abd 5c24 973d f4c2 19bd
00000050: a76f c83d 029e 893d b27a efbd a446 ad3e
00000060: 40b9 dabd 27ca 2b3e 1717 abbe 8dbd 953d
00000070: e06a 05bc 13a9 063d af1f d1bd d110 b63d
00000080: e85c 02be ef31 0bbe 4ccc 653b 5d1d e73d
00000090: c1d7 fb3d 5a26 653d 37d0 3f3d 3d64 623d
000000a0: 0dae c9bd 63eb 9dbd caa3 3cbd bfaf aebd
000000b0: 6b26 6c3c 3a10 06be ce9c a63d 762e 50be
000000c0: e1b5 f5bc e53f 62bd 8ccb 26be aab3 a6bd
000000d0: 3be6 ec3c 9092 c5bd 4ed0 273d fa24 ad3d
000000e0: 4006 bb3d ef0c d7bc 66ef 4a3e f634 58bd
000000f0: 7905 83be eb7d 653e 3615 433c ae7c 31be
00000100: fd72 a93d 1597 08bd 4672 00be 742f 443e
00000110: 50ac 963e 4122 e2bd 5964 a5bd f26f 833e
00000120: b204 a43e 7a0e 223e 00d4 253d bfcd c53b
00000130: 4034 f33d 08a3 99be 08ab 94bd 41c9 d23d
00000140: f4f1 0a3d 3259 3e3d a85c 46bd e4d9 103e
00000150: 3d8d 643d 5214 34be 2efb 1bbe d4cd c1bd
00000160: 0c43 d3bc 540a 9d3d 9fef dbbd aff8 a5be
00000170: fd4f 00bd efac a2bd a6c1 91bd 28f1 ed3d
00000180: 1e42 943c ec12 0abe 10c5 a63e 066a a7be
00000190: 05a0 72be a409 06bd 7d9f 34bd 19db 033d
000001a0: d6c5 0bbf 2873 de3d 18df 2f3e 3a2a d33c
000001b0: b33e 3fbd a040 8abd d145 033e 0afe 853c
000001c0: 77d7 96bd 973e c4be 8b20 e43d 8598 3f3d
000001d0: c5ee 293c 06d9 893e 04cd eabd a8a2 77be
000001e0: 8f87 853d 6d6b 313e d71a 03bd f1db 943e
000001f0: 545c 683e 0947 6ebd 38f7 d13d c348 70be
00000200: fa13 f1bd bf57 113e 9cc0 8dbe e969 6b3e
00000210: f889 d8bc ba07 343e c83f 8d3d 3f36 d5bd
00000220: d33f 983e ad10 80bd 114b 92be f59d c2bd
00000230: 3df0 1a3e 1c35 4dbd f9aa 1cbe b075 28bd
00000240: 0034 5ebc f90e bd3d 37a7 29bd f05b 14be
00000250: 1d42 9b3d 9c5e 07be ae8f a6bd d5ce d7bd
00000260: 4f63 d1bc d0cd a6bd f264 113e 360c 78be
00000270: 7f64 54be 977b 833d b833 b0bd 3614 ac3c
00000280: 4a13 5c3e 5600 ddbd a295 c13d 8e28 2ebe
00000290: 4041 c43d d3ed 433e b43f d5bd 2d61 153e
000002a0: 04dd 66bd ad4c a1bd 9d3b 3bbe ca3d 41bc
000002b0: 316a d8bd 5e9d 433e d9ce 05be 62e6 dc3d
000002c0: 77f1 0dbe babe 43bd acd8 223c f4f3 8a3e
000002d0: 2eb6 7d3d 167e ea3d 46e5 28bc 30df c03e
000002e0: 8b62 033d a5a2 7c3d a32b 693e 243c 993d
000002f0: e16d cabd 62ad 96bd 732c f53d cb73 373d
00000300: c60c 87be fc5b d3bb 4c13 ecbd d60f 86bd
00000310: 2bb7 46bb 9701 243d 2963 b93d 7998 ab3c
00000320: 32a0 e03d 2850 f13d 464f 503d 9c50 e33c
00000330: 6996 67bb 3146 d5be a50e e33d 0924 9cbd
00000340: 7da0 023e 1bff 103d 5c57 85bd db99 e93d
00000350: 0b77 d7bd 2419 c23d d30b 803d 40be 98bb
00000360: 207a 93bd 3b43 85be 5037 80bd 1ba5 bebe
00000370: 0a76 44be 7610 50be 20b3 8bbe d244 60be
00000380: d163 ba3d 1f4b 9f3c 9475 033e 3b3c 603e
00000390: d715 2f3d 3fb7 963d 4f2a 1cbe 89e8 943e
000003a0: 775e afbe 0f23 913c b9eb 66bd a966 153e
000003b0: 2c63 e0bd 49ab 153e 8c5b 22bd e99c b0be
000003c0: 3228 e6bd 0c55 603e 3694 ff3d 5b18 15bd
000003d0: 2713 5dbc ac52 873e 525b f83d 94a3 85be
000003e0: d6c0 dd3d f6a5 0a3d 04fd 373e a1eb ff3c
000003f0: 8efd ffbd cc07 55bc b939 643d b004 8ebd
-0.2951962 0.14433709 -0.10493906 -0.1814049 -0.11679764 -0.082769126 -0.0065475665 0.13900152
-0.039536502 0.34304863 -0.12208562 -0.11505827 0.05401499 -0.1067162 -0.08009876 -0.12698017
-0.35855913 -0.049415145 0.07379982 -0.037539437 0.09786921 0.06719591 -0.11693324 0.33842957
-0.10679865 0.16776334 -0.33416054 0.073115446 -0.008143157 0.032876085 -0.10211121 0.08889926
-0.12730753 -0.13593267 0.0035064397 0.112848975 0.12297011 0.055944778 0.04682943 0.055271376
-0.09847651 -0.07710912 -0.04605464 -0.08529615 0.014413456 -0.13092127 0.08135377 -0.20330223
-0.029993953 -0.055236716 -0.16288584 -0.08139737 0.028918376 -0.09647095 0.04097014 0.08454318
0.091320515 -0.026251284 0.19817886 -0.052784882 -0.25590113 0.22411315 0.011906913 -0.17332718
0.082738854 -0.033347208 -0.12543592 0.19158727 0.2942834 -0.1104169 -0.080757804 0.25671345
0.32034832 0.15825835 0.040485382 0.0060364897 0.118752 -0.30007195 -0.07259184 0.102922924
0.03392215 0.046471782 -0.048428208 0.14145619 0.055798758 -0.17585877 -0.15232536 -0.09463087
-0.025788806 0.076679856 -0.107390635 -0.32416293 -0.031326283 -0.07943141 -0.07117014 0.116182625
0.018097933 -0.1348378 0.32572222 -0.32698077 -0.23693855 -0.032724038 -0.044097412 0.03219137
-0.5459875 0.10861808 0.17174947 0.025776971 -0.046690654 -0.067506075 0.12819602 0.016356487
-0.073653154 -0.38329002 0.111390196 0.046776313 0.0103718685 0.26923388 -0.11464885 -0.24183142
0.065199964 0.17326136 -0.03200802 0.29074052 0.2269147 -0.058173213 0.10252231 -0.23465256
-0.11771388 0.14193629 -0.27686012 0.2298962 -0.026432976 0.17581072 0.06896931 -0.10410737
0.29736194 -0.06253181 -0.28572896 -0.09502784 0.15130706 -0.050099477 -0.15299596 -0.04112786
-0.013562202 0.092313714 -0.041419234 -0.14488196 0.075809695 -0.13219684 -0.081328735 -0.10537497
-0.02556005 -0.08144724 0.14198664 -0.24223408 -0.20741461 0.06420057 -0.086036146 0.021005731
0.21491733 -0.1079108 0.09452368 -0.17007658 0.09582758 0.19133691 -0.10412541 0.14587851
-0.05636312 -0.07875953 -0.1828446 -0.011794517 -0.105671294 0.19103 -0.13067187 0.107861295
-0.13861643 -0.047789313 0.009939354 0.27139246 0.06194132 0.1144983 -0.010308569 0.3767028
0.0320764 0.061678547 0.22770552 0.07482174 -0.09884239 -0.07357289 0.11971369 0.044788163
-0.26376933 -0.0064501744 -0.11527118 -0.06545989 -0.003032158 0.04004058 0.090521164 0.020946728
0.10968055 0.11782867 0.05085685 0.027748398 -0.0035337454 -0.41655114 0.110867776 -0.07624061
0.12756534 0.035399538 -0.06510803 0.11406299 -0.105207525 0.094774514 0.06252255 -0.0046613514
-0.07201028 -0.26027855 -0.0626055 -0.3723534 -0.19185653 -0.2031878 -0.272851 -0.21901253
0.0910107 0.019445 0.12837821 0.21897976 0.042745437 0.0735917 -0.15250514 0.2908366
-0.34251758 0.017716913 -0.056377146 0.14589943 -0.109564155 0.14616121 -0.039638087 -0.34494713
-0.112381354 0.21907443 0.12479441 -0.03640018 -0.013493336 0.2643026 0.12126793 -0.26101363
0.10827796 0.03384968 0.17967612 0.031240286 -0.124995336 -0.013002347 0.05571911 -0.06934488

hidden2.bias f4 [64]
00000000: 7e5f f23d 911e fbbd 71c5 13bd e756 d6bd
00000010: 495f 20bc 9b3b 42bd 3055 a0be 594a 25be
00000020: e4f4 c33b af69 17be f52b 16be 8d12 75bd
00000030: 6fc2 23be 6488 24be 8864 31be 17d0 25be
00000040: 3159 54be b381 f63c 55ea fabd ed7e 143d
00000050: c3c5 49be e266 a2bc 567f 85bd 8d10 06be
00000060: edec e1bd ed87 983d ff04 f5bd 5592 673d
00000070: a3ed 4fbd 7e6e 1abe a5f3 8b3d 1c2f 6c3b
00000080: 84e2 253e cc8e 33bc c211 71be 82bf b3bd
00000090: 79cf bbbd dbf7 14be fc84 353d eeb5 babd
000000a0: 3405 51be 2c2c b3bd 6b50 7abe a087 97bd
000000b0: 796d 22be a10d 94bd e284 59bc 865a 343d
000000c0: 957f 0dbe 8c3f d8bc 551d fdbd 4c01 64be
000000d0: de0b 223d e8e9 16be bc11 9e3d 23f3 093d
000000e0: e751 a3bd 2f7a 25be 7f53 24be c1fb b5bd
000000f0: 233b 81bc 9e51 d43b 968b 6dbe 01f6 16be
0.1183462 -0.122616895 -0.036076967 -0.10465794 -0.009788343 -0.047420125 -0.31314993 -0.16141643
0.005980121 -0.14786409 -0.14665206 -0.059832145 -0.1599214 -0.16067654 -0.17323506 -0.16192661
-0.20737149 0.030091142 -0.122517265 0.03625386 -0.19704346 -0.019824449 -0.06518428 -0.13092251
-0.11031518 0.07447801 -0.119638436 0.056536037 -0.050763737 -0.15081212 0.06833581 0.0036038822
0.1619969 -0.010959338 -0.2354193 -0.087767616 -0.09170432 -0.14547674 0.044316277 -0.091167316
-0.20412141 -0.087486595 -0.2444474 -0.07398915 -0.15862073 -0.07229162 -0.013276311 0.044031642
-0.138182 -0.026397489 -0.1235911 -0.2226612 0.0395621 -0.14737666 0.07718226 0.03367914
-0.07974606 -0.1615989 -0.16047476 -0.08885909 -0.015775269 0.006479456 -0.23197779 -0.1474228

hidden3.weight f4 [128, 64]
00000000: fdc8 8dbd 4160 eb3c 7bb9 b33d 50b6 2b3d
00000010: 1111 1abd 5e0f 08bb 9eec 553e 4836 cabc
00000020: 09cf 80bc 2feb 40bd b1ff 353d adc5 0dbe
00000030: f5c5 13bd 61d1 2fbd 773f 54bc 4518 d2bd
00000040: 2192 833e dece 31bd c64c 0dbb 9a52 af3d
00000050: 206f 8f3d 01c7 98bd 7064 173e 5ce0 65bc
00000060: fca5 b73b 1a9c fe3c 8e49 343e ec76 c83d
00000070: adc6 fc3d 2a4c 8f3d 5dc1 ff3d 6a6c d23d
00000080: 9c35 603d 754d 2abd 0723 2d3e 2f9a 9cbd
00000090: 041b 063d b0fa 36bd b3f0 e7bd 4726 29bd
000000a0: 7627 1d3e cc08 b9bd 861c fa3d 4842 0d3e
000000b0: 301d e6bd e640 043d 96f8 9c3d 31ff 02be
000000c0: 355d 1f3e 3e10 ec3d 03fa adbd 2f93 c13d
000000d0: 49e1 0b3e db8b 583c 7452 023e 53fa a5bd
000000e0: ecac 6abc 16c4 d6bd 7aca 7ebb 8d78 f3bd
000000f0: 5838 db3d c73b 21ba c297 60bd 786e 843c
00000100: 3760 e03d 9021 25be 6d78 45be 7976 163c
00000110: f9fb 2fbd 6852 463d 1419 a73d 2b1c 163e
00000120: dac4 91bd 4aad 5c3d bd7a 15be ae37 ec3d
00000130: 1fb4 973e b013 3bbc 38e1 103d 89d3 2c3e
00000140: 3dfb 8ebd 59ad 2dbe 3006 cf3c 90e6 e73d
00000150: a083 c6bc 85f5 5e3e d38f 003e 5e12 23bd
00000160: f40d 393e 319d f3bd f247 7abd 9b7a 4bbd
00000170: 67e6 5b3d 2de1 453c c0f3 133d 3272 25be
00000180: 1362 853c cb9c 8b3d 8595 e1bc 7c69 c8bc
00000190: ed5b 8b3d ebf1 e6bd 7023 043e 0cd1 6f3d
000001a0: c982 a5bd 73cd f23b d1d6 ecbc 1370 893c
000001b0: b21c b6bd 646d 9d3d 4272 bfbd 2106 9a3c
000001c0: 6ec9 77bd b8b1 483c b04e 8ebd 614b 6cbd
000001d0: 2581 983d 9749 09be 2de8 f7bd c7af 3f3e
000001e0: 2544 133e daf1 f03c ae1d 3a3d 5de8 75bd
000001f0: cb66 143e 0cc0 22bd 9a1f 91bc f02b 32bd
00000200: 5540 83be 390e 19be c895 5e3e 0c22 08be
00000210: eb36 9a3e d1f6 0cbd 05c3 ba3d a4c6 c1bb
00000220: 8e03 833d 5f7e db3c 9959 fcbc 944c 973d
00000230: 8b98 323d 9b9c babd 8aa9 0f3e ada7 9c3e
00000240: eb67 363d b10b ddbd bc9d 063a dd2c f2bd
00000250: eb9f df3d 0ab2 35be ecd7 fdbd 312b 38be
00000260: 6fab 54bd 5fba 593d 61d2 df3d 24c6 48be
00000270: d8b4 ee3d 3c06 aabd 843c a03d f32c ecbd
00000280: bebd 11bc 5552 d1bd fd53 7fbd 846a cdbd
00000290: 670f adbd f4ea 4dbe e304 173e 4f16 afbd
000002a0: bac3 313e 3874 ac3d be69 32bd edaf d43d
000002b0: c8ed 2d3d d712 11be b886 a7bb 497b bfbd
000002c0: 7e3f 313b aaa1 c73d 004e 0ebd 45fd 3ebd
000002d0: edf7 5d3e e29a a13d b55e 1f3d 7a66 b7bd
000002e0: 02f9 f53d acbf 51be 9fba f33b db0a 8bbe
000002f0: cb91 0d3d 3b35 833e 6170 8dbd 60de 9bbc
00000300: 66e1 5ebe 2222 923d 1881 933d 4415 23bc
00000310: ab06 e7bc 5ab8 90bb 9802 483e 8f6a 36bd
00000320: dd05 3ebc 2b48 26bd acd0 d63d 4b94 373d
00000330: 2d73 0bbe ec4c 973d 0088 b13c 6bc6 783d
00000340: cafa f2bc 8ed0 183c 1284 c5bd b55b 97bd
00000350: 2c28 3f3d d80c efbd 0cb8 093e ca75 98b8
00000360: 954e 47be 38ce acbd d42d 413e c09e e3bd
00000370: 5d97 8d3d 2aff 143e bca7 8f3d 44de 80bd
00000380: bff9 45be d860 a1bd 7bda 1c3e 59e0 d4bc
00000390: 72e0 d4bd c174 9abd 67bb e5bc bd53 2abe
000003a0: 1e22 8a3e 4b96 17be 0090 c43d d1b8 fbbc
000003b0: 562f cc3d ba28 72bd 64b3 98be d90c a73d
000003c0: 346c 963d 06f1 193e ec4a 0c3d ba88 e4bd
000003d0: 5aca ddbd 4174 983d 0b01 1bbe b56b f43d
000003e0: ad8d a7bd 117d ac3d 645b 15bd 6c96 98bd
000003f0: 279c ba3d a875 31bc 70bf e6bd 302b ad3c
-0.06923101 0.02873242 0.08775612 0.041921914 -0.037613932 -0.0020761113 0.20891044 -0.024684086
-0.015723722 -0.04709929 0.0444333 -0.13844939 -0.03607746 -0.04292429 -0.012954584 -0.10258535
0.25697425 -0.043410175 -0.0021560653 0.08560677 0.07003617 -0.07459832 0.14784408 -0.014030542
0.0056045037 0.031080294 0.17606184 0.097883075 0.12342582 0.06996949 0.12488053 0.102745846
0.054738626 -0.041577775 0.16907893 -0.07646596 0.032740608 -0.044672668 -0.113252066 -0.04129627
0.15347084 -0.09034881 0.12212472 0.13794816 -0.11236036 0.032288454 0.076646015 -0.1279266
0.155629 0.115265355 -0.084949516 0.09451901 0.13660158 0.013216938 0.12726766 -0.08104386
-0.014323454 -0.10486619 -0.003887801 -0.118882276 0.10704106 -0.000615057 -0.054832228 0.016165957
0.109558515 -0.16126084 -0.1928422 0.0091835195 -0.04296491 0.048418432 0.0815908 0.14659183
-0.071176246 0.0538762 -0.14597602 0.115340576 0.2962961 -0.011418268 0.035371035 0.1687757
-0.06981514 -0.16960658 0.025271505 0.11323273 -0.024232686 0.21773346 0.12554865 -0.03981244
0.18071729 -0.11895216 -0.06110377 -0.049677473 0.053686526 0.012077612 0.03612113 -0.16156843
0.016282117 0.06817015 -0.027537117 -0.024464361 0.06804643 -0.11276611 0.12904143 0.058548972
-0.08081586 0.0074097454 -0.028911026 0.016777074 -0.08892192 0.0768688 -0.09347965 0.01880175
-0.060494833 0.012249403 -0.06948602 -0.057689074 0.07446507 -0.13406979 -0.12104831 0.18719397
0.14381464 0.029412199 0.04543846 -0.060036052 0.14492337 -0.03973393 -0.017715264 -0.043498933
-0.2563502 -0.14946832 0.21736825 -0.13294238 0.30120024 -0.03441507 0.09119228 -0.0059135724
0.063971624 0.026793657 -0.030804442 0.07387653 0.043602508 -0.091119014 0.14029518 0.30596676
0.044532698 -0.107932456 0.00051351986 -0.11824963 0.10919174 -0.17743698 -0.123946995 -0.17985226
-0.051921304 0.053156253 0.109287985 -0.19606835 0.11655587 -0.0830197 0.078240424 -0.11532011
-0.008895336 -0.10220782 -0.062335957 -0.10030082 -0.084502034 -0.20109159 0.14747958 -0.08549177
0.1735982 0.084206045 -0.043557875 0.10385118 0.042463094 -0.14167343 -0.0051124953 -0.09349687
0.00270459 0.09747632 -0.034742355 -0.046628255 0.21676607 0.0789087 0.03890868 -0.08955093
0.12010385 -0.20483273 0.0074380185 -0.2715672 0.034562867 0.2562655 -0.069062 -0.019026935
-0.2176567 0.071354166 0.07202357 -0.009953801 -0.028201422 -0.0044165077 0.1953224 -0.044535216
-0.011598078 -0.04059617 0.1048902 0.044819158 -0.13618155 0.073877186 0.021671295 0.0607361
-0.029660601 0.009327067 -0.09644331 -0.073905386 0.04666917 -0.116723716 0.13449115 -7.269865e-05
-0.1946357 -0.084377706 0.18865138 -0.111142635 0.06913636 0.14550462 0.07014415 -0.06292394
-0.19333552 -0.078797996 0.15317719 -0.025985884 -0.10394372 -0.075418 -0.028043462 -0.16633506
0.26979154 -0.14803426 0.09597778 -0.030727776 0.09969966 -0.05912087 -0.29824364 0.08156747
0.07344857 0.1503335 0.03425114 -0.11158891 -0.10829611 0.07444049 -0.15137117 0.11934606
-0.081813194 0.08422292 -0.03646411 -0.07450566 0.09111815 -0.010831274 -0.112669826 0.021138757

hidden3.bias f4 [128]
00000000: 291e e83c e517 47be 75e8 bbbd d861 02be
00000010: 8711 2fbc 28fc 273d ae0e 06be 0fa8 9e3c
00000020: 43d6 b9bd 45d0 9dbb 6eb5 8abd 8bb5 02be
00000030: 49d7 b5bd 1ee5 c0bd 0f85 d6bd 1812 253d
00000040: b4e4 843d a015 7d3d 9c18 333d 4017 973d
00000050: 8247 833d a778 21be 5c60 cdbd cf4f 00bd
00000060: 3665 d4bd dbfa 03be cd58 a73d 5bf7 19be
00000070: a59b 76bd db2c 5b3c c7e8 bc3c 86cb eabd
00000080: 77f5 babd 7f26 1cbe 29f8 733b fe3a 493c
00000090: dad5 8c3d 891f 7cbe be87 0abe 0f38 a53d
000000a0: 7c46 0fbe 12b8 70bd e8e2 a13d 552d 6a3d
000000b0: 52a7 afbd 764a 72be 4948 17be a443 1abe
000000c0: 7e29 d4bd ca47 03be fb1d 8e3d ad0d 5dbe
000000d0: c09a a9bd f392 86bc c6b9 3bbe 1a30 a73d
000000e0: 0404 aa3b 337e ccbc a35f 0ebe 686d 643d
000000f0: 12ef f9bd f039 adbd af57 a33c f9fa 50be
00000100: c65c 41bd a64d 32be 8bd5 09be 2366 a4bd
00000110: d825 8dbd 68de 4cbd ceff 713d d41b bdbd
00000120: 57c7 ddbd 7354 06bc 2962 d33d 003c e9bd
00000130: 5a53 553d ba14 d93d 00e9 163b de63 ccbd
00000140: 0f32 e2bd 1b4f e4bd 2aa4 f5bd 9081 f23a
00000150: e66e d0bd f029 9d3d 3c9e c8bd b111 2bbe
00000160: 47a6 0fbd ab2d f1bd bbb8 b03d 13cc 28bc
00000170: bd6b afbd cdbc 9e3c a999 21be b9f6 06bd
00000180: 9a94 dabd c639 b7bd 7a03 ee3c 4579 c6bd
00000190: 2fd2 9dbc 9c87 69bd 1f7e f73a 37ee dc3d
000001a0: 1296 13be 3337 03be 4320 bd3d da9b d9bd
000001b0: 0a31 ebbd fb13 4dbd 6aa5 06be ddc7 e23c
000001c0: 155a 6c3c 1fdb 313d b79c 73bd dfc4 34be
000001d0: ec83 c3bd e76e 19be 2e68 7dbd e76a 843d
000001e0: c251 22be 496b 5cbd 1100 693a afca 8ebd
000001f0: fc1a 25be 08d6 91bd a4f1 80bd 4120 ab3d
0.028334694 -0.19442709 -0.09175197 -0.12732637 -0.010685331 0.04101196 -0.13091537 0.019367246
-0.0907407 -0.0048160874 -0.06772886 -0.12764566 -0.08878953 -0.09418701 -0.10474598 0.04030046
0.06488934 0.0617882 0.04372464 0.073774815 0.064101234 -0.15768681 -0.10028145 -0.03132611
-0.10370867 -0.12888663 0.08171234 -0.15035765 -0.060207028 0.013377394 0.023060216 -0.114646
-0.0912885 -0.1524906 0.0037226772 0.012282131 0.068767264 -0.24621405 -0.13528344 0.08067333
-0.13991731 -0.058769293 0.07904607 0.05717214 -0.08576836 -0.23661217 -0.14773668 -0.15064865
-0.103594765 -0.12820354 0.06939312 -0.21587248 -0.08281469 -0.016427493 -0.18332586 0.081634715
0.005188467 -0.02496252 -0.1390367 0.0557684 -0.12203802 -0.08458316 0.019939272 -0.20408238
-0.047207616 -0.17412433 -0.13460366 -0.080272935 -0.06891984 -0.05001679 0.059081845 -0.092338234
-0.10829037 -0.008198845 0.10321457 -0.11388397 0.052081443 0.105996564 0.0023027062 -0.09979986
-0.11044704 -0.11147901 -0.119942024 0.0018501747 -0.10177402 0.076740146 -0.09795806 -0.16705967
-0.035070684 -0.117762886 0.086289845 -0.010302561 -0.08565471 0.019377137 -0.15781273 -0.032950137
-0.10672875 -0.08946566 0.029054392 -0.09691099 -0.019265262 -0.057014093 0.0018882192 0.107876234
-0.14412716 -0.12814026 0.09234669 -0.106254295 -0.11483963 -0.050067883 -0.13149038 0.027683193
0.014425774 0.04342186 -0.059475627 -0.17653225 -0.095466465 -0.14983712 -0.06186693 0.064657025
-0.158515 -0.053813253 0.00088882545 -0.069722526 -0.16123575 -0.07120901 -0.06296089 0.08355761

output.weight f4 [2, 128]
00000000: 7b6f 3bbd 00f6 3c3e 59f0 7fbd 4802 f4bd
00000010: 2c9d dbbb 002c 0bbd 2047 abbd dca9 82bd
00000020: c34e 73bc bf6a 5bbb bca2 8f3e 1566 9bbd
00000030: dbfb f7bc 9047 34bc 67e5 4cbb 3149 51bd
00000040: ae18 10bd 79d1 ca3c fb31 5ebc 22f4 66bd
00000050: e54b 1d3d 547f febd cb62 0d3e f1cb 16bc
00000060: 751d 513d a0bf 9d3b 7ed6 e5bc 4cd0 1a3c
00000070: 77da c1bc db37 fabb b714 8d3b 58e7 00be
00000080: ff5a 103d 2e04 11bc 9649 df3d e84f f0bc
00000090: ebe8 913d 05ab 043e eb7a 91bc 0767 acbd
000000a0: 91d8 a3bc fa7b ad3c 85e5 403d 9e98 96bc
000000b0: 2674 5abe 7ec8 af3d d1f7 88bd 0d71 fe3c
000000c0: ae06 a5bd 05b3 b23b 8092 38bd 8aee 1dbd
000000d0: fa0d fd3c 6f0b 913c c8f0 973d da6f 91bd
000000e0: 7857 6c3b 40d4 eb3b 3063 e23c e536 dabc
000000f0: 4cf4 51bd 3725 9e3d e7be 0a3d a198 053d
00000100: 387a 1739 df1f 34be 4492 8abd 4582 c2bc
00000110: c194 803d 6788 33be 208b 863d 970f b03d
00000120: 00b6 c53c d48a 003c d564 853d 5a98 263d
00000130: 7e96 ac3d eec5 693c 8210 ad3c e321 9b3d
00000140: cf22 7a3e cdef e23c c0d8 36be de8d 403c
00000150: 4902 aabd ae21 b2bd e497 bf3c 6acd 283d
00000160: e9a7 143d f907 543d 2195 a73d 60d8 0abc
00000170: 432d f63c 3a98 bdbc 43d3 a5bc 52f1 693d
00000180: 0834 e5bc 2880 913d c198 843a 46a3 c03c
00000190: 38de 20bc b03c 30bc a3d5 c5bb f6d2 a8bd
000001a0: ce1a cabc 2de8 d93c ef84 16bd 586f 143d
000001b0: e026 783d ebfe 4d3d 120b 92bd 5f1d 5abb
000001c0: 106c 4537 a18b 42bd 9020 b03d 4b6e 4f3e
000001d0: 983a 6fbc 4402 88bd 19fc 6abb 20de a8bc
000001e0: eacd ca3c 8c71 473c a443 40bd 47d5 91bd
000001f0: a168 bc3c 5a71 bdbb c76a b7bc 0685 4a3a
00000200: b115 053d b9a0 a1bd c964 01be 4070 ad3d
00000210: 86c9 4c3b c096 89bc c4fe f7bc cdd2 cabb
00000220: 610a c5bc 915d b6bb 6a16 f43c af8f 1fbe
00000230: 2079 edbb 44b0 4fbd 500a a13c 759e 833d
00000240: f5aa 16bd b7a3 083d 6557 4abc eb7d 9ebc
00000250: 4a38 ea3c a3ba f33d c922 4abe bbe9 7e3c
00000260: 0dad 46bd 30a5 4f3e ad70 823d be92 693e
00000270: 2817 673c c916 b2bc 9207 68ba 6f1b 3bbe
00000280: f81c 1bbe 2d9a 7abd 2a26 f63b e14d f33c
00000290: e239 a63d cec4 4d3e 1c8a 0e3a 82b4 8d3d
000002a0: 5763 e73d 861a 89bc fb54 68bd d7f7 17bd
000002b0: e2eb ce3c 3314 6cbe ad96 a83c 9e13 dd3b
000002c0: 58cf 8bbe 4396 92bb b7cb 80bd 778b 133e
000002d0: ea90 6ebb c07d a2bc 9372 f63d 47a9 1e3d
000002e0: 5f2d 4fbd ae20 633a 0e05 8fbc c7cf 443d
000002f0: 62b9 833d 1f9d 963b 7a89 9f3b 5576 ffbd
00000300: f477 103b 5d6d 29bc e301 90bd eaac d33d
00000310: a089 9fbd 589f 0dbd 2ad1 d03b f936 893d
00000320: 63a3 fc3b 526a 473c eab9 913d e7dc 14bd
00000330: bb9d 8abd 9bba d2bd edf1 37bc ebc5 fb3c
00000340: 21cf 113d 7b8f fabc 6b31 dabd 49dc b03c
00000350: eb1f 2b3d d2b6 7e3d f232 533d c26e d3bb
00000360: 4ed9 ee3c 9bf4 0dbd 93b2 463c 2abb 3e3c
00000370: 8e5a 3e3d dde5 22bc 3a0e d83c 32df 503b
00000380: b0b2 b7bb 183f 81bd 3857 06bd 1899 ed3a
00000390: 51b2 7f3b d003 47bd c2c0 063b 6b1b 5ebc
000003a0: 2187 06bd 1d2a 4bbc 9511 c33d 4b1e 11bc
000003b0: 6996 85bd 9d9f 75bd 2af8 80ba 3e0d 55bb
000003c0: b4e2 b03c f7c2 90bb f875 68bd 58ad eaba
000003d0: 901e 99bb 4c04 13be fb4a dbbc 3cbd 273d
000003e0: 2259 d8bd 8605 65bc dd89 bd3c 71c9 03bc
000003f0: 4441 d63c 2a03 0d3b 018e 553c 3c9a 79bd
-0.045760613 0.18453217 -0.062485073 -0.119144976 -0.006702086 -0.03397751 -0.083631754 -0.06380054
-0.014850321 -0.0033480374 0.28053844 -0.0758783 -0.030271461 -0.01100339 -0.0031264664 -0.05109519
-0.035179786 0.024758087 -0.013561721 -0.056385167 0.038402457 -0.1242663 0.13807218 -0.009203897
0.051053483 0.0048141032 -0.02805638 0.009449076 -0.023663742 -0.007636053 0.004305448 -0.1258825
0.03524303 -0.008851094 0.10902707 -0.029334977 0.07124504 0.12955864 -0.017758807 -0.084180884
-0.020000728 0.02117728 0.047093887 -0.01838332 -0.2133337 0.08583163 -0.06687892 0.031059766
-0.08057915 0.0054534697 -0.04506159 -0.038557567 0.030890454 0.017705647 0.07418972 -0.07101412
0.0036062878 0.007196933 0.027635187 -0.026637504 -0.05125837 0.07721942 0.033873465 0.03261626
0.00014446012 -0.17590283 -0.06766179 -0.023743758 0.062783726 -0.17532502 0.06569505 0.085967235
0.024134636 0.007845599 0.06513373 0.040672638 0.084271416 0.0142683815 0.021126036 0.07574823
0.24427341 0.027702237 -0.17856121 0.011752574 -0.08301217 -0.0869783 0.023387857 0.041211523
0.036292944 0.051765416 0.08182741 -0.008474439 0.03005088 -0.023143876 -0.020242339 0.057114907
-0.027978912 0.07104522 0.0010116325 0.023515355 -0.009818606 -0.0107566565 -0.0060374304 -0.082433626
-0.024670985 0.026599968 -0.03674787 0.036239 0.06058395 0.050291937 -0.07131018 -0.0033281667
1.1767275e-05 -0.04749644 0.08599961 0.20256917 -0.014601372 -0.06641057 -0.0035855828 -0.02061373
0.02475639 0.012173068 -0.046939507 -0.071207576 0.02299911 -0.005781335 -0.022389783 0.00077255105
0.03249139 -0.078919835 -0.12636103 0.084686756 0.0031248047 -0.016795516 -0.030272849 -0.00618968
-0.0240528 -0.005565353 0.029795844 -0.15582155 -0.0072471052 -0.05070521 0.019658238 0.06426708
-0.03678413 0.033359256 -0.012349938 -0.019347152 0.028591294 0.119008325 -0.19739832 0.015558655
-0.048504878 0.20277858 0.063691474 0.22809884 0.014104642 -0.02173938 -0.0008851226 -0.18272184
-0.1514777 -0.06118219 0.0075118737 0.029700221 0.08116509 0.20094606 0.000543745 0.06919195
0.112982444 -0.01673628 -0.05672167 -0.037101593 0.025258962 -0.2305458 0.02057966 0.0067467233
-0.27306628 -0.004473479 -0.062888555 0.1440867 -0.0036402293 -0.019835353 0.12033572 0.038735654
-0.05058038 0.00086642324 -0.017458465 0.048049714 0.06431843 0.004596367 0.0048686834 -0.12473742
0.0022044154 -0.010341016 -0.0703161 0.10335715 -0.07789922 -0.03457579 0.0063725905 0.06699938
0.007709907 0.012171345 0.071155384 -0.03634348 -0.06768366 -0.102894984 -0.011227113 0.030734023
0.035597924 -0.030585995 -0.10653957 0.021589415 0.041778486 0.06218607 0.051562257 -0.0064524123
0.029156353 -0.034657102 0.012127536 0.011641303 0.04647308 -0.009942499 0.026373971 0.0031871316
-0.005606018 -0.06310862 -0.032798022 0.001812729 0.0039016197 -0.04858762 0.002056167 -0.013556342
-0.032843713 -0.012400177 0.09524838 -0.00885732 -0.06522829 -0.059966672 -0.0009839584 -0.0032509114
0.021592475 -0.004417773 -0.05675313 -0.0017904444 -0.004672833 -0.14357108 -0.026769152 0.040951952
-0.10563876 -0.013978368 0.023137027 -0.008043633 0.026154168 0.0021516779 0.013034345 -0.060938105

output.bias f4 [2]
00000000: f671 043d 6899 80bd
0.032335244 -0.0627926
