models/MagneticPendulum/p1.0_measure_['x1dot', 'x2dot']_N[6, 6]_sep/q_model_state_dict.pth (torch, 183442 bytes, 10 tensors)

hidden1.weight f4 [32, 12]
000000 7e 38 6c bd 24 8b 8a be 74 64 46 bf c7 87 0b 40
       -0.057671063 -0.2705928 -0.7749703 2.1801622
000010 d9 11 86 be 32 1c ca 3f 7c d3 11 bd 0a f5 e3 3d
       -0.26185492 1.5789855 -0.035602078 0.11130722
000020 99 89 d4 bf 63 ab 78 bf 4d 27 d1 bc a2 dc 03 bf
       -1.6604491 -0.97136515 -0.025531435 -0.51508534
000030 c9 eb b4 3e 84 2f 04 bf 96 90 08 3e 09 e7 c1 be
       0.3533614 -0.51635003 0.13336405 -0.37871578
000040 72 2b aa be 9f a9 13 bf 21 4b f9 3e 40 0f 08 3e
       -0.3323627 -0.57680696 0.4869013 0.13287067
000050 b2 56 bc bf 31 f7 06 bf 82 00 b7 be dd 2e 2e be
       -1.4713957 -0.52720934 -0.35742575 -0.17010064
000060 db f5 8a bd f0 38 1a 3e 0d 96 e3 3f 4d 75 e6 3f
       -0.067851745 0.15060782 1.7780167 1.8004547
000070 c2 19 42 3e c3 15 be 3f 94 75 51 3e 0c d2 83 3e
       0.18955138 1.4850391 0.20455009 0.2574619
000080 8b f6 e5 3e b5 20 11 bf b2 69 d9 be 9f 91 3a be
       0.4491466 -0.5669053 -0.42463452 -0.18219613
000090 75 70 af 3e 79 3c a9 bd 7f ed af 3f 22 35 43 3e
       0.34265485 -0.08263487 1.3744353 0.19063237
0000a0 f6 8b cc bd de 68 d1 3e 7a 3d 41 3e 5c ad db bd
       -0.09987633 0.4090032 0.18871108 -0.10726425
0000b0 b1 2b 79 be 49 64 27 40 79 42 b8 be 93 df dc 3f
       -0.24333073 2.615496 -0.35988215 1.725573
0000c0 6a 22 bb be ee fc 11 3e 58 88 b6 bf 5a 24 0a bf
       -0.36549693 0.14256641 -1.4260359 -0.5396172
0000d0 74 39 cc be ee 9d 1f bf 38 2b d9 3e 3e c7 f0 3e
       -0.39887583 -0.62350357 0.42415786 0.4702701
0000e0 68 f5 04 bf b6 06 04 3e 9f 33 05 3e 4d 0f f2 bd
       -0.5193696 0.12893185 0.13007973 -0.11819325
0000f0 c6 78 36 be a1 66 f5 3e e6 a5 96 3f 58 14 82 be
       -0.17819509 0.47929862 1.1769378 -0.25406146
000100 f1 72 71 be fe 2f 58 be c4 50 b9 bd 69 ec 93 3e
       -0.23579003 -0.21112058 -0.09048608 0.28891304
000110 99 bc 9e bf 64 66 97 bf dc 87 90 be 87 14 70 be
       -1.2401305 -1.1828122 -0.28228652 -0.2344533
000120 61 25 6c 3f 98 0c a9 bd 5d ea d7 3e 7d 9c 1e bf
       0.92244536 -0.08254355 0.42170992 -0.6195753
000130 6a e2 60 3e d0 d9 ab be 6f fd 17 bf 97 28 f3 3d
       0.2196137 -0.33564615 -0.59371084 0.11872976
000140 f7 54 9f 3d 1b c7 eb bd 46 9a 37 3d 6c 41 2d be
       0.07779878 -0.11512586 0.04482486 -0.16919488
000150 98 20 82 3e 46 ea 12 be ed ee 94 bf 39 5e 2b bd
       0.25415492 -0.1434718 -1.1635414 -0.041837905
000160 4c be d1 bd 43 c9 a7 3d 39 f1 78 3e d9 fa f4 be
       -0.102413744 0.081926845 0.24310769 -0.47847632
000170 59 3b 2e 3f 08 64 af bd c5 88 32 3e 38 0e 2a be
       0.6805931 -0.08564001 0.17434986 -0.16606987
000180 04 95 f2 3e e0 2f 09 3e 2a 4f b3 bf b5 d9 85 3f
       0.47379315 0.13397169 -1.4008534 1.0457064
000190 fe 43 35 3e 73 0a 1c 3f 9e f4 f3 3e 86 6b 13 3e
       0.17701718 0.60953444 0.47647566 0.14396486
0001a0 0d 81 a9 be ab c6 d6 be 85 fa 10 be e5 29 3d be
       -0.3310627 -0.41948447 -0.14158066 -0.18473013
0001b0 dd 46 3b 3e 9c 20 f0 bc e3 3c 5d 3f 03 7c a8 3e
       0.18288751 -0.029312424 0.8642103 0.32907113
0001c0 f7 3e 35 3e 19 76 2a 3e ca 5c 8e be 00 8e 44 3f
       0.176998 0.16646613 -0.27805167 0.76779175
0001d0 e1 29 17 3f d5 d0 0e 3f 30 d8 e6 3d 2c 26 c6 3d
       0.5904828 0.557874 0.11271703 0.096752495
0001e0 ff 7f 6f be 98 48 27 bb c2 58 53 3e 65 57 58 3e
       -0.2338867 -0.0025525447 0.20639327 0.21127088
0001f0 49 f4 85 3e c4 33 82 3c 4d cf a1 be 51 9f 54 bd
       0.26162937 0.015893824 -0.3160347 -0.05190975
000200 a8 c6 e6 3e cc 0f c4 3f c7 b2 6f 3d 7f ba 9e 3f
       0.45073438 1.5317321 0.058520105 1.2400664
000210 3e 1a a5 3e 3c a9 d5 3e b4 ff 7d 3e dd e3 98 3f
       0.32246584 0.41730678 0.24804574 1.1944538
000220 40 a7 c3 bd 43 29 56 3f bf 07 c3 be e4 11 86 be
       -0.09553385 0.8365671 -0.38091847 -0.26185524
000230 3a 51 00 bf 74 91 23 bf e2 92 b5 bd bb 2b cb be
       -0.5012394 -0.6389382 -0.08865906 -0.396818
000240 c3 11 25 3e 0b 52 a3 3d 7e c2 89 bf e2 2b 61 3f
       0.16120057 0.07974633 -1.0762479 0.87957585
000250 a4 07 e2 be 99 e8 a7 3d 8f 37 40 be d7 ac a5 3e
       -0.44146454 0.08198661 -0.18771194 0.3235843
000260 8f 27 e8 bb 08 b9 82 3d e0 fe a5 3d a1 05 81 3e
       -0.007084794 0.06382948 0.08105254 0.25199607
000270 e5 13 28 bd 03 52 2a bd db 08 ad 3f 23 d1 94 3f
       -0.041034598 -0.04158212 1.3518327 1.1626323
000280 de f8 7b be 4e b5 1f 3f e2 bb 50 3c 3b e2 c0 3c
       -0.24606654 0.62386024 0.012740107 0.023545375
000290 35 9e 66 c0 30 01 8e 3f 7c 81 95 be 49 6e 4d 3e
       -3.6034062 1.1094112 -0.2920035 0.20061602
0002a0 c1 c8 99 be 85 d4 ce bd 21 ad f7 be a4 03 4d 3e
       -0.30035976 -0.10099129 -0.48374274 0.2002092
0002b0 c7 34 d6 bd 50 66 af 3e 36 3f 94 3e 54 26 cb 3e
       -0.10459285 0.34257746 0.28954476 0.3967768
0002c0 ee 44 3e 3f 8d e5 8d 3f f7 00 e2 3e 31 3b 2f 3f
       0.7432393 1.1085678 0.4414136 0.68449694
0002d0 84 b1 48 be bc 1b d5 bc 4a 8a 53 bf e1 9c a9 be
       -0.19598967 -0.026014201 -0.8263289 -0.33127502
0002e0 fc 69 17 3d 94 a5 d2 be a9 09 4e be d0 1b 16 bc
       0.03696631 -0.4114195 -0.20120873 -0.009161904
0002f0 3a e2 12 bf 6b b9 1d c0 64 08 be be b6 04 f7 bf
       -0.57376444 -2.464442 -0.37115777 -1.9298313
000300 20 9d 53 be cc 5a a7 3e 44 5c 96 3c 71 ab d3 be
       -0.20665407 0.3268646 0.018354543 -0.41341737
000310 be f2 83 3e 77 7f 8b be 1d a9 2b 3f 48 0f 37 bf
       0.25771135 -0.27245685 0.6705492 -0.7150769
000320 1a f1 65 bd 30 8d 32 bf a6 47 12 3e dd 70 26 be
       -0.056138135 -0.69746685 0.14285144 -0.16253991
000330 f0 c3 ba 3d 1e 69 37 bc 05 70 5a bf a8 61 4e 3f
       0.09119403 -0.0111944955 -0.8532718 0.8061776
000340 ad c5 05 bf 77 e0 93 3e 65 fa ef bb d5 92 d7 3d
       -0.52254754 0.2888219 -0.0073235505 0.10526053
000350 29 dd d5 bf 85 ec b3 3f 10 d4 6e 3e 65 f0 81 3f
       -1.6708118 1.4056555 0.23323083 1.0151488
000360 ab 5f 45 3e e7 27 65 be c0 6e 46 be fd 86 1c 40
       0.19274776 -0.22378503 -0.19378185 2.445739
000370 72 fe bf 3d 3d d2 be 3f 4e 48 09 be fe ff f0 bd
       0.093747035 1.490791 -0.13406488 -0.11767577
000380 11 68 1c 40 14 36 84 3f ff 24 06 3f b0 86 74 3f
       2.4438517 1.0329003 0.524002 0.95518017
000390 20 d2 f8 3e 28 09 44 3f 50 28 d0 3e 72 99 0e bf
       0.48597813 0.7657647 0.40655756 -0.5570289
0003a0 c0 60 c2 3d b4 3a b2 be 2b 15 c6 3e d0 d9 9b 3d
       0.0949111 -0.34810412 0.38688025 0.07609904
0003b0 2a 66 2b be 8f c8 1f 3e f0 5c c4 be cf 23 17 3e
       -0.16738191 0.15603851 -0.38352156 0.14759754
0003c0 34 04 25 bf db d0 8b be 25 e1 4b 3f f5 bc 11 3e
       -0.6445954 -0.27307782 0.7964042 0.14232238
0003d0 5f 53 33 be a9 95 59 3e 52 1f 2c bf 47 15 7a be
       -0.17512272 0.21248497 -0.6723529 -0.24422179
0003e0 7a a4 5f be 3e 7f 04 3f 39 fe a4 3e 22 ce 52 3e
       -0.21840087 0.51756656 0.32225206 0.20586446
0003f0 b1 df b1 be 0e 35 05 3f 97 37 5a bd 28 00 83 3d
       -0.34740975 0.5203408 -0.05327567 0.06396514

hidden1.bias f4 [32]
000000 25 bc 49 3c 8f b6 35 3e 4d f5 d1 3d 16 c4 0d 3d
       0.012312924 0.17745422 0.102518655 0.03461083
000010 04 a4 0b be 33 af c0 bd 15 db b9 3c 8a c8 25 3e
       -0.13636786 -0.094084166 0.022687474 0.16189781
000020 7f 80 b9 3d 5f 67 99 be 9e d6 92 3d 90 a8 00 3e
       0.09057712 -0.29961678 0.07169841 0.12564301
000030 aa 24 7c 3d 5d 25 77 3d a4 41 47 3e 62 40 01 3e
       0.061558403 0.060338367 0.19458634 0.12622216
000040 5f 31 c0 bd d5 a9 95 3d 15 ec 8c 3d 22 55 32 be
       -0.09384417 0.073077835 0.068809666 -0.17415288
000050 ef 0c c2 bd cf ba 2c be f0 21 61 be 6f 7e 87 ba
       -0.09475123 -0.16868137 -0.21985602 -0.0010337363
000060 61 c7 28 3e ba ac bb bd ee 08 34 be c4 64 7d 3d
       0.16482307 -0.09163804 -0.17581531 0.061863676
000070 bc c9 ab 3d 4d d3 a0 bd 92 02 1d 3e d0 0e c1 3d
       0.08388087 -0.078528024 0.15333012 0.094266534

hidden2.weight f4 [64, 32]
000000 53 1f 2e 3e eb a1 f5 3e f7 0d c6 3d 41 d2 7e be
       0.17004137 0.47975096 0.09670632 -0.24884893
000010 9d 2a 48 bf 26 72 14 3e 14 6e c1 3d b7 6e f0 3e
       -0.7819002 0.14496669 0.09444824 0.4695947
000020 5a fd bb 3d 09 c6 0b 3f a8 c6 12 bf 12 5f ca be
       0.09179182 0.5459905 -0.57334375 -0.39525658
000030 11 66 c3 bd 3a 2a 88 be b1 68 27 bc 59 b3 68 bd
       -0.09540952 -0.26594716 -0.0102178315 -0.056811664
000040 3d 2c 52 be 59 17 da bd 6c 93 8e 3e af 14 03 bf
       -0.20524688 -0.106489845 0.2784685 -0.51203436
000050 76 60 0b bf 6f d4 3f be 22 77 ce 3d af f4 e3 3d
       -0.5444406 -0.1873338 0.100813165 0.11130654
000060 57 86 c5 be b8 de 5c 3e e7 7d a1 be e5 dc e9 3e
       -0.38579056 0.21569335 -0.31541368 0.45676342
000070 87 d1 d7 be d3 b9 ee 3c 1d d8 ff be 2c c4 01 bd
       -0.42152044 0.029141342 -0.4996957 -0.031681225
000080 73 ee 47 bf f4 34 71 ba 27 26 2c bf ee a9 15 bf
       -0.7809822 -0.0009201311 -0.67245716 -0.5846242
000090 69 2b 42 be 4a 9e 3f be de 3f 9c bd 3f 29 eb 3e
       -0.18961872 -0.18712726 -0.07629369 0.45929906
0000a0 e0 c6 aa bd eb d7 f2 3c fd ee 90 3d 71 16 bb be
       -0.08338714 0.029643973 0.070768334 -0.3654056
0000b0 41 8c 9d 3e df a3 b6 bf c5 e8 e6 3e 87 af f2 3e
       0.30771068 -1.426876 0.45099464 0.47399542
0000c0 48 82 f7 bd f9 ef d5 3d cc 43 c9 be f3 ca e1 be
       -0.12085396 0.10446162 -0.39309537 -0.4410015
0000d0 e2 f5 2c be 85 f7 3a bf 0b a2 1a be 62 2c 61 3e
       -0.16890672 -0.73033935 -0.15100877 0.21989587
0000e0 23 80 c4 3d 59 f8 3a 3e 0d 77 b5 be 77 48 b2 3e
       0.09594753 0.182588 -0.3544239 0.3482091
0000f0 db 59 0d bf a0 6f ca bd 76 a2 16 3e 58 eb 89 bf
       -0.55215234 -0.09884572 0.14710411 -1.0774946
000100 f5 75 da be b2 f2 d0 be 03 24 54 bf c6 98 a0 be
       -0.4266812 -0.40810162 -0.8286745 -0.31366557
000110 26 35 24 3e f1 e6 8c bf 62 42 45 be 3d c5 3a 3e
       0.160359 -1.1007978 -0.19263604 0.18239303
000120 ad bb ac 3e 70 f8 7d bf 31 8c 8c 3e 69 99 09 3e
       0.33736935 -0.9920721 0.27450708 0.13437428
000130 6f 63 eb 3e 37 99 81 bf 33 38 1b 3e cb cc b0 3e
       0.459743 -1.0124882 0.15158157 0.34531245
000140 1f 5f c5 3e 25 a7 d9 be eb 13 7f be 7d 1c ea 3e
       0.38549134 -0.42510334 -0.24909942 0.4572486
000150 b0 2a b8 3d 86 fa 27 3d 46 f0 40 be 4f a3 1a be
       0.08992517 0.041010402 -0.18841657 -0.1510136
000160 d5 e4 3e bd c5 7a b5 bf 19 c7 27 3e 9e a2 c9 3e
       -0.04660495 -1.4178091 0.16384543 0.3938188
000170 b2 44 31 3d 5a 6c d5 be 5e fb b3 3d 46 64 45 bd
       0.043278404 -0.41684228 0.08788179 -0.04819133
000180 0f 48 a3 bf 71 0d fa 3d bc 00 8b 3e 3c 36 97 be
       -1.2756366 0.12209595 0.27148998 -0.29533565
000190 73 50 06 bf d1 6f 81 be cc 57 0e 3c ed 13 aa 3c
       -0.52466506 -0.25280622 0.008687925 0.020761454
0001a0 43 a1 40 bf a6 14 2f bf 0c a7 a0 3e bd c0 04 bd
       -0.75246066 -0.6839088 0.31377447 -0.032410372
0001b0 3f 52 bd 3c 21 c1 c1 bf 7b 60 bb 3e 81 12 90 3c
       0.023110507 -1.5137063 0.36597046 0.017586948
0001c0 c6 a5 78 be 77 7f 3f bf 60 f3 07 3d 48 67 8d bd
       -0.24281988 -0.7480387 0.033191085 -0.06904465
0001d0 52 13 14 3e e4 63 12 bf 61 51 7d be be 17 2f ba
       0.14460495 -0.5718367 -0.24738075 -0.0006679258
0001e0 84 f0 b3 be 38 30 7c be 2e 29 79 3e fa 43 34 3e
       -0.35144436 -0.24627769 0.24332115 0.17604056
0001f0 99 df 4c 3e 77 0e 7b bd af 1a 4a 3e f6 44 f8 3d
       0.2000717 -0.06129309 0.19736741 0.12122528
000200 ad d7 18 bd dd c6 d8 3d a8 91 0f 3e da 72 0d 3f
       -0.03731506 0.10584805 0.14020407 0.55253375
000210 e8 b1 57 3d 7d d6 23 bf 20 de 86 3d 59 92 9e bc
       0.0526599 -0.6399916 0.06585336 -0.019356893
000220 89 33 11 3f 5e 33 b1 3d 35 b8 fb bd 46 5c 45 3f
       0.5671926 0.08652376 -0.12290994 0.77093923
000230 b0 6d c3 3d 77 1d a3 bc 6b ac 70 bc 61 cc 19 3e
       0.095424056 -0.01991151 -0.014689545 0.1501937
000240 0a 99 dd 3d f0 61 bb bd 6e 9b c3 be 81 e6 0e 3e
       0.108202055 -0.091495395 -0.3820452 0.13955118
000250 eb 25 0d 3e 28 23 83 3d d9 03 eb be b8 81 cd 3d
       0.13783996 0.0640319 -0.45901373 0.100345075
000260 4f aa 99 be b8 51 5c bf d4 6d 3d 3e b7 20 ac 3e
       -0.30012748 -0.8606219 0.18498927 0.3361871
000270 26 b0 3f bf 57 e3 1d bf de ae eb be 2e bd c2 3e
       -0.74878156 -0.6167502 -0.4603185 0.38034958
000280 af 0e 0f be 62 05 fc 3d 0d 1d fc bd b4 e0 0d bd
       -0.13970445 0.12305714 -0.123102285 -0.03463812
000290 a9 f8 87 bd cf c5 da bc 8d a5 33 bf de 35 4f 3d
       -0.06639225 -0.02670565 -0.70174485 0.05058848
0002a0 81 5d 67 3e 62 c7 79 3e f8 25 6e bd 3b e8 ab be
       0.22594263 0.24392465 -0.05814168 -0.33575615
0002b0 a5 5a 95 be dd ac 77 3e a6 0e 73 3e 1e 0d 11 be
       -0.2917072 0.24187036 0.23736057 -0.1416516
0002c0 43 c9 26 3e 73 05 17 3e e0 90 87 3c c1 70 35 bd
       0.16287713 0.14748172 0.016548574 -0.044296984
0002d0 b4 e8 83 3d bb f4 66 bd 26 b4 b1 be 36 0d 8b 3f
       0.06440869 -0.056385737 -0.34707755 1.0863407
0002e0 89 6d 70 3d f9 23 c7 3e e6 6d 85 be 6b 70 48 be
       0.05869821 0.38894632 -0.26060408 -0.19574134
0002f0 18 76 ba be ca 3b e0 be bf 2b 08 be 7f 14 9f bc
       -0.36418223 -0.43795615 -0.13297938 -0.019418953
000300 79 d3 bb bc a0 53 00 bf ff ab fc 3e 35 77 7c 3e
       -0.022927986 -0.501276 0.49349973 0.24654849
000310 1e a6 38 3e 08 74 fd 3e 63 27 2e bd f6 23 a0 3e
       0.18032119 0.49502587 -0.04251803 0.31277436
000320 c6 5d 21 3f 04 4c 02 3f b9 38 17 3e 65 0b 19 3f
       0.6303371 0.5089724 0.14767732 0.5978301
000330 f0 4e 1f 3f 2e f7 1b 3e ac 0d 3a 3d 94 67 11 3d
       0.62229824 0.1523101 0.045423195 0.03549917
000340 3a ee ba 3e a2 25 1a 3e 9b 28 4c bd ef 4b d9 3e
       0.36509877 0.15053418 -0.049843412 0.42440745
000350 32 21 c4 3e 96 e3 2b 3f 42 a6 f4 be b9 ce 86 3e
       0.38306576 0.67144144 -0.47783095 0.26329592
000360 1d fb 11 bd 1d 07 71 3e a5 5d 32 be ed 12 3f bd
       -0.03563987 0.2353787 -0.17418535 -0.04664891
000370 c6 22 d5 3d 30 ea 2e 3e 46 eb 70 bf 1a 6a 32 be
       0.10407023 0.17081523 -0.94109 -0.17423287
000380 5d a8 9e be 67 84 c1 bd 7d 09 87 3d 1e 71 2e bc
       -0.30987826 -0.09449082 0.065936066 -0.010647086
000390 44 18 98 3e bf bf 1e 3f d1 ed b1 be 6a b9 33 3f
       0.29706013 0.6201133 -0.34751752 0.70204794
0003a0 70 15 6a bd b6 30 7c be d5 14 d6 bc 49 4c 90 3c
       -0.05714935 -0.24627957 -0.02613298 0.0176145
0003b0 15 1e c8 be 8b 8b 68 3c bd 8c b0 bc 3b 0b 0a bf
       -0.3908545 0.014193426 -0.021551484 -0.53923386
0003c0 9b 2a a0 be 90 61 05 3f 17 ff 02 3f 57 82 96 bd
       -0.31282505 0.52101994 0.51170486 -0.07349079
0003d0 78 62 28 3e 66 15 ee 3d 72 fc 24 bf ac 15 6d be
       0.16443813 0.11625175 -0.644477 -0.23152798
0003e0 18 91 20 3f 52 51 4e 3f 33 c6 5b be 57 a5 4f be
       0.62721395 0.80592835 -0.21462326 -0.20277916
0003f0 1f 91 59 bf 26 36 cf bd f9 91 58 3e f5 a6 7f be
       -0.8498706 -0.1011775 0.21149434 -0.24966033

hidden2.bias f4 [64]
000000 85 0d 0a 3e c0 75 93 3e 6a c2 31 3e 27 bd 1b 3e
       0.1348172 0.28800774 0.1735932 0.15208875
000010 78 08 20 bd 96 74 be 3d e8 b2 5b bf e1 ea 0d be
       -0.039070576 0.09299581 -0.85819864 -0.1385913
000020 0b ce 6b 3e 1f aa c4 bd 83 a9 17 bb ae c1 31 be
       0.23027818 -0.096027605 -0.0023141808 -0.17359039
000030 0a f6 c6 be a3 6d 4b bf c6 2e 68 bf e5 48 89 be
       -0.38859588 -0.7946417 -0.9069637 -0.26813427
000040 c8 a1 11 be 2e a1 48 3e fc c7 5f bf 3e e5 18 3e
       -0.14221871 0.19592735 -0.87414527 0.14931199
000050 73 cf 82 be ef cb ab bc 89 e1 5a 3d a5 24 3b be
       -0.25548896 -0.020971267 0.053437743 -0.18275698
000060 9a 2b 31 be 94 ec 33 3d 03 c8 4a 3d 74 22 b8 bc
       -0.17301789 0.04392679 0.049507152 -0.022477366
000070 8d 6b b5 bd b6 63 f7 3b b2 bb 39 3e e6 e7 95 3c
       -0.08858404 0.0075497283 0.18138006 0.018299054
000080 fd 18 83 3e 8c 62 3e 3e 31 c7 2d 3c 96 5b e0 bd
       0.25605002 0.1859228 0.010606573 -0.10954969
000090 25 38 8f bd 6b 3a 4a be bb 83 91 3d 0c 07 ec 3d
       -0.069931306 -0.19748847 0.07105204 0.115247816
0000a0 5f 55 46 be 56 82 8d bd 4a 8b 60 bd 31 ff f6 bd
       -0.19368504 -0.06909625 -0.054820336 -0.12060393
0000b0 e1 0f 33 be 5b 70 a0 bd 8f 0d 1e 3e 5d a7 84 3e
       -0.17486526 -0.0783393 0.1543486 0.25908938
0000c0 1c 1a a3 bd 73 28 b5 3d eb af 25 be 2b d8 51 be
       -0.07963964 0.08845606 -0.16180389 -0.20492618
0000d0 b9 86 e6 3d ec 14 92 be 38 f6 5d 3e 16 6f ab 3e
       0.11256165 -0.28531587 0.21675956 0.3348319
0000e0 f0 c6 63 bf e4 55 08 bc c7 90 41 3c 1c 1b c5 bc
       -0.8897543 -0.008321259 0.011814303 -0.024060778
0000f0 78 ce ae 3d a9 ac 06 3e 07 da 10 be 58 fd 4a be
       0.085354745 0.13151802 -0.14145671 -0.19823205

hidden3.weight f4 [128, 64]
000000 08 97 e1 bd 5c 7c f7 3c 2c c5 b4 bc 05 39 08 bc
       -0.11015135 0.030210666 -0.022066675 -0.008314376
000010 e7 e6 28 bd b6 39 8e 3e 19 68 cf 3c 45 28 89 bd
       -0.04123583 0.27778405 0.025318192 -0.06697134
000020 06 88 d4 3c 36 59 0e 3d 7c 21 54 3d 23 64 6c bd
       0.025943767 0.034753047 0.051789746 -0.057712685
000030 55 c4 3d bd 6b 36 10 bd ec 22 4d bd 05 15 db bd
       -0.046329815 -0.035208147 -0.050082132 -0.106973685
000040 ae 7b 01 3e 0c ea 9f 3d 54 fb 7d 3c ba fb 54 3c
       0.12644836 0.07808313 0.015501816 0.012999469
000050 36 95 85 bc bb 30 99 bd f3 40 01 bc d4 33 03 be
       -0.0163065 -0.07479998 -0.00788902 -0.1281274
000060 ce d9 29 be 77 f8 30 3f 15 aa d5 bc e8 3e c2 bd
       -0.16586992 0.6912913 -0.026082078 -0.09484655
000070 69 40 d0 bd 75 5a 24 3d 2f d8 48 bd 0e 7c cb 3d
       -0.10168535 0.04012533 -0.049034294 0.09935771
000080 de 39 4b bd 16 6d de 3a dc df 4f 3d e5 22 02 be
       -0.049615733 0.0016969766 0.0507506 -0.12708624
000090 f3 38 87 bd a7 1f 9f bd 09 12 c5 bb 30 12 0c 3e
       -0.06602659 -0.07769709 -0.006014113 0.13678813
0000a0 ac e8 27 3d 16 90 63 bc 49 ce 8c 3c 43 49 4e 3d
       0.040993378 -0.013889333 0.017188208 0.050362837
0000b0 cd 36 d7 bd b6 7f 0e 3d f4 5f c0 bc 5a cd 24 bd
       -0.10508499 0.034789763 -0.023483254 -0.0402349
0000c0 6f 1f 1b bd 40 37 4d 3c 26 48 f3 bd c5 ba 9b bb
       -0.037871774 0.01252538 -0.118789956 -0.0047524893
0000d0 39 fd 55 3c bd 05 84 3c 16 80 0b 3e 19 84 15 3d
       0.013060861 0.016116017 0.1362308 0.03650293
0000e0 b9 fc 1d 3d ba a7 c2 bd 30 f2 91 3d d4 f0 d4 bc
       0.038571093 -0.095046476 0.07126272 -0.025993742
0000f0 95 e7 01 3d 9c 53 5c 3b bc 5c 0d 3d 6e 75 7c 3d
       0.031714994 0.003361917 0.034512267 0.061635427
000100 71 15 5d 3d 50 c1 17 bd 1e af 05 be a0 83 90 bc
       0.053975526 -0.03704959 -0.13055083 -0.017640889
000110 49 39 19 bd d1 ae d3 bc 8c c0 ac 39 aa d8 5b bd
       -0.037408147 -0.025840195 0.00032949855 -0.053673424
000120 88 e9 9e bc 57 37 2c bd ca 7e 0e 3d 30 38 ea 3c
       -0.019398466 -0.042044964 0.034788884 0.028591245
000130 2e 21 90 bc ce b7 3c bc 88 0c 2f bd aa 31 bc 3d
       -0.017593946 -0.011518432 -0.04273656 0.0918916
000140 8b a2 fa bc 0a 0c f9 bd 51 73 a9 bb 00 a6 84 3d
       -0.030595085 -0.121604994 -0.0051712175 0.064769745
000150 a0 83 c6 bc 84 86 e4 3c ed e1 1c be 70 95 9c bc
       -0.024232686 0.027896173 -0.15320559 -0.019114226
000160 21 43 dd 3c d1 29 91 bd 02 de 38 bd da 4a 8e bc
       0.027009549 -0.07088054 -0.0451336 -0.017369676
000170 b8 cd 9a bc e2 f2 aa bd 8d 48 10 3d 03 2a 8b bd
       -0.018896922 -0.083471075 0.03522544 -0.067951225
000180 c3 b2 6d bd 6e 8a 70 3d 9d de a6 bc a0 ee 71 bd
       -0.05803181 0.058725767 -0.020369822 -0.05906546
000190 9b 53 c0 3c 69 b4 0a be 3c ab 93 3d 6e 3a 51 3d
       0.023477366 -0.13545384 0.07210395 0.051081114
0001a0 d0 52 43 3c 51 63 d0 bc ef 8a a6 bd d8 17 19 be
       0.0119215995 -0.025437983 -0.08131968 -0.14950502
0001b0 b2 1c b6 bd 94 84 22 3d f9 73 cb 3b d9 17 ae bd
       -0.08892192 0.039677218 0.0062088934 -0.08500642
0001c0 53 8b a8 bd 5f 60 b0 bd fe a9 8d bd 5a 99 9a bd
       -0.08229699 -0.08612131 -0.06917189 -0.07548781
0001d0 63 6a f0 3c 0c f9 dc bd e5 29 46 3d 2d e4 54 bb
       0.029347604 -0.107896894 0.048379797 -0.0032484636
0001e0 8d a5 21 bd dc 52 94 bd 6d 02 95 bd 0f 0b 29 be
       -0.039464522 -0.07242367 -0.07275853 -0.16508125
0001f0 aa 51 bb ba 8d 98 01 be 82 4c 1d bd f0 2b 32 bd
       -0.0014291306 -0.1265585 -0.03840304 -0.043498933
000200 df 8c cc bd 25 e8 12 be 56 51 b6 3d 38 d1 a2 3e
       -0.099878065 -0.14346369 0.08902232 0.31800246
000210 20 2f 0f 3e c0 97 55 3c 7a b8 76 3d b5 51 f0 3e
       0.1398282 0.013036668 0.060234524 0.46937338
000220 e0 25 c7 3b 06 20 22 3d a1 d5 10 be 14 59 e8 3d
       0.006077513 0.03958132 -0.14143993 0.11345115
000230 c0 ac a1 be 7c 7b ab 3c 37 7a 22 bf ac 33 18 3e
       -0.3157711 0.020932905 -0.63467735 0.14863461
000240 17 63 17 bf db 15 7f be 58 cd 71 bf f1 c5 01 3e
       -0.59135574 -0.24910681 -0.94453955 0.12673165
000250 df 42 82 3d d6 de ea bd 47 bb d2 3d 70 7d 1a 3e
       0.06360411 -0.11468284 0.102896266 0.15086913
000260 35 c3 b9 3d 7d df 1d be 1a 03 70 3e f2 29 a6 3c
       0.09070436 -0.15417285 0.23438683 0.020283673
000270 26 3c a0 3d 1f 4d 7e be 4f 18 c0 be ad 11 08 bf
       0.078239724 -0.24834107 -0.37518546 -0.5315197
000280 e6 af d6 bd b0 f8 e3 bd 2b db 12 be bf d8 3d bd
       -0.10482769 -0.11131418 -0.14341418 -0.046349283
000290 f8 8d 75 3e 32 2d b4 be 86 e6 49 3e f2 57 04 3f
       0.23979938 -0.3519073 0.19716844 0.51696694
0002a0 59 97 55 be 17 04 d6 3d 6e 3b 93 3e e7 55 23 3e
       -0.20858516 0.10449999 0.2875628 0.15950738
0002b0 29 94 1f bd b9 0e e4 bd d6 40 de be 8d c4 db be
       -0.038959656 -0.111356206 -0.4340884 -0.42923394
0002c0 ae e1 f2 be 45 72 b2 3e 20 50 59 bc 16 fd ba 3e
       -0.47437805 0.34852806 -0.013263732 0.36521214
0002d0 b4 25 46 bd 0b 8f 95 bd 12 9c 42 3e f2 a6 a8 3d
       -0.0483758 -0.07302674 0.19004849 0.08234967
0002e0 0b 2d 73 be 53 0e a8 be 29 e1 a8 be c9 5f 0e be
       -0.23747651 -0.3282343 -0.32984284 -0.13903727
0002f0 e4 34 3a 3e 70 a1 e7 3e 16 73 07 bf fb d6 0a bd
       0.18184239 0.45240355 -0.5290998 -0.033896428
000300 27 46 03 bf 99 04 54 bf 7a 5d b8 be 06 ec 14 be
       -0.5127892 -0.82819515 -0.36008817 -0.14543161
000310 72 2f e0 be 63 97 84 bd 82 dd 4b bf df 25 72 be
       -0.43786198 -0.06474187 -0.7963487 -0.23647259
000320 3c a8 37 3f 8b 91 39 be 99 45 dc 3d f8 f7 49 3d
       0.7174108 -0.18121926 0.10755462 0.049308747
000330 a4 51 fa 3b e5 50 65 bf 9b 07 01 be ad d9 83 bd
       0.007639127 -0.8957656 -0.12600558 -0.06438003
000340 b5 bb d7 be b9 2b 79 3e 85 d8 e8 be 47 a7 3d be
       -0.42135397 0.24333085 -0.4547769 -0.18520842
000350 15 48 0a 3e 1e 4a 96 3c e4 3d d6 3d 85 51 51 3c
       0.1350406 0.018345889 0.104610234 0.012775783
000360 10 b4 7d be f9 16 4d be c8 9d fa 3e 87 2d c8 bd
       -0.2477572 -0.20028295 0.48948503 -0.09774309
000370 93 49 4e 3c 61 a4 af 3e a4 4f 56 bf a9 e4 01 bd
       0.012590784 0.343051 -0.8371527 -0.031712208
000380 ad 3c af 3e 3b 88 bf be 52 98 ff 3c 4b 29 a5 bd
       0.3422598 -0.37408623 0.031200562 -0.08064517
000390 73 87 0e bd c4 1f 8c bd f6 19 31 3e 8b 3d 27 3e
       -0.034797143 -0.06841996 0.1729506 0.1633207
0003a0 90 8e 0b 3e 92 ad af 3e 26 75 fd 3d 81 1c 42 bf
       0.13628602 0.3431211 0.1237586 -0.75824744
0003b0 a4 3f f7 3d 22 a8 d9 bd 9b ee 05 bf e6 46 1a 3e
       0.12072685 -0.10627772 -0.5231721 0.15066108
0003c0 3a 20 2a be cc a9 5f 3d c8 34 ba 3c b3 d0 cc be
       -0.16613856 0.05460529 0.022730246 -0.40002975
0003d0 b0 eb 9e bd 67 1c 8a 3e 76 81 ac 3d 1f 7d 3e be
       -0.077597976 0.26974794 0.0842313 -0.18602417
0003e0 ec fb 0b 3e d7 d9 ef be ea 32 9e be e4 a4 cb be
       0.1367032 -0.46845886 -0.3089822 -0.3977424
0003f0 da 14 94 be 53 46 0b 3f a3 8a 2d bf 30 2b ad 3c
       -0.28922158 0.5440418 -0.6778967 0.021138757

hidden3.bias f4 [128]
000000 c8 e3 30 bd aa 64 34 be e8 63 f5 3d 3d 91 06 3e
       -0.04318598 -0.17616525 0.11981946 0.13141342
000010 bd 10 87 be 74 4e 86 3e 98 83 2b 3e e2 6e 0c 3e
       -0.26379958 0.2623173 0.16749418 0.13714173
000020 42 0b 93 bd 8c 7c 85 3c 05 40 22 3c b2 d1 d7 3d
       -0.07179882 0.01629474 0.009902959 0.10538043
000030 3d a6 22 3e f6 ae 20 be 80 d3 d6 bd e2 9a 82 3e
       0.15883727 -0.15691742 -0.10489559 0.2550879
000040 69 e0 50 3e c9 28 e6 3d 00 3d 39 3e 2b c7 2a 3e
       0.20398106 0.11238248 0.18089676 0.16677539
000050 17 b2 29 bc e0 dc 8c be 49 a4 d2 3d a8 fd fd 3d
       -0.010357401 -0.27512264 0.10285241 0.12401897
000060 f8 4b a9 bd e7 5a 80 3e 27 6c 11 bd 21 91 c1 bd
       -0.08266443 0.25069353 -0.035503533 -0.09451509
000070 4c 42 92 bd 6e 00 31 3e 30 0c b4 3d 50 68 9c bb
       -0.071415514 0.1728532 0.08791387 -0.004773177
000080 2a 17 e3 3d fe 01 af be 39 c5 0f bd 95 96 43 3e
       0.110884026 -0.34181207 -0.035100196 0.19100411
000090 a6 6a af 3e 3c 37 5e be c7 72 0a be c9 9b 52 3e
       0.34261054 -0.21700758 -0.13520347 0.2056724
0000a0 09 d2 32 bd 50 a6 9e 3d 7d 65 02 3e a4 8b 92 ba
       -0.043657336 0.07746565 0.12734027 -0.0011180532
0000b0 98 01 e5 bd 35 91 3c be 76 b1 8e bf c8 39 03 bf
       -0.111819446 -0.18414767 -1.1147907 -0.5126004
0000c0 8b 30 b5 bd 1d 1f 05 bc 01 75 60 3c f7 fa ae bd
       -0.088471495 -0.008125094 0.013699771 -0.085439615
0000d0 39 97 c9 bd d9 32 d8 bd e3 06 8d bd 15 15 f1 3d
       -0.098432966 -0.105565734 -0.06886079 0.11771599
0000e0 fc 40 74 3d 34 0e ae 3e 09 d0 20 bd 2c 76 b1 bc
       0.059632286 0.3399521 -0.039260898 -0.021662794
0000f0 e1 8f e2 3d 96 18 bf bd b9 40 83 bd 51 28 9f be
       0.11062599 -0.09330861 -0.06408829 -0.31085446
000100 91 ca 5c 3e 31 51 ef bd 6c 6d 02 3e 18 72 a6 3c
       0.21561648 -0.11685408 0.12737054 0.020318076
000110 7a c8 c8 bd 5a ea f6 3d 31 d4 9a 3d 04 90 17 be
       -0.09803863 0.12056418 0.075600035 -0.14801031
000120 f0 e1 99 be 45 2f e5 3d 28 47 5a 3e 6a 0b 59 be
       -0.3005519 0.111906566 0.21316206 -0.2119576
000130 15 c7 c2 bd f8 e6 a6 3e 35 2e 41 3e 0b e0 0e be
       -0.09510628 0.3259809 0.18865283 -0.13952653
000140 07 91 2c be 65 10 27 bf 27 c6 0d be ae ce 37 3e
       -0.16852199 -0.6525939 -0.1384512 0.17949936
000150 df 34 71 3e 36 4a 72 bd d3 6b 0d be 34 f3 76 3d
       0.23555325 -0.059152804 -0.13810663 0.06029053
000160 03 05 4a bf 71 07 4e be 9e f9 5b 3e 11 e2 fb 3d
       -0.789139 -0.20120026 0.2148194 0.12298978
000170 12 29 ed bd 8b 60 56 bc 18 0e 3f bf 63 8c 90 bd
       -0.11580099 -0.013084541 -0.7463088 -0.07058027
000180 1f 4a 44 bf e4 81 d7 3d 80 23 8a 3e 5c 5a 13 be
       -0.766756 0.105228215 0.2698021 -0.14389938
000190 f1 a6 b6 3d 01 ff 7d bd 18 ca 10 3d 08 80 8b bc
       0.0891856 -0.06201077 0.03534898 -0.017028823
0001a0 02 b3 0f be 4f c4 0b be 7b e2 2b 3e 14 51 a7 3a
       -0.1403313 -0.13649105 0.16785614 0.0012765252
0001b0 73 79 b5 be 22 4e ae bc 99 fe 79 3e 8d 4d 80 3e
       -0.3544422 -0.021277491 0.24413528 0.25059167
0001c0 88 c7 3b 3e 99 69 ba 3e 49 88 9d bc c6 e0 ec bc
       0.18337834 0.3640869 -0.019230025 -0.028915774
0001d0 4d d1 0f be e3 b4 3f bd c2 f0 69 3e f5 b8 8f 3e
       -0.14044686 -0.046803366 0.22845748 0.280708
0001e0 d9 5c 1c be 5f 29 07 3e 98 6a 44 be a5 d3 f0 be
       -0.15269794 0.13199376 -0.19181287 -0.47036472
0001f0 ae ce 1d 3e 84 80 5a 3e df fd 43 3e c2 fe 27 bc
       0.15410873 0.21338087 0.19139813 -0.01025361

hidden4.weight f4 [256, 128]
000000 9a f4 32 3e e4 76 f3 3c 59 2b fa 3d 0f 54 96 be
       0.1747612 0.029719777 0.12215299 -0.29361007
000010 d6 33 35 3e af d1 0c bd 98 25 a0 bf a6 1f f0 39
       0.17695555 -0.034379657 -1.2511473 0.00045799947
000020 2c ec 7e bd ea 1f 1a bf f4 77 24 3e c5 1b 89 be
       -0.06223695 -0.60204947 0.16061383 -0.26779
000030 8b 2c ba be da 57 9d bb 48 c0 e6 3c a6 06 28 3e
       -0.3636211 -0.0048017325 0.028167859 0.16408786
000040 f6 c9 41 bd 81 7c ed 3d 68 6e c2 bc 32 5e a4 bd
       -0.047311746 0.11596013 -0.023734286 -0.08025779
000050 80 0d 28 c0 33 bf 1e be 14 9b db bf 4c e4 e1 bd
       -2.625824 -0.15502624 -1.7156701 -0.11029872
000060 bf a8 c4 be d8 a5 80 3d 51 ed 23 bf ab 60 43 bc
       -0.38409993 0.06281632 -0.6403399 -0.011924903
000070 bb 38 53 bd 6a 7b e3 bf a0 f9 10 3f 39 28 57 be
       -0.051567774 -1.7772038 0.566309 -0.21011437
000080 37 f3 df bd d9 75 55 bd 9f a2 28 3e e2 24 b3 be
       -0.109350614 -0.05211434 0.16468285 -0.34989077
000090 01 0e 87 bf 02 e1 25 3e 04 6a a9 ba dd 88 33 3f
       -1.0551149 0.16199115 -0.0012925272 0.7013071
0000a0 76 66 17 bd 6e 9d 09 bf e8 24 de be b0 d3 94 3e
       -0.03696295 -0.53755844 -0.43387532 0.29067755
0000b0 ee 8c a0 be 4e da d7 bd a7 95 1d 3e fa fe a1 bd
       -0.3135752 -0.10539685 0.15389119 -0.07909961
0000c0 2c b9 b6 bc 49 a6 94 be f9 d2 34 bf 74 27 7e bf
       -0.022305094 -0.29033116 -0.7063442 -0.9927895
0000d0 a1 5b c4 3d 58 dc 0e ba 27 8d 38 be e0 d4 f7 bd
       0.09587789 -0.0005449704 -0.18022595 -0.121011496
0000e0 7b c0 4e be f7 f6 ff bf af 95 58 3e 18 a5 9c 3e
       -0.20190613 -1.9997243 0.2115085 0.30594707
0000f0 f9 f8 bd 3d 49 0c a0 3d 36 ee a0 be 12 5f 20 bf
       0.092760034 0.07814843 -0.3143174 -0.62645066
000100 c3 7d 84 3d 5e 05 f4 bd c6 26 b7 bf a2 30 88 bf
       0.064693 -0.11915086 -1.4308708 -1.0639842
000110 14 4a ed 3e 50 2e b1 bc f1 ef 15 be 97 0f b0 3d
       0.4634558 -0.021628529 -0.14642312 0.085967235
000120 62 31 6c 3e cf 85 55 be 7e 8a 8c 3d cb 79 ae be
       0.23065713 -0.20851825 0.06862353 -0.34077296
000130 4a bd 86 be 47 e9 90 3e 49 63 2d 3e e3 34 c3 3d
       -0.2631629 0.28302976 0.16932406 0.09531572
000140 52 df 19 be b6 a6 66 be ee e7 75 bc e7 7b af bf
       -0.15026596 -0.22524533 -0.01500891 -1.3709687
000150 3b 09 25 bf fb 88 39 3c c2 cd 68 3d 9f 63 a1 be
       -0.6446721 0.011324163 0.05683685 -0.31521317
000160 d1 4c 65 bd 94 ec 9f 3d 06 0b 96 bd 98 ba 4b bf
       -0.05598146 0.078087956 -0.07326321 -0.79581594
000170 2d 6c 8e 3d 8b dd 36 bf 6e a6 a8 3c 21 17 eb bc
       0.06954227 -0.714318 0.020587172 -0.028697552
000180 de 6f 9a be f1 35 70 3e 62 ad 88 be 5c f2 c7 3d
       -0.30163473 0.23458077 -0.2669478 0.09763023
000190 16 91 4e be aa c3 13 3d cd b3 74 3e cf 00 14 bf
       -0.20172533 0.03607527 0.23896714 -0.57813734
0001a0 b2 3e 09 3d 02 09 0e be 65 80 34 bf 87 60 b5 be
       0.033507057 -0.13870624 -0.70508415 -0.35425207
0001b0 30 2f fc 3d 1b de 80 3d 4c bb 05 3d 9f 3a 0a 3e
       0.12313688 0.06292363 0.032649323 0.13498925
0001c0 36 14 4b be 4e ac 19 3f 8f ea c0 be 2d 37 b1 bc
       -0.19831929 0.6002854 -0.37678954 -0.021632755
0001d0 33 a3 14 3c cd 98 5b 3e 6b 15 4b be 04 42 2d 3f
       0.009072113 0.21445008 -0.19832389 0.67678857
0001e0 3c 2d 3d 3d 06 21 04 bf f9 c2 29 be da b5 95 be
       0.046185717 -0.5161289 -0.16578282 -0.29240304
0001f0 26 bf 87 3e 14 dc 54 3d ec 80 22 be f0 02 27 be
       0.26513022 0.051967695 -0.15869492 -0.16309714
000200 bf 72 b2 3e 5e 2e bc bc 3d c0 c4 bc fb a4 42 bc
       0.3485317 -0.022971328 -0.024017448 -0.011880155
000210 01 e5 fe be ca 04 43 be 10 b3 b6 3d 22 cb ec bd
       -0.4978409 -0.19044796 0.08920872 -0.11562182
000220 90 f4 6f 3e 0b 6f 2f bd 07 41 d6 3c 1f d9 59 be
       0.23433137 -0.04283051 0.026154054 -0.21274231
000230 dd 9b 19 3e 99 5e 9c bd a8 02 3e bc 97 6a ab be
       0.15000863 -0.076352306 -0.011597313 -0.3347976
000240 ec cf ec bd ce cf 0b 3e ac 8c ae bd 99 a8 c6 3d
       -0.115630955 0.1365349 -0.08522925 0.09700126
000250 19 c1 6d 3d 28 79 a2 3d d5 22 5d 3d f3 68 a3 3a
       0.05804548 0.07933265 0.053988297 0.001246719
000260 a7 fc 3a be 9f 78 92 3d b6 d5 ab 3d bd b9 50 bc
       -0.18260442 0.07151913 0.083903715 -0.012739596
000270 18 59 0d bd 97 50 d5 bd a4 8c 96 3c a6 4e 3f be
       -0.034508795 -0.10415762 0.01837761 -0.18682346
000280 e4 19 a2 bd d6 71 b1 bd a4 54 05 bf 99 e1 b5 bc
       -0.079150945 -0.086642906 -0.52082276 -0.0222023
000290 03 84 75 bd fe 03 bb bd 5c 54 c0 bb b8 8d 5a be
       -0.05994035 -0.09131621 -0.0058694314 -0.21343124
0002a0 70 b2 2c 3d e9 ca a0 bc 8c 06 d3 3c 3b dd 7f bf
       0.04216236 -0.019628005 0.025759958 -0.99946946
0002b0 8c 37 f0 be 4d 97 45 3e 89 4b 29 3e ce 7e a2 be
       -0.4691738 0.19295998 0.1653272 -0.3173737
0002c0 64 4b 2b 3d 11 89 b1 3e b9 31 77 3d 2d be 4f bd
       0.041819945 0.34674886 0.060350154 -0.050718475
0002d0 3a 06 24 3d 0b 43 28 be a7 86 ee bd bb c7 47 3e
       0.040045 -0.16431825 -0.11646777 0.19509785
0002e0 6a 42 f9 3d 3e 26 b5 3e 93 53 f0 3d 63 3b 32 be
       0.121708706 0.3538074 0.117346905 -0.17405467
0002f0 69 da d1 bc 1b 6d bf bc 4a 5c 8e be ab 63 8d bd
       -0.025616841 -0.023367455 -0.27804786 -0.06903776
000300 00 76 32 bd 13 1e 0e be 85 c9 6d 3e c5 5c c2 3e
       -0.043569565 -0.1387866 0.23221405 0.37961403
000310 1f c2 e1 bd de 36 e7 bc 10 77 7d be 67 b0 f0 3d
       -0.11023354 -0.028224405 -0.2475245 0.11752396
000320 76 72 e3 3b 6b c7 e5 3d 79 22 53 be 02 57 a0 be
       0.006941135 0.112196766 -0.20618619 -0.31316382
000330 b9 8c 7e be 94 fc cc bc 1b b1 02 3d 80 40 d4 bb
       -0.24858369 -0.025022782 0.031907182 -0.0064774156
000340 a6 bd 35 be d7 6c ae bd bf 8c 86 be 3f e3 e1 3d
       -0.17748126 -0.08516853 -0.26279256 0.11029672
000350 bc 50 27 3d 6f 2c dd 3d 1f 4a 03 3d 66 c5 87 be
       0.04084848 0.10799491 0.03205311 -0.2651779
000360 05 e0 fb 3c 64 78 83 bd 74 f1 60 bc 88 2f 8b 3d
       0.03074647 -0.06419447 -0.013729442 0.06796175
000370 d8 31 eb bc 05 78 f2 3b b2 de be bc 24 e7 a0 3d
       -0.02871029 0.0073995613 -0.023299549 0.078565866
000380 4f 33 15 3e cc a8 5b 3e d6 8c 8e bd 04 3f b6 3d
       0.14570354 0.2145111 -0.06960456 0.08898738
000390 7c 25 1b be 80 5f 0e bd f0 e2 7a be 7d 77 45 be
       -0.15151018 -0.034759045 -0.24500632 -0.19283862
0003a0 c6 31 88 bc 60 d6 a9 bd ee 0b 61 bd a7 b2 e6 3d
       -0.016625296 -0.08292842 -0.054943018 0.11264544
0003b0 db b6 27 3e 9e ed 06 bf cd b6 c7 3c 5b 2b ae bd
       0.16378348 -0.52706325 0.024379158 -0.08504363
0003c0 40 28 7c b7 dc f9 a3 3e 6e 7a 22 3e 67 98 b4 3d
       -1.5029742e-05 0.32026565 0.15867016 0.08818131
0003d0 76 a5 05 bd f1 a5 97 bc b8 cd 75 3e b4 23 e0 bc
       -0.0326285 -0.018511744 0.24004257 -0.027360775
0003e0 b8 a1 a9 3c 3c f2 a1 bc f0 7e 0d be e2 3b cc 3d
       0.020706996 -0.019768827 -0.13817954 0.09972359
0003f0 9a 00 45 3e 2e 43 60 be 82 48 63 bd 82 ff 26 be
       0.1923851 -0.21900627 -0.05548907 -0.16308406

hidden4.bias f4 [256]
000000 5d b4 49 3e 41 ec 8e bd 20 96 4d 3e 1a fe 85 3d
       0.1969771 -0.069786556 0.200768 0.06542607
000010 bd c8 96 be 52 26 62 3e 29 8a 58 3d f5 7d 87 3b
       -0.29450026 0.2208493 0.052866135 0.0041348883
000020 97 5d 03 3e 6a 74 ae 3c ff da f1 bc 46 e0 28 be
       0.1282867 0.021295745 -0.02952337 -0.16491804
000030 30 83 88 bd 99 f1 8b 3d 09 f7 7a 3c 52 02 b5 bd
       -0.06665647 0.068331905 0.015317687 -0.08838333
000040 c6 0a 5e 3e 7c f4 87 3e 14 11 c0 3e f8 7c 8c 3e
       0.21683797 0.26553714 0.3751303 0.27439094
000050 e7 9f 0c 3e 39 08 50 3e be e2 9e 3d 23 bf 8d 3d
       0.13732873 0.20315637 0.077580914 0.06921222
000060 d1 aa a0 bd 64 e7 09 be 27 ee a1 3e 7c 30 74 3e
       -0.07845081 -0.13467175 0.31627008 0.2384662
000070 63 28 21 be 47 98 03 be ed 7f e4 bd ef d2 3b bd
       -0.15738063 -0.12851058 -0.111572124 -0.04585546
000080 a6 e2 ab 3e 50 7c 07 3e 40 40 f6 ba 20 13 34 3e
       0.33571357 0.13231015 -0.0018787459 0.1758542
000090 b6 88 db bd f5 2a 21 3e 19 5d d0 3c 63 32 9f bd
       -0.10719435 0.15739043 0.025435017 -0.077732824
0000a0 4b ee a5 bd 27 e3 e4 bd f7 85 b3 3e d5 d8 7e be
       -0.081020914 -0.11176138 0.35063145 -0.24887402
0000b0 6d 16 6a 3e 73 ed 1a be 8b 8e dd bd bc 85 33 3e
       0.22860117 -0.15129642 -0.108182035 0.17531484
0000c0 56 71 01 be cb 29 95 3e 3a b3 f2 bd b3 e8 5e 3e
       -0.1264089 0.29133448 -0.11850591 0.21768455
0000d0 1b 73 59 3d 0a e4 3f 3e e0 3f 69 3e a6 21 03 be
       0.05308829 0.18739334 0.22778273 -0.12805805
0000e0 cf 9c 63 3e 51 72 f7 3c d9 10 a4 bd b1 e5 00 be
       0.22227786 0.030205877 -0.08011026 -0.1258762
0000f0 1d 48 72 3e 4b 2b 24 be ac 53 42 3e 76 c8 cb bd
       0.23660322 -0.1603214 0.18977231 -0.09950344
000100 66 20 50 3e ea 34 21 3e 2a 51 3f be 17 d0 0d be
       0.20324859 0.15742841 -0.18683305 -0.13848911
000110 57 38 fb 3e 23 22 db bd 35 26 47 bd 42 4c 68 bd
       0.4906642 -0.106998704 -0.04862042 -0.05671335
000120 01 ea 63 bd 7f 22 7e bd 31 dd 1b 3e 5f 7a 88 3c
       -0.055643085 -0.062044617 0.15221097 0.016659914
000130 bb af 7b be 8f 33 8e bd 48 23 81 3d a6 1f 7f bd
       -0.24578755 -0.06943428 0.063055575 -0.06228604
000140 e8 ba d3 bd 10 ee 04 be db cf 1a bd 76 9d 8b 3e
       -0.10338384 -0.12981439 -0.037795883 0.2726857
000150 06 93 03 bd e6 1d e6 3c 5b 6a fd bd 0a 0e d6 be
       -0.032122634 0.028090429 -0.12373801 -0.41807586
000160 0e a3 35 3e 60 a4 03 bd 89 3e c2 3e e4 e4 7a 3e
       0.17737982 -0.032139182 0.37938336 0.24501377
000170 2b f1 04 3e cd fb 6e 3e 9b 9a e3 bd 0a 58 5b be
       0.12982623 0.23338242 -0.11113473 -0.21420303
000180 aa 1f 7a 3e 66 0d ba bd ea 34 43 be 64 94 bf bd
       0.24426141 -0.09084587 -0.19063154 -0.09354475
000190 f9 42 c2 3d 60 32 07 be 56 ea 79 3e 34 4a f6 bb
       0.0948543 -0.1320281 0.24405798 -0.00751617
0001a0 07 bb 0b 3e eb 56 2e 3e 36 b5 91 bd f5 3e 39 3e
       0.13645564 0.17025344 -0.07114641 0.18090422
0001b0 8f 7d 3a 3e fc bf 36 be fd 93 d1 bd 04 d2 12 be
       0.1821196 -0.17846674 -0.10233305 -0.14337927
0001c0 e3 e6 c4 bd dc 86 84 3e 3e d7 07 bf a6 cc 5d 3d
       -0.09614351 0.2588414 -0.5306281 0.054150246
0001d0 7f f1 d7 bd 51 0b ce be c7 6b c1 bd ba d0 b7 3e
       -0.105441086 -0.4024301 -0.09444385 0.35901433
0001e0 45 f0 33 be 62 31 29 3e a0 0e 1f 3d fe ef 17 3e
       -0.17572124 0.16522744 0.038832307 0.14837644
0001f0 ee c8 d1 be d0 6f e2 3d 7c e3 5e 3e f0 94 5f 3e
       -0.4097361 0.11056483 0.21766466 0.21834159
000200 c9 03 17 3e ab 3a 41 3e e1 14 1d be 37 86 14 bd
       0.14747538 0.18870036 -0.15339996 -0.03626081
000210 af 16 cf bd d4 80 b2 bc fe 64 a2 bb 3e e1 82 be
       -0.101117484 -0.021789946 -0.004955887 -0.2556247
000220 1b 2c a9 3e 86 a2 41 bf a4 ca 0a 3e 65 17 92 be
       0.33041462 -0.75638616 0.13553864 -0.28533474
000230 c7 d1 d6 3d 71 71 6e bd c8 3e a6 3e 08 45 9a 3d
       0.104892306 -0.058213655 0.32469773 0.07532698
000240 64 ce 6b 3e e2 92 4b 3d 51 2e e8 3d 4e 65 36 3e
       0.2302795 0.049700625 0.11336959 0.17812082
000250 a5 94 9a bc 4c 05 7f 3d 6a 9e 83 3d a1 54 c1 be
       -0.018869707 0.06226091 0.064266995 -0.3775988
000260 46 ae 2e 3d 9e fc 97 be 0e 68 fb bd 62 7e 9f 3d
       0.04264667 -0.2968492 -0.12275706 0.077877775
000270 14 e0 0b be fc e9 87 bd 2c 5e 1a 3e 42 ed 98 3d
       -0.13659698 -0.06636426 0.15074986 0.07467128
000280 c3 b2 14 be e1 3e 65 3e 25 e4 04 be 1b 3e d3 3c
       -0.14521317 0.22387268 -0.12977655 0.02578645
000290 0c 46 01 be 76 08 06 be 34 06 83 3d aa 71 08 be
       -0.12624377 -0.13089165 0.063976675 -0.1332461
0002a0 89 9a ce bd 59 f9 ca 3d 9a 59 93 bd 7f 7f 8d be
       -0.10088069 0.099108405 -0.071948245 -0.27636334
0002b0 33 87 8d 3e 7c 9e a4 3d 90 b6 bd 3c db a9 ab bd
       0.2764221 0.08038041 0.023158342 -0.08382007
0002c0 35 e1 e9 bb 89 21 74 3e 47 e8 bb 3e e6 69 a0 3c
       -0.0071374425 0.23840918 0.3670065 0.019581746
0002d0 6f 13 95 3e 45 f7 12 3e 78 f5 14 be 66 ef 41 3e
       0.2911639 0.14352138 -0.14546764 0.1893898
0002e0 dc 23 58 3e 5a 48 09 3e 98 b4 9a 3e 06 81 bc 3d
       0.2110743 0.13406506 0.30215907 0.09204297
0002f0 e2 6c 5c be ec ca 64 3d 45 82 50 bc 8c f6 01 be
       -0.2152591 0.055857584 -0.012726371 -0.12691706
000300 dd fe 87 3d dc 8f a2 3e a7 25 b5 3e 8d 26 ab bd
       0.06640408 0.3175038 0.3538029 -0.08356962
000310 9b f1 b4 bd d0 98 76 3b d3 14 78 3e 7d 2b 92 bd
       -0.08835145 0.0037627704 0.24226694 -0.07137201
000320 05 d8 86 3e 16 b1 27 3d 9a 8b 13 be 89 0b cc 3e
       0.26336685 0.040940367 -0.14408723 0.3985255
000330 38 29 dc 3d 89 79 18 be 30 79 5b 3d aa 71 89 be
       0.10750049 -0.14890112 0.05358237 -0.2684453
000340 59 0a 88 3d 54 8d a0 3e 8b 40 d7 bd 20 cc 21 3e
       0.06642599 0.31357825 -0.105103575 0.15800524
000350 79 33 1d be 0b ec 1f be 30 25 18 be fc 0a 32 3e
       -0.15351667 -0.15617387 -0.14857936 0.17387003
000360 70 59 a6 bd 92 80 35 bc 4b fb e7 bd 4f 19 12 be
       -0.081225276 -0.011078017 -0.11327227 -0.14267467
000370 df 3d 10 3e f0 bc 33 3e 7b 47 57 3e 17 de fb bd
       0.14086102 0.17552543 0.21023361 -0.1229822
000380 64 7a c5 bd 17 51 45 3e 5c ea 53 3e 4f 37 1c be
       -0.09642485 0.19269215 0.2069487 -0.15255474
000390 c5 22 2b 3e 1e c5 c6 bd fd c7 75 3e da 7f 7d bd
       0.16712482 -0.09705566 0.2400207 -0.061889507
0003a0 02 32 88 3e bf f3 0b be 3d 9e 04 bc d8 0c cb 3c
       0.26600653 -0.136672 -0.008094368 0.024786398
0003b0 a7 7b d3 bd e5 db 4c 3e c6 13 1b be 5e 4d c0 bd
       -0.10326319 0.20005758 -0.15144262 -0.093897566
0003c0 a9 af dc bd a6 ea 06 3e de df aa bd 90 95 05 be
       -0.10775692 0.13175449 -0.083434805 -0.13045335
0003d0 ac c7 57 be f9 51 76 3e 77 41 ef bd ea 5d 15 be
       -0.21072263 0.24054708 -0.11682408 -0.14586607
0003e0 a6 57 f5 bd 2c 1d 51 3e 75 06 15 3e ca 35 3a be
       -0.11979608 0.20421284 0.14553244 -0.18184581
0003f0 c2 d5 2e 3e 3a 90 dc bd 0a 08 e6 bd 1b ac 48 be
       0.1707373 -0.107696965 -0.11232002 -0.19596903

output.weight f4 [4, 256]
000000 45 87 66 bd 1b 3d 01 bb 9b f7 0c be e0 d9 9c 3d
       -0.056281347 -0.001972026 -0.13766329 0.07658744
000010 f9 e8 26 3d 22 84 99 bc 30 3d 30 3d ee 57 89 bc
       0.040749524 -0.018739764 0.043027103 -0.016765561
000020 3d 6d 66 bc 6d b4 99 3c 9e b5 e1 3e a7 a8 e1 3c
       -0.01406413 0.018762792 0.44083875 0.02754624
000030 94 4c 1b 3b 98 e1 70 3d 1b 93 80 3d 9f 9f 12 3c
       0.0023696767 0.058808893 0.06278058 0.008949189
000040 df d7 9e bc 1f a7 43 bd aa 3d 25 3d 1d c3 0c 3d
       -0.019390045 -0.0477668 0.04034201 0.034365762
000050 af 91 8e bd ee 44 29 be 03 e3 d1 bd 2e 83 d7 3c
       -0.06961381 -0.16530201 -0.10248377 0.026307669
000060 13 c7 f9 3c 28 51 80 3d ad 33 bc 3d f1 02 ad bd
       0.030490434 0.06265479 0.09189544 -0.08447827
000070 89 b3 2d 3e 97 18 f1 3c bc f2 57 bb e4 90 c2 3d
       0.16963018 0.02943067 -0.0032951077 0.09500292
000080 38 54 32 bd a5 5d be be 51 36 fb bb ab ce 2e 3d
       -0.04353735 -0.3718082 -0.007666387 0.042677563
000090 fa a5 8b be 3a 4c 92 3d f8 0a cf bc 4a 70 8a 3c
       -0.27275068 0.07143445 -0.025273785 0.016899247
0000a0 39 21 2a bd cb a1 f5 bc 6b 21 52 3d a7 13 aa 3b
       -0.04153559 -0.029984375 0.0513014 0.005190331
0000b0 e1 03 ac 3e ac 59 5f 3b 28 d9 de bc 01 f9 48 bd
       0.3359671 0.0034080548 -0.027203158 -0.049065594
0000c0 39 fd d1 3c fd b0 a0 bd 46 56 d2 bb bb 49 f3 3c
       0.025633441 -0.07846258 -0.006418976 0.029698243
0000d0 21 5b 96 3e 4a fe 19 bd cd c8 70 bd 1f 41 cd 3b
       0.293664 -0.037596025 -0.05878525 0.0062638666
0000e0 9e 8a 8a 3b e0 6e 59 3b 76 64 64 3c 00 73 cf 3b
       0.0042279502 0.003317766 0.013939967 0.0063308477
0000f0 bc 90 d6 3d dd 2c f9 bc 90 44 4e 3d df b5 75 3c
       0.10476825 -0.0304169 0.050358355 0.014996975
000100 6d ce 1b 3d d8 e7 1e bd f8 f4 12 3e ec e8 32 bd
       0.03803866 -0.038795322 0.1435126 -0.043679163
000110 a8 24 c8 bc 4f 4e ab 3b c7 02 61 bd ca db e8 bb
       -0.024431542 0.005227841 -0.05493429 -0.007106279
000120 2a 05 ed 3a c9 e1 3f bd 33 75 0a be 42 07 b7 3c
       0.0018083204 -0.046846185 -0.1352127 0.022342328
000130 86 d8 41 bc f5 15 00 39 68 d0 98 3d 74 a4 d1 bb
       -0.011831408 0.00012215211 0.07461625 -0.006397778
000140 77 f6 32 3c e4 77 fa bc 6e 06 07 3d 43 74 2a be
       0.01092302 -0.030574746 0.032965116 -0.16645913
000150 3e 79 10 3c 0f 49 99 3c 65 cb 80 3d e5 32 4f ba
       0.008817969 0.018711595 0.062887944 -0.0007904007
000160 35 e3 17 bd 54 a0 0d bb 9f 69 1f bd 61 e1 a4 bd
       -0.037081916 -0.0021610456 -0.038919087 -0.080508
000170 b5 78 5e 3d 83 37 9e bd f0 7a de bc f4 52 b2 bd
       0.054314334 -0.07725432 -0.02715823 -0.08707228
000180 5b 9b 9e 3d f4 16 e8 3b d5 b9 06 3d 25 f2 bc 3c
       0.077444755 0.0070828144 0.032892067 0.023064682
000190 0e 4f 34 3e dd 42 f7 3b db 04 8c bd 78 73 97 3d
       0.17608282 0.0075458125 -0.068368636 0.07395071
0001a0 55 40 0b bd e6 5d d1 be b7 d6 aa bb 9a d6 6a bc
       -0.0339969 -0.4089195 -0.0052135843 -0.014333392
0001b0 c3 99 bd 3e f1 87 4c 3d a3 5f 56 bc ce 78 fd bc
       0.37031373 0.04993433 -0.013084325 -0.030941393
0001c0 6b ba fb 3c 13 63 1f 3e 9a 00 05 be a1 1f 53 3d
       0.03072854 0.15565138 -0.1298851 0.051543836
0001d0 1a 76 aa bd 76 96 53 bd d5 cb e4 bc f2 c6 b5 bd
       -0.08323307 -0.051657163 -0.027929226 -0.088758364
0001e0 c2 9f 56 3d 90 b2 0e be c9 0d 8d be d3 c5 82 3d
       0.05239845 -0.13935304 -0.2754958 0.06385388
0001f0 7c 17 e9 be 9c 54 92 bd 94 6d 8e 3c ba a9 6d 3d
       -0.4552573 -0.07145044 0.017386235 0.058023192
000200 36 99 22 3e 4c 84 42 bd 4f cf b3 3b 46 1b c2 3c
       0.15878758 -0.04748945 0.0054873596 0.023694646
000210 0f f7 6e 3c ae fc 7b bb 72 84 b2 bb ff 2e 50 bc
       0.014585271 -0.003845017 -0.0054479176 -0.012706517
000220 7d de 5f be 5f 0b 31 3d 6b 47 28 be 00 24 e1 bd
       -0.21862216 0.043223735 -0.16433494 -0.109931946
000230 97 04 8e 3d 67 b3 ff bc 99 cb 63 bd 7f cf 83 3c
       0.06934469 -0.031213475 -0.055614088 0.016090153
000240 f2 6e bf 3e 9a 06 2a 3d 82 91 4e be 03 dd 0a 3d
       0.37389332 0.041510202 -0.20172694 0.03390218
000250 07 92 2f bc 4e be f9 3c a2 cc 87 bc 97 c4 c0 3d
       -0.010715968 0.030486252 -0.016577069 0.094124965
000260 ad 10 08 bc d2 cb e1 bc 99 7d ed 3b ef bc a4 3d
       -0.008304757 -0.02756301 0.0072476384 0.08043849
000270 e7 52 7a 3d 90 14 03 bc 16 ab d7 bc 35 7c 48 bc
       0.061114218 -0.008000508 -0.026326697 -0.0122366445
000280 69 ea 1a bd 52 e7 f7 3c 89 9e 01 3d 56 53 7c 3b
       -0.037821207 0.03026167 0.03164533 0.003850182
000290 4e f3 a1 3c ef f6 89 3b 63 29 7e 3d e6 40 b6 b9
       0.019769337 0.004210345 0.06205119 -0.00034762098
0002a0 5e fb 53 bd d7 a3 4f 3d 9d cd 90 3c f0 54 2c be
       -0.051753394 0.05069336 0.017676169 -0.16829276
0002b0 17 43 9e 3c 7d 3a 23 bb ad f9 25 bb 6e b4 4c bc
       0.0193191 -0.0024906688 -0.002532582 -0.01249419
0002c0 55 38 7e 3c 77 4f 60 bd 2b a6 4a 3d 1e 0b d8 be
       0.01551636 -0.054763284 0.049474876 -0.42195982
0002d0 b2 4b 9b 3d 23 c4 00 bd 5c be 02 bd c0 be aa bd
       0.07582797 -0.03143705 -0.031919822 -0.08337164
0002e0 ad 34 8d 3d 37 a3 1d 3d 75 c2 be 3d e1 47 98 bc
       0.06894813 0.038485732 0.093144335 -0.018588962
0002f0 93 1e b1 bc 85 48 52 3d 59 c1 8c 3d b7 5d 05 bc
       -0.021621024 0.05133869 0.06872816 -0.008140019
000300 00 76 1b bc 64 6d 8f bd 2d 1f 87 bd 89 fe 34 3d
       -0.009488583 -0.070032865 -0.06597743 0.044188056
000310 47 2e 6e 3b f2 8e 85 bd a4 02 2a 3e 55 de f3 3c
       0.0036343501 -0.06521405 0.1660257 0.029769102
000320 bd 14 6d bc c3 71 b6 bc 3b 8e ba 3b ab 3e 56 bd
       -0.014470276 -0.022271043 0.0056932247 -0.05230586
000330 1d cd a9 bc 8d 08 ad bc 17 11 d6 3c 45 cd b2 bd
       -0.020727688 -0.021122241 0.026131196 -0.08730558
000340 3c 7a 01 3e 7a be 9f bd e5 34 40 bd d4 28 19 3d
       0.12644285 -0.078000024 -0.046925444 0.037392452
000350 01 9e c6 bc 75 4f 6b bd e1 19 05 bd 82 b1 92 3d
       -0.024245264 -0.057448823 -0.032495383 0.07162763
000360 ff 36 d9 bb 71 a9 42 3d 2f 0d 4b 3d 11 33 bb 3b
       -0.0066288705 0.047524873 0.04957312 0.0057128747
000370 e5 ec d6 3d a2 b1 f8 bd 51 a9 3f 3c 0c 10 1b bb
       0.10494403 -0.12143256 0.011698083 -0.0023660688
000380 3e 5b 0f 3c 02 02 1d bd 5f 35 41 3d 78 72 08 bb
       0.008749781 -0.038331993 0.04717004 -0.0020820182
000390 81 bc f0 bd ef b7 26 3d 48 32 88 bd e2 35 35 3c
       -0.11754704 0.040702756 -0.066502154 0.01106021
0003a0 d5 4d 12 be d5 02 6c bd 33 ce 2e bd cf 25 5c 3d
       -0.14287503 -0.05761989 -0.042677116 0.053746995
0003b0 99 5b a3 bb fc 4d de 3c 46 0c 00 bd d3 e6 32 bd
       -0.0049852845 0.027136795 -0.031261705 -0.043677162
0003c0 4b 46 c2 39 de d8 0b 3e 1d e7 fb bc 84 a1 62 bc
       0.00037054936 0.13656947 -0.030749852 -0.013832454
0003d0 71 c3 1a bd 5f 8b 9f bd 9d 37 86 bc 0b 48 c7 bc
       -0.037784044 -0.07790255 -0.01638394 -0.024326345
0003e0 5a ac 1c 3c c4 ac 81 3d 66 b3 36 3e 43 b7 4f 3c
       0.009562576 0.063317806 0.17841873 0.01267797
0003f0 fd c0 3d 3d 2f 42 bc 3c a9 1f 13 3d 19 05 8e 3c
       0.046326626 0.022980778 0.035918865 0.017336415

output.bias f4 [4]
000000 0f e2 32 3b 01 62 b2 3c f2 be 59 bc cf 13 01 bd
       0.0027295386 0.021775248 -0.013290154 -0.03151303
