models/MagneticPendulum/p1_measure_x3_N5_sep/q_model_state_dict.pth (torch, 47876 bytes, 8 tensors)

hidden1.weight f4 [32, 5]
0	0x3f082f90	0.53197575
1	0xbe9a77fe	-0.30169672
2	0xbf85f7ae	-1.0466211
3	0x3e872f9a	0.26403505
4	0x3e77ca48	0.24198258
5	0x3e0c9c60	0.13731527
6	0xbdb143b2	-0.0865549
7	0x3fa26874	1.2688127
8	0xbfaee887	-1.3664712
9	0x3c2095b5	0.009801318
10	0xbb727ef7	-0.0037001946
11	0x3d77cd46	0.0604985
12	0x3ecf5b97	0.40499565
13	0xc057b6c4	-3.3705301
14	0xbdddbe60	-0.10827327
15	0xbd0cb2e2	-0.034350283
16	0xbcb07ae6	-0.021542978
17	0x3dbc817b	0.09204384
18	0x4004b712	2.0736737
19	0xbd2c5004	-0.042068496
20	0xbe344120	-0.17602968
21	0xbe906758	-0.28203845
22	0xbfe4520c	-1.7837539
23	0x3e3dfc92	0.18553379
24	0xbd935d48	-0.07195526
25	0x3d0284dc	0.031864986
26	0x3f219169	0.63112503
27	0x3e0fc5fc	0.14040369
28	0xbf5a3edf	-0.85252184
29	0x3f0e8969	0.5567842
30	0x3d6439d3	0.055719208
31	0x3efa1760	0.4884596
32	0x3f7ac9bf	0.9796409
33	0xbfe8d1a7	-1.8188981
34	0xbf3cd80d	-0.7376717
35	0xbe18d0f0	-0.14923453
36	0x3f3e7ccd	0.7440918
37	0x3e8c4680	0.27397537
38	0x3f92ff33	1.1484131
39	0x3d62dc48	0.055385858
40	0x3f4fc102	0.8115388
41	0xbea5baa2	-0.32368952
42	0x3dcc08f5	0.09962646
43	0xbcf3836e	-0.029725756
44	0xbe437ec3	-0.19091325
45	0x3efeb953	0.49750766
46	0xbef40f47	-0.47667906
47	0xbf0f8a61	-0.56070524
48	0xbf1c37fd	-0.6102293
49	0x3e01ea85	0.12687118
50	0xbf12ad0d	-0.57295305
51	0xbee9dbb9	-0.45675448
52	0x3f59be59	0.8505607
53	0xbeee963f	-0.46599004
54	0x3ebd30ad	0.369512
55	0x3eb5c241	0.35499766
56	0xbc289dd3	-0.0102915345
57	0xc008f6f2	-2.1400723
58	0x3f1e827b	0.6191785
59	0xbdde13f8	-0.108436525
60	0xbda1719d	-0.07882998
61	0x3d82e0aa	0.063905075
62	0x3f24a3fb	0.64312714
63	0x4024b02d	2.573253
64	0xbe509d02	-0.20372394
65	0xbdd4b974	-0.10386935
66	0x3ce3cece	0.027808573
67	0xbf051ead	-0.5199993
68	0xc042abe8	-3.0417423
69	0xbead53cc	-0.33852994
70	0x3f13d372	0.57744515
71	0xbde0ffaf	-0.10986268
72	0x3f2dde81	0.6791764
73	0xbe264797	-0.16238247
74	0x3ec2287b	0.3792151
75	0x3e4fe330	0.20301509
76	0x3e26175b	0.16219847
77	0x3e01d607	0.12679301
78	0xc02b1d18	-2.6736507
79	0x3e6129e0	0.2198863
80	0xbe83517d	-0.25648108
81	0xbec362ed	-0.38161412
82	0xbe5f32d9	-0.2179674
83	0xbf8a5819	-1.0808135
84	0x3b916ae6	0.004437792
85	0xbecc092b	-0.39850745
86	0xbf0cbea4	-0.54978395
87	0x3f13ac36	0.5768465
88	0xbfa04911	-1.2522298
89	0x3f0a01fb	0.5390927
90	0x3cd53af0	0.02602908
91	0xbf4baf55	-0.7956441
92	0xbdfeba59	-0.12437887
93	0x3eb0bbec	0.34518373
94	0xbefd8c0d	-0.49520913
95	0xbed28984	-0.4112054
96	0x3e609921	0.21933414
97	0xbe4da3ca	-0.20082012
98	0xbdc53782	-0.09629728
99	0xbe9e57f8	-0.3092649
100	0x3e5598ee	0.2085912
101	0xbc863b91	-0.016385825
102	0x40339e15	2.8065236
103	0x3f7bd8ab	0.98377484
104	0xbe61dadc	-0.22056144
105	0xbf3e260d	-0.7427681
106	0x3e97b53a	0.29630452
107	0x3f34be81	0.70603186
108	0x3f0b218a	0.5434805
109	0xbe529f18	-0.20568502
110	0xbda8dd8c	-0.08245382
111	0x3eee100e	0.46496624
112	0x3f8ec19b	1.1152834
113	0xbeef0f16	-0.46691197
114	0x3f6dba88	0.9286275
115	0x3f0ba07a	0.5454174
116	0x3eee6e55	0.46568552
117	0xbf9945f6	-1.1974475
118	0xbe029cd3	-0.12755136
119	0x3e525223	0.20539145
120	0xbed1ead9	-0.40999487
121	0x3d672e3d	0.05644058
122	0x3f672d28	0.9030328
123	0xbfab8d03	-1.3402408
124	0x3f166994	0.5875485
125	0xbe8d6fbe	-0.27624315
126	0xbea467da	-0.32110482
127	0xbdcf1a33	-0.10112419
128	0xbecf6a79	-0.4051092
129	0xbdfa8d00	-0.12233925
130	0xbed87720	-0.42278385
131	0x3d967288	0.07346064
132	0x3f7a419a	0.9775635
133	0x3f01bf9e	0.5068301
134	0x3f23d857	0.64001983
135	0x3ec4441f	0.38333222
136	0x3f1da7c2	0.61584103
137	0xbf2fe9ed	-0.6871632
138	0xbf9a882d	-1.2072808
139	0xbf7d189e	-0.9886569
140	0xbe213034	-0.15741044
141	0xbd0e26d2	-0.03470499
142	0xc009a51b	-2.1507022
143	0xbddd967e	-0.1081972
144	0xbda5fd56	-0.081049606
145	0xbd55fc3d	-0.052242506
146	0xbdc6fd29	-0.09716255
147	0x3f5f0013	0.8710949
148	0x3f872235	1.0557314
149	0x3f2f9282	0.6858293
150	0xbe4dcdae	-0.20097992
151	0x3ef6afe5	0.48181072
152	0xbf678ada	-0.90446246
153	0x3f072df3	0.5280449
154	0xbe989503	-0.29801187
155	0xbf12ead6	-0.5738958
156	0xbedce5fc	-0.43144214
157	0x3ee65871	0.4498935
158	0x3ea1a6f0	0.31572676
159	0xbf3282a2	-0.6973058

hidden1.bias f4 [32]
0	0xbe26114f	-0.1621754
1	0x3dbb5d0a	0.09148605
2	0x3dbefe61	0.09325863
3	0x3db24dcd	0.087062456
4	0xbde8247a	-0.11335082
5	0x3dae9b99	0.08525772
6	0xbdd24ad0	-0.102681756
7	0xbd0dcda9	-0.03461996
8	0xbe882df1	-0.2659755
9	0xbdba4c68	-0.090966046
10	0xbd9ad7d1	-0.07560695
11	0x3d66c1d9	0.05633721
12	0x3dc66207	0.09686666
13	0x3db50e02	0.088405624
14	0x3e41a0e9	0.18909039
15	0x3e097901	0.13425066
16	0x3e3dc726	0.18533
17	0x3d2a88c0	0.04163432
18	0xbec3e576	-0.38261002
19	0x3de1691f	0.110063784
20	0x3db95b86	0.0905066
21	0xbdb1cbf1	-0.08681477
22	0xbe8f554b	-0.2799476
23	0xbe664954	-0.2248891
24	0xbe5bb56c	-0.21455926
25	0x3e6876e2	0.227016
26	0xbe105920	-0.14096498
27	0xbead90c0	-0.33899498
28	0xbc8987dc	-0.016788416
29	0xbe13dd85	-0.14439972
30	0x3e1b1393	0.15144186
31	0xbe6c98e8	-0.23105204

hidden2.weight f4 [64, 32]
0	0xbe43e7a2	-0.1913133
1	0x3e9f0537	0.31058666
2	0x3ea552dc	0.3228978
3	0xbe5c4605	-0.21511085
4	0xbeda34c7	-0.4261839
5	0x3e6d943a	0.23201075
6	0xbecfca56	-0.40584058
7	0xbd42fa44	-0.047601953
8	0xbed81c89	-0.4220927
9	0xbdfc5092	-0.12320055
10	0x3e3e66cc	0.18593901
11	0xbe7c2df7	-0.24626909
12	0x3d24c3e8	0.040225893
13	0x3db270a9	0.087128945
14	0x3db4ea0b	0.08833703
15	0x3db1dbee	0.086845264
16	0x3bd6f284	0.006559672
17	0x3e675242	0.22589973
18	0x3f35c72a	0.71007025
19	0x3c704357	0.014664493
20	0xbe6b8e3f	-0.23003481
21	0x3e6086f8	0.21926486
22	0x3e4ef1e9	0.20209469
23	0x3ec515cc	0.38493192
24	0xbd0fc04a	-0.03509549
25	0xbe303b86	-0.17210206
26	0xbba4e361	-0.0050319885
27	0xbe53e2d8	-0.20692003
28	0xbfb8dcde	-1.4442403
29	0xbbe050bf	-0.006845563
30	0xbe4b6b52	-0.19865158
31	0x3dd2731d	0.10275862
32	0x3e38aba9	0.18034233
33	0xbe1b4daa	-0.15166345
34	0xbd44e27a	-0.048067547
35	0x3d9771c9	0.0739475
36	0xbc595ba2	-0.013266476
37	0x3e344243	0.17603402
38	0x3e78498d	0.24246807
39	0xbf513395	-0.8171933
40	0xbe69c8fc	-0.22830576
41	0xbddc4921	-0.10756136
42	0xbe7af1d3	-0.24506311
43	0x3e381f70	0.17980742
44	0xbe925de1	-0.2858725
45	0x3e34df70	0.1766336
46	0x3e6743b7	0.22584425
47	0xbdeea1ee	-0.116519794
48	0xbe1d316f	-0.15350889
49	0xbe2e2fd2	-0.1701043
50	0xbe0dcc0c	-0.13847369
51	0xbdeda8d9	-0.11604471
52	0xbfa42170	-1.2822704
53	0x3eb2f73a	0.34954244
54	0xbef22195	-0.47291246
55	0xbec3241d	-0.3811349
56	0xbe32fd4a	-0.17479435
57	0x3dfb130f	0.122594945
58	0x3edcc05a	0.43115503
59	0xbf4476e5	-0.7674392
60	0xbe641361	-0.22273017
61	0x3ea3d3f7	0.31997654
62	0xbda44377	-0.080206804
63	0xbe1d3a69	-0.15354313
64	0xbd5849d7	-0.052804794
65	0xbe1b1ca6	-0.15147647
66	0xbd47f333	-0.048815917
67	0xbd876106	-0.066103026
68	0x3ee77d57	0.45212814
69	0x3e1cec7e	0.1532459
70	0xbeb6691a	-0.3562706
71	0x3ed6ca14	0.41951048
72	0xbf1409bb	-0.5782735
73	0x3eb2efcf	0.34948584
74	0x3e216fed	0.15765353
75	0xbe9c329a	-0.30507356
76	0x3e440a64	0.19144589
77	0xbe486443	-0.19569497
78	0xbf1cac18	-0.61200094
79	0xbd5421c0	-0.05179
80	0x3cfdf851	0.031002196
81	0x3daa7bfe	0.08324431
82	0x3f2bc058	0.6709037
83	0x37d2ce18	2.512992e-05
84	0xbecd5545	-0.40104118
85	0x3ec7515a	0.38929254
86	0x3e418312	0.18897656
87	0xbde23887	-0.11045938
88	0x3f1f18b2	0.6214706
89	0x3d81c7bb	0.06336924
90	0x3f012035	0.5043977
91	0x3d21f4af	0.03953999
92	0xbce38f44	-0.027778275
93	0xbd5befd8	-0.05369553
94	0xbd85d22e	-0.06534229
95	0x3edfcf29	0.43712738
96	0xbe6d1c9c	-0.23155445
97	0xbbe228da	-0.0069018425
98	0x3de1b5a3	0.110209726
99	0xbe62caa3	-0.22147612
100	0x3ec2c6f0	0.38042402
101	0x3e200065	0.1562515
102	0xbea66170	-0.32496214
103	0xbf70a055	-0.9399465
104	0x3c975ba1	0.01847631
105	0xbe927858	-0.2860744
106	0xbe4c6d99	-0.19963683
107	0xbd429efb	-0.047514897
108	0xbd897688	-0.06712061
109	0x3e7c8e20	0.24663591
110	0xbc0a7530	-0.008450791
111	0x3c142cfc	0.009043928
112	0x3d2eede0	0.042707324
113	0xbebc9e42	-0.3683949
114	0xbe20ceec	-0.15703934
115	0x3e8e8e79	0.27843073
116	0x3eb9f568	0.36320043
117	0x3f20d73c	0.6282842
118	0x3de5b34f	0.11215841
119	0xbeb66594	-0.35624373
120	0x3e98f0c5	0.29871193
121	0xbcb655b1	-0.022257658
122	0x3d8f671d	0.07002089
123	0xbeae7056	-0.3407008
124	0x3e7f9025	0.2495733
125	0xbe33537c	-0.17512316
126	0x3e6e4833	0.2326973
127	0xbea0e31d	-0.31423274
128	0xbd811ea6	-0.06304674
129	0xbd580566	-0.052739523
130	0xbd468aeb	-0.048472326
131	0xbdd965cf	-0.106151216
132	0x3d97166e	0.07377325
133	0xbd769f72	-0.060210653
134	0xbdcb62e4	-0.09930971
135	0x3b58a1c3	0.0033055402
136	0xbe1dd18d	-0.15411969
137	0xbd1a8760	-0.03772676
138	0x3d9d9573	0.07694521
139	0x3d1b36c7	0.037894037
140	0x3dec4230	0.11536062
141	0xbe0b9947	-0.1363269
142	0xbd26f5cf	-0.040761765
143	0xbd8ad52d	-0.06778941
144	0xbdeb741f	-0.11496758
145	0xbdec86b5	-0.11549131
146	0x3c8bf775	0.01708577
147	0xbbb00083	-0.0053711548
148	0xbdf1d84e	-0.11808835
149	0xbe101c65	-0.14073332
150	0xbe15fac8	-0.14646447
151	0x3e16292c	0.14664143
152	0xbd39ba02	-0.045343406
153	0xbd89220d	-0.06695948
154	0xbda53d8c	-0.0806838
155	0xbdb51451	-0.08841766
156	0xbe258b5c	-0.16166443
157	0xbded12a5	-0.11575822
158	0x3d93bc6e	0.072136745
159	0x3cba381d	0.022731835
160	0xbf2256d9	-0.6341377
161	0xbde524cd	-0.1118866
162	0x3e3d15d2	0.18465355
163	0x3e550188	0.20801365
164	0x3ddaa13f	0.106752865
165	0x3d3fc505	0.04681875
166	0x3e55b5d5	0.20870145
167	0xbe5cf47c	-0.21577638
168	0xbf21ba7e	-0.6317519
169	0xbebd89bc	-0.37019145
170	0x3defd32e	0.11710201
171	0x3d04d19b	0.032426458
172	0x3dc4ee4e	0.096157655
173	0x3e2da1fd	0.16956325
174	0xbe84bdaa	-0.25925952
175	0xbd39b338	-0.045336932
176	0x3e7e4e03	0.24834447
177	0xbde61434	-0.11234322
178	0xbea94cb6	-0.33066338
179	0x3e842c3e	0.25815004
180	0xbe2b8a56	-0.1675199
181	0xbe2b265d	-0.16713853
182	0x3d8bfaf5	0.06834976
183	0xbf6cbfd0	-0.9248018
184	0x3bf2f65b	0.0074146218
185	0x3ea4fb31	0.32222894
186	0x3e444c2e	0.19169685
187	0xbe4d529e	-0.20051047
188	0x3ead9205	0.33900467
189	0xbd755208	-0.059892684
190	0x3e93404c	0.28759992
191	0xbd72799a	-0.059198
192	0xbd94a235	-0.07257501
193	0x3e6fc614	0.23415405
194	0x3c1f5103	0.009723905
195	0xbd81815f	-0.06323504
196	0xbf0cced8	-0.5500312
197	0xbdd23bdf	-0.10265326
198	0x3e026436	0.1273354
199	0x3d8e8377	0.06958669
200	0xbe915fc2	-0.2839337
201	0xbb9ef6e8	-0.004851211
202	0x3ebe67b2	0.37188488
203	0xbe649e15	-0.22325929
204	0xbd86708d	-0.06564436
205	0xbc967929	-0.01836832
206	0x3e44033c	0.19141859
207	0x3dd267b4	0.10273686
208	0xbdc724e4	-0.09723833
209	0x3de2fede	0.11083768
210	0xbfa939ee	-1.3220804
211	0xbe4d25cf	-0.20033954
212	0xbec208b0	-0.37897253
213	0xbea40992	-0.32038552
214	0xbe260816	-0.16214022
215	0xbedd4a63	-0.43220815
216	0xbf18c522	-0.596758
217	0xbc655420	-0.013997108
218	0xbf1e5c30	-0.61859417
219	0x3ed563b3	0.41677627
220	0xbea5ab9a	-0.32357484
221	0x3b8a21da	0.004215461
222	0xbe1b3a25	-0.15158899
223	0x3db1aec2	0.086759105
224	0xbea51fd1	-0.32250836
225	0x3ef763f1	0.48318437
226	0x3e855525	0.26041523
227	0xbe7440ad	-0.23852797
228	0xbf211580	-0.6292343
229	0x3e7eb8c0	0.24875164
230	0x3e15a566	0.14613876
231	0xbd8ce074	-0.068787485
232	0x3e5d3a3d	0.21604247
233	0x3e225e59	0.15856303
234	0x3e757940	0.23972034
235	0xbf1aa881	-0.60413367
236	0xbe0a51e1	-0.13507797
237	0x3e54f26e	0.20795605
238	0x3d645e36	0.05575391
239	0x3d087f68	0.03332463
240	0x3d47ebe8	0.048808962
241	0x3e565d8d	0.20934124
242	0xbe3d9f40	-0.1851778
243	0xbd35fbad	-0.04442947
244	0x3eaf2ed5	0.34215418
245	0x3e226f28	0.15862715
246	0xbf2ddf79	-0.6791912
247	0x3d992ada	0.074788764
248	0xbf6e6fd2	-0.93139374
249	0x3e280fcc	0.16412276
250	0xbe96a015	-0.29419008
251	0xbee215cc	-0.44157255
252	0xbf9d0d71	-1.2269727
253	0xbe39d078	-0.18145931
254	0xbe7daf74	-0.24773961
255	0xbe683efc	-0.22680277

hidden2.bias f4 [64]
0	0x3d8268e6	0.06367664
1	0x3e362c95	0.17790444
2	0xbe0342c7	-0.12818442
3	0xbd04b7b7	-0.032401767
4	0xbdb73a9f	-0.08946728
5	0xbc2246a5	-0.009904538
6	0x3e3cca8e	0.18436643
7	0x3ccb3f2e	0.0248104
8	0xbe9c6eee	-0.30553383
9	0xbdcf7b1c	-0.10130903
10	0x3e0d458e	0.13796064
11	0x3dc8213d	0.09771965
12	0x3d4c8edf	0.04994094
13	0x3c48194a	0.012213061
14	0xbd0f11c7	-0.034929063
15	0x3e3d2fba	0.18475237
16	0x3db44cc1	0.08803702
17	0xbc29083e	-0.0103169065
18	0x3da7477c	0.081679314
19	0xbd8dc8e1	-0.0692308
20	0xbe1d8cf1	-0.15385796
21	0xbd9d01d2	-0.07666363
22	0xbd9d8a9d	-0.07692454
23	0x3d1048ec	0.035225794
24	0x3cd3491e	0.0257917
25	0x3e3e20dc	0.18567222
26	0x3e012f4e	0.12615702
27	0x3c43fc97	0.011962078
28	0xbe54e4a6	-0.20790347
29	0xbd84bc05	-0.064811744
30	0xbdb190a2	-0.08670165
31	0xbd216306	-0.039401077
32	0x3d736fa7	0.05943265
33	0x3d447c81	0.0479703
34	0xbd050b44	-0.032481447
35	0xbe081c30	-0.13292003
36	0xbcfd455b	-0.03091686
37	0x3e6078a2	0.21921018
38	0xbccfd623	-0.025370663
39	0xbeb2c538	-0.3491609
40	0xbd0705ba	-0.032964446
41	0x3d1e49cb	0.038644593
42	0x3c27ba53	0.010237294
43	0xbd5aac92	-0.053387232
44	0xbe417690	-0.18892884
45	0x3d404a3e	0.046945803
46	0xbe9d75b5	-0.30753866
47	0x3dd3123f	0.103062145
48	0x3e5f8b21	0.21830417
49	0xbe5bcae5	-0.21464117
50	0xbe49b505	-0.1969796
51	0x3cd9bc1a	0.026578952
52	0x3d75e082	0.06002856
53	0x3dc10f37	0.0942673
54	0x3ce6d523	0.028177803
55	0x3ce5f348	0.028070107
56	0xbc08db1d	-0.008353022
57	0x3d989191	0.074496396
58	0x3d8653eb	0.06558975
59	0xbe41c065	-0.18921049
60	0x3e1cc9c6	0.15311345
61	0x3c688881	0.014192701
62	0x3d664685	0.056219596
63	0xbde2c6f9	-0.11073107

hidden3.weight f4 [128, 64]
0	0xbdbe32fe	-0.0928707
1	0xbb9fac86	-0.0048728613
2	0x3dacd737	0.084394865
3	0xbcbba6d9	-0.022906708
4	0xbd8a583a	-0.06755109
5	0xbdd99bf8	-0.10625452
6	0xbe11f6df	-0.1425433
7	0x3d78c2db	0.060732704
8	0xbdd75a13	-0.10515227
9	0xbd4a9838	-0.049461573
10	0x3ca1499b	0.019688418
11	0x3d895ecf	0.067075364
12	0xbe14b1ad	-0.14520903
13	0xbd3d724f	-0.04625159
14	0x3d62c3da	0.05536256
15	0x3dd87241	0.10568667
16	0xbdde3752	-0.10850395
17	0x3c7c4973	0.015398371
18	0xbdbea33e	-0.0930848
19	0x3d501ca0	0.05080855
20	0xbc510c50	-0.012759283
21	0xbd966e5c	-0.07345268
22	0xbd56ebab	-0.052470844
23	0xbdc07d53	-0.09398904
24	0xbb9496af	-0.0045345644
25	0x3dac14d4	0.0840241
26	0xbdc0f4e0	-0.09421706
27	0xbe28e09e	-0.16491935
28	0x3adf6e80	0.0017046481
29	0xbd94d892	-0.0726787
30	0xbd986ae0	-0.0744226
31	0x3d5bc808	0.05365756
32	0x3d250c3d	0.040294874
33	0xbda46e67	-0.0802887
34	0xbcc017e5	-0.023448894
35	0xbc9a1150	-0.018807083
36	0xbdc3be58	-0.095577896
37	0x3d0e64d3	0.034764122
38	0xbe005b1f	-0.1253476
39	0xbc826a10	-0.015919715
40	0x3dadc90a	0.08485611
41	0xbdd84b87	-0.10561281
42	0xbb9f7f26	-0.004867452
43	0x3cd11074	0.02552054
44	0x3d673ab8	0.056452483
45	0xbd8bb647	-0.06821876
46	0x3ca126e8	0.019671872
47	0xbe170d15	-0.14751084
48	0xbd04e944	-0.032449022
49	0x3dde9454	0.10868135
50	0x3cbda218	0.023148581
51	0xbd21cdb9	-0.039502833
52	0x3ceb372e	0.028712835
53	0xbd984564	-0.0743511
54	0xbd045aee	-0.03231328
55	0xbd2e7b72	-0.042598195
56	0xbe14a4dc	-0.14516014
57	0x3d4e2448	0.05032757
58	0xbcc163c6	-0.023607146
59	0xbda78e4b	-0.08181437
60	0xbd2173eb	-0.03941719
61	0xbdfaeffc	-0.12252805
62	0xbc1d0f18	-0.009586118
63	0xbd69cd56	-0.05708059
64	0x3e5075d1	0.20357443
65	0x3db1adab	0.08675703
66	0xbe21cc84	-0.15800673
67	0x3bc5d9a5	0.006037908
68	0x3dd2a37d	0.10285089
69	0x3db80ae6	0.08986454
70	0x3e599cd1	0.21251227
71	0xbe2dce25	-0.16973169
72	0x3e85d529	0.2613919
73	0x3e793efd	0.24340434
74	0xbd0dcfd9	-0.034622047
75	0xbf12edf5	-0.57394344
76	0xbdb90c27	-0.09035521
77	0xbd51f001	-0.051254276
78	0x3e1d389c	0.15353626
79	0xbdb572ae	-0.08859764
80	0x3ea24c61	0.31698897
81	0xbd0e8277	-0.03479239
82	0x3bbe2aeb	0.005803456
83	0xbd6259f0	-0.055261552
84	0x3c2748e0	0.010210246
85	0xbc6e5ae6	-0.014548039
86	0xbdff5363	-0.12467077
87	0x3e0128e1	0.1261325
88	0xbd04122c	-0.032243893
89	0xbe6afe54	-0.22948581
90	0xbc5a52cd	-0.013325405
91	0xbd168736	-0.03675004
92	0x3d35350e	0.04424005
93	0xbdb9e426	-0.09076719
94	0xbe41b334	-0.18916017
95	0xbdb15872	-0.08659448
96	0x3db34e11	0.08755124
97	0x3e08c657	0.1335691
98	0xbce29a72	-0.027661536
99	0x3e088dd0	0.13335347
100	0xbddbd7b7	-0.10734504
101	0xbe132898	-0.14370954
102	0x3dec508d	0.11538801
103	0x3f494029	0.78613526
104	0x3d51c025	0.051208634
105	0x3dff80f7	0.1247577
106	0xbd68faf3	-0.05687995
107	0x3d1507b4	0.0363843
108	0xbd6daf8e	-0.05802875
109	0x3ca80d0b	0.020514032
110	0x3ef010f1	0.46887925
111	0xbd1c24f8	-0.038121194
112	0xbe457eae	-0.19286606
113	0x3bf0ac1a	0.007344735
114	0xbfd1573d	-1.6354748
115	0x3f0b886a	0.54505026
116	0x3e5b7047	0.21429549
117	0xbe01b051	-0.12664916
118	0xbec9a345	-0.39382377
119	0x3e289bde	0.16465709
120	0x3d951bff	0.072807305
121	0xbebdf51d	-0.3710107
122	0x3d5ade6c	0.053434774
123	0x3d99a6ed	0.07502542
124	0xbe07c4e6	-0.13258705
125	0x3df6e31d	0.12055037
126	0x3c50ba16	0.012739679
127	0x3e0bd0b2	0.1365383
128	0xbe8ee284	-0.27907193
129	0x3e7e268c	0.24819392
130	0x3e97acce	0.29624027
131	0xbf051f87	-0.5200123
132	0xbda5732a	-0.080786064
133	0x3e1d0acb	0.15336148
134	0xbe0e8aba	-0.13920107
135	0xbe37ce2f	-0.17949747
136	0xbd44386f	-0.04790538
137	0x3de61d06	0.112360045
138	0xbf112e54	-0.56711316
139	0x3dd95c17	0.10613268
140	0xbd6feead	-0.05857723
141	0x3d6596c6	0.056051992
142	0x3f9f2f19	1.2436248
143	0xbd790298	-0.06079349
144	0x3e8ea9dc	0.27863967
145	0x3e7bd40f	0.24592613
146	0xbdf2c536	-0.11854021
147	0xbec639e5	-0.38716045
148	0xbe003a0f	-0.12522148
149	0x3cb0774f	0.021541266
150	0xbdae73eb	-0.08518203
151	0x3dcc52f5	0.0997676
152	0x3d9c02a9	0.07617695
153	0xbeda6574	-0.42655528
154	0xbe0792e0	-0.13239622
155	0x3d97e767	0.07417183
156	0xbdcdd39f	-0.10050129
157	0xbdc490ae	-0.09597908
158	0x3cb71154	0.02234713
159	0xbeb91cd1	-0.36154798
160	0x3e47885b	0.19485609
161	0xbd58a3f0	-0.052890718
162	0xbe65fa3e	-0.22458741
163	0xbdc9358f	-0.098246686
164	0xbd91b588	-0.071147025
165	0x3c97a18c	0.018509649
166	0xbe1298f5	-0.14316161
167	0xbec36024	-0.38159287
168	0x3d4a0254	0.049318627
169	0xbe27f0e4	-0.16400486
170	0xbf37bbb1	-0.7177077
171	0x3bc5f91c	0.006041659
172	0xbdaa7516	-0.083231136
173	0xbe0f4d96	-0.1399444
174	0x3db994bd	0.09061573
175	0xbcf46784	-0.029834516
176	0x3d145051	0.03620941
177	0x3d887678	0.06663221
178	0x3e0c6109	0.13708891
179	0x3d6d811f	0.057984468
180	0xbfaf2a17	-1.368472
181	0x3d50b175	0.050950486
182	0x3e2afb48	0.16697419
183	0x3aa847fb	0.0012838835
184	0x3cdad4e3	0.02671284
185	0xbec4bb1e	-0.3842401
186	0x3e77667c	0.24160188
187	0xbdf8ac0d	-0.12142191
188	0x3d826751	0.06367362
189	0xbd341e96	-0.04397448
190	0xbcc1009c	-0.02355986
191	0x3e81915d	0.25306216
192	0xbdce9764	-0.10087469
193	0xbdb00f96	-0.08596723
194	0xbf61545c	-0.8801935
195	0x3e2bedf5	0.16789992
196	0x3c5ecdc0	0.013598859
197	0xbdbb7f4e	-0.09155141
198	0xbd0ea2bb	-0.03482316
199	0xbc8c28e2	-0.017109338
200	0xbf9c8c64	-1.2230344
201	0xbe2e1d58	-0.17003381
202	0xbf0e1bb9	-0.5551105
203	0x3e54a241	0.2076502
204	0xbe7466b7	-0.23867308
205	0xbd66dd5f	-0.05636346
206	0x3cf51dc9	0.02992143
207	0x3e262e0f	0.16228507
208	0xbe5c55a5	-0.21517046
209	0x3e2e44cf	0.17018436
210	0x3d0ef43f	0.0349009
211	0xbead39c4	-0.33833134
212	0x3d5136f4	0.051077798
213	0xbdd5d4e2	-0.10440995
214	0x3dee57b3	0.11637821
215	0xbd9bc58f	-0.07606041
216	0x3e2c4739	0.16824044
217	0xbe95bf85	-0.2924768
218	0x3c930292	0.017945562
219	0xbdeabbbb	-0.11461588
220	0x3c6965e9	0.014245489
221	0xbe9a63e3	-0.30154333
222	0xbd4e8628	-0.05042091
223	0xbdafbd26	-0.08580999
224	0xbe09c43a	-0.1345376
225	0x3ddb6ae9	0.10713751
226	0x3dd88432	0.10572089
227	0xbd28a2d5	-0.041170914
228	0x3dcf8985	0.10133652
229	0x3e066996	0.13126215
230	0x3c2cc2bd	0.010544476
231	0x3d977618	0.073955715
232	0xbd6412ec	-0.055682108
233	0xbfe3b13e	-1.7788465
234	0xbf2d2235	-0.6763032
235	0xbe4aedcd	-0.19817276
236	0x3d7ee5d0	0.062230885
237	0xbd908690	-0.07056916
238	0xbf966e9c	-1.1752505
239	0x3db340d6	0.08752601
240	0x3ef8c14d	0.48584977
241	0xbd95fb7b	-0.07323357
242	0x3e1525ab	0.1456515
243	0xbe5663c0	-0.20936489
244	0x3e02e41e	0.12782332
245	0x3d827838	0.06370586
246	0x3e749fc2	0.23889068
247	0x3dadf61c	0.08494207
248	0xbdbe7058	-0.092987716
249	0x3ebf65f6	0.37382478
250	0xbe07a2c8	-0.1324569
251	0xbe0b8a20	-0.1362691
252	0xbdaed5f2	-0.085369006
253	0xbe722e8d	-0.2365057
254	0xbea4f843	-0.3222066
255	0xbd18b0d6	-0.03727802

hidden3.bias f4 [128]
0	0xbe42f536	-0.19038853
1	0x3d9b420e	0.07580958
2	0x3e373da9	0.17894615
3	0x3dd60bac	0.10451445
4	0xbe38a250	-0.18030667
5	0x3c563eef	0.013076528
6	0xbe5c06bd	-0.21486945
7	0xbd1d6b6a	-0.038432516
8	0x3d93fd66	0.07226066
9	0x3dbdce13	0.09267821
10	0x3e40d61f	0.1883168
11	0x3da824de	0.08210157
12	0x3dca8d4a	0.0989023
13	0xbe0fc229	-0.1403891
14	0x3d9c94b8	0.07645553
15	0x3d602e40	0.054731607
16	0xbdce69b7	-0.10078757
17	0xbe05f720	-0.13082552
18	0x3dbfaddc	0.09359333
19	0x3d923632	0.07139243
20	0xbe24f462	-0.1610885
21	0xbdd198d8	-0.10234231
22	0x3da0a24e	0.07843457
23	0x3db2c394	0.0872871
24	0xbd9015f3	-0.070354365
25	0x3db56ab7	0.08858245
26	0xbd74cbf1	-0.059764806
27	0x3ce4a432	0.027910326
28	0xbd4286c2	-0.047491796
29	0x3e04080e	0.12893698
30	0x3d5a62db	0.053316932
31	0xbdae2c30	-0.08504522
32	0x3d887e08	0.066646636
33	0x3d242f49	0.040084157
34	0xbe0f4e71	-0.13994767
35	0xbdc2c177	-0.09509557
36	0x3d987dba	0.074458554
37	0x3e0571ab	0.13031642
38	0xbe30a196	-0.1724914
39	0x3e1ce37a	0.1532115
40	0xbe36aae2	-0.17838624
41	0x3df3edcf	0.11910593
42	0xbc0d58db	-0.008627142
43	0xbd8090b1	-0.06277598
44	0x3d73bb14	0.059504583
45	0xbe002c0a	-0.125168
46	0x3df6931d	0.120397784
47	0xbde776fd	-0.11301992
48	0xbdb8dd0d	-0.09026537
49	0xbe23e8ae	-0.16006729
50	0x3dbbb77e	0.09165858
51	0x3dad26ff	0.084547035
52	0x3ce777cc	0.028255366
53	0x3c718bf4	0.01474284
54	0x3def53c4	0.11685899
55	0x3b0aa730	0.002115678
56	0x3de993bd	0.11405132
57	0xbdbd58f6	-0.092454836
58	0x3dbe4def	0.092922084
59	0x3d6eddf6	0.058317147
60	0xbcd955d1	-0.026530178
61	0x3da667b7	0.08125251
62	0x3d8177a0	0.06321645
63	0x3d06d434	0.032917216
64	0x3cdbdd53	0.026838934
65	0x3df91f74	0.12164202
66	0xbb9f2a5d	-0.004857345
67	0xbcee75ab	-0.029108843
68	0xbdb46b2c	-0.08809504
69	0xbdbf6173	-0.09344759
70	0xbe10aead	-0.14129134
71	0xbcd767b0	-0.02629456
72	0x3ba42ee2	0.0050104717
73	0xbd9b756a	-0.07590754
74	0x3c589076	0.013218036
75	0x3c839d4d	0.016066218
76	0x3cc62e2c	0.024191938
77	0xbddf9b56	-0.109183
78	0xbe978cfa	-0.29599744
79	0xbc7119d0	-0.014715627
80	0xbd290462	-0.041263945
81	0x3d1977f3	0.037467908
82	0xbd249db3	-0.040189456
83	0xbe0a6e47	-0.1351863
84	0x3dd8dbe1	0.105888136
85	0xbccd49e2	-0.025059644
86	0x3dd32ef0	0.10311687
87	0xbd5e8834	-0.054329112
88	0xba563ae7	-0.0008172229
89	0xbd8eb2ae	-0.06967674
90	0xbd9c0510	-0.07618153
91	0x3e3afab5	0.182597
92	0xbdca6524	-0.09882572
93	0x3e5a4052	0.21313599
94	0x3de9a015	0.11407486
95	0xbe2b80a7	-0.16748296
96	0x3c8f1c61	0.017469587
97	0xbb560420	-0.0032656267
98	0x3e1f1fc2	0.15539458
99	0xbe0bad1a	-0.13640252
100	0x3d865810	0.06559765
101	0x3d93e684	0.07221702
102	0xbdcdc787	-0.100478224
103	0xbdbd7b38	-0.09252018
104	0xbd6419a6	-0.055688523
105	0xbe2cb8e5	-0.16867407
106	0x3dd8b972	0.10582246
107	0xbaaa02ee	-0.0012970844
108	0xbe00f405	-0.12593086
109	0x3c1a9f3d	0.009437379
110	0xbdf70a39	-0.12062497
111	0x3ccd7512	0.025080238
112	0xbde0c78d	-0.10975561
113	0x3dc2831f	0.094976656
114	0xbe1cb280	-0.15302467
115	0xbdfb3f7c	-0.12267968
116	0xbe2a2a9b	-0.16617815
117	0x3d49d8ac	0.0492789
118	0xbe20efe4	-0.15716511
119	0x3dfe79ae	0.12425552
120	0x3d21826b	0.039431017
121	0x3d114d6d	0.03547423
122	0x3a09f405	0.0005262497
123	0x3c86bd75	0.016447762
124	0x3de0d850	0.10978758
125	0x3d5cb17c	0.0538802
126	0x3dbd6b77	0.09249013
127	0x3d2b05d9	0.041753624

output.weight f4 [4, 128]
0	0xbd45b24c	-0.04826574
1	0xbe4e6889	-0.20157064
2	0x3f07d73d	0.530628
3	0xbf045eff	-0.5170745
4	0xbd02e331	-0.031954948
5	0xbed6c861	-0.41949752
6	0xbe1f6498	-0.15565717
7	0x3e1b287c	0.15152162
8	0xbda7b3cd	-0.08188591
9	0xbec268cd	-0.37970582
10	0x3e1db831	0.15402295
11	0xbd9796ac	-0.07401785
12	0xbea27db5	-0.31736532
13	0xbc1b836d	-0.009491784
14	0xbeba082e	-0.36334366
15	0x3e0df495	0.13862832
16	0x3edf931b	0.4366692
17	0xbdb47823	-0.08811977
18	0x3d830167	0.06396752
19	0x3f121694	0.570657
20	0xbe13fb4f	-0.14451335
21	0xbea4dcd3	-0.32199726
22	0xbf3bbe62	-0.73337376
23	0xbe78700d	-0.24261494
24	0x3d1758c8	0.036949903
25	0xbec09722	-0.37615305
26	0xbd4dd122	-0.050248273
27	0x3d0bd75c	0.03414093
28	0x3d8d5002	0.06900026
29	0x3ec1c388	0.3784449
30	0x3e292742	0.16518882
31	0xbc18d074	-0.009327043
32	0x3edd15fc	0.43180835
33	0x3c048ab6	0.008089712
34	0xbbb2cc86	-0.00545651
35	0x3c8e81aa	0.017395813
36	0xbe9df5ab	-0.30851492
37	0xbe49ddea	-0.1971356
38	0x3ba5a8ae	0.0050555086
39	0x3dfc96fc	0.123334855
40	0x3c9fe299	0.01951723
41	0x3ef45351	0.47719815
42	0xbc673e80	-0.014114022
43	0xbe10e50a	-0.14149871
44	0x3d744064	0.05963172
45	0xbd30ad28	-0.043133885
46	0xbf2b1a56	-0.6683706
47	0xbd26980b	-0.040672343
48	0x3ea0d995	0.31416002
49	0x3c5c1239	0.013432079
50	0xbeda7b38	-0.42672133
51	0xbcf53780	-0.029933691
52	0xbcc18459	-0.023622679
53	0x3c8c66f9	0.017138945
54	0x3ddd602f	0.10809361
55	0xbf290cac	-0.6603496
56	0x3c9a68d3	0.018848812
57	0xbd6a0273	-0.057131242
58	0x3e8e7b96	0.27828664
59	0x3f431047	0.7619671
60	0xbd304fdd	-0.043044914
61	0xbf4d9f1f	-0.80320925
62	0x3d712461	0.058872584
63	0xbef11dd2	-0.47093064
64	0x3d872488	0.06598765
65	0xbe0b2540	-0.13588428
66	0xbf0ce836	-0.55041826
67	0xbda12c2d	-0.07869754
68	0x3e2e38e7	0.17013894
69	0x3ed1b8ab	0.40961203
70	0xbd45a424	-0.04825224
71	0x3d1acef4	0.037795022
72	0xbe797cbb	-0.24363987
73	0x3e8cc0e0	0.27490902
74	0xbec05291	-0.37562993
75	0xbf15af32	-0.5847045
76	0xbcd5ecbe	-0.026113864
77	0xbcf16090	-0.02946499
78	0xbdc03f33	-0.09387054
79	0xbcf2ee17	-0.029654546
80	0x3de92d26	0.113855645
81	0x3f696eb0	0.9118452
82	0xbe076b54	-0.13224536
83	0x3d46f576	0.048573934
84	0xbebf29ad	-0.37336484
85	0xbe110676	-0.14162621
86	0xbdf4a514	-0.11945549
87	0xbcb84eca	-0.022498507
88	0x3e9ff349	0.312403
89	0xbd04f2c2	-0.032458074
90	0xbeef0041	-0.4667988
91	0x3ebbb9dc	0.36665237
92	0x3d191f5e	0.03738343
93	0x3f48c877	0.78430885
94	0xbedbd214	-0.42933714
95	0xbf7f03ca	-0.99615157
96	0xbe4125fb	-0.18862145
97	0xbe7dfe76	-0.248041
98	0x3e05e42f	0.13075326
99	0x3ecd35ea	0.40080196
100	0x3f2cbe0c	0.6747749
101	0xbf376a19	-0.7164627
102	0x3d7faf81	0.062423233
103	0xbd527813	-0.051384043
104	0x3d4a0a02	0.04932595
105	0x3f8fbe6c	1.1229987
106	0xbda31ee5	-0.07964877
107	0xbdaab538	-0.08335346
108	0xbe9dccb9	-0.30820253
109	0xbeb3c46e	-0.351108
110	0xbf50b874	-0.81531453
111	0xbc625ea6	-0.013816511
112	0x3ebc3a45	0.36763206
113	0x3e2c2c6a	0.16813818
114	0x3dbd7bdc	0.0925214
115	0x3c5c56f7	0.013448468
116	0x3b0058d1	0.0019584189
117	0xbe109f40	-0.14123249
118	0x3e477446	0.19477949
119	0xbc3b518f	-0.011433019
120	0xbe4d25b3	-0.20033912
121	0xbe42e248	-0.19031632
122	0xbd2f44cb	-0.042790215
123	0x3c504833	0.012712526
124	0xbee2dede	-0.4431066
125	0x3d999367	0.07498818
126	0x3e04885c	0.12942642
127	0xbdeb2cc1	-0.114831455
128	0xbd59759a	-0.05309067
129	0xbe5ce2e8	-0.21570933
130	0xbda1b68e	-0.07896148
131	0x3f021845	0.5081828
132	0xbc889bd1	-0.016675862
133	0xbe81c011	-0.25341848
134	0xbe7bb60c	-0.24581164
135	0xbd077f98	-0.033080667
136	0xbdd8e9e5	-0.10591487
137	0xbecd1317	-0.40053627
138	0x3f2821dc	0.65676665
139	0x3e806141	0.250742
140	0xbe57477d	-0.21023364
141	0xbd3b1405	-0.04567339
142	0xbe02a648	-0.12758744
143	0xbda90653	-0.082531594
144	0xbf36468d	-0.712014
145	0xbd55fc36	-0.05224248
146	0x3e1286a5	0.14309175
147	0xbf09d194	-0.53835416
148	0xbd94cb21	-0.07265306
149	0x3e7f881f	0.2495427
150	0x3c7a0eba	0.0152623
151	0x3ea641bb	0.32472023
152	0x3d95f0ec	0.07321343
153	0x3d8199d4	0.063281685
154	0x3bcee038	0.00631335
155	0x3f031d26	0.5121635
156	0xbcd04d93	-0.025427615
157	0xbdd41e19	-0.10357303
158	0x3d9cf7c6	0.076644465
159	0xbd82f639	-0.063946195
160	0x3e53f44e	0.20698664
161	0xbf0921cf	-0.5356721
162	0x3d987998	0.07445067
163	0xbdc3c8e4	-0.09559801
164	0x3e4ad4a4	0.19807678
165	0xbe6a64ab	-0.22889964
166	0x3d62c721	0.055365685
167	0x3d2f7673	0.04283757
168	0x3c7db753	0.015485602
169	0x3ede0b91	0.433682
170	0x3da412dc	0.0801141
171	0xbdcf120a	-0.101108626
172	0x3f06b6eb	0.5262286
173	0x3be86c2a	0.0070929723
174	0x3f5b98a0	0.8577976
175	0xbd095bab	-0.033534687
176	0x3dfac283	0.122441314
177	0xbca8b525	-0.020594189
178	0xbe3d0b8c	-0.18461436
179	0x3b95dde6	0.0045735715
180	0x3e1607c9	0.14651407
181	0xbd32db89	-0.043666396
182	0xbe74593e	-0.23862168
183	0xbf41a800	-0.7564697
184	0x3dcb1a7c	0.09917161
185	0xbd834176	-0.0640897
186	0x3daf0132	0.0854515
187	0x3e9fca2f	0.3120894
188	0x3d908f8c	0.070586294
189	0x3f805049	1.0024501
190	0x3e9d3052	0.30700928
191	0xbd1bd9ec	-0.038049623
192	0xbe1d3e0a	-0.15355697
193	0xbdb95b8c	-0.09050664
194	0x3e438875	0.19095023
195	0xbcdd881a	-0.027042437
196	0x3e1479f9	0.14499654
197	0x3f023893	0.50867575
198	0x3d830447	0.063973
199	0x3da0df10	0.07855046
200	0xbf31ed85	-0.6950305
201	0x3d99ed8d	0.07516012
202	0x3f18d85a	0.59705126
203	0xbf40f725	-0.7537711
204	0x3ce14990	0.027500898
205	0x3d27d530	0.040974796
206	0xbe4f5871	-0.20248581
207	0x3ea8228f	0.32838866
208	0x3ecada4c	0.39619672
209	0x3e10c2c4	0.14136797
210	0x3dee0dc9	0.11623723
211	0xbdb38cd9	-0.08767099
212	0xbee1489a	-0.44000703
213	0xbbfc491c	-0.007699145
214	0x3d6039a9	0.05474249
215	0x3d089cac	0.03335254
216	0x3dd6d53c	0.1048989
217	0x3d3c3466	0.04594841
218	0x3ec274f7	0.37979862
219	0x3ed0a95e	0.40754217
220	0xbc143fc7	-0.009048409
221	0x3d4429f5	0.047891576
222	0x3cc5ba48	0.024136677
223	0x3ef27d81	0.47361377
224	0xbe36435d	-0.17799135
225	0x3e2953b4	0.16535836
226	0x3be6d9ec	0.0070450213
227	0xbc02ad81	-0.007975937
228	0xbdf7dab8	-0.12102264
229	0xbf979dcb	-1.184503
230	0xbf1bcd54	-0.6086018
231	0xbd350635	-0.044195373
232	0xbd794ccb	-0.06086425
233	0xbe555c99	-0.20836104
234	0x3f7259c3	0.94668216
235	0xbd853b33	-0.06505432
236	0xbbb119f3	-0.0054047047
237	0xbe798865	-0.24368437
238	0x3e9d8e07	0.3077242
239	0xbf0aea4c	-0.5426376
240	0xbeae45bc	-0.34037578
241	0xbcdde2c7	-0.027085675
242	0xbcf09c21	-0.029371323
243	0xbd44718b	-0.047959846
244	0x3cdde2a8	0.027085617
245	0x3ca31c86	0.019911062
246	0x3e410cf8	0.18852603
247	0xbe35a1ed	-0.17737551
248	0x3c250551	0.010072068
249	0xbdf25eb0	-0.118344665
250	0x3d6814d8	0.056660503
251	0x3eadb919	0.3393028
252	0xbed02319	-0.40651777
253	0xbeaf2479	-0.34207514
254	0x3d1be24e	0.038057618
255	0xbc0c5ab5	-0.008566548

output.bias f4 [4]
0	0xbc5c75ff	-0.013455867
1	0xbd9698bc	-0.073533505
2	0xbd5b2094	-0.053497866
3	0xbd41aa5e	-0.047281615
