models/MagneticPendulum/p1.0_measure_[dist]_N[5]_sep/al_model_state_dict.pth (torch, 46352 bytes, 7 tensors)

hidden1.weight f4 [32, 5]
0	0x3e6bf68c	0.23043269
1	0xbe4a20b2	-0.19739035
2	0xbdb18e74	-0.08669749
3	0x3e56f22c	0.20990819
4	0xbed79060	-0.42102337
5	0x3e30875c	0.17239136
6	0xbe06197a	-0.13095656
7	0x3ea7a03e	0.32739443
8	0x3ea86ea8	0.32896924
9	0xbe2ae5dd	-0.16689248
10	0x3e19aca2	0.1500726
11	0xbc92ee05	-0.017935762
12	0x3e346448	0.1761638
13	0xbe09e582	-0.13466457
14	0xbd9c8c6f	-0.07643973
15	0xbde3f8db	-0.1113145
16	0x3cc01447	0.023447169
17	0x3df20867	0.11818009
18	0x3f0d4224	0.5517905
19	0x3d8f7c05	0.07006077
20	0xbdf52d51	-0.11971534
21	0xbe8772f8	-0.26454902
22	0xbdb2ce8c	-0.08730802
23	0xbe2e7ed1	-0.17040564
24	0xbe1a72a4	-0.15082794
25	0xbcd091ca	-0.025460143
26	0x3d7b1982	0.061303623
27	0x3ea084b6	0.3135125
28	0xbf0974c8	-0.5369382
29	0x3e4e51bd	0.20148368
30	0x3dfcd89e	0.12346004
31	0x3ee14fac	0.44006097
32	0x3e990dbd	0.29893294
33	0xbed7154c	-0.42008436
34	0xbeec132d	-0.4610838
35	0xbe13064a	-0.14357868
36	0x3e0b7022	0.13616994
37	0xbd0c62ed	-0.03427403
38	0x3eaf434c	0.3423103
39	0xbe86f5e9	-0.2635949
40	0x3ee0ac3c	0.43881404
41	0xbe41c1ac	-0.18921536
42	0x3eabb67a	0.33537656
43	0x3bad8800	0.0052957535
44	0xbe71411b	-0.23559992
45	0x3e6b6434	0.22987443
46	0xbe73165c	-0.23738998
47	0x3e06af2c	0.1315276
48	0xbe043c44	-0.12913615
49	0xbd48d3b0	-0.049030006
50	0xbe6bdb16	-0.23032793
51	0xbe271b11	-0.16318919
52	0x3e8ac85c	0.27105987
53	0xbde8135c	-0.113318175
54	0x3ea9a64f	0.33134696
55	0x3d7f4ddb	0.062330108
56	0x3d96f1e6	0.07370357
57	0xbeaee4e9	-0.3415902
58	0x3e8827ab	0.26592764
59	0x3e01d9d3	0.1268075
60	0xbe84997a	-0.25898343
61	0x3e25114d	0.16119881
62	0x3eb488fc	0.3526076
63	0x3f07b1fb	0.5300595
64	0xbec25d89	-0.37961987
65	0xbcd2188a	-0.025646467
66	0xbdc360bc	-0.09539935
67	0x3de8dadb	0.11369868
68	0xbe998d3f	-0.29990575
69	0xbea3a90a	-0.31964904
70	0x3e862e72	0.2620731
71	0xbc38dbf8	-0.011282913
72	0x3e873177	0.26404926
73	0xbd3ce9a4	-0.046121255
74	0xbc84ebfd	-0.01622581
75	0x3dd66c5c	0.10469887
76	0x3c68b0ed	0.014202339
77	0x3e42479c	0.1897263
78	0xbef1b8a5	-0.47211185
79	0x3e4ddc12	0.20103481
80	0xbe867a39	-0.26265123
81	0xbe4c3546	-0.19942197
82	0x3d4952df	0.049151298
83	0xbe94676f	-0.28985164
84	0x3e71f03c	0.23626798
85	0xbd927f14	-0.071531445
86	0xbe914c9b	-0.28378758
87	0x3ed2aed6	0.41149014
88	0xbd1fc358	-0.039004654
89	0x3dfa9593	0.1223556
90	0x3e133908	0.14377224
91	0xbeabb393	-0.33535442
92	0x3db80060	0.089844465
93	0x3ddbfe98	0.10741919
94	0xbe994fa4	-0.29943573
95	0xbe0b722c	-0.13617772
96	0x3e098b31	0.13432004
97	0xbca5f1b4	-0.020256855
98	0xbebcbc80	-0.36862564
99	0xbdace48b	-0.084420286
100	0x3ee12fbc	0.4398173
101	0xbd58c135	-0.05291863
102	0x3e633d4d	0.22191353
103	0x3e27aef0	0.16375327
104	0xbe84894a	-0.25885993
105	0xbe956ead	-0.29186
106	0x3e6a17b4	0.22860605
107	0x3e2767a2	0.16348127
108	0x3ed91509	0.4239886
109	0xbda1407c	-0.078736275
110	0x3d4c6a52	0.049906082
111	0x3ea52a22	0.32258707
112	0x3f121849	0.57068306
113	0xbeb1e96f	-0.34748408
114	0xbcab6505	-0.020922193
115	0x3e8da8f3	0.2766796
116	0x3ef2c2c6	0.47414225
117	0x3eaed559	0.34147146
118	0xbee846f5	-0.45366636
119	0xbeb49e8f	-0.3527722
120	0xbe8239e9	-0.25434807
121	0x3dd47f34	0.103758246
122	0x3ef47635	0.47746435
123	0xbec4ff46	-0.38476008
124	0x3e5f98d9	0.2183565
125	0xbe042022	-0.12902883
126	0xbe25d2cb	-0.16193692
127	0xbd9ec48d	-0.07752333
128	0x3e34b7a4	0.17648178
129	0x3eb220b0	0.34790564
130	0xbe9ee073	-0.31030616
131	0x3c9599fb	0.0182619
132	0x3efcee6d	0.49400654
133	0x3eefb307	0.46816275
134	0x3e3851f1	0.18000008
135	0x3ea2b746	0.31780452
136	0x3e90d454	0.28286994
137	0x3dec9268	0.11551362
138	0xbe9c939c	-0.30581367
139	0xbec04846	-0.3755514
140	0xbe961ad6	-0.2931735
141	0x3e07a98a	0.13248268
142	0xbec55b91	-0.38546422
143	0x3d7bdf38	0.061492175
144	0x3ec6b35a	0.3880871
145	0xbe4aa17b	-0.19788162
146	0x3eb31852	0.34979492
147	0x3d006176	0.031342946
148	0x3e31420d	0.17310353
149	0x3f02e5f3	0.51132125
150	0xbdf17906	-0.117906615
151	0x3ecd462a	0.40092593
152	0xbd845896	-0.06462209
153	0xbc22351a	-0.009900356
154	0xbecf9641	-0.40544322
155	0xbe959deb	-0.29222044
156	0xbe4dd116	-0.20099291
157	0x3d4ea7b2	0.050452895
158	0x3ee7e095	0.4528853
159	0xbeb737b4	-0.35784686

hidden1.bias f4 [32]
0	0xbeab1b84	-0.3341943
1	0x3e12ab73	0.14323215
2	0x3d4b9edf	0.04971206
3	0x3e9cd03f	0.3062763
4	0xbe8f0a6e	-0.27937645
5	0x3d242455	0.04007371
6	0xbe252e9b	-0.1613106
7	0xbe3682b8	-0.17823303
8	0xbeb6791c	-0.35639274
9	0xbe50b6d8	-0.2038225
10	0xbeb1c611	-0.34721425
11	0x3df625ff	0.12018966
12	0x3d3db90d	0.046319056
13	0x3d7bc275	0.061464746
14	0x3e9cdbea	0.3063653
15	0x3ec7d86d	0.39032307
16	0x3e845637	0.25847027
17	0xbe2cdac0	-0.16880322
18	0xbe9e66dc	-0.3093785
19	0x3e82214c	0.25416028
20	0xbe117694	-0.1420539
21	0xbe2453a5	-0.16047533
22	0xbe953782	-0.29143912
23	0xbceb21b0	-0.028702587
24	0xbe9c140a	-0.3048404
25	0x3e87c3d8	0.26516604
26	0xbeb56c51	-0.354342
27	0xbeb27b14	-0.34859526
28	0x3d9dee44	0.07711461
29	0xbe1bf432	-0.15229872
30	0x3de7019c	0.11279604
31	0xbe487546	-0.19575986

hidden2.weight f4 [64, 32]
0	0xbdaa0b89	-0.083029814
1	0x3c3bbb54	0.011458237
2	0x3e52853c	0.20558637
3	0xbe6313a2	-0.22175458
4	0x3de596c8	0.112104
5	0x3e0e8eb9	0.13921632
6	0x3e880a7f	0.26570508
7	0xbe267f47	-0.1625949
8	0x3d2f5d3c	0.042813525
9	0xbe05d9be	-0.13071343
10	0x3e075e16	0.13219485
11	0xbe4bd75f	-0.19906376
12	0x3e004f22	0.12530187
13	0x3dac08e8	0.08400136
14	0x3d170bd3	0.03687651
15	0xbbcb9536	-0.0062128557
16	0x3bf5a7d4	0.0074968133
17	0x3df3091c	0.11866972
18	0x3ce84140	0.028351426
19	0x3d8cd721	0.0687697
20	0xbe419108	-0.18902981
21	0x3d9b9572	0.07596864
22	0x3e849cf7	0.25901005
23	0x3e78a498	0.24281538
24	0x3e120557	0.1425985
25	0xbe6b54aa	-0.22981516
26	0xbddce55a	-0.10785933
27	0x3e1f9bfd	0.15586849
28	0xbea5e539	-0.32401446
29	0x3c0f5017	0.008747122
30	0xbdcf5e82	-0.10125448
31	0xbe3369ce	-0.1752083
32	0x3db0fe26	0.08642225
33	0xbd26ddd6	-0.040738903
34	0x3c386988	0.011255629
35	0x3d8eaff5	0.06967155
36	0x3e0833be	0.13300988
37	0x3db0dd02	0.08635904
38	0xbd8a7c56	-0.067619964
39	0xbd49201e	-0.049102895
40	0x3e323bcd	0.17405625
41	0xbd1a3f58	-0.037658066
42	0xbde41beb	-0.111381374
43	0xbd8f2884	-0.069901496
44	0xbd8bc82c	-0.06825289
45	0x3e1caacc	0.15299529
46	0x3d71f90f	0.05907541
47	0xbe86ee62	-0.26353747
48	0xbe7d56bb	-0.24740116
49	0xbaf22497	-0.0018474039
50	0x3d9810c2	0.07425071
51	0xbd23b710	-0.039969504
52	0xbdb794ea	-0.0896395
53	0x3a07d510	0.000518159
54	0xbe65ab2b	-0.22428577
55	0xbe17b156	-0.14813742
56	0xbe72dffe	-0.23718259
57	0x3d9023de	0.07038091
58	0x3e575936	0.21030125
59	0xbd75f1ea	-0.06004516
60	0xbe0f9f65	-0.14025648
61	0xbd47e487	-0.048801925
62	0x3d2dd61d	0.042440522
63	0xbc48a9fa	-0.012247557
64	0x3dd0cd36	0.10195391
65	0x3d3cd012	0.04609687
66	0xbd590e54	-0.05299218
67	0xbdcae58b	-0.09907063
68	0x3e1e2d74	0.15447026
69	0x3daf00d8	0.08545083
70	0xbdf858c7	-0.12126308
71	0x3df4747b	0.119362794
72	0x3d333074	0.04374738
73	0xbdf07cf5	-0.11742584
74	0x3c5c0eef	0.013431295
75	0xbe02d1ae	-0.12775299
76	0x3da3e2e8	0.08002263
77	0xbe18a46e	-0.14906475
78	0xbcd9c12b	-0.026581367
79	0xbcb6d733	-0.022319412
80	0xbd1cafb0	-0.038253486
81	0x3d781d10	0.06057459
82	0xbd965f61	-0.07342411
83	0xbe090201	-0.1337967
84	0xbe1cddbe	-0.15318963
85	0xbdc30d5c	-0.095240325
86	0xbdd6778f	-0.10472023
87	0x3be81b20	0.0070833117
88	0xbdd9e822	-0.10639979
89	0xbcc77efc	-0.024352543
90	0x3db28664	0.08717039
91	0x3d55a8d0	0.052162945
92	0xbdc438fd	-0.09581182
93	0xbe344c98	-0.17607343
94	0xbe86cd85	-0.26328674
95	0x3dcb11f6	0.09915535
96	0xbd092b58	-0.0334886
97	0x3d1228a0	0.035683274
98	0x3b738b68	0.003716195
99	0xbe0a6af3	-0.1351736
100	0x3dcbe4ba	0.099557355
101	0x3da75772	0.08170976
102	0x3c11dbb0	0.008902475
103	0xbde1925f	-0.11014246
104	0xbd99d527	-0.07511359
105	0x3b1f8a80	0.0024344027
106	0xbde09352	-0.10965599
107	0xbdf175a8	-0.11790019
108	0xbcede84b	-0.02904143
109	0xbd507f94	-0.050902918
110	0x3cf25f42	0.029586438
111	0xbd88a9a1	-0.06672979
112	0xbd4c442d	-0.049869705
113	0xbd8a2ef9	-0.067472406
114	0xbe256d2a	-0.16154924
115	0x3e0588c4	0.13040453
116	0x3d0a2424	0.033725873
117	0x3e0a9c99	0.135363
118	0xbce962d8	-0.028489515
119	0xbd35f84c	-0.044426247
120	0xbe2a2d69	-0.16618885
121	0xbdbc5e1c	-0.091976374
122	0x3ded6a32	0.11592521
123	0xbe314c70	-0.17314315
124	0xbdb4c368	-0.08826333
125	0x3dc08bd7	0.09401672
126	0x3da6f395	0.08151928
127	0x3d85ae5a	0.065273955
128	0xbd0f53dc	-0.034992084
129	0xbc5b4bc0	-0.013384759
130	0xbd0981dc	-0.03357111
131	0xbd85764b	-0.06516703
132	0x3d97166e	0.07377325
133	0xbd769f72	-0.060210653
134	0xbdcb62e4	-0.09930971
135	0x3d2443b4	0.04010363
136	0xbe02d784	-0.12777525
137	0xbd1a8760	-0.03772676
138	0x3db901b6	0.090335295
139	0x3d874df4	0.06606665
140	0x3e1a1bd1	0.15049674
141	0xbdf6ed6a	-0.12057002
142	0x3ac97500	0.0015369952
143	0xbd55d270	-0.052202642
144	0xbdca7e8a	-0.09887417
145	0xbdcbaa87	-0.09944635
146	0x3d366bd4	0.044536427
147	0x3c978340	0.018495202
148	0xbdb8cd55	-0.09023539
149	0xbdff2fb8	-0.124602735
150	0xbe15fac8	-0.14646447
151	0x3e316921	0.1732526
152	0xbcf6d4d8	-0.030130789
153	0xbd276ea4	-0.040877
154	0xbd8520cd	-0.06500397
155	0xbdb51451	-0.08841766
156	0xbe258b5c	-0.16166443
157	0xbdd489bf	-0.103778355
158	0x3ddd49d2	0.10805096
159	0x3d1eb344	0.03874518
160	0xbd7f6cae	-0.062359504
161	0xbdaacb33	-0.083395384
162	0x3de51c17	0.11186998
163	0x3dcebb40	0.10094309
164	0x3e2e743f	0.17036532
165	0x3d002e8e	0.031294398
166	0x3daee7aa	0.0854028
167	0xbd415aa4	-0.047205582
168	0xbdd3a924	-0.103349954
169	0xbe315762	-0.1731849
170	0x3dad5af4	0.084646136
171	0xbd030de5	-0.031995673
172	0x3d07acfa	0.033123948
173	0x3c0e8fc0	0.008701265
174	0xbe42ff1f	-0.19042633
175	0xbdde78c3	-0.10862877
176	0x3cd08136	0.025452238
177	0xbd55ac24	-0.05216612
178	0xbe2ecdb7	-0.17070661
179	0x3d114a6c	0.035471365
180	0x3bde2840	0.0067797005
181	0xbdb4a287	-0.08820062
182	0x3d9240d6	0.07141273
183	0x3d18ddec	0.037321016
184	0xbdabb666	-0.08384399
185	0x3e098deb	0.13433044
186	0x3d8ebeb8	0.069699705
187	0x3cb5d588	0.022196546
188	0xbd68de8c	-0.056852862
189	0xbe3b612f	-0.18298791
190	0x3dd76c63	0.1051872
191	0xbd705fe8	-0.058685213
192	0xbde9f56a	-0.11423762
193	0x3e35927c	0.1773166
194	0x3c857e1c	0.016295485
195	0x3d571aee	0.052515917
196	0xbbc4e20e	-0.006008393
197	0xbdd804f1	-0.105478175
198	0xbdd0bd76	-0.10192387
199	0x3e5363a5	0.2064348
200	0x3ccf61b8	0.02531515
201	0xbdab3072	-0.083588496
202	0x3dc3b113	0.095552586
203	0xbdbd3d13	-0.092401646
204	0x3e544bad	0.20731993
205	0xbbd8e6f7	-0.00661933
206	0x3e05f70b	0.1308252
207	0xbd8ec68e	-0.06971465
208	0xbe11b036	-0.14227375
209	0x3e032cee	0.12810108
210	0x3a950f00	0.0011372268
211	0xbe6f9dd6	-0.23400053
212	0xbd859226	-0.06522016
213	0xbe17eafb	-0.14835732
214	0xbe302a4d	-0.17203636
215	0xbe7515a3	-0.23934035
216	0x3d566ac3	0.05234791
217	0xbd8d4719	-0.068983264
218	0x3db85ef9	0.090024896
219	0x3dad7e96	0.0847141
220	0xbceef7e0	-0.02917093
221	0xbe2744be	-0.16334817
222	0x3d8dc720	0.06922746
223	0x3e22dee2	0.15905336
224	0xbe0fee20	-0.14055681
225	0x3dff7c7c	0.124749154
226	0xbded99d2	-0.116016045
227	0xbdc7eada	-0.09761591
228	0xbe1ab4d3	-0.15108041
229	0x3e22155f	0.15828465
230	0x3d09e084	0.03366138
231	0x3e0cadcf	0.13738178
232	0x3c3d21a0	0.011543661
233	0x3dc4c8aa	0.09608586
234	0xbda8b1c5	-0.08237032
235	0xbe1b01e9	-0.15137447
236	0x3c843254	0.01613728
237	0xbc8124f8	-0.015764698
238	0xbd3ef1a4	-0.046617165
239	0xbde43ff9	-0.11145014
240	0xbcc89068	-0.02448292
241	0x3ca90509	0.020632284
242	0x3d829ace	0.06377183
243	0xbe2c7b8f	-0.16844009
244	0x3daee87e	0.08540438
245	0x3aabb90c	0.0013101413
246	0x3df9b456	0.121925995
247	0x3dffdb96	0.124930546
248	0xbe21fc09	-0.158188
249	0x3e10d499	0.141436
250	0xbe457fab	-0.19286983
251	0x3dd01fa6	0.101622865
252	0xbc6ed134	-0.014576245
253	0x3d845f45	0.06463484
254	0xbdeb760c	-0.11497125
255	0x3d9f28f9	0.07771487

hidden2.bias f4 [64]
0	0x3d52cf15	0.05146702
1	0x3da1f8d3	0.079087876
2	0xbdb6a561	-0.08918262
3	0xbd9e05a6	-0.07715921
4	0xbd504e74	-0.05085607
5	0xbe17c1ed	-0.1482007
6	0x3dd4228c	0.10358152
7	0xbcf3ab4d	-0.029744769
8	0xbe400b0f	-0.18754219
9	0xbe193ee6	-0.149654
10	0x3d47a025	0.04873671
11	0x3d66ec15	0.05637749
12	0x3c9fba71	0.019498082
13	0xbd7381a0	-0.059449792
14	0xbd9b7d3c	-0.07592246
15	0x3cf9a38e	0.030473497
16	0xbd44553f	-0.04793286
17	0xbdb3c71a	-0.0877821
18	0xb8ff1ba0	-0.00012164493
19	0xbe000710	-0.12502694
20	0xbdfaac32	-0.12239875
21	0xbd90fc6b	-0.07079395
22	0xbe39b384	-0.18134886
23	0xbe185712	-0.14876965
24	0x3b1cd35b	0.0023929689
25	0x3daf9f68	0.08575326
26	0xbc3b83f9	-0.011445039
27	0xbdcfef7c	-0.101531
28	0xbdd74ab9	-0.10512299
29	0xbded0a47	-0.11574226
30	0xbcec1518	-0.028818652
31	0xbe1c6f8e	-0.1527693
32	0x3bc356a4	0.005961256
33	0x3d09baac	0.03362529
34	0x3d0d1b39	0.03444979
35	0xbd9625fe	-0.07331465
36	0xbd301dcc	-0.042997167
37	0x3de7e693	0.113232754
38	0xbe188284	-0.14893538
39	0xbe22937b	-0.15876572
40	0xbacb7380	-0.0015522093
41	0xbda82e9b	-0.08212014
42	0xbd609cd6	-0.05483707
43	0xbd9eb2ac	-0.07748923
44	0xbe222702	-0.15835193
45	0xbd1aa4d3	-0.037754845
46	0xbe133ed3	-0.14379434
47	0xbd0553ac	-0.0325505
48	0x3d0ee21e	0.03488361
49	0xbe165b12	-0.14683178
50	0xbdf97dfa	-0.12182231
51	0xbcd3e92e	-0.025868025
52	0xbc9846fa	-0.018588532
53	0x3db447c3	0.0880275
54	0xbd5e16f7	-0.05422112
55	0xbd6c4596	-0.05768355
56	0xbdaa1e47	-0.08306556
57	0x3d15e470	0.036594808
58	0xbd527dbf	-0.051389452
59	0xbe3caf32	-0.18426207
60	0x3d7643eb	0.060123365
61	0xbd08e2e3	-0.0334195
62	0x3dc310e4	0.09524706
63	0xbe76ea28	-0.24112761

hidden3.weight f4 [128, 64]
0	0xbc4b4e70	-0.012408838
1	0x3d675904	0.056481376
2	0x3db087be	0.08619641
3	0x3ad4fc00	0.0016249418
4	0xbd8a583a	-0.06755109
5	0xbdc5e318	-0.09662455
6	0xbdc1db2a	-0.0946563
7	0x3dce1f36	0.10064547
8	0xbddef332	-0.108862296
9	0xbd4a9838	-0.049461573
10	0x3d863124	0.065523416
11	0x3d8bfeac	0.06835684
12	0xbddfeefe	-0.10934256
13	0x3ccb0510	0.024782687
14	0x3c779820	0.015111953
15	0x3deaf522	0.114725366
16	0xbb914560	-0.004433319
17	0x3d596c2c	0.053081676
18	0xbc310230	-0.010803744
19	0x3de4806a	0.111573055
20	0xbc510c50	-0.012759283
21	0xbd966e5c	-0.07345268
22	0x3cbce058	0.023056194
23	0xbd87812a	-0.06616433
24	0x3d00074c	0.03125696
25	0x3db1f306	0.08688931
26	0xbdc71d5a	-0.09722395
27	0xbdba4000	-0.09094238
28	0x3adf6e80	0.0017046481
29	0xbbef9560	-0.007311508
30	0xbd1f5934	-0.03890343
31	0x3dd648b6	0.10463087
32	0x3d6587c4	0.05603768
33	0xbd29c180	-0.0414443
34	0x3c9467f0	0.018115968
35	0xbc9a1150	-0.018807083
36	0xbda3e758	-0.0800311
37	0x3d517b8c	0.051143214
38	0xbda8e45e	-0.082466826
39	0x3c77d7a0	0.015127093
40	0x3dadc90a	0.08485611
41	0xbdeb1eea	-0.11480506
42	0x3bb388a0	0.0054789335
43	0x3dec6a12	0.11543669
44	0x3d673ab8	0.056452483
45	0xbd49ead8	-0.04929623
46	0x3ca126e8	0.019671872
47	0xbdf05ec0	-0.11736822
48	0x3ca46d30	0.020071596
49	0x3dde9454	0.10868135
50	0x3dde767e	0.10862444
51	0xbb02da40	-0.0019966513
52	0x3d399fe8	0.045318514
53	0xbca9f2c0	-0.020745635
54	0xbd0fb704	-0.035086647
55	0x3b1d8fc0	0.002404198
56	0xbd951ec2	-0.07281257
57	0x3d4e2448	0.05032757
58	0x3d7b02a0	0.0612818
59	0xbd0acbec	-0.03388588
60	0xbce8fc80	-0.028440714
61	0xbdb26448	-0.087105334
62	0x3c82ee78	0.015982851
63	0x3d4ba1a0	0.049714684
64	0x3d870a9a	0.06593819
65	0xbe361b88	-0.1778394
66	0xbe05a048	-0.13049424
67	0x3b67aa00	0.003534913
68	0x3dec9532	0.11551894
69	0x3b94951c	0.004534377
70	0xbd403f1b	-0.046935182
71	0x3c7df2cb	0.015499781
72	0xbd136e01	-0.03599358
73	0x3db6b5ac	0.0892137
74	0x3d83d723	0.064375184
75	0xbdd476ce	-0.10374223
76	0xbe23295c	-0.15933746
77	0xbdfc76bf	-0.123273365
78	0xbcf90850	-0.030399472
79	0xbb388bc0	-0.002815947
80	0x3dc666f0	0.096876025
81	0xbe4757b4	-0.1946705
82	0x3db5b262	0.088719144
83	0xbdfb021d	-0.122562625
84	0x3c2748e0	0.010210246
85	0xbbbf6c40	-0.005841762
86	0x3d36594c	0.044518754
87	0xbe0be45e	-0.13661334
88	0xbddd7066	-0.10812454
89	0x3b3be1c0	0.0028668493
90	0x3d1b7939	0.037957404
91	0xbd818f43	-0.06326153
92	0x3c4de269	0.012566187
93	0xbdc5ba05	-0.09654621
94	0xbdeeb9ae	-0.11656509
95	0xbc8e735a	-0.017388988
96	0xbcda3c70	-0.026640147
97	0xbc6ef4d7	-0.014584742
98	0x3d79936f	0.06093162
99	0x3da77d1a	0.08178158
100	0x3cb9e2a5	0.02269108
101	0xbe5281f9	-0.20557393
102	0xbe15cd3d	-0.14629073
103	0x3c64d6d0	0.013967231
104	0x3d14ad08	0.036297828
105	0xbdf2970e	-0.11845218
106	0x3d9066df	0.07050871
107	0xbc865bd0	-0.016401201
108	0xbd408d58	-0.047009796
109	0x3d846e5a	0.064663604
110	0x3db53392	0.08847727
111	0xbbb6f6fc	-0.005583642
112	0xbd868be8	-0.06569654
113	0x3c4cb167	0.012493468
114	0xbddb7dc1	-0.10717345
115	0x3d459936	0.048241816
116	0x3da0b5c6	0.078471705
117	0xbdd13dbf	-0.10216855
118	0xbdd1f6d4	-0.10252157
119	0x3d8be958	0.06831616
120	0xbe1176c3	-0.1420546
121	0xbd866e6c	-0.0656403
122	0x3c93f4cd	0.018061066
123	0xbd7e74d4	-0.062123135
124	0x3cc30688	0.023806825
125	0x3dbc2c08	0.09188086
126	0xbc817338	-0.01580201
127	0xbcfda5ff	-0.030962942
128	0x3dcc06fe	0.09962271
129	0xbc7152b7	-0.014729193
130	0x3d851541	0.064981945
131	0xbd3fb3e1	-0.046802405
132	0xbddcdb58	-0.10784024
133	0x3cb946ad	0.022616709
134	0xbd461325	-0.0483581
135	0xbda05bba	-0.078299955
136	0xbda1436f	-0.0787419
137	0x3dd22ba6	0.102622315
138	0xbd9f376d	-0.077742435
139	0x3c1661eb	0.009178619
140	0xbcf794f7	-0.0302224
141	0x3dd9c2f6	0.10632889
142	0x3d9cc63e	0.07654999
143	0xbdb33278	-0.087498605
144	0xbce41978	-0.027844176
145	0xbd978258	-0.07397908
146	0xbcf249ef	-0.02957627
147	0xbd55b019	-0.052169893
148	0xbddb2c98	-0.10701865
149	0x3d1b0c81	0.03785372
150	0xbca9aae5	-0.020711372
151	0x3db19873	0.086716555
152	0x3dded4d6	0.10880439
153	0xbd5a6a8c	-0.053324267
154	0xbda70daf	-0.08156907
155	0xbe1267e3	-0.14297442
156	0xbe119720	-0.14217806
157	0xbdf80401	-0.12110139
158	0x3c5c3980	0.013441443
159	0x3b96abcb	0.004598116
160	0x3dd3dc19	0.10344715
161	0xbbbfdd96	-0.0058552725
162	0xbe112c5a	-0.14177075
163	0xbd644568	-0.055730253
164	0xbcd64840	-0.026157498
165	0x3c1289e0	0.008944005
166	0xbdc71b2d	-0.0972198
167	0xbdea6382	-0.11444761
168	0x3d4a0254	0.049318627
169	0xbd3fdffa	-0.04684446
170	0xbda9807b	-0.08276459
171	0xbd4cccab	-0.049999874
172	0xbc9e4601	-0.01932049
173	0xbd537363	-0.051623713
174	0xbd614f95	-0.055007536
175	0xbe0677ed	-0.13131686
176	0xbd8b675d	-0.06806824
177	0x3d8e7cbf	0.06957387
178	0xbd48bbbd	-0.049007166
179	0x3de8bfa7	0.1136468
180	0xbdd785a8	-0.1052354
181	0xbd3a256a	-0.045445837
182	0xbbd97801	-0.00663662
183	0xbd8a8153	-0.06762948
184	0x3d237206	0.039903663
185	0x3dabb871	0.08384789
186	0xbd995986	-0.07487778
187	0x3e0a0258	0.13477457
188	0xbc08eb90	-0.008356944
189	0xbdab3c7c	-0.08361146
190	0x3d6b3cf6	0.057431184
191	0x3da45840	0.08024645
192	0x3da4ce7c	0.08047196
193	0x3cbc678f	0.0229986
194	0xbddf60fd	-0.10907171
195	0xbca34d0d	-0.019934202
196	0x3c5ecdc0	0.013598859
197	0xbd286fd5	-0.041122276
198	0xbc7d9f30	-0.015479848
199	0x3b994222	0.004677073
200	0xbdae9221	-0.085239656
201	0xbd54c4fb	-0.051945668
202	0xbd8de0bc	-0.0692763
203	0x3d6e7cf0	0.05822462
204	0xbdfdb35b	-0.12387725
205	0xbca4d55b	-0.020121267
206	0x3b94cb15	0.004540811
207	0x3cb70991	0.022343429
208	0xbd83d910	-0.06437886
209	0x3d176f56	0.036971413
210	0xbda11812	-0.07865919
211	0xbda35c3c	-0.07976577
212	0x3d5136f4	0.051077798
213	0xbd9636e0	-0.07334685
214	0x3d954eda	0.0729043
215	0x3d4fd8d4	0.050743893
216	0x3b51c22e	0.003200661
217	0xbd51b6ce	-0.051199727
218	0xbd7ecb50	-0.062205613
219	0xbc57cae5	-0.013170932
220	0xbd058386	-0.032596134
221	0xbd6c23b7	-0.057651248
222	0xbda74a80	-0.081685066
223	0xbe1182b5	-0.14210017
224	0xbd9e503b	-0.077301465
225	0xbd5341f0	-0.051576555
226	0x3c923493	0.017847335
227	0xbd80dec4	-0.06292489
228	0xbd014fae	-0.03157013
229	0xbd9661bd	-0.07342861
230	0x3dc10d2b	0.0942634
231	0xbde60bec	-0.11232743
232	0xbd6412ec	-0.055682108
233	0xbca53b36	-0.020169836
234	0xbd775f85	-0.06039383
235	0xbd2d0df0	-0.04224962
236	0x3d471aef	0.04860967
237	0xbd6564d6	-0.056004368
238	0x3c529800	0.012853622
239	0xbdca5d46	-0.09881072
240	0x3dc7a87f	0.09748935
241	0xbd852eca	-0.06503065
242	0xbce48111	-0.027893575
243	0x3d8f2f63	0.0699146
244	0x3db1cd5a	0.08681746
245	0xbe227bb5	-0.15867503
246	0x3d980c2c	0.074241966
247	0xbda4d7b9	-0.08048958
248	0xbdb0762e	-0.08616291
249	0x3d85ab2f	0.06526791
250	0xbd166f58	-0.03672728
251	0x3dc34114	0.09533897
252	0xbd505fe8	-0.050872713
253	0xbdb2a02b	-0.08721956
254	0x3ba8cc9c	0.0051513445
255	0x3d2dfe0b	0.042478602

hidden3.bias f4 [128]
0	0xbdb69cde	-0.08916639
1	0xbd3f0fde	-0.04664599
2	0x3d0ccfcd	0.03437786
3	0xbd1542ab	-0.036440533
4	0xbcec25c8	-0.02882661
5	0xbc34e444	-0.011040751
6	0xbe1542c0	-0.14576244
7	0xbd8a0038	-0.06738323
8	0xbc849c84	-0.016187914
9	0xbc2d0a36	-0.0105615165
10	0xbc79aa74	-0.015238393
11	0xbd24bc17	-0.04021844
12	0x3c36c810	0.011156097
13	0xbe1d9d08	-0.15391934
14	0xbcbbae22	-0.022910181
15	0xbd03e8b9	-0.032204363
16	0xbdbd0970	-0.09230316
17	0xbe1ae793	-0.15127401
18	0x3df9bf2c	0.12194666
19	0xbd8c0b1c	-0.068380564
20	0xbe19f544	-0.15034968
21	0xbdfdbf7a	-0.12390037
22	0xbd26b468	-0.040699393
23	0xbcb38a80	-0.021916628
24	0xbc430109	-0.011902102
25	0xbcd41279	-0.025887715
26	0xbd494d1e	-0.04914581
27	0xbdb0656b	-0.08613094
28	0xbc8945f1	-0.016756983
29	0x3dd5c234	0.10437432
30	0xbc19beb3	-0.009383845
31	0xbd5b9dc4	-0.053617254
32	0x3d6c6530	0.057713687
33	0xbd8f89a0	-0.07008672
34	0xbda340e0	-0.07971358
35	0xbd3a328d	-0.045458365
36	0x3d3e6f81	0.046493057
37	0x3d90a4a4	0.07062653
38	0xbe2b6a08	-0.16739666
39	0x3df93d78	0.12169927
40	0xbdc1fb52	-0.09471764
41	0xbca3ba80	-0.019986391
42	0xbd0f8559	-0.03503928
43	0xbd9c094c	-0.07618961
44	0xbc9feb0c	-0.019521259
45	0xbd95c6f3	-0.07313337
46	0x3d83a6ae	0.06428276
47	0xbd76b73e	-0.060233347
48	0xbd93d92a	-0.07219155
49	0xbd5dc901	-0.05414677
50	0x3d74c567	0.05975857
51	0xbd584fd1	-0.052810494
52	0x3d3e77c6	0.046500944
53	0xbd821c76	-0.06353085
54	0x3c55dcb4	0.013053108
55	0xbde7c0e4	-0.11316088
56	0x3dc2cf05	0.09512142
57	0xbd8fb334	-0.07016602
58	0xbd25d7f9	-0.04048917
59	0xbce4fe3b	-0.027953258
60	0xbcb0500b	-0.021522542
61	0x3c831ef5	0.016005972
62	0xbd09e048	-0.033661157
63	0xbd4ff984	-0.050775066
64	0xbd45d207	-0.048296
65	0xbc33273a	-0.010934645
66	0x3d6abea6	0.057310723
67	0xbd5b32d8	-0.053515285
68	0xbd78c519	-0.060734842
69	0xbe0eea91	-0.13956667
70	0xbe0ddf3a	-0.13854685
71	0xbceadb29	-0.028668957
72	0xbe08af84	-0.13348204
73	0xbdc34b79	-0.0953588
74	0xbda61774	-0.08109942
75	0x3cad9054	0.021186985
76	0x3d8b8f77	0.06814473
77	0xbda72f42	-0.081633106
78	0xbdf7f0c2	-0.12106468
79	0xbd110fd5	-0.03541549
80	0xbded14d6	-0.1157624
81	0x3c8efcf2	0.017454598
82	0x3d90aae7	0.07063847
83	0xbdd3effe	-0.10348509
84	0xbcee664e	-0.029101517
85	0xbd9574d2	-0.07297672
86	0x3e03e169	0.12878956
87	0x3c20cda3	0.009814653
88	0xbd01829c	-0.0316187
89	0xbd164990	-0.03669125
90	0xbd7a47b0	-0.061103523
91	0xb809e5b2	-3.2877266e-05
92	0xbd885b90	-0.06658089
93	0xbc43f4d2	-0.011960225
94	0x3db4bd39	0.08825154
95	0xbd72e388	-0.059299022
96	0x3c646a05	0.013941293
97	0xbce2be1c	-0.027678542
98	0x3dacc7be	0.08436535
99	0xbd715cd4	-0.05892642
100	0xbd1c98e4	-0.038231745
101	0xbcff26f4	-0.031146504
102	0xbcc20dac	-0.02368816
103	0xbd2b94f8	-0.041890115
104	0xbd9c2913	-0.07625022
105	0xbd9b12e7	-0.07571965
106	0xbc265ec6	-0.010154432
107	0xbc484008	-0.0122222975
108	0xbd85c80c	-0.065322965
109	0x3c2eacf9	0.010661357
110	0xbd99e6bc	-0.07514712
111	0xbd820cf2	-0.06350125
112	0x3cb79762	0.022411052
113	0x3e0b23a0	0.13587809
114	0xbdfb9a20	-0.122852564
115	0xbd74abd9	-0.0597342
116	0xbdb1f132	-0.086885825
117	0x3da67015	0.08126847
118	0xbdedc616	-0.116100475
119	0xbcfdcee9	-0.030982452
120	0xbc0eb358	-0.008709751
121	0xbc48d2fc	-0.012257334
122	0xbb74192b	-0.0037246447
123	0xbd651cdf	-0.055935737
124	0xbcccb840	-0.024990201
125	0xbd8367dc	-0.06416294
126	0x3dc0ce1d	0.09414313
127	0xbd30d331	-0.043170158

output.weight f4 [1, 128]
0	0xbcaff6a4	-0.021479912
1	0xbcac4783	-0.021030193
2	0x3bfc4eee	0.007699839
3	0x3a2159cb	0.0006155043
4	0xbd822c05	-0.06356052
5	0xbd3b19dd	-0.045678962
6	0x3cf1c805	0.029514322
7	0xbd0f09a9	-0.034921322
8	0xbca151f4	-0.019692399
9	0x3d28f2c3	0.04124714
10	0xbc7aa709	-0.015298613
11	0x3ca60e94	0.020270623
12	0x3af61887	0.001877562
13	0x3c87444f	0.016512064
14	0x3cdbd72b	0.026835999
15	0x3c57bc15	0.013167401
16	0x3d0d5c38	0.034511775
17	0xbc78dbfd	-0.015189168
18	0x3d96a509	0.07355697
19	0xbd7c2306	-0.06155684
20	0xbd142344	-0.036166444
21	0x3c404649	0.011735507
22	0xbd579f4a	-0.052642144
23	0x3cd8fe74	0.02648852
24	0x3d628937	0.05530664
25	0xbd2e48b3	-0.0425498
26	0x3c796d97	0.015223882
27	0xbb430390	-0.0029756762
28	0x3dc1749c	0.094460696
29	0x3d80430e	0.0626279
30	0xbc37bd5c	-0.01121458
31	0x3cb3d11c	0.021950297
32	0x3d2563fb	0.040378552
33	0xbcb6cb07	-0.022313608
34	0x3d593702	0.053030975
35	0xbe016c7b	-0.12639038
36	0xba64c700	-0.0008727163
37	0xbd33be1c	-0.043882474
38	0xbcad7187	-0.021172298
39	0x3d605671	0.054769937
40	0x3da861ac	0.082217544
41	0xbc442344	-0.011971299
42	0xbd4501c8	-0.0480974
43	0x3d81c350	0.06336081
44	0x3d41fce8	0.04736033
45	0x3cb493c6	0.02204312
46	0xbcd6f385	-0.026239166
47	0xbd014b1b	-0.031565767
48	0x3c5ef4d9	0.013608181
49	0xbe0af102	-0.135685
50	0xbd5b2a68	-0.05350724
51	0x3c625560	0.0138143
52	0x3dac9610	0.0842706
53	0x3d93b3a6	0.072119996
54	0x3ca4082e	0.020023432
55	0xbbf19d94	-0.007373521
56	0x3c88d234	0.016701795
57	0x3cd25a13	0.025677716
58	0x3cd7251b	0.02626281
59	0x3c49464a	0.012284825
60	0xbdab2033	-0.08355751
61	0x3c6fabd4	0.014628369
62	0x3ba6320b	0.0050718836
63	0xbcdb68fc	-0.026783459
64	0x3cc470d8	0.02397959
65	0x3c854edf	0.01627296
66	0xbdac1daf	-0.08404099
67	0x3cc0e959	0.023548769
68	0x3cebf981	0.028805496
69	0x3d59a97b	0.053140145
70	0xbc556cbf	-0.013026415
71	0x3d887ca6	0.066644
72	0x3c9508f3	0.018192744
73	0x3ddd3408	0.1080094
74	0xbd3000f6	-0.042969666
75	0xbd5d71c8	-0.05406359
76	0xbd34f49d	-0.044178594
77	0xbc75f168	-0.015011169
78	0xbd991c93	-0.07476153
79	0x3cd8b984	0.026455648
80	0x3d81d895	0.06340138
81	0x3bd784f2	0.0065771276
82	0xbd485add	-0.04891478
83	0x3da41205	0.080112495
84	0xbc20c9b0	-0.009813711
85	0xbcd733c0	-0.026269794
86	0xbdc44aa8	-0.09584552
87	0xbcb9ad13	-0.022665536
88	0x3bf01624	0.007326858
89	0xbd260653	-0.040533375
90	0xbd676bb1	-0.056499187
91	0x3b1e8fcf	0.0024194603
92	0x3ca60c51	0.020269545
93	0xbca6dd5c	-0.020369224
94	0xbd9a5b15	-0.07536904
95	0xbda954db	-0.08268138
96	0xbc8722bf	-0.01649606
97	0xbd4f86cd	-0.050665665
98	0x3d10c336	0.035342418
99	0x3b956330	0.004558943
100	0xbcddaca5	-0.027059862
101	0x3d069882	0.032860287
102	0xbc680d8b	-0.014163385
103	0x3cdde847	0.027088298
104	0x3a9b3417	0.0011841086
105	0x3d9e1f95	0.077208675
106	0xbc00936a	-0.007847646
107	0xbc829c7c	-0.015943758
108	0xbd95281e	-0.07283042
109	0xbdf71499	-0.120644756
110	0xbdaae6f5	-0.08344833
111	0x3d3bceb1	0.045851413
112	0x3d1bb007	0.03800967
113	0x3d962440	0.07331133
114	0x3d885c6f	0.06658255
115	0x3d34f779	0.04418132
116	0x3da1a7e5	0.078933515
117	0xbd98c252	-0.07458939
118	0xbcdd1cf0	-0.026991338
119	0xbcbe4ef8	-0.023231015
120	0x3bebbbd7	0.007194023
121	0x3ce4894e	0.027897503
122	0x3da9d222	0.08292033
123	0xbcf75a02	-0.030194286
124	0x3d0d2cb6	0.034466468
125	0x3ce1acd1	0.027548226
126	0x3d8bc388	0.06824404
127	0xbd01c5f0	-0.03168291
