models/MagneticPendulum/p-1_measure_x1*cos(0.0833333333333333*pi) + x2*sin(0.0833333333333333*pi)_N4/model_state_dict.pth (torch, 48236 bytes, 8 tensors)

hidden1.weight f4 [32, 4]
000000 63 cb c9 3e c5 eb 35 bf bc c8 65 3e 3a c9 1d 3f
       0.39412984 -0.7106288 0.22439855 0.6163517
000010 91 d5 12 bf 6c 46 42 3e 7a ef 65 be ca d1 d4 3e
       -0.57357126 0.18972176 -0.22454634 0.41566306
000020 78 5a 8e 3d 00 c4 7a bd 40 02 0e 3e 20 10 ca 3c
       0.06950849 -0.061222076 0.13868046 0.024665892
000030 0b a3 52 3e 3f 1f ff be 62 b4 c5 3d 82 e1 18 bf
       0.20570008 -0.49828526 0.09653546 -0.597191
000040 29 de ba 3e 5c 1e 81 3e 20 5a f3 3e 1c ae 81 3e
       0.3649762 0.25218475 0.47529697 0.25328147
000050 3e 9e 9d be 58 9c d3 be 80 ca 84 be 0e 3b 1b bf
       -0.30784792 -0.41330218 -0.25935745 -0.60636985
000060 82 14 79 bd 4e d2 9a bd aa c2 7f 3e 72 01 2d 3e
       -0.060810573 -0.07559644 0.24976602 0.16895083
000070 f0 67 a4 be 8a c8 39 3f 77 80 1e 3d d5 17 72 3f
       -0.32110548 0.72571623 0.038696732 0.94567615
000080 4e ae 0f 3e af bb 12 bf 32 73 f3 3c 22 8b ec be
       0.14031336 -0.5731763 0.029718015 -0.461999
000090 59 03 5b 3f 0b e7 69 bd 6c ab 2a 3f 23 80 19 bf
       0.85551983 -0.057105105 0.6666782 -0.59961146
0000a0 52 8a 46 3f b6 99 21 bf 74 82 fb 3e b3 ea 6c bf
       0.7755481 -0.6312517 0.49122965 -0.9254562
0000b0 da da 6b bf 21 18 4b 3e 38 8c 83 be eb ad 1b be
       -0.92130816 0.19833423 -0.25692916 -0.15203063
0000c0 4e b3 b9 be d9 3c 85 be 6a 6d 80 bf 25 45 96 be
       -0.3626961 -0.26022986 -1.003339 -0.29349628
0000d0 23 c0 54 3f 0e 57 92 3e 65 11 5f 3f 08 31 e7 3e
       0.8310568 0.28582042 0.87135917 0.45154595
0000e0 2d e7 cd be c1 9c 53 bf c1 94 43 3f 64 ae 3f 3f
       -0.40215436 -0.8266106 0.76398855 0.74875474
0000f0 1c 63 50 bf cf d4 5c 3f e8 39 85 3e 77 a9 e7 3e
       -0.8140123 0.8626222 0.2602074 0.4524648
000100 67 49 fc be d1 d8 c5 bd b0 35 f2 be 74 b0 8a 3c
       -0.49274752 -0.09660495 -0.47306585 0.016929843
000110 6c f4 27 bf d3 05 16 bf 79 ff ce 3e da 44 90 be
       -0.65607333 -0.5860264 0.40429285 -0.2817753
000120 40 0f 6f 3e 2d 65 da 3e ab cc 34 3d e4 c9 e2 3e
       0.23345661 0.42655316 0.0441405 0.44294655
000130 31 70 a9 bb 5e 80 36 3f 5d 8a 63 bf 87 dd f3 3e
       -0.005170845 0.7128962 -0.88883 0.4762995
000140 cf bd e9 be d5 8e 23 bf 11 9e 27 be 26 18 8e be
       -0.45652625 -0.6388982 -0.16368891 -0.277528
000150 b1 09 17 3f 2f da 9d be 82 60 54 bf 25 10 2b 3f
       0.5899916 -0.30830523 -0.8295976 0.6682151
000160 4b 9d 38 be b3 0b 2c 3f a7 f0 84 3f df 79 74 bf
       -0.18028753 0.6720535 1.0385941 -0.9549846
000170 63 c7 c1 bd 13 8e ac 3e 06 70 3c be 37 c5 23 bf
       -0.09461858 0.33702144 -0.18402109 -0.639728
000180 c0 4c 91 3e b8 20 04 3f bb 39 14 bf de 03 e4 3d
       0.28378868 0.51612425 -0.5790059 0.1113355
000190 ee c2 70 3f a1 75 11 3e c8 ce fc 3e e3 07 26 3e
       0.9404744 0.14205028 0.49376512 0.16213946
0001a0 05 57 9d be ab 7f 1f 3e 88 c1 26 3f a6 89 28 bf
       -0.30730453 0.15576045 0.65139055 -0.65835035
0001b0 6a 97 68 3f cb c7 a7 3e 21 1b 00 3e 26 64 69 3f
       0.9085604 0.32769617 0.12510349 0.9116844
0001c0 89 45 25 3f c0 81 2c bf 4e 11 19 3e 49 3d 6d 3e
       0.6455923 -0.6738548 0.14948007 0.2316791
0001d0 f8 04 3b 3f 38 cb b0 3e e5 f6 82 be 0d 76 56 bf
       0.73054457 0.34530044 -0.2557899 -0.8377388
0001e0 53 e5 dd bd 16 a8 08 be 8c 7e 46 3e 76 33 07 bf
       -0.10834756 -0.1334537 0.19384211 -0.528129
0001f0 2b d0 99 3e c2 a8 d3 be eb 81 6e bf aa a7 c2 bd
       0.30041632 -0.4133969 -0.9316699 -0.09504636

hidden1.bias f4 [32]
000000 26 82 75 3e 82 00 a1 3e 66 fc 9e be f9 c6 a9 3d
       0.23975429 0.314457 -0.3105194 0.08289904
000010 93 b7 dd 3e 06 40 53 3d 16 47 34 3e 62 23 da 3e
       0.4330412 0.05157473 0.17605242 0.4260512
000020 29 ae fb 3d 2f 80 30 3d 4d 54 b6 be 44 53 e2 be
       0.12289078 0.043090995 -0.3561119 -0.44204152
000030 bb 97 7e be bc 00 25 3e 7e 85 c4 bc cb b0 c6 3e
       -0.24862568 0.16113561 -0.023989435 0.38806757
000040 9c dc b3 3d 80 52 2d 3e e5 52 24 3e 41 ed 3b 3e
       0.08782312 0.16926003 0.16047247 0.18352224
000050 a2 29 04 3e d4 58 88 3e 0c f2 cc bd 50 5e 40 3e
       0.12906507 0.2663027 -0.10007104 0.18785977
000060 9a a8 6e be 70 97 e4 bd ef cc 26 bf 1a 61 9f be
       -0.23306504 -0.11161697 -0.65156454 -0.3112877
000070 71 60 04 bf f2 12 94 bd 0f fa b2 3d 2f f7 29 be
       -0.5170966 -0.07230176 0.08739101 -0.165982

hidden2.weight f4 [64, 32]
000000 db 43 08 bc 86 23 32 3e d8 d3 67 3d c7 04 0e 3d
       -0.008316959 0.17396364 0.056598514 0.034672525
000010 c5 b3 60 bd 62 5f 6d 3d 86 77 f7 bc 55 aa ef 3d
       -0.05485894 0.057952292 -0.03020836 0.1170241
000020 3b b3 3b be 1d f4 1f bf da 7b 89 bf 66 fc 07 bf
       -0.1833009 -0.6248186 -1.0740921 -0.53119504
000030 c2 d8 49 3f ff 43 67 bf a8 da 04 3e 49 1e 96 3e
       0.7884637 -0.9033813 0.12974036 0.2931998
000040 03 52 78 3e 36 f6 6a 3d f7 7d 80 be cb 4c 67 3e
       0.24250035 0.05736371 -0.25096104 0.22587888
000050 c8 ca 10 be 6a 63 43 3d cf 56 86 3e 0f f1 f8 bc
       -0.14139855 0.04770223 0.26238105 -0.030388383
000060 ab 43 83 be e4 d2 34 3e 71 88 8d be 19 32 0f bd
       -0.25637564 0.17658573 -0.2764316 -0.034959886
000070 f2 19 c5 3e 9c 87 86 be f5 38 05 3e dd 48 a3 bd
       0.38496357 -0.26275337 0.13010009 -0.07972882
000080 9b b4 a9 be 8c a9 79 3d 1f 0a 03 3e 3d 4e 9b be
       -0.33145604 0.060952708 0.1279683 -0.3033313
000090 25 30 69 bd 0d 6a bb bc af 99 41 bc f7 6a da 3c
       -0.05693068 -0.022877717 -0.011816426 0.026662333
0000a0 79 94 de bd 33 06 1a bf c7 35 ea 3e ee c2 14 3e
       -0.10868163 -0.6016571 0.45744154 0.14527485
0000b0 76 e1 0e 3e a4 ca 17 bf 18 3a 51 be 70 ec 58 3e
       0.13953194 -0.5929358 -0.20432317 0.21183944
0000c0 84 71 0f bd 06 43 7a 3e d0 56 16 3d e0 48 01 3e
       -0.035020366 0.2443963 0.036703885 0.12625456
0000d0 6a c2 c5 be 70 7e 80 3e 0b 57 f5 3e 9e 28 d6 3d
       -0.3862489 0.25096464 0.4791797 0.10456966
0000e0 5d d0 05 3f 11 75 83 be 0d fc 23 bf 8e db 17 bf
       0.5227106 -0.25675252 -0.64056474 -0.5931939
0000f0 29 d2 b9 3e 89 ce 91 3e a0 33 a5 be 07 30 d0 3e
       0.36293152 0.28477886 -0.3226595 0.40661642
000100 4e f9 71 bd 6f 0e dd be f8 e2 25 bd 61 32 85 3e
       -0.059075646 -0.43175074 -0.040499657 0.26015
000110 2b 2a 65 3e 82 25 c4 3d 2f fd f9 3b 18 42 1a bf
       0.22379367 0.095774665 0.007629059 -0.602571
000120 c7 55 64 3e 0c c5 6f 3e e2 d3 f5 3d a7 02 31 be
       0.22298346 0.23415011 0.12003304 -0.17286168
000130 72 0c d7 be f3 74 3f 3e be 32 6e 3f 82 bd 5f bf
       -0.42001683 0.18696956 0.93046176 -0.8739854
000140 0a d3 97 be 07 62 a3 3e db 06 99 3e 4d cc f9 3e
       -0.29653198 0.31910726 0.29888043 0.48788682
000150 b7 07 dc bd 1e a4 e2 bd f7 68 a4 3d 2c 16 97 be
       -0.10743659 -0.11066459 0.08027833 -0.29509103
000160 57 b1 a0 3e c7 d8 10 be 41 9d eb bf f6 05 0d 3f
       0.313853 -0.14145194 -1.8407365 0.5508722
000170 60 5c 88 3e cf bb 1e 3e 43 0e 95 bd b0 50 62 3e
       0.26632977 0.15501331 -0.07278111 0.22101092
000180 5c 12 91 3e 60 2e 69 3d 70 db 27 bc da 2b c6 bd
       0.2833432 0.056928992 -0.010245189 -0.09676333
000190 62 af 52 3e ef 6d 90 3b a5 c4 d0 bd aa 4f 8a 3e
       0.20574716 0.0044076364 -0.10193757 0.27013904
0001a0 e2 42 1a bc ff 69 12 bf 5a 29 d2 be af 71 58 3f
       -0.00941536 -0.5719299 -0.41047174 0.8454847
0001b0 2c 93 22 3e a9 32 d4 3d 0d 15 72 be ca 2a 32 3e
       0.15876454 0.10361225 -0.23640843 0.17399135
0001c0 9a 3c 26 bd cb c0 de 3e 05 f3 db 3d e3 ea 56 be
       -0.040585138 0.43506464 0.10739712 -0.2098804
0001d0 78 ba 3e be 30 02 22 3e f3 2f 1b bf ef ef 50 be
       -0.1862582 0.15821147 -0.6062004 -0.20404027
0001e0 9a 9a 47 3f 2b cd 1d be 79 3d 59 3f 1f 9a d7 be
       0.7797028 -0.15410297 0.84859425 -0.42109773
0001f0 e0 c6 0e be 81 f8 48 be cf ff d8 be bd 9e eb 3e
       -0.13943052 -0.19626047 -0.42382666 0.46019545
000200 79 41 6a bd 78 dc 57 3d 80 46 d6 3b 2c a9 81 be
       -0.057191346 0.05270049 0.006539166 -0.2532438
000210 e2 a3 f5 3d eb aa 6f bc 4c 04 ab bd 2c 2b 80 bd
       0.11994149 -0.014628152 -0.08350429 -0.062582344
000220 34 aa 26 be 8d f4 fc bd ae d4 d3 bc 9d c0 b8 3e
       -0.16275865 -0.12351332 -0.02585825 0.36084452
000230 1a 00 dd 3d 0e b3 c5 3d 33 06 1b be 6b 03 db 3d
       0.10791035 0.096532926 -0.15139084 0.10694011
000240 bc 58 78 be 7b a1 15 be 4f f0 32 be 3d 56 8c 3d
       -0.242526 -0.14612381 -0.17474483 0.06852386
000250 63 b1 e8 bd 4e 58 c5 3d 7e c7 58 bd 50 78 47 3d
       -0.11361959 0.096359834 -0.052924626 0.048698723
000260 aa 33 36 be f2 0d 3c bf ed 5a 81 3e d4 d3 81 bd
       -0.17793146 -0.7345878 0.25264683 -0.06339231
000270 af fe c5 3d 69 b3 a4 3e 1c b2 c9 3d fa ee 3c 3d
       0.09667718 0.3216813 0.09848425 0.046126343
000280 e6 90 d1 3d cb ef 86 bd dc 81 09 bd 6a fc 6b bc
       0.10232715 -0.06588706 -0.03357111 -0.014403442
000290 5b 2a c3 3e 1f 2e 4f be fa d7 ab bd 63 77 d5 3c
       0.38118252 -0.20232438 -0.08390804 0.026057905
0002a0 01 3f 47 be 2a 2e fd bc fb 10 9b be db e3 dc be
       -0.19457628 -0.030905802 -0.30286393 -0.4314259
0002b0 28 1f 4a 3e 69 a0 a0 be b3 95 73 3e 7a 88 b1 3b
       0.19738448 -0.31372383 0.23787574 0.0054178806
0002c0 59 83 a1 be 84 92 1f be 52 55 9d 3e 4b 45 d6 3e
       -0.31545523 -0.15583235 0.30729157 0.4184974
0002d0 f3 83 85 be 83 d3 46 be 6b 8f 70 3d ac 4e 6f 3e
       -0.26077232 -0.19416623 0.058730524 0.23369855
0002e0 0e e1 4a bb db c9 25 3e 5f 3a 42 3e 6f 98 bc 3e
       -0.0030956897 0.16190283 0.1896758 0.36835048
0002f0 84 e2 32 bf ba 00 e8 be 79 b3 ed 3d ea 0f 7e 3c
       -0.69876885 -0.45313054 0.11606497 0.015506724
000300 11 e1 f7 3d 3c 02 16 bd 7a 46 e7 3d a2 e0 2c 3e
       0.12103475 -0.036623225 0.11292739 0.16882566
000310 4d 93 ad 3e fe 3c 24 bd f2 1e 23 3e 5e e6 77 be
       0.33901444 -0.04009723 0.15929773 -0.24208972
000320 b4 f3 e7 bd 09 a6 ec be 76 10 50 bb a2 d4 08 bf
       -0.113257796 -0.46220425 -0.0031748093 -0.5344945
000330 46 97 38 be d3 b3 6c 3c e4 02 05 be da d5 83 be
       -0.18026456 0.01444717 -0.12989384 -0.25749093
000340 6f 54 f9 bb d5 f5 2b be e9 b8 ed bd 99 50 97 bc
       -0.007608942 -0.16792996 -0.116075344 -0.01847105
000350 fc 29 02 be 5b 18 1d be da 8e f7 3e be 3a 12 3e
       -0.12711328 -0.15341322 0.48351175 0.14280221
000360 1c 72 dc bd f6 40 88 3e 45 7c db be 17 cb 96 bf
       -0.10763952 0.2661206 -0.42868248 -1.1780728
000370 4e 64 1e 3c 76 d6 26 bf 1e fc 6d 3e ca 84 8f 3e
       0.009667469 -0.6517099 0.23240706 0.28030998
000380 2e bb 31 be a5 cc bd 3e 12 94 80 3d 86 fb a0 be
       -0.1735656 0.37070194 0.06278242 -0.31441897
000390 9e 0a 6c be 60 45 d1 ba 0f fe 34 3e e4 fa b7 3e
       -0.23050925 -0.001596611 0.1767504 0.35933602
0003a0 9d 7e f0 bd 0a b1 7e 3e fe ce d7 3e 1c 54 e3 be
       -0.117428996 0.24872223 0.4215011 -0.44400108
0003b0 84 84 19 3e 60 66 0a 3e 56 11 83 3e 04 96 a5 3e
       0.14991957 0.13515615 0.25599164 0.32341015
0003c0 a8 5b 55 3e 43 bb 95 3e 33 ac 88 be 1c e8 46 be
       0.20835745 0.29244432 -0.26693878 -0.1942448
0003d0 55 d6 d4 3d fa cc fb be bf 80 ba 3c aa 9c 3d be
       0.10392443 -0.49179822 0.022766469 -0.18516794
0003e0 53 87 2c bf 95 73 8e 3e 2d 25 02 be e8 bd 39 3c
       -0.6739399 0.27822557 -0.12709494 0.011336781
0003f0 d0 cb a2 3f 55 13 bd bd e8 f4 e1 3d 40 b9 35 3f
       1.2718449 -0.09232203 0.1103304 0.70985794

hidden2.bias f4 [64]
000000 a8 21 49 3e d8 bc f7 3c 72 63 dd bc 94 60 7e bd
       0.19641745 0.030241415 -0.027024958 -0.062103823
000010 c5 7c 24 3e ba 39 45 3e 3c 3e 55 3e ee 83 46 be
       0.16063221 0.19260302 0.20824522 -0.19386265
000020 3a 2d 87 3d c7 9b 6a 3e 50 f7 1f be be 70 79 3e
       0.06600423 0.22910987 -0.15621686 0.24359414
000030 59 f5 0f be 30 c7 63 bd 79 59 1f bd 3a 0f ae 3c
       -0.14058436 -0.055609882 -0.038903687 0.021247495
000040 00 85 5e 3d 29 01 09 be ab 70 c0 3d 8d 37 41 3e
       0.054326057 -0.13379349 0.0939649 0.18868847
000050 73 b9 2b be 11 2a 34 be 2e 27 68 3e 20 64 06 be
       -0.16769962 -0.17594172 0.22671196 -0.13124132
000060 db 69 42 be eb 72 8f 3e 2a 06 95 bd 98 5a 68 3d
       -0.18985693 0.28017363 -0.07276566 0.056727022
000070 ed 1c 4a 3e cb e2 fa bd eb de 1c be b8 b7 a6 bd
       0.19737597 -0.122502886 -0.15319411 -0.0814051
000080 03 88 cb 3d b2 a3 47 3e 94 a1 c9 3d 75 9b bb 3c
       0.099380516 0.19496039 0.09845272 0.022901276
000090 35 fe d7 3c a4 9a 50 bd 47 28 64 3e 3f 65 1a be
       0.026366333 -0.050928727 0.2228099 -0.15077685
0000a0 eb b3 2a be c2 d8 09 be 54 fd 90 3e 67 e0 df 3d
       -0.16670196 -0.13461593 0.28318274 0.10931473
0000b0 52 59 07 3e 7d 0f 4e bd a2 cc 94 bd 18 06 e8 ba
       0.13217667 -0.05030774 -0.07265593 -0.0017702011
0000c0 9f b6 37 3c dc 00 40 be 06 0e 0c 3e fb 8a c6 bd
       0.011212974 -0.18750328 0.13677225 -0.09694477
0000d0 61 67 d5 bd 87 31 2b bd f9 09 47 be c0 12 93 3b
       -0.104201086 -0.04179528 -0.19437398 0.004488319
0000e0 2c 09 04 3d 0e f4 8f 3e 0b cd a9 3d 8f 0d b7 3d
       0.03223531 0.28115886 0.08291062 0.08938133
0000f0 8d 46 6c bc c6 4c cc bd eb 3e 39 3d 32 af 22 be
       -0.0144211175 -0.09975581 0.04522602 -0.15887144

hidden3.weight f4 [128, 64]
000000 b3 34 01 3e 36 0e fe 3d 83 fd a9 3e 68 85 a5 bd
       0.1261776 0.12405054 0.33201227 -0.08082086
000010 42 bf 6a be cd 68 b2 bd 07 0b ae bd 19 c0 d7 3e
       -0.22924522 -0.087113954 -0.08498197 0.42138746
000020 84 58 11 3f e2 e8 cd 3e 95 3e e4 bc 4d c5 b7 3d
       0.5677569 0.40216738 -0.027861873 0.08973179
000030 1e c1 d0 bd a5 77 7f bd bc 50 5e be 62 c5 39 3d
       -0.10193084 -0.06236996 -0.21710485 0.045354255
000040 d2 e3 c0 3d ae 04 1a bd 19 c9 82 3c 71 5f 50 3e
       0.09418453 -0.03760212 0.015965031 0.20348908
000050 76 96 bb bd ce 18 96 3d 61 ea 0e 3c 96 83 d2 be
       -0.091595575 0.0732895 0.0087228725 -0.41116017
000060 5b 8c 3d be 78 ac 21 bf 96 e0 ed bd 7c f2 d6 3d
       -0.18510573 -0.6315379 -0.11615102 0.10495469
000070 42 d3 3b be e3 55 85 3e 01 02 cf 3e 01 46 d2 3b
       -0.18342307 0.2604209 0.40431216 0.0064170365
000080 bc 19 39 be 33 a6 32 be 73 2a ac 3d 20 a6 eb 3d
       -0.18076223 -0.17446212 0.08406534 0.11506295
000090 21 9a a0 3d c2 63 12 bf 56 27 75 bf d9 fe 92 3e
       0.07841898 -0.5718347 -0.95763147 0.28710058
0000a0 32 f3 de bd 38 98 4a bd 24 10 79 bf 07 5a 37 3e
       -0.108862296 -0.049461573 -0.97290254 0.17905436
0000b0 0c 72 4b be 69 29 b9 3e e0 ec af ba 30 54 27 3e
       -0.19867724 0.36164406 -0.0013422035 0.16340709
0000c0 b0 6d 4a be ad d2 ce 3c 33 57 15 bf c3 69 58 3e
       -0.19768405 0.025246942 -0.5833618 0.21134095
0000d0 e1 eb d5 3d 71 31 80 be 65 be 6c 3e 2a 81 87 bd
       0.10445381 -0.2503772 0.23119505 -0.06616433
0000e0 1d c1 cd bc 98 c9 a3 bf f9 f6 46 3c 71 11 0c be
       -0.025116498 -1.2795897 0.012143844 -0.13678528
0000f0 1d 26 03 bf 60 95 ef bb ff e4 56 3f b6 48 d6 3d
       -0.5123003 -0.007311508 0.8394317 0.10463087
000100 25 71 c9 3c cb 42 8d bd 0d 30 26 bd b9 e8 9f bd
       0.024590084 -0.068975054 -0.04057317 -0.0780806
000110 28 44 01 be 8c 7b 51 3d 9d 04 c7 bd 93 09 83 bc
       -0.12623656 0.051143214 -0.09717677 -0.015995776
000120 dd a4 44 3d ea 1e eb bd a0 88 b3 3b 33 c2 ab 3d
       0.04800879 -0.11480506 0.0054789335 0.0838665
000130 b8 3a 67 3d 1f 4f c3 bd b7 ba c7 bc da f2 17 be
       0.056452483 -0.095365755 -0.024381025 -0.14838734
000140 30 6d a4 3c 23 8e 4d 3d 24 1b 6b 3d 6c 27 17 bd
       0.020071596 0.05018438 0.05739893 -0.03690283
000150 a8 d0 8b bc c0 f2 a9 bc 32 32 4a bd f9 5e 68 bd
       -0.017067268 -0.020745635 -0.049364276 -0.056731198
000160 14 0b e8 bd 68 60 0e bc c4 4c 88 bb 16 67 a2 bd
       -0.11330238 -0.008689977 -0.004159542 -0.07929818
000170 fe 07 af bd 48 64 b2 bd 16 bf 24 3c 74 42 2e 3d
       -0.08546446 -0.087105334 0.010055324 0.042543843
000180 0a 75 6f 3d cd f2 2e be 6c d4 d7 bd 2d d3 d9 bb
       0.058461227 -0.17084809 -0.10538563 -0.0066474886
000190 78 ea a5 3d 09 e0 9e bc e7 e6 c4 bc 24 0a cd bc
       0.08101362 -0.019393938 -0.024035884 -0.02502925
0001a0 f0 e8 74 bc ac b5 b6 3d 02 1b 16 3d 83 6d e7 bd
       -0.014948115 0.0892137 0.03664685 -0.113001846
0001b0 6b 64 0a be 60 0f c7 bd 40 f7 90 bd c0 8b 38 bb
       -0.13514869 -0.097197294 -0.07078409 -0.002815947
0001c0 ee e7 21 3d 6f 49 30 be e1 f3 d8 3c 49 2d ac bd
       0.039527826 -0.17215513 0.026483478 -0.08407075
0001d0 31 ed c6 bc dc 9e 80 bd 14 98 90 3d 56 28 d6 bd
       -0.024283024 -0.062803 0.070602566 -0.10456912
0001e0 0b 88 02 be 35 fe 38 bd e3 b6 d1 3c 05 3d a9 bd
       -0.12747209 -0.045164306 0.025599902 -0.08263592
0001f0 6d 94 b8 3b 78 4e 07 bd 60 57 2a be 30 c2 69 3c
       0.005632928 -0.033033818 -0.16634893 0.014267489
000200 07 20 c9 3d c5 83 c0 3e 53 cc 84 3e a0 73 04 3e
       0.09820562 0.37600532 0.25937137 0.12934732
000210 c6 8e c9 bd 39 28 84 be b6 53 41 3e 80 0c 86 bd
       -0.09841685 -0.25811937 0.1887959 -0.06545353
000220 07 d6 57 3d cf 23 3d 3d d2 50 06 3e 57 2e 6f 3e
       0.052694347 0.046176728 0.13116768 0.23357521
000230 be d2 b1 bd 13 dd c6 3d 49 9f 77 3e 9f 05 9b be
       -0.08682774 0.09710135 0.24181856 -0.30277726
000240 94 48 23 bd 40 3e d2 3c 6d 13 ea 3b 8e d9 80 3d
       -0.039864138 0.025664449 0.007143429 0.06291495
000250 85 f8 35 3e 68 b8 bf bc 1a 07 9a 3b a6 99 36 bc
       0.17770584 -0.023403361 0.0047005536 -0.011145031
000260 79 84 3f be 0c ba 9c bd a8 50 35 3e 60 81 80 3e
       -0.18702878 -0.07652673 0.17706549 0.25098705
000270 e9 17 1c 3e 2e 40 39 3e 7a 70 64 3e cc 64 a7 bd
       0.15243496 0.18090889 0.22308531 -0.08173522
000280 ab 54 2c 3e db db fe 3c 5a a9 49 3c ff 40 1b c0
       0.16829173 0.031110695 0.012308443 -2.425842
000290 c5 e5 fb be 25 04 03 3e 16 e9 5d bd f2 6f b5 be
       -0.49198738 0.1279455 -0.054177366 -0.3543697
0002a0 c3 f6 ee bd 61 5c 08 3e 9c 53 08 be 40 78 00 3e
       -0.1166816 0.1331649 -0.13313144 0.12545872
0002b0 e6 66 9d 3e 65 70 77 3e 70 28 79 3d 2c fa 88 3d
       0.30742568 0.24163969 0.06082958 0.066883415
0002c0 55 fb 84 3e 90 c7 2e bf 5a 40 0c 3c 06 7c 24 be
       0.25973 -0.6827326 0.0085602645 -0.16062936
0002d0 bb a1 09 bf 44 09 c9 3d ca 82 2f be b6 7d fa 3d
       -0.53762406 0.098162204 -0.17139736 0.12231009
0002e0 2a 8c 47 bc e0 66 1e bd 1d 31 f0 3d ea f8 24 be
       -0.012179414 -0.038672328 0.117281176 -0.16110578
0002f0 01 7e 05 3e b6 03 a7 bd 0f 9a 0e 3e a6 07 28 3c
       0.13036348 -0.08155005 0.13925956 0.01025573
000300 83 09 03 3e 1d 30 6b 3d 7a 32 9a be 91 bd 3d be
       0.12796597 0.05741893 -0.30116636 -0.18529345
000310 bc 02 98 3d a6 45 6a bd db 64 15 be cc 06 3f 3e
       0.074223965 -0.05719533 -0.14589255 0.18654937
000320 6b 08 19 be a5 19 79 3e e1 f6 81 bd c4 7f 1e 3d
       -0.14944617 0.24326189 -0.063459165 0.038696066
000330 16 75 aa bd 91 3a 5f be 2f 0f 22 bc e1 11 02 be
       -0.083231136 -0.21799685 -0.009891315 -0.12702133
000340 0c 9e 70 bd 5a d7 2d 3e 42 c9 87 be d8 d9 36 3e
       -0.058744475 0.16976681 -0.26520735 0.17856538
000350 ce 83 03 bd 30 7a 6d 3c fb 1f 03 3d 8c 11 57 bf
       -0.03210812 0.014494464 0.03201292 -0.8401115
000360 a1 0a 49 be d3 3e 3a 3d 99 ac d2 3e 3a 50 dd 3d
       -0.19632961 0.04547007 0.41147307 0.108063176
000370 21 13 8b be 7b e7 82 3e 0f 76 27 3f d4 87 96 3e
       -0.27163032 0.2556723 0.6541452 0.29400504
000380 fa b1 6c 3d 47 92 e0 3d 72 a7 23 be 57 3e 55 3e
       0.05778692 0.109654 -0.15981844 0.20824562
000390 70 78 69 bd a8 65 ba bc d3 76 bf bd 40 4f d2 bd
       -0.056999624 -0.022753552 -0.09348836 -0.10269022
0003a0 93 a0 b4 bd e0 71 62 bd 5f 85 65 bf 10 e7 93 be
       -0.088196896 -0.05528438 -0.89656633 -0.28887224
0003b0 cd de 0a be 0a c2 60 3e 65 45 14 3e ba a4 40 bd
       -0.13561554 0.2194902 0.14479597 -0.047032095
0003c0 58 e2 73 be 4e 0b 3b 3f 50 8c 40 bf 63 0f 1d 3e
       -0.23816812 0.73064125 -0.752141 0.15337901
0003d0 50 03 b9 3c e5 56 e5 bd 36 ee 0e 3c 28 af 5c 3d
       0.022584587 -0.111982144 0.008723786 0.05387798
0003e0 57 3b 79 3c 64 5a cd bd 57 54 e8 3d 43 ec 01 3e
       0.015211902 -0.10027006 0.113442115 0.12687783
0003f0 a5 89 f4 bc bf d2 3c 3b d0 88 06 c0 b4 7d d5 bd
       -0.02985079 0.0028812138 -2.1021004 -0.104243666

hidden3.bias f4 [128]
000000 72 5f 02 bf 45 d0 b3 bd 78 06 a9 bd ba 96 6a 3d
       -0.5092689 -0.08779959 -0.08253187 0.05727265
000010 14 3a fe 3d cf 5f 96 bd 03 54 3d 3d 30 8b 8b bd
       0.12413421 -0.07342493 0.046222698 -0.06813657
000020 2c 26 f6 bd 71 85 07 bb c5 27 e5 3d 47 ba dc bc
       -0.120189995 -0.0020678903 0.11189226 -0.026944293
000030 40 0b 98 3c 09 e1 36 3d 58 03 9e bd 96 fb 0d be
       0.018560052 0.044648204 -0.077154815 -0.13865504
000040 26 3b 17 bd 05 59 74 bd 46 1a 29 bd 07 62 03 3e
       -0.036921643 -0.05965521 -0.041284822 0.12830363
000050 41 8d 19 bd 92 aa 9a 3d b8 64 03 3d fa ba d6 bd
       -0.037488226 0.07552065 0.032078475 -0.10484882
000060 57 c7 e9 3d 1f e8 43 bc 24 a2 68 3d e8 24 a9 3c
       0.11414974 -0.011957197 0.056795254 0.020647481
000070 74 02 2b be 1b 60 ad bd 1c 3c 0c bd c2 4a 91 bd
       -0.16700155 -0.08465596 -0.034237012 -0.07094337
000080 59 7f bb bd 59 cc 68 bb 3f a7 1f bd 8f 1c aa 3b
       -0.09155149 -0.0035522191 -0.038977858 0.0051913927
000090 ef 2b 83 bd d4 4d 2a bc 24 e2 b7 be e7 09 26 bd
       -0.06404864 -0.010394532 -0.3591472 -0.040536787
0000a0 92 95 60 be 4e 9a 45 bc ac 01 17 3e f4 30 c3 3d
       -0.21932057 -0.012060715 0.14746732 0.095308214
0000b0 96 1e 0e 3d 79 56 1c be 17 30 fe 3d 27 a3 7d 3d
       0.034697138 -0.15267362 0.12411516 0.061923172
0000c0 32 31 ba bd f1 d2 cf be 6a 75 b8 3d 50 ce e9 bd
       -0.090914145 -0.40590623 0.0900677 -0.11416304
0000d0 d4 4b 49 be 64 41 af bd a6 ff a8 bd f4 91 d7 3c
       -0.19657832 -0.08557394 -0.08251886 0.026314713
0000e0 ef 1d 8c 3d 08 03 06 3d 8a 66 f6 bd f6 0d 7b 3c
       0.06841647 0.032717735 -0.120312765 0.015323153
0000f0 fd b8 fe bb b0 52 5a 3d 47 89 84 bc 94 3c 85 3a
       -0.007773517 0.053301513 -0.01617874 0.0010165148
000100 d7 82 0d 3e d7 bd 36 bd 98 54 ab be 2a bf 90 bd
       0.13819443 -0.04461464 -0.33462977 -0.07067712
000110 5e c0 b0 3d 16 a4 82 3d c4 e9 15 be 6d 63 b4 3d
       0.08630441 0.06378953 -0.14639956 0.088080265
000120 50 9f 50 be b6 d6 d0 3d d6 63 c6 bc b1 df 5f bd
       -0.20373273 0.10197203 -0.024217527 -0.054656688
000130 0c ca 4d bd c6 48 86 bc 0d ea 0b 3e bc cf 4b 3c
       -0.050241515 -0.016392123 0.13663502 0.012439664
000140 14 54 e0 bd dc 97 15 be 64 b9 fd 3c 37 4d b5 3d
       -0.10953537 -0.14608711 0.03097219 0.08852618
000150 cb 24 09 3d f8 5b c2 3d cd b0 60 be 83 fa 83 3d
       0.033482354 0.09490198 -0.21942444 0.06444266
000160 da d0 da 3d 67 2e 1a 3d 70 7b 16 3e 0a 45 b5 3d
       0.106843665 0.03764191 0.14695525 0.08851059
000170 8a bc 8c bd b0 9f 2a 3d cd 1a 5b 3d 41 2b 11 be
       -0.068718985 0.041656196 0.053492356 -0.14176656
000180 15 1e 89 be 42 af 33 3e 28 5b c8 3c 46 b6 f7 bc
       -0.26780763 0.17547324 0.02445753 -0.030238282
000190 e9 59 2b be 10 44 5f be f4 f5 db bd 3c 92 a1 bd
       -0.16733517 -0.21803308 -0.10740271 -0.0788922
0001a0 f1 99 2e be c0 3f a9 be 44 4e 04 be 1e 08 62 bd
       -0.17050911 -0.3305645 -0.12920481 -0.055183522
0001b0 34 df 2c 3e 92 8a 0c be f3 ac 0f be 86 4b 26 ba
       0.1688202 -0.13724735 -0.14030819 -0.00063436513
0001c0 f4 e1 05 be f5 e4 f1 3d 4b dc 58 bd 87 5a d4 be
       -0.13074476 0.11811248 -0.052944463 -0.41475317
0001d0 30 ab 3e bc 19 0b 9d bd 81 13 4f 3d c1 b4 80 bd
       -0.011637494 -0.07668132 0.05055571 -0.06284476
0001e0 63 b8 28 3a d2 74 8b 3d 2e 10 8c bd c2 29 d5 3d
       0.0006436167 0.06809391 -0.068390235 0.10408355
0001f0 b5 de df bd fe 7a 4e 3e df aa 3f bd b2 0d f8 bd
       -0.1093115 0.20164105 -0.046793815 -0.12111987

output.weight f4 [5, 128]
000000 20 7c ad bd 8d 30 18 3d 75 e1 95 bd 83 98 a8 bc
       -0.084709406 0.037155677 -0.07318393 -0.020580536
000010 67 2c f5 bc 4b 46 0b 3d cc dd e7 3c 09 0a 5e 3d
       -0.0299284 0.034002583 0.028304003 0.05420879
000020 3a e4 9e be fd 53 39 bd 42 b6 61 3d 57 8d 5d bc
       -0.31033498 -0.045246113 0.055105455 -0.013522468
000030 d1 a8 10 be 53 ef 93 3e 10 b8 92 bc ab ad 49 be
       -0.14126898 0.28893527 -0.017910033 -0.19695155
000040 10 3b 43 3d f9 a5 bd bd df 48 b8 bd 82 fb a1 bd
       0.04766375 -0.092601724 -0.08998274 -0.079092994
000050 35 9c f8 bc 49 cc 61 bd 21 5a b4 bd 1e a6 eb 3b
       -0.030347923 -0.055126462 -0.08806253 0.0071914336
000060 68 97 91 3d 03 5e 8c 3d 09 8f 7b bd 31 a9 ad bd
       0.071089566 0.06853869 -0.061415706 -0.08479536
000070 2e ef 21 3e 54 27 80 bd 7a 9b 9c 3d e9 37 a8 3c
       0.15813896 -0.06257501 0.07646842 0.020534473
000080 4e 21 cb 3c b5 fd 3c 3d 87 8e e3 3d 58 06 7a bc
       0.024796154 0.04614039 0.11111169 -0.0152603015
000090 33 10 1b 3d 70 e6 60 bd d5 a1 7f 3e 2f f6 14 bc
       0.037857246 -0.054907262 0.24964078 -0.009091898
0000a0 32 11 0d 3d 0f 43 8c 3c 14 6b 96 bd 00 95 f3 bd
       0.034440227 0.01712182 -0.07344642 -0.11893654
0000b0 b0 f4 f0 bd f1 37 0d bd 2b 07 e7 3e 5a 1f 5b be
       -0.117654204 -0.034477178 0.45122656 -0.21398678
0000c0 20 b5 cc 3d 25 c7 ad bd 3d 48 41 3d d1 a2 ba bd
       0.09995484 -0.084852494 0.047188032 -0.09113086
0000d0 98 25 9b bd 46 35 32 be 55 da b4 bd 21 6b 54 bd
       -0.0757553 -0.17403135 -0.08830706 -0.05185998
0000e0 ca b2 1f 3d f8 d1 89 3d 80 cf c9 3d 5e cd 9d bd
       0.038988866 0.067295015 0.098540306 -0.07705186
0000f0 7f 85 0b 3b 7c 58 59 3e 8c 3f c5 3d c6 7b 25 3e
       0.0021289287 0.2122516 0.09631261 0.16160497
000100 af 89 25 3e 09 46 39 3d 46 30 5b 3c 4d 92 84 be
       0.16165803 0.045232806 0.0133782085 -0.2589287
000110 05 6c cb 3d ac 07 a1 bd dd 7b 90 3c 61 64 85 3d
       0.099327125 -0.078627914 0.017637188 0.065132864
000120 85 1b 9d 3e 09 0a ad 3c 02 55 46 3d a6 2e dc 39
       0.30685058 0.02112295 0.048420914 0.00041996426
000130 c0 54 d6 3c 40 15 1b be 7d be 8a 3d 08 f5 4f 3c
       0.026163459 -0.15144825 0.06774614 0.012692697
000140 c6 59 85 3c c2 8b c2 bd 5d 5e 79 3d c7 32 d0 bd
       0.016278159 -0.09499313 0.060881007 -0.10165935
000150 d7 82 88 3c cd cd 38 bd e9 50 01 3e f7 f9 0f 3e
       0.016663952 -0.045118142 0.12628521 0.14060198
000160 32 1d fa 3d 46 15 ca bc 2e e3 ff bd e6 58 9c bc
       0.122126 -0.024668347 -0.12494503 -0.019085359
000170 2d b7 9a bd 98 81 47 be 0d 18 15 3a 8f 92 34 3e
       -0.07554469 -0.1948303 0.0005687483 0.17634033
000180 82 d7 4b 3e 6d ba fc bc 74 9a 9e 3c 2c 3d 07 3c
       0.19906428 -0.030850613 0.019360758 0.008254331
000190 7e ef 95 bd 05 47 29 3e 24 b2 85 3c eb e3 03 3e
       -0.0732107 0.16530998 0.016320296 0.12879913
0001a0 a4 48 9e 3b e7 2f 06 3d 0b 41 e6 bc 75 ec d9 bc
       0.004830437 0.032760527 -0.028107187 -0.02660201
0001b0 3f e5 5c bd 6f 57 38 3e b9 63 5e 3e 68 e0 33 bb
       -0.053929564 0.18002103 0.21717729 -0.002744699
0001c0 87 c7 47 3d d5 51 44 3e 4f c4 79 be df 7e 25 3d
       0.04877427 0.19171841 -0.24391292 0.040404197
0001d0 b3 1c f9 3c ef d7 6b bd 8a 9c 8a 3c 0e de 17 bc
       0.030409193 -0.057578977 0.016920347 -0.009269251
0001e0 24 b8 31 3d 9a a6 69 bd 90 58 39 be 8c 64 00 3e
       0.0433885 -0.05704365 -0.1810019 0.12538356
0001f0 54 41 19 3d c7 57 fb 3c 90 1b bb 3c 5a f7 a8 be
       0.037415817 0.030681504 0.022840291 -0.33001214
000200 19 f3 3e 3e 13 0b 65 bd 0a 7d 10 3e 71 d7 ab bc
       0.18647422 -0.055918764 0.14110199 -0.020976754
000210 69 52 53 3d 7c 9d 0c 3d a6 cf 89 3d 09 42 25 be
       0.051592264 0.034329876 0.06729059 -0.16138472
000220 4a 85 57 3f 23 9b 49 3e 9b 81 ab bc 4f 1b 36 bd
       0.8418776 0.19688086 -0.020935824 -0.044459637
000230 76 9d 57 3e c3 63 7d bf 38 ee 95 bd 4c 80 ea 3e
       0.2105616 -0.9898035 -0.07320827 0.45801008
000240 58 ee ad 3c 46 6c 44 3e a2 6d 5c 3d 4f 46 be 3e
       0.021231815 0.19181928 0.05381549 0.37163016
000250 5e 57 36 3d 3e 77 96 bd 33 5b 53 bd d0 c6 b2 bc
       0.044516914 -0.073469624 -0.051600646 -0.021823317
000260 ba d5 e9 bd 4a f6 97 bc 52 1d 5c 3e 4d 75 55 3e
       -0.11417718 -0.018550057 0.2149556 0.20845528
000270 a2 2b 31 bf 16 48 ae 3e 10 ec a7 3c e3 b3 2a 3d
       -0.69207203 0.34039372 0.020498306 0.04167546
000280 ae 93 14 be 4a 9e 53 be 53 57 bb be ec 96 da bd
       -0.1450946 -0.20665851 -0.3659006 -0.10673317
000290 f9 9e 58 3d d3 7c 3e bd 95 81 81 bf 7e 88 b6 bd
       0.052885983 -0.04650576 -1.011767 -0.089127526
0002a0 09 d4 84 bd 13 88 07 be c7 4e b0 3e a4 09 8c 3e
       -0.06485755 -0.13235502 0.34435102 0.27351105
0002b0 be f7 b4 3e df c7 9a bd 0c 40 ab bf 68 bb 1e bd
       0.35345262 -0.07557654 -1.337892 -0.038752943
0002c0 54 ac b2 3d 33 1d 5f 3e 38 d4 ad 3d 16 2a 00 bd
       0.08724275 0.21788482 0.08487743 -0.031290136
0002d0 70 13 a5 3d 01 ee 8e 3e a7 f7 36 3d 45 ce 49 3e
       0.08060348 0.27915958 0.044669773 0.19707592
0002e0 98 6c 83 3e 5b 77 a8 bd e2 1f 5e be c6 aa 1e 3e
       0.25668788 -0.0822589 -0.2169185 0.15494832
0002f0 d8 24 97 bc 55 dd 14 bf ec 4e 32 be 6a c1 1e bf
       -0.018450186 -0.58150226 -0.17412919 -0.62013876
000300 92 72 2c 3e 7b 7f 98 be 20 99 ee bd 36 46 a3 3d
       0.1684058 -0.2978476 -0.116503 0.07972376
000310 36 a3 9b be 77 c3 a2 3e 5c 13 1d 3d 06 b6 aa 3d
       -0.30397958 0.31789753 0.03834854 0.083354995
000320 85 11 18 bf bb 13 de 3b e0 2f 7b bd 69 9b 81 bd
       -0.5940173 0.0067772544 -0.061324954 -0.0632847
000330 7e 7f 82 bb 02 3d 0c 3f 23 ad 8c 3b ec d2 51 be
       -0.0039824834 0.5478059 0.0042931004 -0.20490617
000340 37 71 c0 3c 60 e2 01 3d 84 3c 4a be e8 8d bf 3e
       0.023491485 0.03171003 -0.19749647 0.37412953
000350 48 e8 08 3e 46 ad 1e 3e c7 91 07 bf 88 4b cb be
       0.13369858 0.15495786 -0.52956814 -0.39706063
000360 7f b1 db ba 40 79 09 be 38 ae c2 3e 46 4d 8b 3e
       -0.0016761272 -0.1342516 0.38023543 0.27207392
000370 7a e2 c3 bc 98 59 0c 3f d7 43 32 be 11 ec 28 bf
       -0.023911703 0.5482421 -0.17408691 -0.6598521
000380 c8 7d 00 bf 6c 99 63 3d 48 f0 09 ba 61 0c 68 3b
       -0.50191927 0.055566236 -0.000526194 0.003540777
000390 01 35 95 3e e4 bc e4 bd 42 00 42 3d 0a e5 e6 bd
       0.29142 -0.111688405 0.047363527 -0.112741545
0003a0 c2 65 a6 bc 37 45 a9 3c 1b 92 50 3e d0 9b 00 bd
       -0.020312194 0.020662887 0.20368235 -0.031398594
0003b0 bf 7d 59 be fc cb ef be e4 93 1c bf 3c 86 51 3d
       -0.21239375 -0.46835315 -0.61163163 0.051153407
0003c0 c5 13 e3 3c ba 9a c1 3c 8e 46 4b 3f f6 33 e4 bd
       0.027719388 0.02363335 0.7940453 -0.11142723
0003d0 1a 85 50 be fb c7 9c bd 91 2e ff bd 28 3e 37 3d
       -0.20363274 -0.07655331 -0.12460054 0.04473701
0003e0 d0 c2 89 be 66 3f ea 3e ee fd 9c 3d f5 2c bf 3c
       -0.26906443 0.45751494 0.07665621 0.023336867
0003f0 83 93 88 bc 60 88 17 be ae de 5f be b8 5b 97 3f
       -0.016671902 -0.14798117 -0.2186229 1.1824865

output.bias f4 [5]
000000 d3 01 5b 3c 2f 17 06 be 11 b1 93 bb 2e 70 eb bb
       0.013367134 -0.13094781 -0.004507192 -0.0071850037
000010 77 6b 29 3a
       0.0006462852
