models/MagneticPendulum/p-1_measure_x1*cos(0.0833333333333333*pi) + x2*sin(0.0833333333333333*pi)_N6/model_state_dict.pth (torch, 48492 bytes, 8 tensors)

hidden1.weight f4 [32, 6]
0	0x3f770872	0.9649726
1	0x3d725476	0.05916258
2	0x3f241926	0.64100873
3	0x3f8f84be	1.1212385
4	0xbf6b3c15	-0.9188855
5	0x3f1f655f	0.62264055
6	0xbe4512d1	-0.19245459
7	0x3f72e120	0.94874763
8	0xbe2b3e56	-0.16722998
9	0x3f0b3f42	0.543934
10	0x3e62541f	0.22102402
11	0x3ecb7f8b	0.39745745
12	0x3da76471	0.081734546
13	0xbe9ab11e	-0.30213255
14	0x3f1a77d8	0.6033912
15	0xbe100621	-0.14064838
16	0xbe1fedd8	-0.15618074
17	0xc0035bcf	-2.0524786
18	0x3f3af88d	0.7303551
19	0xbead18e0	-0.3380804
20	0xbf20db99	-0.6283508
21	0xbf8b1536	-1.0865848
22	0xbf77c29e	-0.9678134
23	0xbe0d935d	-0.13825746
24	0x3d1958e5	0.037438292
25	0x3dac8555	0.084238686
26	0xbc3c2718	-0.01148393
27	0x3f073395	0.5281308
28	0xc0145f88	-2.3183308
29	0x3f47250e	0.77790916
30	0xbd8ba8c1	-0.06819297
31	0xbc80ecd4	-0.015737928
32	0xbe948349	-0.29006413
33	0xbf23740c	-0.6384895
34	0xbff0cebe	-1.8813093
35	0xc0400118	-3.0000668
36	0x3f03418c	0.5127189
37	0xbe4f8b09	-0.20267881
38	0x3f14d999	0.5814453
39	0xbf74b6bc	-0.9559133
40	0x3f869fd9	1.0517532
41	0xbfb2a03d	-1.3955151
42	0x3f415e0e	0.7553414
43	0x3e1d481a	0.15359536
44	0xbfa3b4db	-1.2789568
45	0x3f628567	0.88484806
46	0xbf121fc8	-0.57079744
47	0x3ec35706	0.3815233
48	0xbf00afd0	-0.5026827
49	0x3db6b0eb	0.08920463
50	0xbfc31daf	-1.5243434
51	0x3f94c0ce	1.1621339
52	0x3e7ba5c0	0.24574947
53	0xbf9e275d	-1.2355763
54	0x3f87c608	1.0607309
55	0x3e9b815c	0.3037213
56	0x3f287021	0.65796095
57	0xbf3352e0	-0.7004833
58	0x3f11eb37	0.56999534
59	0xbeb76353	-0.35817966
60	0xbed39490	-0.41324282
61	0x3dd87e9f	0.10571026
62	0xbf2fe2aa	-0.68705237
63	0x3f88a097	1.0674008
64	0xbf437cec	-0.7636249
65	0x3fb40070	1.4062634
66	0x3dcfc6d8	0.10145348
67	0xbe5bc78c	-0.2146284
68	0xbf92892b	-1.144811
69	0xbfba5a42	-1.4558794
70	0x3ee8a04b	0.45434794
71	0xbd27c0fc	-0.04095553
72	0x3d6d3b69	0.057917986
73	0xbddb8e41	-0.10720492
74	0x3e4a6fd3	0.1976922
75	0x3eb2633f	0.34841344
76	0x3f837af3	1.0271896
77	0x3f0fca01	0.5616761
78	0xbef80dd8	-0.48448062
79	0xbd2df34d	-0.042468358
80	0xbf5cb51e	-0.8621386
81	0xbf3526dd	-0.70762426
82	0xbf02b133	-0.51051635
83	0xbe81e18f	-0.253674
84	0x3f828609	1.0197154
85	0xbca82950	-0.020527512
86	0x3ea07669	0.3134034
87	0x3f082e4c	0.53195643
88	0xbe0c21aa	-0.13684717
89	0x3f738bf2	0.95135415
90	0x3ea71b76	0.3263814
91	0xbf8951f7	-1.0728139
92	0x3e826170	0.25464964
93	0xbf097759	-0.53697735
94	0x3da99085	0.08279518
95	0x3f02cad6	0.51090753
96	0xbead5bbf	-0.3385906
97	0xbd442885	-0.047890205
98	0xbf6f5a29	-0.9349695
99	0xbe953573	-0.2914234
100	0x40008a52	2.0084424
101	0x3f0df2ec	0.55448794
102	0xbd6755aa	-0.05647818
103	0xbd16173c	-0.03664325
104	0xbdf86b88	-0.12129885
105	0xbed2e067	-0.4118683
106	0x3f60057f	0.87508386
107	0xc0810084	-4.031313
108	0x3ec533fd	0.38516226
109	0x3dc7234e	0.09723531
110	0x3f488b88	0.7833791
111	0x3fa1603b	1.2607492
112	0x3fdee199	1.7412597
113	0x3f4a2e48	0.7897687
114	0x3eafd9a7	0.34345743
115	0x3ecc3633	0.398851
116	0x3f8a60d2	1.0810797
117	0x3ff5465d	1.9162098
118	0x3f541d51	0.82857233
119	0xbea33d84	-0.3188287
120	0xbf4e3878	-0.80554914
121	0x3e4ef349	0.20209993
122	0x3ef6601f	0.4812021
123	0xbf36f7d0	-0.7147188
124	0x3f8fe753	1.124247
125	0xbf9bb78b	-1.2165388
126	0xbefb31f9	-0.49061564
127	0x3d8f8042	0.07006885
128	0xbf159d36	-0.5844301
129	0x3f2f9367	0.68584293
130	0xbf483622	-0.782076
131	0x3fa7a859	1.3098251
132	0x3e56a853	0.20962648
133	0x3e80c8be	0.25153154
134	0x3e2b4f0d	0.16729374
135	0x3effd940	0.49970436
136	0x3f3c1e72	0.73483956
137	0x3f7cdcf4	0.9877465
138	0xbefc8b29	-0.4932492
139	0xbe59fbcb	-0.21287458
140	0xbf412312	-0.7544414
141	0xbf55a8c1	-0.83460623
142	0xbf5778d0	-0.8416872
143	0xbf80700f	-1.0034198
144	0x3ea612f3	0.32436332
145	0xbe2778a9	-0.16354622
146	0x3f877715	1.0583216
147	0xbfa1c2a6	-1.2637527
148	0x3fabea76	1.3430927
149	0xbe9d8341	-0.307642
150	0xbd7c86d8	-0.061652035
151	0x3f61915e	0.8811244
152	0xbf55f074	-0.8357003
153	0x3d69f9bf	0.057122942
154	0xbe1417ad	-0.14462157
155	0xbfee6bbc	-1.8626628
156	0xbf97da6a	-1.186353
157	0xbd9c3cc6	-0.07628779
158	0x3f05e04c	0.52295375
159	0x3e51d83f	0.20492648
160	0x3d117371	0.035510484
161	0x3eafa099	0.34302214
162	0xbd7c3692	-0.06157548
163	0x3e554290	0.20826173
164	0xbedf3c89	-0.43600872
165	0x3ee3a5fd	0.44462577
166	0xbfaddad1	-1.3582402
167	0x3fed25b9	1.8527137
168	0xbe9327d4	-0.28741324
169	0xbe130278	-0.1435641
170	0xbe091e25	-0.13390405
171	0x3dfcf88e	0.123520955
172	0x3d2f197f	0.042748924
173	0x3dadc808	0.084854186
174	0x3ecb2a70	0.39680815
175	0x3e3ef350	0.18647504
176	0x3f83e915	1.0305506
177	0xbf3eee63	-0.745825
178	0xbe99a57d	-0.3000907
179	0x3e171cb1	0.14757039
180	0xbd9b09b4	-0.0757021
181	0xbd1b6110	-0.037934363
182	0xbea091bc	-0.31361187
183	0xbd2d9be3	-0.042384993
184	0xbe98d89c	-0.2985276
185	0x3ead55e8	0.33854604
186	0xbee7ce79	-0.45274714
187	0xbf1ff69a	-0.6248566
188	0x3e2e2123	0.17004828
189	0x3e570dce	0.2100136
190	0x3f4d6dc1	0.80245596
191	0xbe9340ef	-0.28760478

hidden1.bias f4 [32]
0	0xbe9c149f	-0.30484483
1	0x3d3a2711	0.045447413
2	0x3dbac8fb	0.09120365
3	0xbd6acd83	-0.057324897
4	0x3e940c6b	0.28915724
5	0x3eedbad8	0.46431613
6	0x3e28d5ed	0.16487856
7	0xbe0ce2a5	-0.13758333
8	0x3dee67c8	0.116408885
9	0xbee0618e	-0.43824428
10	0x3e16ff5a	0.14745846
11	0xbdca2df8	-0.09872049
12	0xbe14c47d	-0.1452808
13	0x3e676b48	0.22599518
14	0xbd927ff6	-0.07153313
15	0xbdb68956	-0.089129135
16	0xbe1a0373	-0.15040378
17	0x3dd88d9c	0.10573885
18	0xbe725125	-0.23663767
19	0xbddb5bab	-0.10710844
20	0xbe5b5054	-0.21417361
21	0x3e8244ad	0.2544302
22	0x3cc60dab	0.02417644
23	0x3ed322b6	0.4123742
24	0xbdcf88bf	-0.10133504
25	0xbd2bf741	-0.041983847
26	0xbdede111	-0.11615194
27	0x3e4b9fd1	0.19885184
28	0xbeb44bb0	-0.35213995
29	0x3e363b13	0.17795973
30	0xbeb7ec2b	-0.3592237
31	0xbe617f27	-0.22021161

hidden2.weight f4 [64, 32]
0	0xbdac5349	-0.08414323
1	0xbec835f0	-0.3910365
2	0xbd78343d	-0.060596693
3	0xbe929700	-0.2863083
4	0x3f342ca9	0.70380646
5	0x3fc018a7	1.5007523
6	0x3e935de9	0.28782585
7	0xbe9cb5a1	-0.30607322
8	0x3f07cf4c	0.53050685
9	0xbf54dd04	-0.83149743
10	0xbec4a5f0	-0.3840785
11	0x3ceba101	0.028763296
12	0xbf249269	-0.64285904
13	0xbdbde4e4	-0.09272173
14	0x3f04b68b	0.5184104
15	0xbe67ab4f	-0.22623943
16	0xbfa780da	-1.3086197
17	0xbe00445a	-0.12526074
18	0xbf8383b7	-1.0274571
19	0xbf7790f6	-0.9670557
20	0xbe771316	-0.24128374
21	0xbe1123e4	-0.14173847
22	0xbe09add8	-0.13445222
23	0x3e417269	0.188913
24	0xbd3835d4	-0.04497321
25	0xbe470825	-0.194367
26	0x3e740575	0.23830207
27	0x3eba99dd	0.36445513
28	0x3cd690c1	0.02619207
29	0x3eeac06f	0.4584994
30	0x3d61413c	0.054993853
31	0xbe0eb2ce	-0.13935396
32	0xbfd45971	-1.6589795
33	0x3c943902	0.01809359
34	0xbed001b5	-0.40626302
35	0xbce353e8	-0.02774997
36	0x3ed991cf	0.42494056
37	0xbe2a4769	-0.16628803
38	0xbe1fae50	-0.15593839
39	0x3d9c8be2	0.07643868
40	0x3e83abe0	0.25717068
41	0x3e7a19ea	0.24423948
42	0x3f101f74	0.56297994
43	0xbe512a54	-0.20426303
44	0x3eef98e8	0.46796346
45	0x3d3af018	0.045639127
46	0xbe62f7ec	-0.22164887
47	0xbce46004	-0.027877815
48	0x3e888774	0.26665843
49	0x3df58ad2	0.119893685
50	0xbeb3d8c1	-0.35126308
51	0xbedcf688	-0.43156838
52	0xbfd69bef	-1.6766337
53	0x3eb8d85f	0.36102578
54	0x3e565bc4	0.20933443
55	0x3ebe3130	0.37146902
56	0xbf048db9	-0.5177875
57	0x3de8836b	0.11353191
58	0xbf9dde58	-1.2333479
59	0x3f2ff988	0.6874013
60	0xbda8df05	-0.082456626
61	0xbf69fbc0	-0.91399765
62	0xbe0f4844	-0.13992411
63	0xbeda4d77	-0.42637226
64	0xbf3b21b9	-0.7309833
65	0xbf9cb705	-1.2243353
66	0x3e82bded	0.25535527
67	0xbcf54c80	-0.029943705
68	0x3e8152b6	0.25258416
69	0x3f84517c	1.0337367
70	0x3d17384f	0.036918934
71	0xbe88c618	-0.26713634
72	0xbe4cb4a3	-0.19990782
73	0x3ec7155a	0.38883477
74	0xbf436258	-0.76321936
75	0x3ea2c33f	0.31789586
76	0x3d5ec5d5	0.054387886
77	0x3e38a1c7	0.18030463
78	0xbdfa096f	-0.122088306
79	0x3edc9633	0.43083343
80	0xbef16ab1	-0.47151712
81	0xbd3e87f5	-0.046516377
82	0xbe0dd61f	-0.13851212
83	0x3e881fdf	0.26586816
84	0x3e5a61c6	0.2132636
85	0xbe975619	-0.29557875
86	0xbe0e77b8	-0.13912857
87	0x3e40b340	0.18818378
88	0x3e168d78	0.14702404
89	0xbfad047a	-1.3516991
90	0x3e693770	0.22775054
91	0xbefba768	-0.49151158
92	0xbd0be471	-0.034153406
93	0x3cb13430	0.02163133
94	0x3dd9762c	0.106182426
95	0x3e40b88c	0.18820399
96	0xbfcb7b6f	-1.5897044
97	0xbe23e4a5	-0.1600519
98	0xbf3346c9	-0.70029885
99	0xbe046367	-0.12928544
100	0x3f6a3350	0.91484547
101	0x3ea71fe1	0.3264151
102	0xc0152d0f	-2.3308752
103	0x3e09809e	0.1342797
104	0xbce2a450	-0.02766624
105	0xbd4dc65c	-0.050238
106	0x3e921f04	0.28539288
107	0xbaf645c4	-0.0018789102
108	0x3e5b0db3	0.21391945
109	0x3e270cec	0.16313523
110	0x3d9c6e1d	0.0763819
111	0x3f288be4	0.65838456
112	0x3f041554	0.51595044
113	0xbe333288	-0.17499745
114	0x3f6b0e78	0.9181895
115	0x3e326fb1	0.1742542
116	0x3f3b13bb	0.7307698
117	0x3e240bfe	0.160202
118	0xbfc1c354	-1.5137734
119	0x3eb8441a	0.35989457
120	0xbe394e80	-0.18096352
121	0x3ea4ac8f	0.32162902
122	0x3f689095	0.90845615
123	0x3e1ae4e0	0.15126371
124	0xbe0dabf8	-0.13835132
125	0xbf9cc311	-1.224703
126	0x3ddd49d2	0.10805096
127	0x3f05e228	0.5229821
128	0xbf238564	-0.6387541
129	0x3dbe8306	0.093023345
130	0xbdfbd6f7	-0.12296861
131	0x3f6e6b09	0.9313207
132	0x3c8cced6	0.01718847
133	0x3f822dfc	1.0170283
134	0x3ed21332	0.4103027
135	0x3e45a1e3	0.19300036
136	0xbde5604d	-0.112000085
137	0xbec97869	-0.39349678
138	0x3e718803	0.2358704
139	0xbeaca5cf	-0.33720252
140	0x3e2ebd54	0.1706441
141	0xbe353c53	-0.17698793
142	0xbdbfed16	-0.093713924
143	0xbf0724f0	-0.5279074
144	0xbf32b92c	-0.698138
145	0x3f9759f2	1.1824324
146	0xbf8a9880	-1.0827789
147	0xbf288a67	-0.65836185
148	0xbe07d912	-0.132664
149	0xbec2248e	-0.37918514
150	0x3d4f086e	0.05054515
151	0x3de0c6ac	0.10975394
152	0xbe6e073f	-0.23244952
153	0xbdb9bb02	-0.09068872
154	0x3df5fb9e	0.12010883
155	0x3d76fd57	0.060300197
156	0xbb2bcbb1	-0.002621394
157	0xbe06c036	-0.1315926
158	0x3e14ffe5	0.14550741
159	0x3efbaba0	0.49154377
160	0xbf289ddc	-0.65865874
161	0x3da3c497	0.07996481
162	0xbd762e68	-0.06010285
163	0xbea40d33	-0.3204132
164	0xc08b32a0	-4.34993
165	0xbf19f110	-0.6013346
166	0x3e1a8f42	0.15093711
167	0x3f134bf7	0.5753779
168	0xbe916496	-0.28397053
169	0xbf0b3289	-0.54373986
170	0x3e40ad4a	0.18816105
171	0xbe3b248f	-0.18275665
172	0x3db94102	0.090456024
173	0x3f18d29b	0.5969636
174	0x3d77e710	0.060523093
175	0xbf1ef9d5	-0.62099963
176	0xbe238156	-0.15967306
177	0x3f00740a	0.5017706
178	0xbe8260f2	-0.25464588
179	0xbf990ddc	-1.1957355
180	0x3d85d7c5	0.065352954
181	0x3e125f1c	0.14294094
182	0xbbd70e58	-0.006562989
183	0x3ecaeeb5	0.39635244
184	0xbf1a9c8b	-0.60395116
185	0xbe017ada	-0.1264452
186	0xbe151c22	-0.14561513
187	0xbee4a7a8	-0.44659162
188	0x3d671b65	0.05642261
189	0xbf35d00a	-0.7102057
190	0x3d4c0bb7	0.04981586
191	0x3ea63fcc	0.32470548
192	0xbec492e3	-0.38393316
193	0x3f4aa9fa	0.79165614
194	0x3ea1acac	0.3157705
195	0xbdc840eb	-0.09778007
196	0xbebd3e13	-0.3696142
197	0x3f5b8eec	0.85764956
198	0x3dc66422	0.096870676
199	0xbfb80aef	-1.4378337
200	0x3d4b0b7e	0.049571507
201	0xbf8f936b	-1.1216863
202	0x3e59af0c	0.21258181
203	0xbf5b5760	-0.856802
204	0xbeea2abe	-0.45735735
205	0x3ee8facc	0.45503843
206	0xbd434b77	-0.04767939
207	0xbe93f492	-0.2889753
208	0xbdb6f59c	-0.08933565
209	0xbd374fb7	-0.044753756
210	0xbf0db4e7	-0.5535416
211	0xbd6a54dc	-0.057209834
212	0xbf800972	-1.0002882
213	0x3e5da8f7	0.21646486
214	0xbe4ce4af	-0.20009111
215	0x3e1b13d8	0.15144289
216	0xbeeeb939	-0.4662569
217	0xbf44ddb3	-0.76900786
218	0xbfe2e93e	-1.772743
219	0x3e700fae	0.23443481
220	0xbd1e3c3d	-0.038631666
221	0x3eede28e	0.4646191
222	0xbde93db2	-0.113887206
223	0xbf1d7c02	-0.61517346
224	0xbea3b21c	-0.31971824
225	0xbdfc360f	-0.12314998
226	0x3ea64fef	0.3248286
227	0x3eab831e	0.33498472
228	0xbe7c7ce3	-0.24657016
229	0x3e83cb58	0.25741076
230	0x3f561d7d	0.83638746
231	0x3de4fe23	0.11181285
232	0xbf3588e9	-0.70912033
233	0xbf069ac3	-0.525799
234	0xbf7b17ad	-0.98083
235	0xbe337f1e	-0.1752896
236	0xbd8287a4	-0.06373528
237	0xbeb9232c	-0.36159647
238	0x3dfd0fd5	0.12356535
239	0x3e7e1a1d	0.24814649
240	0xbcc98e55	-0.024604002
241	0x3f2ece86	0.6828388
242	0x3e8c0a47	0.2735159
243	0xbdbc6a37	-0.091999464
244	0xbf82bf86	-1.0214698
245	0xbfaa92f5	-1.3326098
246	0x3e9581a7	0.2920048
247	0xbf378c10	-0.71698093
248	0x3e035419	0.1282505
249	0x3e2427dc	0.1603083
250	0xbfac8910	-1.3479328
251	0x3ef6e57d	0.4822196
252	0xbe2d5d0c	-0.16930026
253	0x3edc8b25	0.4307491
254	0x3d727fe5	0.059204
255	0xbe179a0f	-0.14804862

hidden2.bias f4 [64]
0	0x3e81df4e	0.2536568
1	0x3edf82e6	0.43654555
2	0x3e2bae8c	0.16765803
3	0xbf31d70b	-0.69468755
4	0x3e1c15d7	0.15242706
5	0x3f026f05	0.5095065
6	0x3e9b3c4a	0.30319434
7	0xbe80eabd	-0.2517909
8	0x3cb7667e	0.02238774
9	0xbcb8aae4	-0.022542424
10	0xbdc7421a	-0.09729405
11	0xbe664f87	-0.22491275
12	0xbd86d59f	-0.06583714
13	0x3b8728d4	0.00412474
14	0xbe1ed8c0	-0.15512371
15	0x3d4b28e3	0.04959954
16	0x3eadabe0	0.33920193
17	0xbe2d1b67	-0.16904984
18	0x3e4f2619	0.20229377
19	0x3e5c2072	0.21496752
20	0x3d873aeb	0.066030346
21	0x3e8611e3	0.2618552
22	0x3e5dcd96	0.21660456
23	0x3df807b1	0.12110842
24	0xbe7c9364	-0.246656
25	0x3e2e2151	0.17004897
26	0x3eb9be68	0.3627808
27	0xbede6e40	-0.4344349
28	0x3e891b13	0.26778468
29	0x3e9b1916	0.30292577
30	0x3e371c30	0.17881846
31	0xbe78cc81	-0.24296762
32	0x3ed4f1a5	0.4159061
33	0x3f0ec1c5	0.5576442
34	0x3e6105f5	0.21974929
35	0xbd4b78aa	-0.04967562
36	0xbe28246b	-0.16420142
37	0x3dca7ae0	0.09886718
38	0xbe29924b	-0.16559713
39	0x3ef34c7c	0.4751929
40	0xbd30e233	-0.04318447
41	0x3e1dd7f4	0.15414411
42	0x3e66b7f3	0.22531109
43	0x3c9f22f1	0.019425841
44	0xbe47a01b	-0.19494669
45	0x3dc4e314	0.09613624
46	0x3e628940	0.22122669
47	0x3e62ac2a	0.22135988
48	0x3e089b5a	0.13340512
49	0xbbd23faf	-0.006416283
50	0xbf39a5a2	-0.7251836
51	0x3e87a105	0.26490036
52	0xbe47ac7e	-0.19499394
53	0xbe0adfda	-0.13561955
54	0x3e12126d	0.14264841
55	0x3e6ce808	0.23135388
56	0x3e929d4f	0.28635642
57	0x3ed6f039	0.4198015
58	0xbda5c754	-0.080946594
59	0x3dea2c1c	0.114341944
60	0x3db35ced	0.087579586
61	0xbd876b4b	-0.066122614
62	0xbe404b1f	-0.18778656
63	0x3eb39d9e	0.3508119

hidden3.weight f4 [128, 64]
0	0x3e1dc26f	0.15406202
1	0xbedf16d6	-0.4357211
2	0xbee34f32	-0.4439636
3	0x3ee0db53	0.4391733
4	0xbea351f2	-0.31898457
5	0xbf2cfcfd	-0.6757353
6	0x3f401414	0.75030637
7	0x3db858c7	0.09001308
8	0x3ebbc9d7	0.3667743
9	0xbdf4f81c	-0.119613856
10	0x3bb388a0	0.0054789335
11	0x3f386259	0.72025067
12	0x3e21a535	0.15785678
13	0xbc49ed9f	-0.01232472
14	0xbbe50766	-0.0069894074
15	0xbf09b9e4	-0.5379927
16	0xbed83708	-0.42229486
17	0x3e056c1a	0.13029519
18	0x3e2cc566	0.16872177
19	0xbf811c1e	-1.0086706
20	0xbe814096	-0.25244588
21	0x3f7a2ed9	0.97727734
22	0xbea2dad7	-0.31807587
23	0x3d137386	0.035998844
24	0x3f02d009	0.51098686
25	0xbe48e8c3	-0.19620042
26	0x3c2996c5	0.010350888
27	0x3f03906b	0.5139224
28	0xbecbf358	-0.39834094
29	0xbde5870e	-0.112074
30	0x3e8078fc	0.25092304
31	0x3b59e0ca	0.0033245557
32	0xbe1fc6de	-0.15603206
33	0x3f062368	0.52397776
34	0xbf589e00	-0.8461609
35	0x3dfaed71	0.122523196
36	0x3d0669e1	0.032815818
37	0xbf6aefff	-0.91772455
38	0x3d856292	0.065129414
39	0x3e5c034d	0.21485634
40	0x3d8cb03e	0.06869553
41	0xbc83cc80	-0.016088724
42	0xbfaf9ea6	-1.3720291
43	0xbcf7bea1	-0.030242266
44	0xbe6c08dd	-0.23050256
45	0xbe2e9017	-0.17047153
46	0x3e17b034	0.1481331
47	0xbf946145	-1.1592184
48	0x3e37206c	0.17883462
49	0xbece7885	-0.40326324
50	0x3ea3e2a6	0.32008857
51	0xbf880cf2	-1.062895
52	0xbf09eba5	-0.5387519
53	0xbcec62d1	-0.028855713
54	0xbe548c6f	-0.20756696
55	0xbe93200f	-0.28735396
56	0x3e022ad2	0.12711647
57	0x3e8f57c7	0.27996656
58	0x3ef03d45	0.46921745
59	0x3e5e4706	0.21706781
60	0xbd8e4e9a	-0.06948586
61	0xbd028f2a	-0.031874813
62	0xbf91ce16	-1.1391017
63	0xbf6aab4d	-0.91667634
64	0x3c8dd8f5	0.017315367
65	0xbf423270	-0.7585821
66	0x3ef2d32e	0.47426742
67	0x3e2513a8	0.1612078
68	0x3f0a0009	0.53906304
69	0x3e91357e	0.28361124
70	0xc02642a3	-2.5978172
71	0xbd897afc	-0.067129105
72	0x3eaf57f3	0.34246787
73	0xbdc4ead6	-0.09615104
74	0x3dd13ca2	0.10216643
75	0x3f229dce	0.6352204
76	0xbe92db2d	-0.28682843
77	0x3e32d238	0.17463005
78	0x3d97d437	0.07413524
79	0xbee4e950	-0.44709253
80	0xbee42ecf	-0.44566962
81	0xba0aad65	-0.000529012
82	0x3d93d089	0.07217509
83	0x3e024a9e	0.12723777
84	0xbe4474a1	-0.19185115
85	0xbf6cba22	-0.92471516
86	0xbf984e7a	-1.1898949
87	0x3bbd2a8c	0.0057728942
88	0xbd97d59f	-0.07413792
89	0xbe93a55d	-0.288371
90	0xbd28c818	-0.04120645
91	0xbeb19b87	-0.3468897
92	0xbda68047	-0.08129936
93	0xbeceddfa	-0.4040373
94	0x3ec8fc9c	0.39255226
95	0xbc9fc1fc	-0.019501679
96	0x3e1d8b4f	0.15385173
97	0x3e47f850	0.19528317
98	0x3e507165	0.20355757
99	0xbe63ff5d	-0.22265382
100	0xbda66e5e	-0.081265196
101	0xc04effc3	-3.2343605
102	0xbd9755aa	-0.07389386
103	0x3f35712f	0.7087583
104	0x3cd6827b	0.026185265
105	0x3da64f7e	0.08120631
106	0x3e5d783a	0.21627894
107	0x3e8267ae	0.25469726
108	0x3ebfc265	0.37453
109	0x3eb56d1a	0.354348
110	0xbde81f4c	-0.113340944
111	0xbf74920f	-0.9553537
112	0x3e89ac96	0.26889485
113	0xbf316458	-0.6929374
114	0xbe89fc6a	-0.2695039
115	0xbead21b3	-0.33814773
116	0x3ef714b3	0.4825798
117	0x3bf20b6b	0.007386615
118	0x3e3a0828	0.18167174
119	0x3ec04391	0.3755155
120	0x3ededb6a	0.43526775
121	0xbda33cef	-0.079706065
122	0x3dd64715	0.104627766
123	0xbdd5e9c0	-0.10444975
124	0x3d072b29	0.033000145
125	0xbdd210f9	-0.102571435
126	0xbe0acd36	-0.13554844
127	0x3eeef228	0.46669126
128	0x3d9f268b	0.07771023
129	0xbd4e9258	-0.050432533
130	0xbd295827	-0.041343834
131	0xbcf4cc45	-0.02988256
132	0xbd21f5d7	-0.03954109
133	0x3d386f58	0.04502806
134	0xbe0cec8a	-0.13762107
135	0xbe1a31dc	-0.15058082
136	0x3cbdf62d	0.023188675
137	0xbd1df2fc	-0.038561806
138	0xbd1788f0	-0.03699583
139	0xbdd50196	-0.10400693
140	0xbdbeeeb4	-0.09322873
141	0xbdb8e4a1	-0.090279825
142	0xbd9bcf78	-0.07607931
143	0xbe0a9826	-0.13534603
144	0xbd9f950f	-0.077921025
145	0x3dcd629c	0.10028574
146	0xbdaf1971	-0.085497744
147	0x3d74ebd7	0.059795227
148	0xbe025b45	-0.12730129
149	0xbcfaffbb	-0.03063952
150	0xbdcc1bc7	-0.099662356
151	0xbdd419fa	-0.10356517
152	0x3d0d2855	0.03446229
153	0x3da7bc1c	0.08190176
154	0xbde0ddad	-0.10979781
155	0x3dec8a73	0.115498446
156	0xbd160d48	-0.03663376
157	0xbcc844a9	-0.024446802
158	0x3cefad8d	0.02925756
159	0x3dc81fea	0.09771712
160	0x3d595fa8	0.05306974
161	0x3d7c45a6	0.06158986
162	0xbe19e6b2	-0.1502941
163	0xbdb000ac	-0.08593878
164	0x3c5ecdc0	0.013598859
165	0xbd69579c	-0.056968316
166	0x3d6f410c	0.058411643
167	0xbd3afd97	-0.045652
168	0xbdf4478d	-0.1192771
169	0xbcc4b63e	-0.024012681
170	0xbd8ff8aa	-0.07029851
171	0x3d6eaec6	0.058272146
172	0xbdea99c8	-0.11455113
173	0xbcda4d54	-0.026648201
174	0xbcd398be	-0.02582967
175	0x3cdf7ae3	0.027280277
176	0xbe01b6e5	-0.12667425
177	0x3d2911b1	0.041276637
178	0xbda44966	-0.08021812
179	0xbdaf1841	-0.08549548
180	0x3ca77618	0.020442054
181	0xbd9636e0	-0.07334685
182	0x3d6509c9	0.055917535
183	0x3cf55ff7	0.029952986
184	0xbda5430f	-0.08069431
185	0xbd6eb155	-0.058274586
186	0xbdf81107	-0.12112623
187	0xbd735438	-0.05940649
188	0xbb2e697f	-0.0026613174
189	0xbb470bc0	-0.0030371994
190	0xbe28f19d	-0.16498418
191	0xbdde8af2	-0.108663455
192	0xbde49b66	-0.111624524
193	0xbc4e49cf	-0.0125908395
194	0xbcebff97	-0.028808398
195	0xbdbf8fdf	-0.09353613
196	0xbd29d37b	-0.04146145
197	0xbd4ce5a5	-0.050023694
198	0x3d716f76	0.058944188
199	0xbdbd7b4f	-0.09252035
200	0xbdb26630	-0.08710897
201	0xbc9182f8	-0.017762646
202	0xbca82ee0	-0.020530164
203	0xbdd8c49e	-0.10584377
204	0x3ccab107	0.024742616
205	0xbde012e9	-0.10941107
206	0x3c529800	0.012853622
207	0xbda88d36	-0.08230059
208	0x3dfce6cc	0.123487085
209	0xbd971c2a	-0.07378419
210	0xbdb2c646	-0.08729224
211	0x3d011e55	0.031523068
212	0x3c461560	0.012090057
213	0xbe0ce577	-0.13759409
214	0x3d5c786f	0.053825792
215	0xbdd772d5	-0.10519949
216	0xbd398eab	-0.045302074
217	0x3cef5799	0.029216575
218	0xbc3f1f29	-0.011665144
219	0x3dc50232	0.09619559
220	0xbdc66907	-0.09688001
221	0xbe12cfba	-0.14337054
222	0xbce4bc3b	-0.027921787
223	0x3d30261c	0.043005094
224	0x3d020d64	0.03175105
225	0xbdca4cec	-0.09877953
226	0xbd2cdc67	-0.04220238
227	0xbdce8bc4	-0.10085252
228	0xbdb9bb92	-0.09068979
229	0xbdc9f4c1	-0.09861136
230	0xbdb53698	-0.088483036
231	0xbdcab188	-0.09897143
232	0x3cb02d15	0.021505872
233	0xbcc7accd	-0.02437439
234	0x3d2cb252	0.042162247
235	0x3db6d2e2	0.089269415
236	0xbe18a59b	-0.14906923
237	0x3d05c4e4	0.032658473
238	0x3d0bfcc1	0.03417659
239	0xbdda07d6	-0.10646026
240	0xbdaf4be3	-0.08559396
241	0x3d3c026b	0.045900743
242	0xbde78e27	-0.1130641
243	0x3dc21bab	0.094779335
244	0xbc57a26e	-0.013161285
245	0x3cba5238	0.022744283
246	0x3d955a9d	0.07292674
247	0xbe13bd0f	-0.14427589
248	0x3dda6784	0.10664275
249	0xbe2cfa47	-0.16892348
250	0x3c94c720	0.018161356
251	0xbd1fa7dc	-0.038978443
252	0x3d365974	0.044518903
253	0xbacee300	-0.0015784204
254	0xbe064d03	-0.13115315
255	0xbc8bdd06	-0.017073166

hidden3.bias f4 [128]
0	0x3ee44828	0.445863
1	0xbb02eb8a	-0.0019976818
2	0xbdefc04f	-0.11706602
3	0xbde98064	-0.11401442
4	0x3eb0d5d7	0.34538147
5	0xbed28aa1	-0.4112139
6	0xbcbc3c27	-0.022977902
7	0x3e992992	0.29914528
8	0xbe3666ff	-0.17812727
9	0x3cde571d	0.027141148
10	0xbc645ba1	-0.013937862
11	0x3e1893f2	0.14900187
12	0x3e29f293	0.16596441
13	0xbde83113	-0.11337485
14	0xbde25a51	-0.11052383
15	0xbdae11a6	-0.0849946
16	0xbe05f5c4	-0.13082033
17	0xbe1ab76d	-0.15109034
18	0xbce7ed59	-0.028311418
19	0xbe3776ca	-0.17916408
20	0xbe10184e	-0.14071772
21	0xbd210347	-0.039309766
22	0xbf14431a	-0.5791489
23	0xbdf3576a	-0.11881907
24	0x3d82c07a	0.06384368
25	0xbcdffa11	-0.02734092
26	0x3e019abe	0.12656686
27	0x3e198bf5	0.14994796
28	0xbe8f6867	-0.2800934
29	0x3d4a95ec	0.049459383
30	0x3db18e2f	0.086696975
31	0xbdaad58b	-0.08341511
32	0xbdf159ab	-0.11784681
33	0x3e3513bf	0.17683314
34	0x3e7c465a	0.24636212
35	0x3dcd1075	0.100129046
36	0x3dfededd	0.124448515
37	0x3df24a0f	0.11830532
38	0x3d9528bb	0.07283159
39	0xbdd626ce	-0.1045662
40	0x3e153d09	0.14574064
41	0x3de108d8	0.10988015
42	0xbcf0c202	-0.029389385
43	0xbd7e9fb1	-0.062164012
44	0x3d2d5484	0.04231693
45	0x3c9283c4	0.017885096
46	0xbe93f206	-0.28895587
47	0xbd852139	-0.06500477
48	0x3deadb82	0.11467649
49	0x3e07761e	0.13228652
50	0xbd94c9ca	-0.07265051
51	0x3d4a828d	0.04944091
52	0x3ef0b7a4	0.47015107
53	0xbe9cdffb	-0.30639634
54	0x3e074561	0.1321006
55	0x3d71e249	0.059053693
56	0x3ca59255	0.020211378
57	0xbebea7e5	-0.37237468
58	0xbd88784c	-0.0666357
59	0xbf295608	-0.661469
60	0xbdc36689	-0.095410414
61	0x3e2e663d	0.17031188
62	0x3e57eb19	0.21085776
63	0x3de02138	0.10943836
64	0x3eb6731c	0.35634696
65	0xbdd04d69	-0.10171015
66	0x3eb73081	0.35779193
67	0xbcba60b5	-0.022751192
68	0x3e07f468	0.13276827
69	0xbdd0e29e	-0.10199474
70	0x3cb3f54e	0.021967556
71	0xbe1958d6	-0.14975294
72	0x3d9029f2	0.070392504
73	0xbe067704	-0.13131338
74	0xbc769bcf	-0.015051796
75	0x3e6d10bc	0.23150915
76	0xbe4eff6c	-0.20214623
77	0x3e9583e1	0.29202178
78	0xbe2db1d2	-0.16962364
79	0xbf15ffdd	-0.5859354
80	0xbe1b2d52	-0.15154007
81	0xbdd8eaf9	-0.105916925
82	0xbe1e33ac	-0.15449399
83	0x3cc5de41	0.02415383
84	0xbe3199d3	-0.17343836
85	0x3b84b12c	0.004049441
86	0xbe4bef94	-0.1991561
87	0xbc2399a0	-0.0099853575
88	0x3e56f86b	0.20993201
89	0xbdc188d0	-0.09449923
90	0xbf1d31dc	-0.61404204
91	0x3e0f06b7	0.13967405
92	0x3d7c3b64	0.061580077
93	0x3e3dd47c	0.18538088
94	0x3e1a6929	0.15079178
95	0xbea7a448	-0.32742524
96	0xbdcc4c9e	-0.09975551
97	0x3dbd4da2	0.09243323
98	0x3e2a7c16	0.16648898
99	0xbcf534bf	-0.029932378
100	0xbc9c2b2c	-0.019063555
101	0xbf3c8b96	-0.7365049
102	0xbe230814	-0.1592105
103	0xbe993500	-0.29923248
104	0x3e223902	0.15842059
105	0xbe3082cb	-0.17237394
106	0x3e79c5de	0.24391887
107	0xbd868327	-0.06567984
108	0x3e4d81f1	0.200691
109	0x3d956c84	0.07296088
110	0x3e6c4b0e	0.23075506
111	0xbdd00e0d	-0.1015893
112	0x3eb5f43f	0.35537907
113	0xbe25a327	-0.16175519
114	0xbe000031	-0.12500073
115	0xbe21ea55	-0.15812047
116	0x3dcf1b7f	0.10112666
117	0xbea0308a	-0.31287032
118	0xbe161926	-0.14658031
119	0x3dfd5d43	0.12371304
120	0x3e9ba3e0	0.30398464
121	0xbf1f7b7a	-0.62297785
122	0x3b9204ec	0.004456153
123	0x3d9a5ee2	0.07537629
124	0xbb98bb46	-0.0046609966
125	0x3e940063	0.28906545
126	0x3ca1dc87	0.019758476
127	0xbd93d2d3	-0.07217946

output.weight f4 [5, 128]
0	0x3b9eb702	0.0048435936
1	0x3c7ccb62	0.01542935
2	0x3ccd07ac	0.025028072
3	0x3cf23aaa	0.029568989
4	0xbd465772	-0.048423238
5	0xbd933d5c	-0.07189438
6	0xbc0abd93	-0.00846805
7	0x3cee7b12	0.029111419
8	0x3dd93c88	0.106072485
9	0x3cfdf981	0.031002762
10	0xbba11655	-0.0049159923
11	0xbd1b9b2e	-0.037989788
12	0xbc7e611a	-0.0155260805
13	0xbe92299a	-0.28547364
14	0xbdfdd382	-0.123938575
15	0xbda4e031	-0.080505736
16	0x3b38a61e	0.0028175185
17	0x3d12ea4e	0.03586798
18	0xbb9a0c07	-0.004701141
19	0x3cba1edc	0.022719793
20	0x3dc39012	0.095489636
21	0x3eb40cd8	0.3516605
22	0x3d9b334a	0.07578142
23	0xbd9ba427	-0.07599669
24	0x3cf25ce9	0.029585319
25	0x3d9bdd8a	0.076106146
26	0xbe2643ea	-0.16236845
27	0xbd7f2c88	-0.062298328
28	0xbcb99679	-0.022654759
29	0xbcfde5b3	-0.030993318
30	0xbc798990	-0.015230551
31	0xbd135710	-0.0359717
32	0x3d51b232	0.05119533
33	0xbe1f3d0e	-0.15550634
34	0xbdb42454	-0.087959915
35	0x3e150ce2	0.14555696
36	0x3b8d17a0	0.004305795
37	0x3d9af5d8	0.07566422
38	0xbdff8493	-0.124764584
39	0x3d8be3b7	0.068305425
40	0x3e7f19e9	0.24912228
41	0x3bbc6320	0.0057491213
42	0x3bab0908	0.0052195825
43	0xbc1f3ddb	-0.009719337
44	0x3d83e586	0.064402625
45	0xbe0d78b7	-0.1381558
46	0x3e8ba43b	0.27273735
47	0xbd4f5641	-0.050619368
48	0xbd1dd153	-0.038529705
49	0x3dce7af4	0.10082045
50	0xbc48b981	-0.012251259
51	0x3c131ca9	0.008979001
52	0x3d1f6b2c	0.038920566
53	0x3c9f8a6f	0.01947519
54	0x3c0db667	0.008649445
55	0xbd8bad92	-0.06820215
56	0x3e71febb	0.23632328
57	0x3e1f420b	0.15552537
58	0xbd9ddb38	-0.07707828
59	0x3ca5b94f	0.020229964
60	0x3d01d9ba	0.03170178
61	0x3dbd1fcf	0.09234583
62	0xbd3b489d	-0.045723546
63	0xbd40cfbe	-0.04707312
64	0x3ccb2274	0.024796702
65	0x3b9b64dc	0.004742248
66	0xbd14fd16	-0.036374174
67	0x3d5202c4	0.05127217
68	0x3d829a95	0.063771404
69	0x3c525a58	0.012838922
70	0x3da1c97c	0.07899758
71	0x3e279cb2	0.16368368
72	0xbd3377f1	-0.043815557
73	0x3d5f8f85	0.05458023
74	0xbe8104ca	-0.25198966
75	0xbd493084	-0.049118534
76	0xbce6fa42	-0.028195504
77	0xbd45ddf7	-0.048307385
78	0xbdb8f813	-0.090316914
79	0x3db38036	0.08764689
80	0x3d296450	0.04135543
81	0x3d3badaa	0.045819916
82	0x3d2251d6	0.039628826
83	0x3da161dc	0.07879993
84	0x3d89b621	0.067241915
85	0xbc9db77f	-0.019252537
86	0x3c62f72b	0.013852875
87	0x3d0f06a3	0.03491844
88	0x3e02253a	0.12709513
89	0x3d4b10f3	0.04957671
90	0x3d61aa5b	0.055094104
91	0xbdb172b7	-0.08664458
92	0x3ccfcb2d	0.025365436
93	0xbb0fc4a5	-0.0021937278
94	0xbe1b25fc	-0.15151209
95	0x3d841f9f	0.06451344
96	0x3c641ebc	0.013923343
97	0x3e868e4d	0.26280442
98	0xbdf15ddb	-0.1178548
99	0x3c6e55be	0.01454681
100	0xbe6eb6f9	-0.23311986
101	0x3d19a330	0.037509143
102	0xbc4cc534	-0.012498189
103	0x3df5e096	0.12005727
104	0xbeb70f72	-0.3575397
105	0xb700809e	-7.659341e-06
106	0x3d17e876	0.037086926
107	0x3d8ba245	0.0681806
108	0xb993060b	-0.00028042527
109	0xbe047a54	-0.1293729
110	0x3d3d10cd	0.0461586
111	0x3d580b49	0.052745137
112	0x3d969c1d	0.07353995
113	0xbcc8d6d3	-0.024516499
114	0xbc8a9b39	-0.016919719
115	0xbd5cd09c	-0.053909883
116	0x3e12e004	0.14343268
117	0xbda1a5bb	-0.07892939
118	0xbd3a09ee	-0.045419626
119	0x3d48b52e	0.04900091
120	0xbc37f641	-0.011228145
121	0xbd06c9ce	-0.0329073
122	0xbe10882a	-0.14114442
123	0x3cea9a7a	0.028638113
124	0xbca1714b	-0.019707343
125	0xbd93d74a	-0.072187975
126	0x3cde71a8	0.027153805
127	0xbde142e4	-0.109990865
128	0xb8fb79b8	-0.000119912846
129	0xbdc329fc	-0.09529492
130	0x39f413c7	0.00046554042
131	0x3bf922b7	0.0076030153
132	0x3e4b4332	0.19849852
133	0x3e8d3727	0.2758114
134	0x3da08837	0.07838481
135	0xbe6ab3cf	-0.22920154
136	0xbbf3a1c5	-0.007435056
137	0x3a7dc446	0.0009680431
138	0x3d57e49c	0.052708253
139	0x3e092aa4	0.13395172
140	0x3e06bc36	0.13157734
141	0x3f96ebf8	1.1790762
142	0x3ee3646a	0.44412547
143	0xbd0bad6d	-0.03410094
144	0x3c5bc920	0.013414651
145	0xbd3783a1	-0.044803265
146	0x3d8ae72d	0.067823745
147	0xbdc92547	-0.09821563
148	0xbeac7abf	-0.33687398
149	0x3d7c54e3	0.06160439
150	0xbeaf3a4c	-0.34224164
151	0xbbe7391e	-0.0070563694
152	0xbd8af975	-0.067858614
153	0xbe7116f3	-0.2354391
154	0x3f2c8981	0.67397314
155	0x3e84f2b7	0.25966427
156	0x3e218746	0.15774259
157	0x3d2e993b	0.0426266
158	0x3d643a3a	0.05571959
159	0xbc2ea4c3	-0.010659399
160	0xbd041d90	-0.032254755
161	0x3f21c347	0.63188595
162	0x3dfc34e5	0.12314776
163	0xbf308fb9	-0.68969303
164	0xbbcec988	-0.0063106455
165	0xbe949375	-0.2901875
166	0x3eed9902	0.46405798
167	0x3e168963	0.14700846
168	0x3da92533	0.08259048
169	0xbd73de7f	-0.05953836
170	0xbe2f20ee	-0.17102405
171	0xbb9aa5b0	-0.0047194585
172	0xbe65590c	-0.2239725
173	0x3f08d20f	0.53445524
174	0xbf83a9eb	-1.028623
175	0x3e32f962	0.17477944
176	0x3df0201f	0.117248766
177	0xbeb4633e	-0.35231966
178	0x3c8a5d63	0.016890233
179	0xbd74b619	-0.059743974
180	0xbe728207	-0.23682414
181	0xbcdfdb75	-0.027326325
182	0xbdab839c	-0.08374712
183	0x3e7138fe	0.23556897
184	0xbf718db8	-0.9435687
185	0xbf0faf18	-0.56126547
186	0xbce92cfe	-0.028463837
187	0xbc091fd6	-0.008369407
188	0x3d2314c1	0.039814714
189	0xbe91f61e	-0.28508085
190	0x3e7ea1f6	0.2486647
191	0x3e38c885	0.18045242
192	0x3d0072c9	0.031359468
193	0x3d5c4c3a	0.053783633
194	0x3e1cb945	0.1530505
195	0xbe9cdb5a	-0.30636102
196	0xbe851917	-0.25995705
197	0xbd411730	-0.047141254
198	0xbe7f5113	-0.24933271
199	0xbf233705	-0.6375583
200	0x3e2bff26	0.1679655
201	0xbe4aa0bf	-0.19787882
202	0x3f8023fb	1.001098
203	0x3e44d197	0.19220577
204	0x3e4768c6	0.19473562
205	0x3e4d5e93	0.20055608
206	0xbc35ce05	-0.011096482
207	0xbec67235	-0.38759008
208	0xbe20429d	-0.15650411
209	0xbe155698	-0.14583814
210	0xbc8c5e3a	-0.017134774
211	0xbe788223	-0.24268393
212	0x3cacee6b	0.02110978
213	0xbd138465	-0.036014933
214	0xbc718cfa	-0.014743084
215	0x3c0158c1	0.007894696
216	0xbec27f22	-0.3798762
217	0xbe11b3ce	-0.14228746
218	0xbe32d713	-0.17464857
219	0x3eb11ac6	0.3459074
220	0xbde5e1e0	-0.11224723
221	0xbd129550	-0.035786927
222	0x3f12d018	0.57348776
223	0xbe6cbc97	-0.23118816
224	0xbc9ac214	-0.018891372
225	0xbf82be02	-1.0214236
226	0x3f010718	0.5040145
227	0xbd836e5d	-0.064175345
228	0x3f6855b3	0.90755767
229	0xbce45a3c	-0.027875058
230	0x3dbbd37e	0.09171198
231	0xbef8c722	-0.48589426
232	0xbd7e3ff7	-0.06207272
233	0xbd2983b0	-0.041385353
234	0xbddcfbcf	-0.10790216
235	0xbc0967d5	-0.008386572
236	0xbdacbdbb	-0.08434626
237	0x3f07329f	0.52811617
238	0xbe48c1bd	-0.19605155
239	0xbe5ccafa	-0.21561804
240	0xbeab626b	-0.33473524
241	0xbc3a605d	-0.011375514
242	0xbd501468	-0.05080071
243	0xbdc36dac	-0.095424026
244	0xbeb2d1c2	-0.34925658
245	0x3eb00192	0.34376198
246	0x3c9427ab	0.018085321
247	0xbe3de2d1	-0.18543555
248	0x3ca00726	0.019534659
249	0x3deb5646	0.11491065
250	0x3f0e65ff	0.55624384
251	0xbd41cf58	-0.04731688
252	0xbd903bbc	-0.070426434
253	0x3e4c6595	0.19960625
254	0xbdb084c6	-0.086190745
255	0x3ecb7a50	0.39741755

output.bias f4 [5]
0	0xbe1aaa89	-0.15104116
1	0x3d9314bb	0.071816884
2	0xbdb9e854	-0.09077516
3	0xbe367d65	-0.17821272
4	0xbe11a81b	-0.14224283
