models/InvPendulum2/measure_x1_N4/model_state_dict.pth (torch, 47724 bytes, 8 tensors)

hidden1.weight f4 [32, 4]
00000000: 2f28 7e3e 5736 f2be 500e 003e ee2f 5c3e
00000010: 80a5 00bf 3782 f93e 7b7e d4be ad73 8f3e
00000020: 785a 8e3d 00c4 7abd 4002 0e3e 2010 ca3c
00000030: 4237 8e3e bee5 a7be 6686 853e a9ea a3be
00000040: 6afd 323e 2a3a d6bc 6dca 353f 2ffd 563d
00000050: 181a 7bbe f69d b8be 5e99 a6be 9551 12bf
00000060: dd0a 64be 5805 0bbe 4804 3d3e ec85 4e3f
00000070: 7164 05bf 2f44 643e 41ef 323d e2e1 133f
00000080: a745 8c3e 4452 17bf 5c19 83be ec11 1dbf
00000090: bf68 0f3f 4932 ae3e f97f 443f c20c 40be
000000a0: af20 233f 6a8e c6be 9d0d 3b3f 8f19 cb3c
000000b0: 82dd 86be 7a96 833e d4e3 87be e494 163e
000000c0: f13f c23c f46a 1c3e 8a95 38bf 5340 0cbf
000000d0: 06ea 7d3e 2181 8f3d e125 6a3f 0cc3 983e
000000e0: 8d17 613d cf24 41bf 6544 823e a1cc 6a3e
000000f0: 43d9 c5be b03a b53e cb65 6c3e 0d99 4e3f
00000100: e669 b2be dd09 cbbd b125 9fbe 5641 033c
00000110: e8f8 fbbe 7073 5fbe 1666 9d3e 26f4 c2be
00000120: 4088 a73e 45bf 823c dcbb aa3e b09b f73d
00000130: 8e4f a13e 5a48 f93e 7244 24bf 47ee 7a3d
00000140: 2b2e b4be f39e e9be 1720 8bbe ca32 79be
00000150: bd47 ca3e e62c fbbe 4813 17bf 2fe4 343f
00000160: c1d2 b7bd 41f7 1e3f 4c91 283e 96e3 c6be
00000170: b717 33bc 4082 fb3e ae32 13bf 3105 0cbf
00000180: 88a9 4d3e 9fce fe3e cfe4 c3be dcc4 acbe
00000190: 4329 2e3f 170d 8dbc fc4f 073f 2562 d3bd
000001a0: 2463 b5be fec1 0dbf 21c7 273f bc55 553e
000001b0: 2ed9 e13e 7021 7d3e a1cc 853d 4176 313f
000001c0: e78f 183f 8e71 89be edfb 543e b942 f53e
000001d0: 1358 033f 0579 463f d95c 9fbe 2197 43be
000001e0: b10f a6be 48d2 d53e 20fd 0b3f 2365 89bf
000001f0: ea10 863e 9bc9 06bf ff7a 29bf 3512 82be
0.24820016 -0.47307083 0.1250546 0.21502659 -0.5025253 0.4873216 -0.41502747 0.2801794
0.06950849 -0.061222076 0.13868046 0.024665892 0.27776533 -0.32792467 0.260791 -0.3201497
0.17479482 -0.026150782 0.71012 0.05248755 -0.24521673 -0.36058015 -0.32538885 -0.57155734
-0.22269769 -0.13576257 0.18458664 0.806731 -0.52106386 0.22291635 0.0436852 0.57766545
0.2739689 -0.591099 -0.25605285 -0.6135547 0.56019205 0.3402274 0.7675777 -0.18754867
0.63721746 -0.38780528 0.7306765 0.02479246 -0.26340872 0.25700742 -0.26541007 0.14705235
0.02371213 0.15275174 -0.7210318 -0.5478565 0.24796304 0.07007051 0.9146405 0.2983631
0.0549541 -0.7544679 0.25442806 0.22929622 -0.3864232 0.35396338 0.23085706 0.80702287
-0.3484642 -0.09913991 -0.31083444 0.008011183 -0.49213338 -0.2182138 0.30741948 -0.38076895
0.32721138 0.015960345 0.3334645 0.12090242 0.31506008 0.48688012 -0.6416694 0.061262395
-0.35191473 -0.4562908 -0.2717292 -0.2433578 0.39507857 -0.49057692 -0.59013796 0.7066068
-0.08975745 0.6209603 0.16461676 -0.3884551 -0.010930947 0.4912281 -0.57499206 -0.5469542
0.20084202 0.49767014 -0.38260505 -0.33743942 0.6803171 -0.017218156 0.5285642 -0.10321454
-0.354272 -0.55374134 0.6553822 0.20833486 0.44111007 0.24719787 0.065331705 0.69321066
0.5959458 -0.26844448 0.20799227 0.47902468 0.51306266 0.7752841 -0.31125525 -0.1910062
-0.32433847 0.41761994 0.54683113 -1.073399 0.2618478 -0.52651376 -0.662033 -0.25404516

hidden1.bias f4 [32]
00000000: c3f1 b83e 3507 f83e 66fc 9ebe 6554 1d3e
00000010: b5f1 e83e d537 9c3e 5959 543e aa0e 9b3e
00000020: 13e2 ae3e 80c2 093e a22d 0dbe 6afa d6be
00000030: 5066 f6bd f1a9 3cbb 880f 7dbe 6153 103e
00000040: cd45 0a3e c71b 7fbd 97a7 663e c4b6 593e
00000050: c570 8f3e 4bfa ab3e fa09 1abe ec71 e43e
00000060: 0b9a 5d3a 4f1b 133e 0d12 c6be ea99 aebe
00000070: 442f 97be eb43 25bd 4f6a 9c3e 469b 28be
0.3612195 0.48443 -0.3105194 0.15364225 0.45496908 0.30511346 0.20737208 0.30284625
0.34156856 0.13453102 -0.13786939 -0.41987926 -0.12031233 -0.0028787816 -0.24712956 0.14094307
0.1350319 -0.06228235 0.22524868 0.21261126 0.28015724 0.33589396 -0.15042868 0.44618165
0.0008453435 0.14365886 -0.38685647 -0.34101802 -0.29528248 -0.040347975 0.30549857 -0.16465482

hidden2.weight f4 [64, 32]
00000000: 0f8c 4abe 6c9f bf3d d8d3 673d 3526 1d3e
00000010: 9627 2dbe 60d6 d33d 4dac eebd fc03 39bd
00000020: 3854 8abc 5dcd 3cbf 7927 eebd 0ed2 9a3d
00000030: ddad 18bf 93ee dd3d 45a9 a43e 9aec e73d
00000040: 8290 243e 40bb 06bd 5ed3 85be 1bb4 e83e
00000050: ab72 e63a 2606 fe3d 90bf 883e 6d64 9f3c
00000060: ccf5 e7bd 5e5d 3cbf cb01 093e eb40 04be
00000070: 0e43 8dbe e72c 88bd 1d48 5d3d 59e2 0abf
00000080: 589d d3bd 1325 643d 1f0a 033e 526b 51be
00000090: 8b05 c73d 3d36 e83d 924c 593e a7de 05be
000000a0: 2964 573c db77 86be 5057 073d e56f 8cbd
000000b0: 43e7 d4bd 11a4 b6be 74c8 813e 9d28 5dbc
000000c0: 8b2e a23d 854d 213e 1d04 a2bc c139 2a3d
000000d0: 2688 0ebe e51c fa3d 6d2e 483e 0c44 e43d
000000e0: 116e 5d3e ee39 a9be 959a b13d 4e2c b4bd
000000f0: 8901 35be 59ae 433e 982f 32be 301b d7be
00000100: a179 c43d 69c7 1cbe f8e2 25bd 240b 3d3e
00000110: 5e82 553e 7c4f 803e 591d 943b 5043 0bbe
00000120: 3743 333e a7b6 febc 03dd d1be d882 303d
00000130: 0805 8bbd 8acb 043e 49c6 9c3e 51e5 03be
00000140: fc95 a9bd 9371 cb3d 3b8c 113e 0ec3 e73b
00000150: e775 e5bb a116 22bd 6dac 8cbe 847c 7fbd
00000160: c0ba eebd 3f02 673e 1d4c 153e 9c4a 27be
00000170: e42e 48be 9861 d03d cdeb 233e 5200 04be
00000180: b608 013e 2526 993d 70db 27bc 5c8a 95bc
00000190: ae52 1c3e 3dec 4d3e 3da5 01be 85ac 0b3e
000001a0: a782 5c3d f707 4ebe 14a4 083e f924 07be
000001b0: 831c 42be 8105 ddbe a4a5 e63e e752 12bc
000001c0: e381 543d 6f8f 863e 6b66 eabd 1b96 b4bd
000001d0: 81bb c4bd 94ff 7a3c e23c 563e 7cb1 283c
000001e0: 05fd 503d aa54 fbbd 3354 bb3e 43f5 62be
000001f0: 8876 b73d 4c06 b0bd b554 2cbe 42b3 4a3e
00000200: bf7a 4dbd 8852 463d 8046 d63b bdfb 53be
00000210: f5fe ce3d a12d 7c3d 7aa2 d23c 480a eebd
00000220: bcbb d8bd d255 33be 9e6d 98be a100 cabd
00000230: 5978 1dbe 97c2 b9be 9624 9b3e 2a6f 38bd
00000240: c8b1 36bd 8385 0bbe 54fa 23be 1622 353e
00000250: 1b18 903b 905d 153e c9a6 483d a8d8 99bc
00000260: 7729 eebd b976 c3be 36f8 483d d6be b23d
00000270: 99d0 8fba 13e0 0d3e ac18 e53d 378c 7cbc
00000280: cb9b 07be 7f5a 9f3c dc81 09bd c161 4bbe
00000290: f3f0 293e 2986 79bd bf18 1cbd a38a b93d
000002a0: 0f7c a0be dddb ae3d 5f26 37bc f44d 873d
000002b0: d766 133e b848 66bd ec54 16be 4dff 803d
000002c0: b285 b6bd 08e0 273d 71f7 cd3d 6362 07be
000002d0: 3ab5 98bd 06dc 05bf c0a1 3cbe 6ffc 393e
000002e0: 44dd 7fbe 383c 1d3d 9480 abbe 5114 b5bd
000002f0: 05fd 2dbe e007 eebe dabc 7f3e 8578 c23c
00000300: 37bf 37bd 4fc1 84bd 7a46 e73d d166 143e
00000310: 6d42 3e3e e86d 1c3d bdba ab3d 8b66 09bd
00000320: 8b56 7fbd f957 85be 0972 ab3d 187c d2bc
00000330: 3b0b 613b 8291 19be af02 c0bc 76ae eebd
00000340: aa6d f73a 5ff1 0dbe e37c 22be 7c4a cc3d
00000350: 74bb 5dbc dcd7 36bd 3fc9 8b3c 4dc9 653d
00000360: 97d0 d83a f7da 413c 7d6e 08be bb78 dcbe
00000370: 3eaa 233e f9e9 2ebe 8510 d53d 89d2 3ebc
00000380: 3334 3cbe 13f6 6c3e 1294 803d a3c4 2abe
00000390: a292 0ebd 2400 9dbb d88a 1d3e a703 953e
000003a0: 7370 8abd 31a4 323e 5153 ab3e 40c6 773b
000003b0: ed5a 523e 6cf8 683e baf4 a13e 5984 8d3e
000003c0: 3a2f 2b3c d880 533e fe17 1fbe 13b9 c6bb
000003d0: 6a56 783d 84b5 3cbe ffea d1bd f0b2 19be
000003e0: c323 8a3d 1ac1 c93e c7ae bc3d 5d34 32be
000003f0: c084 debd f51d a2be 2631 bc3d 0dee 013f
-0.1977999 0.09356579 0.056598514 0.15346606 -0.16909632 0.10343623 -0.116539575 -0.045169815
-0.016885862 -0.7375086 -0.116286226 0.07559596 -0.59640294 0.1083652 0.32160392 0.11324425
0.1607075 -0.03289342 -0.26137823 0.4544991 0.0017581781 0.124035165 0.2670865 0.019457066
-0.11326179 -0.7357997 0.1337959 -0.12915389 -0.2759022 -0.066491894 0.05402385 -0.5425163
-0.10332745 0.05569942 0.1279683 -0.20451096 0.09717854 0.1133847 0.21220616 -0.13073216
0.013146439 -0.26263317 0.033042252 -0.0685728 -0.10395672 -0.35672048 0.25348246 -0.0134984525
0.079190336 0.15752228 -0.019777352 0.041558985 -0.13919124 0.122125424 0.1954896 0.111457914
0.21624018 -0.3305201 0.08672062 -0.08797513 -0.17676367 0.19109477 -0.17400968 -0.4201293
0.095935114 -0.15310444 -0.040499657 0.18461281 0.20850512 0.25060642 0.0045201 -0.13599896
0.17506109 -0.031092955 -0.4098893 0.043093532 -0.06788069 0.12968269 0.3062003 -0.12880446
-0.082805604 0.09933772 0.1421365 0.007072813 -0.0070025804 -0.03957236 -0.274753 -0.062374607
-0.116567135 0.2255945 0.14579816 -0.16337055 -0.19549137 0.101748645 0.1600792 -0.12890747
0.12600979 0.074779786 -0.010245189 -0.018254451 0.15265915 0.20109649 -0.1266069 0.1364003
0.053835537 -0.20120226 0.13343841 -0.13197698 -0.18956189 -0.43168262 0.4504825 -0.008930898
0.051881682 0.26281306 -0.11445316 -0.08817693 -0.09606076 0.015319724 0.20921662 0.010296222
0.05102255 -0.12272008 0.36587676 -0.22163872 0.08958155 -0.08594951 -0.16829188 0.19794944
-0.050165888 0.04841855 0.006539166 -0.207015 0.10107223 0.061566953 0.02571224 -0.11623055
-0.105826825 -0.17513207 -0.2977113 -0.09863401 -0.1537794 -0.36281273 0.3030135 -0.04502789
-0.04460314 -0.1362515 -0.16013461 0.17688784 0.004397405 0.14586473 0.048987184 -0.018780068
-0.116290025 -0.38176516 0.049064837 0.08727805 -0.0010972201 0.13855009 0.111863464 -0.015414289
-0.13243024 0.019452332 -0.03357111 -0.19861509 0.16595821 -0.06091896 -0.038109537 0.09059646
-0.3134465 0.08538029 -0.011178582 0.06606665 0.14394699 -0.056221694 -0.14680833 0.06298695
-0.08912219 0.040985137 0.10056961 -0.13221125 -0.07456441 -0.52288854 -0.18421078 0.18162702
-0.2498675 0.038387507 -0.33496535 -0.08841766 -0.1699105 -0.46490383 0.24974385 0.023739109
-0.04486009 -0.06482183 0.11292739 0.14492346 0.18580027 0.038190752 0.08385227 -0.03354506
-0.062338393 -0.2604368 0.0837136 -0.025693938 0.003433897 -0.14996913 -0.02343878 -0.116543695
0.0018877287 -0.13861607 -0.15867953 0.09975144 -0.013533462 -0.044639453 0.017063735 0.05610018
0.0016541657 0.01183199 -0.13323398 -0.4306086 0.15982911 -0.17081441 0.104035415 -0.011646875
-0.18379287 0.23140745 0.06278242 -0.16676573 -0.03480781 -0.0047912765 0.15384996 0.2910435
-0.06759729 0.17445447 0.33462003 0.0037807375 0.20542498 0.22751015 0.31632024 0.27640036
0.010448271 0.20654619 -0.15536496 -0.006064543 0.060629286 -0.18428618 -0.102499 -0.15009665
0.06745102 0.39405137 0.09213024 -0.17402788 -0.10865164 -0.3166348 0.09189062 0.5075386

hidden2.bias f4 [64]
00000000: e97f 103e a07a 053e 82d4 b33d 3004 18ba
00000010: 88e6 1e3e 2dbd 033e 4b02 f23d 6bab cfbd
00000020: b872 0b3d 680b 253e 4008 ffbd 88b4 523e
00000030: 8820 edbd 4359 5fbd a641 843c 4547 8f3d
00000040: 0085 5e3d 9378 a6bd 6703 923d 9918 a63d
00000050: f62d 80b9 112a 34be 29ad 1d3e 5b27 b4bd
00000060: aebc cdbd 47ca 443e 77aa 49bd 97c8 eb3d
00000070: 0802 013e 8eac dabd 3956 e9bd 8e60 04be
00000080: 192e 933d 4802 213e 18f9 9c3c d53e 8cbc
00000090: bef7 cebc c57f b9bd 8754 253e 46e4 ef3c
000000a0: b83f 0fbe 4455 f7bd 2f0d c73d 29ff 6d3b
000000b0: 93b0 f63d 6f18 cd3b 067b 37bd 0388 ac3d
000000c0: 69dc 28ba 0e66 a2bd 4b28 483d 4fa9 9abd
000000d0: ac70 95bd 3a1f a339 0a5e cdbd c012 933b
000000e0: a1a9 25bb 797c 153e 10cb a9bb 1355 df3c
000000f0: 2c45 f8bd 4201 c3bd 030b 1fbd 1939 18be
0.14111294 0.13035059 0.08780767 -0.0005798964 0.15517628 0.12865134 0.118168436 -0.10140117
0.03404495 0.16117632 -0.124527454 0.2057668 -0.115784705 -0.054528486 0.016144585 0.069960155
0.054326057 -0.081284665 0.07129555 0.081101604 -0.00024448306 -0.17594172 0.15398087 -0.08796569
-0.100457534 0.19217788 -0.049234834 0.11512869 0.12598431 -0.106774434 -0.11393399 -0.12927458
0.07186527 0.15723526 0.019161746 -0.017119804 -0.025264617 -0.09057573 0.16145526 0.029283654
-0.1398915 -0.1207681 0.097193114 0.0036315417 0.120453976 0.006259016 -0.04479506 0.0842438
-0.0006441535 -0.07929622 0.04886655 -0.07551824 -0.07296881 0.00031113048 -0.10027702 0.004488319
-0.0025278109 0.14598264 -0.0051816776 0.027262246 -0.121225685 -0.09521724 -0.03882886 -0.14865531

hidden3.weight f4 [128, 64]
00000000: a881 eb3e 6f23 17be 0edd 413e 9e89 60be
00000010: c422 12be 9cd1 39bd eb12 d53c 0fda 97be
00000020: 2b5f d2bd fa47 de3c a435 3ebd 9164 88be
00000030: 1ec1 d0bd d3ad 5dbb 9c91 bebe f640 1f3e
00000040: d2e3 c03d a286 e2bd af5e b53e 2573 24be
00000050: b8fb 26bc ce18 963d 0641 c13d c88d ed3d
00000060: bf01 8dbe 43e5 033e 16ab cc3e 3530 6abe
00000070: 22ba a73d f17f e63d 4a67 83be 060c febd
00000080: ea8c 94bc 3b7c a33d a0d7 513e dcdf 143d
00000090: 2930 88be 44e4 57be a4d4 17be 3980 013e
000000a0: 32f3 debd 3898 4abd c9ec b13d ac03 d2be
000000b0: 3e17 30be 7621 1abc e5ef 1fbe 034f 84bf
000000c0: 6b6e c5bc c04f fd3d b4bd 333d 00d6 1d3d
000000d0: 0890 583e 5ead 19be 1cee 993e 2a81 87bd
000000e0: 6299 b43d 368d 853e 955e 8cbe 6935 e3bb
000000f0: d700 e13e 3e3c 253b ec8f 463f 376e ab3d
00000100: 611b 9c3c ca95 92bd c503 d2bb 9f7f 24bd
00000110: 6602 dbbd 8c7b 513d ede5 0bbe a0d7 773c
00000120: 5c79 8b3d 0af1 25be a088 b33b a9b1 c03d
00000130: b83a 673d fe0b 98bd febb 16bc 98c5 0cbe
00000140: 306d a43c 5209 a23d cdee 9b3d 4f9e 97bc
00000150: 6b69 973c c0f2 a9bc 3362 93bd 66fd 35bc
00000160: 91d0 cbbd 8046 a93c 331e 103d 802b 89bd
00000170: 96fa 67bd 5b3f ddbd c334 8ebc a0a1 4b3d
00000180: 821c b93d b450 13be 6cd4 d7bd 5159 efbc
00000190: b78b a83d 4da9 fcbb b128 8b3c 4941 57bc
000001a0: f0e8 74bc acb5 b63d 9098 763d c4fd 9cbd
000001b0: aa44 ccbd 600f c7bd bd0e 52bd 6e09 dfbc
000001c0: 0a9b 913d b6e6 15be 3cb7 6f3d b37a c2bd
000001d0: 3a2e 80bc aeca 27bd d0b2 5b3d 5628 d6bd
000001e0: f8c5 b2bd e049 d0bc 6c19 813d f1ba b4bd
000001f0: 50af 1e3d 784e 07bd 87e2 12be 30c2 693c
00000200: e1cc 55be 498a 573d 69a1 843e 7cff 053e
00000210: 8fc3 16bd 861b fe3b fe16 c4bd aa25 453e
00000220: 68c1 7cbd 6011 f9bc a23c d13d 7e5e a9be
00000230: 4407 96bd 8bdd c53d 2a7c 2c3d 5be0 0d3e
00000240: 9448 23bd 12b5 453e 8194 f4bd f605 b3bd
00000250: 427c 0b3d 68b8 bfbc eee1 91be 4d9f 413d
00000260: bcbc 14be da76 e3bd 54ce 713e 334b a93c
00000270: 4dc5 9e3e 3b02 09be bbb8 b73b 50a1 e7bc
00000280: 34a7 f43d a39a 12bc d8ef aa3d 158f 48be
00000290: 424b ac3d e9f3 9a3c ac29 2abd 5b57 26be
000002a0: f0fd d1bd 6e51 db3d 2aca 4b3d 8d54 94be
000002b0: b1c6 6f3d 3bd3 2e3e c7e6 d33d 081b c93d
000002c0: 1693 fe3d 4596 a9bd 1aac b23c 5f9e 973d
000002d0: dab7 a1be 22f6 fd3d 9e56 1fbc b67d fa3d
000002e0: 6fb8 83bd 2ba7 e73c 5ea0 a83b 3e3e 94be
000002f0: d92d 96be 315d 99bd 2d17 68be 5c24 3c3c
00000300: 2a11 fb3d c5f5 d73a bd3a 96bd 54ad 5abd
00000310: 50ac dbbc 06de 523d 2935 e9bd d9f3 d4bd
00000320: 78d4 3e3d 65b8 2bbd f088 17bd bdda eabd
00000330: 1675 aabd bd8d bdbd 8cc9 aabd 2e4c 15be
00000340: 0c9e 70bd 7ece 9f3d 5697 99bd 3c38 e53d
00000350: 1787 b0bd 307a 6d3c b457 0fbd 05ef cbbd
00000360: b79c ac3c 29e5 7a3d 7f79 b9bd 2886 993d
00000370: a0bb 83bd a213 b5bc 14db c53c ea1f c83d
00000380: 9fff fd3d 2b08 523d 0d2c 04be 5543 50bd
00000390: 8dc4 ebbc ea8a 42bd 7ca4 5a3d 229e 56bd
000003a0: 3c8c dcbd e071 62bd 76db e8bd d906 483d
000003b0: 20f7 02be 26fc ddbc c3bb 093d 8edc 5cbb
000003c0: e7d3 d2bd 2617 873d d6ba f9bd 67b2 e9bd
000003d0: 8d1c 8abb c844 00be 80e7 c23d 28af 5c3d
000003e0: e393 33bd 3ab4 86bd cbdc 84bd 764c 6fbd
000003f0: db99 203c c00b 47bb 6fed b6bd b47d d5bd
0.45997357 -0.1475961 0.18931982 -0.21927497 -0.14271075 -0.045365915 0.026009997 -0.29658553
-0.10272058 0.02713393 -0.046437874 -0.26639226 -0.10193084 -0.003382553 -0.37220466 0.15552124
0.09418453 -0.110608354 0.354238 -0.16059549 -0.01019185 0.0732895 0.0943623 0.11599308
-0.27540395 0.12880425 0.39974278 -0.22869952 0.08189799 0.11254872 -0.2566474 -0.12404637
-0.0181336 0.079826795 0.2049241 0.0363463 -0.26599243 -0.2108317 -0.1482721 0.1264657
-0.108862296 -0.049461573 0.08687741 -0.41018426 -0.17196366 -0.009407392 -0.15618856 -1.0336612
-0.024100503 0.12368727 0.043882087 0.038534164 0.21148694 -0.1500754 0.30064476 -0.06616433
0.08818318 0.26084298 -0.2741591 -0.006933857 0.43945953 0.002521291 0.7756336 0.08370631
0.019056024 -0.07157476 -0.006409141 -0.04016077 -0.10693817 0.051143214 -0.13661928 0.015127093
0.06810257 -0.1620523 0.0054789335 0.09408886 0.056452483 -0.07424162 -0.009200094 -0.13747251
0.020071596 0.07911934 0.07613907 -0.018508105 0.018482884 -0.020745635 -0.071964644 -0.011107778
-0.0995189 0.0206635 0.03518505 -0.0669775 -0.05663546 -0.108031 -0.017359143 0.049714684
0.090386406 -0.14386255 -0.10538563 -0.029217394 0.082297735 -0.007710612 0.016987177 -0.013138124
-0.014948115 0.0892137 0.06020409 -0.076655895 -0.09974034 -0.097197294 -0.051283587 -0.027226176
0.071096495 -0.1463879 0.058524355 -0.09496059 -0.015647043 -0.040964775 0.053637326 -0.10456912
-0.08729166 -0.025425851 0.06303677 -0.08824719 0.03874141 -0.033033818 -0.14344226 0.014267489
-0.20878936 0.052622113 0.25904396 0.13085741 -0.036807593 0.007754746 -0.09574698 0.19252649
-0.061707884 -0.030403793 0.10216643 -0.33079904 -0.073256046 0.096613966 0.0421106 0.13855116
-0.039864138 0.19307354 -0.11942387 -0.08741371 0.03405405 -0.023403361 -0.28492683 0.04727106
-0.14525121 -0.111066535 0.23613864 0.02066574 0.31009904 -0.13379757 0.0056067384 -0.028275162
0.11945954 -0.008948001 0.08346528 -0.19585831 0.08412792 0.018915134 -0.041543648 -0.16244261
-0.10253513 0.10708891 0.049753346 -0.28970757 0.058539096 0.17072766 0.10346752 0.09819609
0.12430398 -0.08280615 0.02181058 0.07403254 -0.3158558 0.12400462 -0.009725241 0.12231009
-0.06431662 0.028277954 0.0051460704 -0.28953737 -0.29331854 -0.07488478 -0.22665091 0.011483278
0.12259133 0.0016476443 -0.07335422 -0.053387955 -0.026815563 0.05148127 -0.113870926 -0.10398073
0.046589345 -0.0419239 -0.03699583 -0.11467502 -0.083231136 -0.0925555 -0.08339223 -0.14579841
-0.058744475 0.07803057 -0.07499568 0.111923665 -0.08619516 0.014494464 -0.03499575 -0.09957699
0.021070821 0.0612537 -0.09056377 0.074962914 -0.06432271 -0.022104088 0.024152316 0.09771712
0.124022715 0.05127732 -0.12907429 -0.050845463 -0.028780246 -0.04749576 0.05337952 -0.0523969
-0.10768935 -0.05528438 -0.11369984 0.048834655 -0.12789583 -0.027097773 0.03362633 -0.0033700797
-0.102943234 0.06596212 -0.12193839 -0.11410981 -0.0042148293 -0.12526238 0.09516811 0.05387798
-0.043842208 -0.06577344 -0.064874254 -0.05842253 0.009802307 -0.0030371994 -0.089320056 -0.104243666

hidden3.bias f4 [128]
00000000: a2b4 563b 5010 72bd af52 3fbe a33a 843d
00000010: af6a a43c 5601 9abd ea17 a2bc c0a3 79bd
00000020: fd85 8fbd 4334 a3bd 14ba cd3d 0030 1d3a
00000030: 6aea fc3c 3983 e83d 783c 24bd c43d 85bd
00000040: 1137 90bb 47c0 71bd cc36 0fbd ab7e f6bc
00000050: 7ac9 0abd b4c2 bbbd 6d7d 9e3d b3a9 55bd
00000060: 1914 f03d 1125 2a3d c558 313d df40 023e
00000070: 1fea b3bd f9b7 d7bd 413f 3abc 18f7 f4bc
00000080: 7f24 91bd 709c f03d daf2 ff3d 4fbe 7e3c
00000090: 4954 c83a 395b 08be 1e00 13be 7c0d 47bd
000000a0: 3ac8 1e3d 80b5 663c 3c60 8c3d 82d8 663c
000000b0: 5a94 b33d 4345 10be 344e ed3d 3945 873d
000000c0: bb3d 19bd 9417 a3bd 614a 973d dd82 cabd
000000d0: 4e3b 1dbe e4c2 d7bd 5a12 a43d f2c1 813d
000000e0: bb94 ef3c 742a 013b d07b bb3a ebf4 5d3c
000000f0: c19a 843d af0e 2e3e 8e7e 203d d1be 8d3c
00000100: ba4c 1f3d c4c2 80bd a57e bbbd 4371 7f3b
00000110: d060 1d3e 52de 613d 1879 01be be92 2c3e
00000120: 1a54 c53c 9bbe 2b3e f950 c4bc 4754 423d
00000130: 86ba 8ebc dc16 93bd bf13 b63d bc2f 3c3a
00000140: 9ed0 8d3c 37a0 26bd 7f2c 023e 8a0d 113e
00000150: 1e99 533d 0153 27bd 9e7d 2c3c 1fee d13b
00000160: 47e0 0f3e c2e4 613c 79b7 e03d ea5d a23d
00000170: 678d 14bd 944b 803d e32b ba3d 636b 6fbd
00000180: 891c 86bd 0dcf 083e ffe5 f5bc 2a9e 9d3d
00000190: af2a 87bd e285 adbd 173f 0dbe c7fe 513d
000001a0: 2504 ffbd 1200 f8bd e0a8 b1bd 8f89 34bd
000001b0: 8fac 133e f1ad d4bd ddf2 10be e5c9 a73c
000001c0: 743d d7bd 1521 65bd 4af2 913d 04e8 00be
000001d0: a65e 7b3d 56e3 07bc be28 f53d 71b5 80bd
000001e0: f56f 413d 6384 143d c91c 7cbc 4b06 da3d
000001f0: dda7 bbbd 9c06 3c3e e537 fa3d ed30 c0bd
0.0032761474 -0.059097588 -0.18683885 0.064564966 0.020070402 -0.07519786 -0.019786794 -0.06094718
-0.07007978 -0.079689525 0.10045257 0.0005996227 0.030873496 0.11353154 -0.04009673 -0.065059215
-0.0044010957 -0.05902126 -0.034964368 -0.030089697 -0.03388355 -0.09167996 0.07738767 -0.05216379
0.11722583 0.041539256 0.043297548 0.12720059 -0.087848894 -0.10533137 -0.01136762 -0.02990298
-0.07087039 0.11748588 0.12497492 0.015548303 0.0015283908 -0.13316049 -0.14355513 -0.048596844
0.03876517 0.014081359 0.06854293 0.014089705 0.0876853 -0.14088921 0.11587182 0.06605
-0.037412386 -0.079634815 0.073872335 -0.098882414 -0.15354654 -0.10535219 0.08011313 0.0633582
0.029245725 0.0019709142 0.0014303867 0.0135471625 0.064748295 0.16997789 0.039183192 0.017302902
0.03889153 -0.062871486 -0.09155015 0.0038977421 0.15368962 0.05514366 -0.1264385 0.16852853
0.024087954 0.16771929 -0.023964392 0.047443654 -0.017422926 -0.071820945 0.08890485 0.0007178744
0.01731139 -0.040680137 0.12712286 0.14165321 0.051659696 -0.040850643 0.010527996 0.00640656
0.14050399 0.01378745 0.10972495 0.07928069 -0.036267664 0.062644154 0.09090402 -0.05845202
-0.065484114 0.13360234 -0.030016897 0.07696183 -0.06599938 -0.08472802 -0.13793598 0.051268365
-0.124519624 -0.121093884 -0.086747885 -0.0440765 0.14421295 -0.10384739 -0.14155145 0.020482013
-0.10509768 -0.055939753 0.07126291 -0.12588507 0.06136956 -0.008293947 0.119706616 -0.06284607
0.04722591 0.036259066 -0.015387722 0.106457315 -0.09162877 0.18361896 0.12217692 -0.09384332

output.weight f4 [4, 128]
00000000: 29c5 c4bb 7eef 863d f6e8 85bd d49b a9bc
00000010: 5c9f e3ba 6b37 603d fa5e 2cbd db4c 9fbc
00000020: 725f 2fbd 6984 0bbe e002 103e a241 263d
00000030: 4f02 e0bd 3070 da3c fd76 bcbd 23b6 c63c
00000040: bca8 523d 85cb 893d a921 80bc 604d 063d
00000050: 2c52 83bd b142 8f3d 44bf 6ebd e372 99bb
00000060: 3c8a f33c 2a05 ce3d 4bd4 0b3e 8e64 a93c
00000070: 98b1 a13d f54c 1cbc 4ae2 3c3d baa7 413d
00000080: 3761 32be ddb4 adbd 0bd4 893d 0eb4 d53d
00000090: 01cf 533d 6852 5dbd ec70 fc3c 2422 02be
000000a0: 84dd 863c 4628 12be 5d48 353c 2e0d 82bd
000000b0: 1736 62bd 33de 37bb 9711 eb3c 8c43 21bd
000000c0: a272 f93d a284 1abd ba87 1e3e 30d1 ffbc
000000d0: 1c25 01bd f73d adbc f24a e8bd a627 e13c
000000e0: 3cba 193e f7a3 2bbd 70d7 35bd 9ea8 c63d
000000f0: f3a8 27bc f9e2 c43d 4a95 c73d 09fd a53d
00000100: b591 2c3e 180b 14bd 857e 1c3d d46f 0abe
00000110: bc27 553d e213 8cbc 4280 fabc 9ea0 e73d
00000120: bf1f 90bd 2801 e9bd 49ea 0f3d b24a dd3c
00000130: 4bd5 003b 217f f2bb 0bf9 d3bd c28d babd
00000140: 516f 683d a814 2cbe 80a0 9cbd 5490 0dbc
00000150: cb29 f93d 2481 e43d c8b4 883d d503 1fbe
00000160: f6d7 883d e81d 2ebc ebbc dd3d a800 853d
00000170: dbc2 58bd 5cf3 b2bd 5cb5 56bd a810 113e
00000180: 2f9a 513d 3b23 edbd 07ca b3bd 9322 9f3c
00000190: 910e 9d3d 9ddc 80bd 2ffa f13c 8be6 e33d
000001a0: cd90 023d cf95 b13d bfa9 783d 3ffa 87bc
000001b0: 3e5b 90bd 8b9f a63a 85fd 66bd b7df b23c
000001c0: 5a9d 363d 5fef d2bb ff0f 7bbd 6f2d ee3d
000001d0: 94ff 32bd 7a0d 013d da2c 1ebe 7db7 48bd
000001e0: 6b4e 883d a4d1 f73b ab03 debd 1e31 fe3d
000001f0: 7dcc 45bc ace7 85bc 1db0 a8bd 8b19 d03c
00000200: 3fb7 453f 3d98 38bd ea17 c73d a2dd 87bc
00000210: 6745 263d 2ec2 d53c 3dde 76bb 76c9 b83b
00000220: 5f6e 21bd f200 633e 9179 32bd 5d10 5fbd
00000230: e382 29bd fa35 f0bd e8d9 0ebd 7c19 8ebb
00000240: b6dc f43c 86f0 c33c 88ff a93e b977 dd3e
00000250: 663a 8c3d 32c4 15be 1ff8 08bc 2a3c 6d3c
00000260: ea94 fdbd e90c cbbd dacf 0e3e 9e3a 31bb
00000270: 2fb5 d5bc 5867 ff3c 3b3d 923d bd08 1cbd
00000280: 4229 bd3d 3bff ccbd f3a9 13bd c112 0cbe
00000290: 08b4 f33d b053 52be 8b74 59bc 6357 0d3e
000002a0: b1d6 e7bb 36c2 a6bc 5e56 2c3e f882 163d
000002b0: 0a93 09bd f732 88bd 6a56 0cbe e519 b6bd
000002c0: a72c 98bc 86cf ff3b a88e e33d a52c a1bd
000002d0: e755 47bd 76fb 813e a7ca 41bd 0b21 b93d
000002e0: 4d17 c1bc ea8f 903d 4aaf c7ba 8b0f 413d
000002f0: 41f8 1fbe 0327 f8bd 1284 32bb da8f fabd
00000300: bf85 b1bc e063 35bd c481 923d eea2 43bb
00000310: abd4 edbd defa a6bb 3b51 553d 5050 d8bd
00000320: 8f05 bd3e 5029 2d3f eca5 023e faf4 35be
00000330: d33c de3e e26c 783e 5d70 cf3e 7063 26bd
00000340: 4147 17be c191 a7be 629d f0bd a2eb 38bd
00000350: 7230 a0bd 2ec4 9b3d a43b 8bbd 4078 81bd
00000360: b3cd 89bd 5ed4 d1bc 02c9 0c3e 7ebd 0b3e
00000370: f9aa 18bb 7519 a03e 2812 d3bd 43ea c43e
00000380: 1133 6bbd c287 e2bc fde7 4d3b 79db 12be
00000390: 55d4 d0bb d3b0 823e 85c1 ce3c cd3a 8c3e
000003a0: 4a17 55bd 506d 7dbd a80e 923c fdd9 f7bb
000003b0: 477d bcbd f098 22bb 8137 94bd 943d 8e3e
000003c0: 597a 043f 46df 0b3b 3a24 d7bc 0107 6ebc
000003d0: e9bc c0bc cf86 b5bd dba5 2dbc a520 2e3e
000003e0: 1345 17be 502e ac3e f865 54bc 7022 9dbd
000003f0: 8473 1dbc 1647 3fbe 8e3e e1bc c387 9fba
-0.0060049486 0.06588648 -0.065385744 -0.020704187 -0.0017366218 0.05474035 -0.042082764 -0.019445827
-0.042815633 -0.13624729 0.14063597 0.040589936 -0.1093794 0.026664823 -0.09202383 0.024256771
0.05143045 0.067282714 -0.01564105 0.032788634 -0.064121574 0.06995142 -0.058287874 -0.004682885
0.029729001 0.10059579 0.13655202 0.020677831 0.078952014 -0.009539832 0.046114244 0.047279097
-0.17419897 -0.084817626 0.06729897 0.10434733 0.051711086 -0.054033667 0.030815564 -0.12708336
0.016463049 -0.14273176 0.011064616 -0.0635017 -0.055227365 -0.0028056025 0.02869491 -0.03937106
0.121800676 -0.037724145 0.15481463 -0.031227678 -0.03152953 -0.021147711 -0.1134242 0.027484726
0.15012449 -0.041904416 -0.04439491 0.0970013 -0.010233152 0.09613604 0.097452715 0.08104903
0.16852458 -0.036143392 0.038206596 -0.13519222 0.052039847 -0.017099325 -0.030578736 0.11309932
-0.07037305 -0.11377174 0.03513554 0.027013157 0.0019658383 -0.007400409 -0.103502356 -0.091090694
0.056746785 -0.16804755 -0.076478004 -0.008640368 0.121661745 0.11157444 0.06675106 -0.15528806
0.06681816 -0.010627247 0.10827049 0.06494266 -0.052920204 -0.08737823 -0.05241905 0.1416651
0.05117243 -0.11578985 -0.08778768 0.019425666 0.07668794 -0.06292079 0.029538242 0.11127957
0.031876374 0.08671152 0.060708757 -0.016598819 -0.07048653 0.0012712342 -0.05639412 0.021835191
0.044583656 -0.0064372267 -0.061294552 0.116297595 -0.04370077 0.031506993 -0.15446797 -0.049003113
0.06655582 0.007562833 -0.10840543 0.12411712 -0.01207268 -0.016345821 -0.08236716 0.025402805
0.77232736 -0.04506706 0.09721358 -0.016585175 0.04059353 0.026093569 -0.0037669085 0.0056392504
-0.0394119 0.2216833 -0.043572966 -0.054458965 -0.04138459 -0.11729045 -0.03487578 -0.004336534
0.0298904 0.023918401 0.33202767 0.43255404 0.06847076 -0.14625624 -0.008359938 0.014479676
-0.12381919 -0.09914572 0.13946477 -0.0027042995 -0.026087372 0.031177208 0.07140585 -0.03809427
0.09236385 -0.10009619 -0.036050748 -0.13679029 0.118995726 -0.20539737 -0.013272415 0.13802867
-0.0070751538 -0.020356279 0.16829821 0.036745995 -0.033587493 -0.06650346 -0.1370484 -0.08891658
-0.01857598 0.007806721 0.11111194 -0.078698434 -0.048665907 0.25387162 -0.047312405 0.090395056
-0.023570681 0.070586994 -0.0015234735 0.047133964 -0.15622045 -0.12116816 -0.0027239365 -0.12234469
-0.02167022 -0.0442847 0.07153657 -0.0029851752 -0.11612829 -0.0050958237 0.05207942 -0.105621934
0.36918303 0.6764116 0.12758607 -0.17769232 0.4340578 0.24260285 0.40515414 -0.040622175
-0.14773275 -0.3272839 -0.117487684 -0.045146592 -0.0782174 0.07605778 -0.06798485 -0.06321764
-0.06728687 -0.02561396 0.13748553 0.13646504 -0.0023295267 0.31269422 -0.103061974 0.38459978
-0.057421748 -0.027652625 0.0031418793 -0.14341535 -0.006372968 0.2552553 0.025238762 0.2738861
-0.052024163 -0.061871827 0.017829254 -0.007563828 -0.09203582 -0.0024810396 -0.07237149 0.27781355
0.5174919 0.0021342798 -0.026262391 -0.014528037 -0.02352758 -0.08863603 -0.010598625 0.1700464
-0.14772443 0.33629084 -0.012963764 -0.07672584 -0.009610061 -0.18679461 -0.027495649 -0.0012171197

output.bias f4 [4]
00000000: 55a8 3b3d eace 1abe d1c0 3dbd 78fd 1dbc
0.04581483 -0.15117994 -0.046326462 -0.009642951
