models/MagneticPendulum/p1_measure_x1*cos(0.0833333333333333*pi) + x2*sin(0.0833333333333333*pi)_N5_sep/q_model_state_dict.pth (torch, 47876 bytes, 8 tensors)

hidden1.weight f4 [32, 5]
0	0x3ecb6028	0.397218
1	0xbdb641bc	-0.088992566
2	0xbf66aa51	-0.9010363
3	0x3f534c2d	0.8253811
4	0xbf173948	-0.5907178
5	0x3f276191	0.6538325
6	0xbd893079	-0.066986986
7	0x3f34da8e	0.7064599
8	0x3f9c4299	1.2207824
9	0x3f1b33d5	0.60625964
10	0x3f375f1a	0.7162949
11	0x3db15dbc	0.086604565
12	0x3d0acd1a	0.033887006
13	0x3e2caa71	0.16861893
14	0x3cf8ca4d	0.030369902
15	0xbe45493f	-0.19266222
16	0x3c2e4814	0.010637302
17	0xbe9d89bc	-0.30769145
18	0x401c32a4	2.4405909
19	0xbfaad31c	-1.3345675
20	0xbeae38b9	-0.3402765
21	0xbf0f5683	-0.5599138
22	0x3de6b3d4	0.11264768
23	0xbe804af1	-0.25057176
24	0x3ebd05b3	0.3691841
25	0x3e9fc89a	0.31207734
26	0x3e676501	0.22597124
27	0x3ec395fc	0.38200366
28	0xc0283ed2	-2.6288342
29	0x3ffabd2f	1.9588984
30	0x3d09e0a3	0.033661496
31	0x3e751668	0.23934329
32	0x3f557273	0.8337776
33	0xc0372fe4	-2.862298
34	0xbebf5e01	-0.37376407
35	0xbdbeec1b	-0.09322377
36	0x3f4c3eef	0.7978353
37	0xbecf7a0a	-0.40522796
38	0x3f74c7c3	0.9561731
39	0x3e20a1a9	0.15686668
40	0x3f00b8bc	0.5028188
41	0xbe9cb6d8	-0.3060825
42	0x3f1b13f9	0.6057735
43	0x3f8d4d1d	1.1039158
44	0xbf96ceec	-1.1781898
45	0x3e592975	0.21207221
46	0xbf235965	-0.6380828
47	0xbe660066	-0.2246109
48	0xbf92ac38	-1.1458807
49	0xbe16eac7	-0.14737998
50	0xbf2aee47	-0.6676983
51	0xbdf5054d	-0.11963902
52	0x3f044a8c	0.5167625
53	0xbc4cce06	-0.012500292
54	0x3f76950a	0.96321166
55	0x3ecf2ffa	0.4046629
56	0x3d54687c	0.051857457
57	0xbfb17127	-1.3862656
58	0xbe53fded	-0.20702334
59	0xbee5126f	-0.44740626
60	0xbe9bc4eb	-0.30423674
61	0x3ef000ba	0.46875554
62	0x3e0ed493	0.13948278
63	0x3f3f8e25	0.7482627
64	0x3e01f598	0.12691343
65	0xbec7eaaa	-0.39046222
66	0xbdff4727	-0.12464743
67	0xbf1c0bb5	-0.60955364
68	0xc027498e	-2.6138644
69	0xc027fc6e	-2.624782
70	0x3efce5a5	0.49393955
71	0xbd1c3682	-0.03813792
72	0x3f1a6972	0.60317147
73	0x3cd83d63	0.026396459
74	0xbfbcdfa1	-1.4755746
75	0x3ee32a44	0.44368184
76	0xbd7372db	-0.059435707
77	0x3f379192	0.717065
78	0xc02654d7	-2.5989282
79	0x3ee31e6d	0.4435915
80	0xbed32057	-0.4123561
81	0xbf09e93b	-0.53871506
82	0xbe1c20e7	-0.15246926
83	0xbf0cefe4	-0.55053544
84	0xbe8c5411	-0.27407888
85	0xbeae4bac	-0.34042108
86	0xbd087599	-0.033315275
87	0x3f4281b5	0.7597917
88	0x3f850fce	1.0395448
89	0x3f23f2e3	0.6404249
90	0xbe48ae51	-0.19597746
91	0xbf45ab4f	-0.7721452
92	0xbd6a0217	-0.0571309
93	0x3f21ef98	0.63256216
94	0xbf11e2e9	-0.5698686
95	0xbe7fbec7	-0.2497512
96	0x3d0adf89	0.033904586
97	0xbe1ec493	-0.15504675
98	0xbf84f90a	-1.0388501
99	0x3e6eea9e	0.23331687
100	0x3f692ad4	0.91080976
101	0xbd3b74d7	-0.045765724
102	0x3ed0f6cb	0.40813288
103	0x3e92b4a2	0.28653437
104	0x3f095440	0.5364418
105	0xbf129064	-0.5725157
106	0x3f313e7d	0.69235975
107	0x3e5652f8	0.20930088
108	0x3ef2cdea	0.47422725
109	0xbf007c72	-0.5018989
110	0x3dd1674e	0.10224782
111	0x3e675e70	0.22594619
112	0x3f267225	0.6501792
113	0xbf6ae82d	-0.9176052
114	0xbf055713	-0.5208599
115	0x3f3344a7	0.7002663
116	0x3f385d0e	0.7201699
117	0x3ef1c9de	0.47224325
118	0xbf108ef5	-0.56468135
119	0xbe92dbf8	-0.28683448
120	0xbe38bd40	-0.18040943
121	0x3db2b874	0.08726588
122	0x3f132ea0	0.5749302
123	0xc00c05e3	-2.1878593
124	0x3ea70c05	0.32626358
125	0xbd08c76d	-0.033393312
126	0xbe506b50	-0.20353436
127	0x3b940469	0.0045171273
128	0x3f7bd426	0.9837059
129	0x3f6a184a	0.9144331
130	0xbea948d4	-0.33063376
131	0xbd1c8188	-0.038209468
132	0x3f1ea8c0	0.6197624
133	0x3f817f7c	1.011703
134	0xbd1f1422	-0.03883756
135	0x3f2c96e8	0.67417765
136	0x3f303f3e	0.688465
137	0x3dd2e46c	0.10297474
138	0xbea04828	-0.3130505
139	0xbeca10f1	-0.3946605
140	0xbf37ba75	-0.71768886
141	0xbda7314a	-0.08163698
142	0xbf3acea9	-0.7297159
143	0xbf8d6840	-1.104744
144	0xbf118ee2	-0.56858647
145	0xbebc02dc	-0.36720932
146	0x3eb77d82	0.35837942
147	0x3c16d421	0.009205849
148	0xbf665c6b	-0.8998477
149	0x3fc023fb	1.501098
150	0xbeafcbd7	-0.34335205
151	0x3e6cf269	0.23139347
152	0xbf2041e4	-0.6260054
153	0xbf5e5ce5	-0.86860496
154	0xbf01bbb7	-0.50677055
155	0xbecf2a5d	-0.40462008
156	0xbeb71544	-0.35758412
157	0xbec87c8f	-0.3915753
158	0x3f426a3b	0.75943345
159	0x3fc1da68	1.5144777

hidden1.bias f4 [32]
0	0xbeafead9	-0.34358862
1	0x3d9f4f3a	0.07778783
2	0x3e474f09	0.19463743
3	0x3dc0ddaa	0.09417279
4	0xbeabcbdd	-0.33553973
5	0x3d873a23	0.066028856
6	0xbd72daaa	-0.059290566
7	0x3c64371e	0.013929157
8	0xbe55ce07	-0.20879374
9	0xbe265edc	-0.16247123
10	0xbed8379a	-0.4222992
11	0x3e13b0db	0.14422934
12	0x3e31b9f5	0.17356093
13	0x3dbb6b78	0.091513574
14	0x3df7aa6e	0.12093054
15	0x3dcbc547	0.09949737
16	0x3e177ae2	0.1479297
17	0x3d810db9	0.063014455
18	0xbe89ff80	-0.26952744
19	0x3d3365d1	0.04379827
20	0x3d9b527c	0.07584092
21	0xbd770406	-0.06030657
22	0xbebd3608	-0.36955285
23	0xbdad62e4	-0.084661275
24	0xbea44187	-0.32081243
25	0x3d6a9fe3	0.057281386
26	0xbee0c698	-0.43901515
27	0xbece1425	-0.40249744
28	0xbc37de81	-0.011222483
29	0xbe7d339b	-0.24726717
30	0x3dc47474	0.09592524
31	0xbdca928b	-0.09891232

hidden2.weight f4 [64, 32]
0	0x3e4b3029	0.1984259
1	0xbf031f54	-0.5121968
2	0x3e22960b	0.1587755
3	0xbf535eb4	-0.8256638
4	0x3ed835d9	0.42228583
5	0x3ef74eae	0.48302215
6	0x3e9b6ccd	0.30356446
7	0xbda73373	-0.0816411
8	0x3e50f9e6	0.20407829
9	0xbb271966	-0.0025497316
10	0x3f79d038	0.9758334
11	0xbe6276d7	-0.22115646
12	0x3d82c193	0.063845776
13	0x3d94721e	0.072483286
14	0xbe9e0aa3	-0.3086749
15	0x3d884cac	0.06655249
16	0x3d66064d	0.056158353
17	0x3d4f705b	0.05064426
18	0x3e8a56de	0.270194
19	0x3e1147b0	0.14187503
20	0xbef79349	-0.48354557
21	0x3de3333e	0.11093758
22	0x3ea0f700	0.31438446
23	0x3f117b8e	0.56829154
24	0xbe7ca345	-0.24671657
25	0xbe412b79	-0.1886424
26	0xbf0737f7	-0.5281977
27	0x3f037fff	0.5136718
28	0xbdda5724	-0.10661152
29	0xbe9b4b89	-0.30331066
30	0xbdf16235	-0.1178631
31	0x3de40e42	0.11135532
32	0xbf00e2b4	-0.5034592
33	0xbecaa67f	-0.3958015
34	0x3d8d569e	0.069012865
35	0x3ec815ab	0.3907903
36	0xbf346315	-0.7046369
37	0xbeaa7445	-0.33291832
38	0xbe7a29a5	-0.24429949
39	0xbe03c359	-0.12867488
40	0xbf2d9f10	-0.67820835
41	0x3e40a867	0.1881424
42	0xbecae58c	-0.39628255
43	0x3dd6792a	0.10472329
44	0xbe085038	-0.13311851
45	0x3ea8e090	0.32983828
46	0x3ea362f2	0.31911427
47	0xbea1a02a	-0.31567508
48	0xbdd2d986	-0.102953956
49	0xbf80c396	-1.0059688
50	0x3e7112af	0.23542283
51	0xbe827a23	-0.25483808
52	0xbe7a097d	-0.24417682
53	0xbcbb7f7a	-0.022887934
54	0xbf41036f	-0.75395864
55	0x3e04bc19	0.12962379
56	0xbebd0c06	-0.36923236
57	0xbdcf8a4b	-0.10133799
58	0x3ec648df	0.3872747
59	0x3f19b56c	0.6004245
60	0xbf14be52	-0.58102906
61	0xbd2d1ce4	-0.04226388
62	0xbc6e9ef3	-0.014564264
63	0xbeaf878d	-0.34283105
64	0xbea961bc	-0.33082378
65	0x3eb37407	0.3504946
66	0xbf37521f	-0.7160968
67	0x3e1ce600	0.15322113
68	0x3e0d2ea5	0.13787325
69	0xbd0d94f7	-0.034565892
70	0x3e81accf	0.25327155
71	0xbf0c0863	-0.547003
72	0xbdbcbb1b	-0.09215375
73	0x3f7f5152	0.9973346
74	0x3de7c217	0.113163166
75	0x3e77d489	0.2420217
76	0x3e5bd249	0.21466936
77	0xbeefa79c	-0.46807563
78	0x3e0f764e	0.14009973
79	0xbc89338c	-0.016748212
80	0xbdd8902f	-0.10574376
81	0x3e81c9b8	0.25349212
82	0xbe9730c6	-0.295294
83	0xbe0796b9	-0.1324109
84	0xbfa46d32	-1.2845824
85	0xbc3780ce	-0.011200143
86	0xbe51423b	-0.20435421
87	0xbed15f2b	-0.4089292
88	0x3f8ed151	1.1157628
89	0x3db6597d	0.08903787
90	0x3f112f8d	0.5671318
91	0x3f34942b	0.70538586
92	0xbf62d086	-0.8859943
93	0xbe91367a	-0.28361875
94	0xbf0bc0dc	-0.54591155
95	0x3eb6c70c	0.35698736
96	0xbf591c04	-0.84808373
97	0x3e59924f	0.21247219
98	0x3e15405c	0.14575332
99	0xbf1f7b98	-0.62297964
100	0x3f33e8c9	0.70277077
101	0x3ef357ec	0.47528017
102	0xbcfc4203	-0.030793196
103	0xbf1a3bb5	-0.60247356
104	0xbed548bb	-0.4165705
105	0x3eac41f7	0.33644077
106	0xbf9df0b9	-1.2339088
107	0xbebe4c79	-0.3716772
108	0xbdf833aa	-0.12119229
109	0x3ad5f6f7	0.0016324212
110	0x3e2302e7	0.15919076
111	0x3ec1b9d1	0.3783708
112	0xbb404a53	-0.0029341176
113	0xbe6be24e	-0.23035547
114	0xbef9c548	-0.48783326
115	0x3e730470	0.23732162
116	0x3ea84b47	0.32869932
117	0xbcbbd1a9	-0.022927122
118	0x3f027eff	0.5097503
119	0x3eb9f936	0.36322945
120	0xbf079eaf	-0.52976507
121	0xbdac2465	-0.08405379
122	0x3dfcf03f	0.12350511
123	0xbe355272	-0.17707232
124	0xbe27735a	-0.16352597
125	0x3db70d20	0.0893805
126	0xbdcde1df	-0.10052847
127	0x3e6cc0fb	0.23120491
128	0xbef09080	-0.46985245
129	0xbd995222	-0.07486369
130	0x3dac578a	0.08415134
131	0xbd0c259e	-0.034215562
132	0x3d97166e	0.07377325
133	0x3dbbf872	0.091782466
134	0xbd5de716	-0.05417546
135	0x3ebbadad	0.36655942
136	0x3d7c38be	0.06157755
137	0xbfc5ace4	-1.5443387
138	0xbfd6778e	-1.6755235
139	0xbd9505a4	-0.072764665
140	0x3e830917	0.25592873
141	0xbe839d34	-0.25705874
142	0xbd853f0a	-0.06506164
143	0x3ccd5797	0.02506618
144	0xbe1b5d1b	-0.15172236
145	0xbddf0869	-0.10890276
146	0x3ceee214	0.029160537
147	0x3d9e9815	0.07743851
148	0xbe187e16	-0.14891848
149	0xbdf0c52b	-0.11756357
150	0xbe774bb2	-0.24149969
151	0x3edd93b8	0.43276763
152	0xbf7b6a09	-0.9820867
153	0xbecd4300	-0.4009018
154	0xbf94bbfb	-1.1619867
155	0xbd3b5d52	-0.045743294
156	0xbe602ffc	-0.21893305
157	0xbf5b1060	-0.8557186
158	0x3e9c76f9	0.3055952
159	0xbf66dba1	-0.9017888
160	0x3f5a7e96	0.85349405
161	0xbee43f65	-0.44579616
162	0xbe4b1d7b	-0.19835465
163	0x3e127629	0.14302887
164	0x3eb61317	0.3556144
165	0xbecb7495	-0.39737383
166	0xbeaa1218	-0.3321693
167	0x3e0ecdcb	0.13945691
168	0xbcbbd28c	-0.022927545
169	0x3e07ec00	0.1327362
170	0x3f1e20ab	0.617686
171	0xbe70b994	-0.23508292
172	0x3e480a8e	0.19535276
173	0x3e461544	0.1934405
174	0xbecbe97e	-0.39826578
175	0xbdbdcfe4	-0.092681676
176	0x3e65913b	0.22418682
177	0xbd2b1c4f	-0.041775044
178	0x3d56a650	0.0524047
179	0x3e22a4da	0.15883198
180	0x3ea543fb	0.32278427
181	0xbe27b041	-0.1637583
182	0x3e16b715	0.14718278
183	0xbe950859	-0.2910793
184	0xbea157c8	-0.31512284
185	0x3e6b4a54	0.22977573
186	0xbf14014c	-0.5781448
187	0x3f23d1e3	0.63992137
188	0x3eeb8931	0.46003106
189	0x3dd7c75a	0.1053607
190	0x3e5c0f2c	0.21490163
191	0xbe1410e1	-0.14459564
192	0xbf5c6377	-0.8608927
193	0x3d0fe419	0.03512964
194	0x3cf31604	0.029673584
195	0xbd902cf8	-0.07039827
196	0x3ea52ce7	0.3226082
197	0xbdb1010d	-0.086427785
198	0xbe0e91e2	-0.13922837
199	0x3e919046	0.28430384
200	0xbf8b9c6f	-1.0907115
201	0x3f008c29	0.5021387
202	0xbcf3c08f	-0.029754905
203	0x3e405c91	0.18785311
204	0x3d3843d2	0.044986553
205	0xbf825e55	-1.0185038
206	0xbd431913	-0.047631335
207	0x3d74393c	0.059624895
208	0xbceb4d1a	-0.028723288
209	0x3e53433a	0.20631114
210	0xbeeae506	-0.45877856
211	0xbea8f3d6	-0.32998532
212	0xbdc539c2	-0.09630157
213	0xbea63f6f	-0.3247027
214	0x3cd1e9ff	0.025624273
215	0xbe6dfc9f	-0.23240899
216	0xbe61367d	-0.21993442
217	0xbc939b41	-0.018018367
218	0xbfcb0626	-1.5861251
219	0x3e13e10c	0.14441317
220	0xbc9a6ca5	-0.018850634
221	0xbc7df505	-0.015500312
222	0xbe165be7	-0.14683495
223	0x3c5acfed	0.013355237
224	0x3f071852	0.52771485
225	0x3ee36e42	0.44420058
226	0x3c0e19f6	0.008673182
227	0xbcfb1080	-0.030647516
228	0xbf2d2bc7	-0.67644924
229	0x3eb2297f	0.34797284
230	0xbe146f73	-0.1449564
231	0xbdeb3513	-0.114847325
232	0xbef96877	-0.48712513
233	0x3eb85a5b	0.36006436
234	0x3f47c3cf	0.78033155
235	0xbf00bf5d	-0.50292
236	0x3dbfc2d7	0.093633346
237	0xbe95ad1f	-0.29233643
238	0x3e341b8e	0.17588636
239	0x3d7a59c3	0.06112076
240	0xbc886c59	-0.016653227
241	0x3e16d64d	0.14730187
242	0x3ec82922	0.39093882
243	0xbe6120ab	-0.21985118
244	0x3e88eaac	0.2674154
245	0xbd4aebd9	-0.049541328
246	0xbe6e24e6	-0.23256263
247	0x3e88c97f	0.2671623
248	0xbf1642b6	-0.5869554
249	0x3d93b256	0.07211749
250	0x3d851473	0.06498041
251	0x3eba0f11	0.3633962
252	0xbfab9b68	-1.3406801
253	0xbd5e2095	-0.05423029
254	0xbee8fd33	-0.45505676
255	0xbd1434b7	-0.036183085

hidden2.bias f4 [64]
0	0x3ad9b4d3	0.0016609676
1	0x3e301a8f	0.17197631
2	0xbd8bef6f	-0.06832778
3	0x3c75b4d2	0.014996724
4	0xbbc30452	-0.0059514428
5	0xbd9c400e	-0.07629405
6	0x3e18e51f	0.14931153
7	0xbce2b61c	-0.027674727
8	0x3d363072	0.044479795
9	0xbe09cc0e	-0.13456747
10	0x3def197c	0.11674783
11	0x3dcfe9d8	0.10152024
12	0xbd9c8be6	-0.07643871
13	0xbd1af275	-0.03782888
14	0x3d37947c	0.04481934
15	0xbe1a6edd	-0.15081353
16	0xbd35579e	-0.04427301
17	0xbd113b25	-0.035456795
18	0x3d307180	0.043076992
19	0xbd807015	-0.06271378
20	0xbe17dc53	-0.14830141
21	0xbd8a95e0	-0.06766868
22	0xbe2268e6	-0.15860328
23	0xbbae4824	-0.0053186584
24	0xbe4ee9e9	-0.20206417
25	0x3e731ca8	0.237414
26	0x3dbd9954	0.09257761
27	0x3d481e0e	0.048856787
28	0xbe8a9706	-0.27068347
29	0xbe3efb65	-0.18650587
30	0xbde12911	-0.10994161
31	0xbdc4ed16	-0.09615533
32	0x3d5d8075	0.054077584
33	0x3e02e296	0.12781748
34	0x3dac9c6a	0.08428271
35	0xbe0965ea	-0.13417783
36	0x3d919bf4	0.07109824
37	0x3e058f40	0.13042927
38	0x3d5529d8	0.05204186
39	0xbec7020d	-0.38868752
40	0xbd08090a	-0.033211745
41	0x3d17dc89	0.037075553
42	0x3d1483fc	0.036258683
43	0x396940c8	0.00022244744
44	0xbe4a3761	-0.19747688
45	0x3e108ecc	0.14116973
46	0xbe0c0b13	-0.136761
47	0x3d8e903f	0.069611065
48	0x3e8d4484	0.27591336
49	0x3c063291	0.008190767
50	0xbd65f746	-0.05614402
51	0x3dd07411	0.10178388
52	0x3ce763d5	0.028245846
53	0xbcca021c	-0.024659209
54	0x3c50bf1a	0.012740875
55	0x3cbb6026	0.022872996
56	0x3ceb33a1	0.028711142
57	0x3e059896	0.13046488
58	0x3df16429	0.11786682
59	0xbe52b686	-0.2057744
60	0xbcd1dbd4	-0.025617518
61	0xbd036066	-0.032074355
62	0x3e0a9fe4	0.13537556
63	0xbde83a37	-0.113392286

hidden3.weight f4 [128, 64]
0	0xbe9cdf41	-0.3063908
1	0x3eabab6e	0.33529228
2	0x3ea6069d	0.3242692
3	0x3e64cfc9	0.22344889
4	0x3e76c591	0.24098803
5	0x3b883549	0.0041567427
6	0xbd6bf9f7	-0.057611432
7	0x3e9ba67e	0.3040046
8	0xbee8b442	-0.45450026
9	0xbcb4173a	-0.021983732
10	0x3daffa16	0.08592622
11	0xbe177270	-0.14789748
12	0xbfa857c0	-1.3151779
13	0x3daf120c	0.08548364
14	0xbed6c164	-0.4194442
15	0x3e62585f	0.22104023
16	0xbd48dac1	-0.049036745
17	0x3e5c5d13	0.2151988
18	0xbc701f17	-0.01465585
19	0x3df5823d	0.119877316
20	0xbc510c50	-0.012759283
21	0xbd966e5c	-0.07345268
22	0xbd40ad2c	-0.04704015
23	0xbf194d8c	-0.5988395
24	0x3f88720d	1.0659806
25	0x3ee6fe7d	0.45116034
26	0xbeaa1a69	-0.33223274
27	0xbd6f100d	-0.058364917
28	0xbf381c76	-0.7191843
29	0xbeb3c9dc	-0.35114944
30	0xbefe7019	-0.496949
31	0xbe0985f9	-0.13430013
32	0xbff75747	-1.932351
33	0xbd1c32d4	-0.03813441
34	0xbe31f717	-0.17379414
35	0xbc9a1150	-0.018807083
36	0xbd8e0bc3	-0.06935837
37	0x3d39a67d	0.04532479
38	0x3d46fb2e	0.048579387
39	0x3e39fd5c	0.18163055
40	0x3dabacb8	0.08382553
41	0x3daa3a99	0.08311958
42	0x3e5bcb89	0.21464361
43	0x3f129023	0.57251185
44	0x3eb26b5f	0.34847543
45	0x3e9c8924	0.3057338
46	0xbe64d2a8	-0.22345984
47	0xbc8e5185	-0.017372856
48	0x3ea92b9f	0.33041093
49	0x3f064d6f	0.52461904
50	0xbe967729	-0.29387787
51	0x3e3eea49	0.1864406
52	0xbdd75f0f	-0.10516178
53	0xbedd6b1d	-0.43245783
54	0xbe909172	-0.28235966
55	0x3e334e8e	0.17510435
56	0x3d08f899	0.033440206
57	0x3f033d99	0.51265866
58	0xbd02dae8	-0.031947047
59	0xbc5392bd	-0.012913403
60	0x3d37cd77	0.04487368
61	0xbf276cbe	-0.654003
62	0xbe860216	-0.26173466
63	0x3d31e89b	0.04343472
64	0x3e8d6c22	0.2762156
65	0xbe7ea53b	-0.24867718
66	0xbf897611	-1.0739156
67	0xbe14528c	-0.14484614
68	0x3d6e00f7	0.05810639
69	0x3cbbb690	0.022914201
70	0x3c94ec48	0.018179074
71	0x3ef7208e	0.48267025
72	0x3e4bdbe5	0.19908102
73	0x3d35bdd4	0.044370487
74	0xbd9a4f52	-0.075346604
75	0x3e3d7874	0.1850298
76	0xbb0b3aba	-0.002124472
77	0xbcdc2a07	-0.026875509
78	0x3f267537	0.65022606
79	0x3ea85935	0.3288056
80	0x3e35e21b	0.17762034
81	0xbe849920	-0.25898075
82	0x3dc4222d	0.09576831
83	0xbe46a4f8	-0.19398868
84	0xbcaf737a	-0.021417368
85	0xbbbf6c40	-0.005841762
86	0x3e25d58c	0.16194743
87	0x3d1a26ca	0.03763465
88	0x3d8327aa	0.0640405
89	0xbcb1c1cb	-0.021698853
90	0x3e89ad06	0.2688982
91	0xbe224b34	-0.15849
92	0x3def1dc9	0.11675603
93	0x3d1d043b	0.038334113
94	0x3eb60e24	0.35557663
95	0x3e7e02ce	0.24805757
96	0x3df0c7bd	0.11756847
97	0xbd954c48	-0.0728994
98	0x3db979e8	0.09056455
99	0x3d550ef1	0.052016202
100	0xba6acefe	-0.0008957236
101	0xbdd0c770	-0.1019429
102	0xbe9b78c8	-0.30365586
103	0xbf125681	-0.57163244
104	0x3d14ad08	0.036297828
105	0xbe02ba37	-0.12766348
106	0x3ec92ba7	0.39291117
107	0xbf0471b7	-0.51736015
108	0xbfd35bdc	-1.6512408
109	0xbe60c9b1	-0.21951939
110	0x3e336650	0.17519498
111	0x3e239439	0.15974511
112	0xbf0d68ec	-0.55238223
113	0xbfad179d	-1.3522831
114	0x3db12666	0.08649902
115	0xbef48e6c	-0.4776491
116	0x3f1b213d	0.6059759
117	0x3de38e6d	0.1111115
118	0x3cec3919	0.02883582
119	0x3e7a5d93	0.24449758
120	0xbdf7a9b6	-0.12092917
121	0xbf1ab761	-0.60436064
122	0x3e3ddb82	0.18540767
123	0xbe044c49	-0.12919725
124	0xbd9ef13a	-0.07760854
125	0xbd764aa2	-0.06012977
126	0x3d914ed8	0.070951164
127	0x3e81a12b	0.25318274
128	0xbab89dfe	-0.0014085171
129	0xbf1dbce6	-0.6161636
130	0xbf45c9ed	-0.7726124
131	0xbed77575	-0.420818
132	0xbf09eea8	-0.53879786
133	0x3e53657b	0.2064418
134	0xbe0fcc7a	-0.14042845
135	0xbe32e6ae	-0.1747081
136	0x3eb3f908	0.35150933
137	0x3ddb516e	0.10708891
138	0xbe9b3634	-0.3031479
139	0xbdc564f7	-0.09638398
140	0xbdaaf223	-0.08346965
141	0xbdaac8cf	-0.083390824
142	0x3e865dc5	0.26243415
143	0xbe12585b	-0.14291517
144	0x3e40eff1	0.1884153
145	0xbcebe674	-0.028796412
146	0x3ea803e2	0.32815462
147	0xbe4a7ebd	-0.1977491
148	0xbddb2c98	-0.10701865
149	0x3ca45a5b	0.020062616
150	0xbf9b7245	-1.2144247
151	0x3e87dbe0	0.2653494
152	0x3e322517	0.17396961
153	0x3e86f8f1	0.26361802
154	0x3ed809e8	0.42195058
155	0x3ec01b6a	0.37520915
156	0xbf2fbbd0	-0.68645954
157	0xbe85d98b	-0.26142535
158	0xbe960d21	-0.29306892
159	0xbe920537	-0.28519604
160	0xbecc1f04	-0.39867413
161	0x3cf1e3ac	0.029527508
162	0xbcad24b9	-0.021135675
163	0xbc20e4b4	-0.009820152
164	0xbf2954da	-0.661451
165	0xbd9fc538	-0.07801288
166	0x3e105bce	0.1409752
167	0xbf54c234	-0.8310883
168	0x3d4a0254	0.049318627
169	0xbd71ca13	-0.059030604
170	0x3ece7530	0.40323782
171	0xbf0b0989	-0.54311424
172	0xbe835185	-0.25648132
173	0xbe56b8ce	-0.20968935
174	0xbe2f43fb	-0.17115776
175	0xbf5b396d	-0.856345
176	0xbae4b0f4	-0.0017447756
177	0xbe66f2dc	-0.22553581
178	0xbf0a59d8	-0.5404334
179	0xbd6d3868	-0.05791512
180	0xbe693f5b	-0.22778074
181	0xbb1785c0	-0.0023120493
182	0xbea52f94	-0.32262862
183	0xbea68e72	-0.32530552
184	0xbc2d5bf6	-0.010581007
185	0x3cb2d5c8	0.021830454
186	0x3dc25d99	0.094905086
187	0x3ce0e3c7	0.027452363
188	0xbe7add81	-0.2449856
189	0xbc9442a1	-0.018098177
190	0x3ef625f5	0.48075834
191	0x3d838a93	0.06422915
192	0x3e3b67c9	0.1830131
193	0x3e0e4d84	0.13896757
194	0xbe954c9f	-0.2916002
195	0x3e187d69	0.1489159
196	0xbf0440f2	-0.516616
197	0x3c0441cc	0.008072328
198	0xbe814358	-0.25246692
199	0x3df7ae5d	0.12093804
200	0x3e0beb43	0.13663964
201	0xbbfd4bfa	-0.0077300044
202	0xbdab6289	-0.083684035
203	0xbed9c2e5	-0.42531505
204	0x3d050d9b	0.03248368
205	0xbd88664e	-0.06660138
206	0x3e4549fa	0.19266501
207	0x3cceacef	0.025228946
208	0x3e33a142	0.17541984
209	0x3e0061be	0.12537286
210	0xbeac50eb	-0.33655486
211	0xbe368be2	-0.17826799
212	0x3d5136f4	0.051077798
213	0xbd9636e0	-0.07334685
214	0x3edf5c14	0.43624938
215	0x3eab7ea2	0.3349505
216	0xbee2ed6f	-0.44321772
217	0xbe238cc9	-0.15971674
218	0xbd19e3b7	-0.03757068
219	0x3b91f7b6	0.0044545783
220	0xbeae9b83	-0.3410302
221	0x3e7bb976	0.24582466
222	0xbec9646e	-0.39334434
223	0x3dbc6c75	0.09200374
224	0xbdd39dc9	-0.103328295
225	0x3c46d332	0.012135314
226	0xbe25b07d	-0.16180606
227	0xbd80dec4	-0.06292489
228	0x3e934f50	0.28771448
229	0xbcce0681	-0.025149586
230	0xba718e38	-0.00092146127
231	0xbe1e8493	-0.1548026
232	0xbd6412ec	-0.055682108
233	0xbe33cc76	-0.17558464
234	0x3de5f70e	0.112287626
235	0x3e30d488	0.17268574
236	0xbeab37a3	-0.33440885
237	0xbe838ecd	-0.25694886
238	0x3dc8e117	0.098085575
239	0x3e0a2a44	0.13492686
240	0xbdf6fefb	-0.120603524
241	0x3c9ea0bd	0.019363755
242	0x3e6c00a7	0.23047124
243	0x3e2b8046	0.16748151
244	0xbd73ade2	-0.059492
245	0x3d633249	0.055467878
246	0x3e86f3aa	0.26357776
247	0x3e6ce712	0.23135021
248	0x3cdad6ee	0.026713815
249	0xbc4d2e33	-0.012523222
250	0x3decc61a	0.115612224
251	0x3dc50232	0.09619559
252	0xbe9bed82	-0.30454642
253	0xbe5d40ab	-0.216067
254	0x3dbad1a7	0.09122019
255	0x3e9fa478	0.31180167

hidden3.bias f4 [128]
0	0xbc535899	-0.012899541
1	0x3d1ff862	0.039055236
2	0x3e28cf26	0.16485271
3	0xbd120118	-0.035645574
4	0xbe5cb9e6	-0.2155529
5	0x3d26225c	0.04056011
6	0xbd94ef88	-0.072722495
7	0x3d858ae9	0.06520636
8	0xba1d8c07	-0.00060099404
9	0x3d5d3320	0.054003835
10	0x3e234e00	0.15947723
11	0x3e6325ef	0.2218244
12	0x3e250f8d	0.16119213
13	0xbdd13e9f	-0.10217022
14	0x3de39cae	0.11113869
15	0x3d28cb6e	0.04120963
16	0xbde96340	-0.113958836
17	0xbd51d35c	-0.05122696
18	0x3e77769a	0.24166337
19	0xbd879603	-0.06620409
20	0xbe110f98	-0.14166105
21	0xbdcbc7b8	-0.09950203
22	0x3d08bd93	0.033383917
23	0xbdb27d01	-0.08715249
24	0xbd1d8229	-0.03845421
25	0x3daa49c6	0.083148524
26	0xbd16472c	-0.03668897
27	0x3dd25d4d	0.10271702
28	0xbe19209d	-0.14953847
29	0x3da25c7d	0.07927797
30	0xbac50ebe	-0.0015034301
31	0xbdaea58b	-0.085276686
32	0x3e01b7ad	0.12667723
33	0xbda0e627	-0.07856398
34	0xbe1b71e0	-0.15180159
35	0xbbe199c1	-0.006884784
36	0x3de3e9b9	0.111285634
37	0x3e3fbee4	0.18725163
38	0x3cb29a6b	0.021802148
39	0x3da10f28	0.07864219
40	0xbdfa21bf	-0.12213468
41	0x3df1450f	0.1178075
42	0xbc68988f	-0.014196529
43	0xbde6c828	-0.112686455
44	0xbd8f2780	-0.06989956
45	0xbd927764	-0.07151678
46	0x3da8e1bd	0.08246181
47	0xbd98e43c	-0.07465407
48	0xbaafb445	-0.0013405165
49	0xbdf1a1d2	-0.11798443
50	0x3d9b7c64	0.07592085
51	0xbd3c073b	-0.045905333
52	0x3d0d0fca	0.034438886
53	0x3df94b82	0.12172605
54	0x3d31ccdb	0.043408256
55	0xbd6963ae	-0.056979828
56	0x3c769f17	0.015052578
57	0xbdd3d2aa	-0.10342915
58	0x3d921a5b	0.07133933
59	0x3e34f002	0.1766968
60	0x3c287c85	0.010283594
61	0x3e584965	0.21121748
62	0x3cde2326	0.02711637
63	0xbdb3def4	-0.08782759
64	0xbd94b277	-0.07260602
65	0x3de070d6	0.10959022
66	0x3d49bd98	0.049253076
67	0xbcfbbb9d	-0.03072911
68	0xbe0120bc	-0.12610143
69	0xbde28687	-0.11060815
70	0xbe02f2bc	-0.12787908
71	0xbda29065	-0.07937697
72	0x3c37c98c	0.011217486
73	0xbe1340ce	-0.1438019
74	0xbe474f63	-0.19463877
75	0x3d9c1e01	0.0762291
76	0xbc2ddd5d	-0.010611859
77	0xbe4e5f93	-0.20153646
78	0xbe3b4f90	-0.1829207
79	0x3d92e5ff	0.071727745
80	0xbe0c1d09	-0.13682951
81	0x3e0ea121	0.13928653
82	0x3e019f78	0.12658489
83	0xbe4f7903	-0.20261006
84	0x3d55a66e	0.052160673
85	0x3da95605	0.0826836
86	0x3e5ce6aa	0.21572366
87	0xbd625d1d	-0.05526458
88	0xbd729501	-0.059224132
89	0x3de088b4	0.10963574
90	0xbd7a149d	-0.061054815
91	0x3dce036e	0.10059248
92	0x3bee0a8a	0.00726444
93	0x3e0fa1f6	0.14026627
94	0x3e54dfcb	0.20788495
95	0xbe194798	-0.14968717
96	0x3dd04986	0.101702735
97	0xbb26e6a6	-0.0025467067
98	0x3de4f78f	0.111800306
99	0xbdb9073d	-0.09034584
100	0xbd2732bf	-0.04081988
101	0x3d3974ab	0.04527728
102	0xbd52d9b1	-0.051477138
103	0xbde4943d	-0.11161087
104	0xbd995648	-0.0748716
105	0x3d68ebc3	0.056865465
106	0x3e701c5f	0.23448323
107	0xbcd61d37	-0.026136978
108	0xbccfd84e	-0.025371697
109	0x3a620c3d	0.00086230395
110	0xbe0a8f35	-0.13531192
111	0xbd1e9312	-0.038714476
112	0x3d669bd8	0.056300968
113	0x3ce6a843	0.028156405
114	0xbe1e29f7	-0.15445696
115	0xbda671a3	-0.08127143
116	0x3d4ffb8d	0.050777007
117	0x3d31e4ae	0.043430977
118	0xbe155a97	-0.14585339
119	0x3d390823	0.045173775
120	0x3dee5e72	0.11639108
121	0x3d8a0159	0.06738538
122	0x3ce724da	0.028215814
123	0x3d5581a1	0.052125577
124	0x3e2f9b5a	0.17149106
125	0xbc58bddc	-0.01322886
126	0x3df4bf99	0.11950607
127	0x3d8589ae	0.06520401

output.weight f4 [4, 128]
0	0xbd2d36aa	-0.04228846
1	0x3e5bdafc	0.21470255
2	0xbc406a7d	-0.011744139
3	0x3cc71d5a	0.024305988
4	0xbbe95c76	-0.007121618
5	0xbe74b861	-0.2389846
6	0xbc58702f	-0.01321034
7	0xbd9eac01	-0.07747651
8	0xbad8dc39	-0.0016545124
9	0x3c0c5a72	0.008566486
10	0xbce9ce34	-0.028540708
11	0xbf270912	-0.65248215
12	0x3d7875cc	0.060659215
13	0xbc0cf6ef	-0.008603795
14	0x3e13578a	0.14388862
15	0x3db9587f	0.090500824
16	0xba6de2f4	-0.0009074651
17	0x3eef4d2c	0.46738565
18	0x3c9dce59	0.019263433
19	0xbdf0864d	-0.11744366
20	0xbc28fed2	-0.01031466
21	0xbda5a312	-0.08087744
22	0xbd38cc99	-0.045116995
23	0x3c66900b	0.014072428
24	0x3d2b4f62	0.041823752
25	0xbd5b8593	-0.053594183
26	0xbc65ba68	-0.0140214935
27	0x3e3b6b4e	0.18302652
28	0xbe0b0ff0	-0.13580298
29	0x3c316bd1	0.010828928
30	0x3d3b8241	0.045778517
31	0x3d16a1fc	0.036775574
32	0xbc8cc022	-0.01718146
33	0xbd5690ef	-0.052384313
34	0x3da6d6e7	0.08146458
35	0xbd9c6b4d	-0.076376535
36	0x3ddbbb07	0.10729032
37	0xbe909a7d	-0.28242865
38	0xbe460220	-0.19336748
39	0x3d90ef02	0.07076837
40	0x3dd41dc9	0.103572436
41	0xbdf857c4	-0.12126115
42	0xbe0b6138	-0.13611305
43	0x3bb41c98	0.0054965727
44	0x3e06b920	0.13156557
45	0x3cb21705	0.021739492
46	0xbe15ecba	-0.14641085
47	0xbd70d339	-0.058795188
48	0x3e1e80e6	0.15478858
49	0xbe9dc08f	-0.30810973
50	0xbe97a64d	-0.29619065
51	0x3d9c23d8	0.07624024
52	0x3e6d2f39	0.23162545
53	0x3c8b9fe7	0.01704402
54	0x3e0e34bd	0.13887306
55	0xbead5ae4	-0.33858407
56	0x3c99adbe	0.018759605
57	0x3e2d3515	0.1691478
58	0xbda0fcce	-0.07860719
59	0x3db20a55	0.08693377
60	0xbe144299	-0.1447853
61	0xbe05b3a4	-0.13056809
62	0xbc6ba604	-0.014382843
63	0xbdc338d2	-0.09532322
64	0x3de80865	0.11329726
65	0xbd67a996	-0.056558214
66	0x3e0d3391	0.13789202
67	0xbd42ef57	-0.047591534
68	0x3d95ef20	0.07321
69	0x3bf145d8	0.0073630624
70	0x3d69263e	0.056921236
71	0x3dd18e77	0.10232251
72	0xbb1a0314	-0.002350037
73	0x3ddb0a2c	0.106952995
74	0xbd1e6cc5	-0.03867795
75	0x3e9425f0	0.28935194
76	0xbdf41aea	-0.11919196
77	0x3c87b526	0.01656587
78	0xbd3862b1	-0.045015994
79	0x3e41b17c	0.18915361
80	0x3da82337	0.08209842
81	0xbd101751	-0.035178486
82	0xbe387e43	-0.18016915
83	0x3ce57a4f	0.028012423
84	0x3bc66dfd	0.006055592
85	0xbc3c19c4	-0.011480752
86	0xbd8bd17c	-0.06827065
87	0x3cd1d149	0.02561249
88	0x3d3bf131	0.045884315
89	0xbdcda013	-0.10040297
90	0xbb86e668	-0.004116822
91	0x3daa0665	0.08302001
92	0x3cdd5adc	0.027020864
93	0xbe6ef929	-0.23337235
94	0xbd220240	-0.039552927
95	0x3c9421e0	0.01808256
96	0x3d2dcdf9	0.04243276
97	0xbe296cb1	-0.16545369
98	0x3e4ea6b2	0.20180777
99	0xbccb336e	-0.024804797
100	0x3e9f1105	0.31067672
101	0x3dbcf13b	0.092256986
102	0xbd4545c2	-0.04816223
103	0x3cdee619	0.027209328
104	0x3d060d69	0.032727633
105	0xbdef37b7	-0.11680549
106	0xbbf5d0c6	-0.0075016944
107	0xbc2d81cc	-0.010590028
108	0x3eaec8dd	0.34137622
109	0xbd25c6dd	-0.040472854
110	0xbd34f1b5	-0.044175822
111	0xbd8e2ce7	-0.06942158
112	0x3e3c2643	0.1837397
113	0x3e7d1e90	0.2471869
114	0x3d180795	0.037116606
115	0x3ec8603f	0.3913593
116	0xbd769533	-0.06020088
117	0x3d52141d	0.051288713
118	0xbd74d3a8	-0.059772164
119	0xbc604617	-0.013688586
120	0xbe1a4ce0	-0.15068388
121	0xbdd817d1	-0.105514176
122	0x3df55ff8	0.11981195
123	0xbe2c9ed7	-0.16857468
124	0xbb899764	-0.0041989554
125	0xbd5b0770	-0.05347389
126	0xbe5640c8	-0.2092315
127	0xbd9c0f07	-0.07620054
128	0xbd0fca04	-0.035104766
129	0xbfb08e83	-1.3793491
130	0xbc88fcc6	-0.016722094
131	0xbd1374da	-0.03600011
132	0x3e08d06d	0.13360758
133	0xbd1abd83	-0.03777839
134	0xbe96e21d	-0.29469386
135	0x3ecf2b68	0.40462804
136	0x3d512422	0.05105985
137	0xbe9fa029	-0.3117688
138	0x3e032a95	0.12809213
139	0x4022f045	2.545915
140	0xbd7a30b4	-0.061081603
141	0xbe2c8a77	-0.16849695
142	0xbf25dd66	-0.6479095
143	0xbeb1a905	-0.34699264
144	0x3bdbd802	0.0067090997
145	0xbfe62913	-1.7981285
146	0x3d8e6e01	0.06954575
147	0xbd884270	-0.06653297
148	0xbce77c33	-0.028257465
149	0xbc1423e9	-0.009041765
150	0xbd806cce	-0.06270753
151	0xbe863d1a	-0.26218492
152	0x3d8c167b	0.06840225
153	0x3e66c50c	0.22536105
154	0x3c935359	0.01798408
155	0x3dfbd3ff	0.122962944
156	0x3f30b1f5	0.6902154
157	0xbe9a4910	-0.30133867
158	0x3c1e6cd8	0.009669505
159	0xbd6557c4	-0.055991903
160	0x3e6a4380	0.22877312
161	0xbc342c52	-0.010996895
162	0xbed80dfd	-0.42198172
163	0x3ec4335e	0.3832044
164	0xbf05d42a	-0.5227686
165	0xbd9ad444	-0.07560018
166	0x3e9d4826	0.30719107
167	0xbc0e6fb3	-0.008693623
168	0xbc46043e	-0.012085972
169	0x3edb5dd9	0.42845038
170	0x3f10de50	0.5658922
171	0xbdbf755b	-0.09348556
172	0x3d21ad88	0.039472133
173	0xbc029bf0	-0.007971749
174	0x3f1ef334	0.6208985
175	0xbd2fb47f	-0.042896744
176	0xbdf043f5	-0.11731712
177	0xbc84cb59	-0.016210245
178	0x3f8405d0	1.0314274
179	0xbcc3dbab	-0.023908457
180	0xbe24961f	-0.16072892
181	0x3e50701c	0.20355266
182	0x3ac01c5b	0.0014656888
183	0xbd80bf68	-0.06286508
184	0x3e698c05	0.2280732
185	0xbf0e9695	-0.5569852
186	0x3e6dd0be	0.2322416
187	0x3e674fad	0.22588988
188	0xbdaaaef7	-0.08334153
189	0x3f166a31	0.58755785
190	0xbd126160	-0.035737395
191	0x3d4498a7	0.047997143
192	0xbeaf4bf7	-0.34237644
193	0x3e8b2378	0.27175498
194	0xbee20f31	-0.44152215
195	0x3e310be7	0.17289697
196	0xbd601740	-0.054709673
197	0x3d25b0ad	0.040451694
198	0x3bc2a0f2	0.0059395963
199	0x3d83c6bb	0.06434389
200	0xbd50d84c	-0.050987527
201	0xbf050920	-0.5196705
202	0x3d7d3870	0.0618214
203	0xbf8a2838	-1.0793524
204	0x3e1bf8fc	0.15231699
205	0xbd44e3ef	-0.048068937
206	0xbcf559ba	-0.029950012
207	0x3e098c39	0.13432397
208	0x3caad134	0.020851709
209	0x3f12f3cf	0.5740327
210	0x3e3b64ac	0.18300122
211	0x3cca3bd6	0.024686735
212	0xbc94a40e	-0.018144634
213	0x3d40b62a	0.047048725
214	0xbdc90ac2	-0.09816505
215	0xbe3d587f	-0.1849079
216	0xbdc46840	-0.095901966
217	0x3ece7f09	0.40331295
218	0x3e490de8	0.19634211
219	0xbdfce939	-0.12349171
220	0x3e9cf88b	0.30658373
221	0x3f975819	1.182376
222	0xbe2ac524	-0.16676766
223	0x3da621a7	0.081118874
224	0xbe197366	-0.14985427
225	0xbbdcc5d6	-0.006737451
226	0xbf4b2605	-0.7935489
227	0x3bd28ea1	0.006425694
228	0xbe0aa4bd	-0.13539405
229	0xbdfc8083	-0.12329199
230	0xbbbc179a	-0.005740118
231	0x3c73dc52	0.014884071
232	0x3d3b8424	0.045780316
233	0x3e8bcd4f	0.27305076
234	0x3e9d0783	0.30669793
235	0xbd8e5830	-0.06950414
236	0xbfba35d4	-1.4547677
237	0xbe093596	-0.13399348
238	0x3c1677c5	0.009183829
239	0xbe43ef9d	-0.19134374
240	0x3d367eb1	0.044554416
241	0xbe3f6d16	-0.18693957
242	0xbd942b5d	-0.072348334
243	0xbfda9f9c	-1.7079959
244	0x3e81802d	0.25293103
245	0xbe17d083	-0.14825635
246	0x3d64cfa9	0.055862103
247	0xbcf180be	-0.029480334
248	0x3e82b709	0.2553027
249	0xbd4787c4	-0.04871346
250	0xbe8afdad	-0.27146664
251	0x3f160073	0.58594435
252	0xbd9f94c2	-0.07792045
253	0x3da87ff0	0.08227527
254	0x3f6e15c7	0.9300198
255	0x3cc2934e	0.023751881

output.bias f4 [4]
0	0xbc653f3b	-0.013992126
1	0xbe01f525	-0.12691171
2	0xbd23e238	-0.04001066
3	0xbcefcbd7	-0.029272003
