models/MagneticPendulum/p1_measure_x1*cos(0.0833333333333333*pi) + x2*sin(0.0833333333333333*pi)_N7_sep/al_model_state_dict.pth (torch, 46608 bytes, 7 tensors)

hidden1.weight f4 [32, 7]
00000000: ef58 3b3e 2fbd d2bc 514e 9ebd f158 453e
00000010: b772 d6be a498 ca3e 128b bb3d eae6 443e
00000020: d837 573d a08f 3dbd 74b2 d63d d0be 983c
00000030: 365b 0d3e 03d4 16be 3f44 893d 21a7 113d
00000040: a9fd 5e3e 7bad 19be bd6b a93e 380d a73b
00000050: 8548 37be 5609 0abe 9112 58be 4601 34bd
00000060: 18e1 0e3d f421 493e 3469 db3e 316e fc3c
00000070: 9162 77be d531 903e bbcb 0d3e ac42 4b3e
00000080: 19a2 503e 632d 0fbf 477c 97be a115 c2bc
00000090: 2c4c 5a3e 6ac6 2fbb ad78 b93e fb76 92be
000000a0: 4c00 1c3f e1ca cebd fefc 723e 317a fe3c
000000b0: 54f2 18be 0c09 4d3e 27e1 65be e685 8abc
000000c0: af0c 4fbc bafc 97bd 2025 6abe caec 2fbe
000000d0: 2d57 3b3e 0bea 59be 9af3 023f 2fc5 d43e
000000e0: 6e86 f13c 4773 1ebe 8510 803d ec8d 9a3e
000000f0: 8b1b 37be ea56 743e 977c ba3e d2ea ac3d
00000100: 31b7 7abe 64cb 54bc 1187 d23c e050 e63d
00000110: 1d76 11bf 2400 c1be 394a 413e 6968 11be
00000120: f7aa 613e db02 033d 9c68 073d 0b0f b23e
00000130: fd5e 7a3e 767d 0b3e af95 a4be 559c 1d3e
00000140: 5bd7 9abe 6fc9 cfbe 1aaa 5bbe 8c76 953e
00000150: 0b43 0d3c fd85 a3be 81c7 8cbe 1bac b33e
00000160: 9035 4a3d 5f95 3a3e c1c7 7f3e f0dd 5dbe
00000170: 203b 7f3d 44f8 54bc 510b 02be 760b 6dbe
00000180: 2195 e13e 4fcb 0f3e f893 7f3d efee 48be
00000190: c59c dd3e 994e 793d 8f10 bf3d 0755 ed3e
000001a0: aff0 9abe 23b7 f6bd 815d f13e d277 3f3d
000001b0: edbc 243e 7db7 c5bd 5b15 95be 5006 f73e
000001c0: d25d 453e f6c7 61be b885 7a3d 318e af3e
000001d0: a12f ec3e 1592 9a3e 6a5d fcbe 4656 eebd
000001e0: 815c 39be 2ab3 9d3c 47f8 d33e 91ee 85be
000001f0: 5151 d03e 98c3 93be ade5 2bbe b2d7 abbd
00000200: 919f 94bd 6181 fb3e f267 61be 9ce3 15be
00000210: 8e83 153f b1f4 2a3e c875 d33d 5915 7d3e
00000220: c99e 813e eddf 243e beda 0bbf 5ef9 d9be
00000230: 189a 23bd 3417 013e fb91 2cbe 468d 8c3e
00000240: 3b48 353d 5dd7 f5bd a5c2 073f 2416 6a3d
00000250: 14d7 933e 9994 6d3e 4450 24be ef8e f53e
00000260: d057 1a3e 076e 01be 42cd 8abe 9fe3 89be
00000270: 26d3 74be 700b 40bd 251c d13e 0458 f33d
00000280: ae87 13bf 7b24 783e 525f 4f3e f56a ad3e
00000290: 0e6b 3fbe 9664 24bc 89d9 46be 1ac3 00bd
000002a0: 0b71 59be e7db 8cbe 0d1f 5abe 701a e33d
000002b0: 0ab0 6b3e f7ab 5b3e cecb db3e 103f 073e
000002c0: 23f7 d63d 8abf ac3d ade4 8abe 26e6 e83e
000002d0: aef0 19be ecdd 6fbe 5921 79be 2458 713d
000002e0: b59d 8ebe e489 823d 3325 bebe 391e e6be
000002f0: 2ab3 d43d 9d95 58be 8a78 933d c3bb 80ba
00000300: 22a2 0ebe 72f0 24be bdb6 1f3f 6096 00be
00000310: 8c0c 123e 409d 583e 4044 9e3e 94f2 dbbe
00000320: c26c 92bd b560 0cbf 7c20 e23e 861e 14be
00000330: 8c0e e23d f740 a8bd a362 37bd c14c 593e
00000340: 1679 b23c 1d04 90bc e0a8 67bc da39 e73b
00000350: 2663 0cbe e294 b83e e0b5 673e a818 193f
00000360: b9b8 ab3e 46b2 723d c6aa 82be df76 cf3e
00000370: 817e aebe 6742 5b3e 730d 47be 66c0 ffbe
0.18295644 -0.025724975 -0.077297814 0.1927221 -0.41884395 0.3956958 0.09157385 0.19228712
0.05254349 -0.04627955 0.10483256 0.018645674 0.13804325 -0.14729314 0.0670247 0.035559777
0.21776451 -0.15007584 0.3309001 0.0050980113 -0.17898758 -0.13480124 -0.21100833 -0.043946527
0.034882635 0.19641858 0.428537 0.030814262 -0.24158694 0.2816302 0.13847248 0.19849652
0.20374335 -0.5592863 -0.29587004 -0.023691954 0.2131812 -0.0026821145 0.3622488 -0.286064
0.60937953 -0.1009729 0.23729321 0.031064125 -0.14936191 0.20022982 -0.2244917 -0.01690955
-0.012637301 -0.07421251 -0.22865725 -0.17180172 0.18294974 -0.21280687 0.51152956 0.4155669
0.029483046 -0.15473662 0.06253151 0.30186403 -0.178816 0.2386128 0.3642318 0.08443226
-0.24483944 -0.012987945 0.02569917 0.112458944 -0.5682085 -0.3769542 0.1887597 -0.14199986
0.22037874 0.031985145 0.033058748 0.34777102 0.24450298 0.13622078 -0.3214545 0.15391667
-0.30242428 -0.4058337 -0.21451607 0.29192007 0.008621941 -0.31938162 -0.2749596 0.35092244
0.049367487 0.18221043 0.24978544 -0.21666694 0.062312245 -0.012998644 -0.1269963 -0.23148903
0.4405909 0.140424 0.062396973 -0.19622396 0.43283668 0.060865972 0.0932933 0.46353933
-0.30261752 -0.12046649 0.4714165 0.04674513 0.16087694 -0.09654138 -0.29117855 0.48247004
0.19274071 -0.22048935 0.06116268 0.3428817 0.46130088 0.30189577 -0.4929002 -0.11637549
-0.18101694 0.019250471 0.41400358 -0.26158574 0.4068704 -0.28860164 -0.16786833 -0.0839075
-0.072569974 0.49122146 -0.22012308 -0.14637607 0.5840386 0.16694905 0.10325199 0.24715175
0.25316456 0.16101046 -0.5463065 -0.42573065 -0.039941877 0.12606508 -0.16852562 0.27451533
0.044258337 -0.12003968 0.5303138 0.05715002 0.2887503 0.23201217 -0.16046244 0.47960612
0.1507256 -0.12639628 -0.27109724 -0.26931474 -0.23908672 -0.046885908 0.40841785 0.11882022
-0.57628906 0.24232666 0.20251206 0.33870664 -0.18693182 -0.010033747 -0.1941892 -0.031436063
-0.21234529 -0.27511522 -0.21300907 0.11089027 0.23016372 0.21452318 0.42928928 0.1320765
0.10496356 0.08434971 -0.2712759 0.4548809 -0.15033218 -0.234245 -0.24329127 0.058921948
-0.27854696 0.06373957 -0.37137756 -0.44944933 0.10385735 -0.21150823 0.072007254 -0.0009821582
-0.13929036 -0.16107348 0.6238821 -0.12557364 0.14262599 0.21153736 0.30911446 -0.4295851
-0.0714965 -0.54835063 0.4416541 -0.14464769 0.11037931 -0.08215516 -0.0447718 0.21220686
0.021786254 -0.017580086 -0.014139384 0.007056457 -0.13709697 0.3605109 0.22627974 0.5980325
0.3353937 0.059252046 -0.25520915 0.4052038 -0.3408089 0.21412049 -0.19438724 -0.49951476

hidden1.bias f4 [32]
00000000: b36e cd3d 590a 8bbe 9c48 0ebe 26c8 3e3e
00000010: de6e 913e a07b bd3e 623a 0cbe cec4 b9be
00000020: 4f0d 4f3e 8ca6 3538 1fe1 9bbd f867 7d3d
00000030: 40b4 8dbe d239 363e e4a4 693e abaf 05be
00000040: 16c1 47be 0591 603d 2dba e63d 7901 573d
00000050: acb9 3cbe 6bfc 5d3d 920a 91be 29bf 5cbe
00000060: 96d6 77be 5baa 473e 3766 b43e e481 6cbd
00000070: 1d58 ee3c 81ae ac3d 73ed 1b3e 9e49 0fbd
0.1003088 -0.27156332 -0.13894886 0.18631038 0.28404897 0.3700838 -0.13694146 -0.36282963
0.2021992 4.330887e-05 -0.07611298 0.06186673 -0.27676582 0.17795494 0.22816807 -0.13055293
-0.1950725 0.0548258 0.11265979 0.05249164 -0.18430203 0.054195803 -0.28328377 -0.21557297
-0.24202952 0.19498579 0.35234234 -0.05774106 0.02909475 0.084317215 0.15227298 -0.034982316

hidden2.weight f4 [64, 32]
00000000: e793 1b3e ba8e de3d e605 43bd 0bf5 72bd
00000010: ca4e 943d 04f9 903d 3a61 62be d016 c93d
00000020: 761f 0a3d f7e3 77bc 82bb 0e3e 732c 62bd
00000030: 3b48 013e 70f6 45be db72 213c 3f7e 22be
00000040: 1eb3 44be 114a 733e db64 e3bd 7802 32bd
00000050: 096c 39be 29ef 3b3d b5eb 5bbe 6c79 c53c
00000060: c1bc 1dbc 4a75 71bd ad86 013e 941f 1cbd
00000070: 32ce 7abe 6d8f 34be 5797 bdbe 9e2a 243e
00000080: a96c 17bd a028 123d 0f3c b8bc ea3e cfbd
00000090: d0a1 963d 7ec3 a63c c7b3 033c 28ff 06be
000000a0: d2d9 8dbd 677b 1c3d 56ea 263d d5f4 13bd
000000b0: d773 29bc 223a 88bd b295 693d a639 2bbd
000000c0: 7bce ecbd b2cd fd3d 24ca 3abe 4802 043e
000000d0: 6513 20be 6e07 403e e006 23be 8383 173e
000000e0: cc28 8b3c 41b4 91bd 1aa4 be3d 9ab6 5fbe
000000f0: a45a 93bd 28e6 bf3d ebf9 de3b 133e 093e
00000100: 64df 72bd c04b 5bbc cd99 05bd ea8a bebd
00000110: 9f39 5e3d 9fc5 a6bd 8369 00be 3b20 ec3c
00000120: a3d6 1bbe 8075 97bd b601 b93d 909a 0d3d
00000130: 6c51 e73d 9a6c 06be 1908 14bc 70d2 55bd
00000140: 348d e7bd a0c1 eebd 38dd 903c 7cf5 01bd
00000150: bb08 c6bd 4ec0 24be c536 13be 2169 313e
00000160: f006 72bd eaf6 85bd 8fe2 b9bd a679 c2bd
00000170: 1811 31be b6b0 07be d5d4 9d3d 44b3 1e3d
00000180: 01f1 f6bd a4d1 88bd 9c59 813c eb84 0d3e
00000190: 177d b33d 9413 6d3b 20ef b63d 8059 c2bc
000001a0: 936d 24be 9b57 11be 96e7 813d 5b1e ecbd
000001b0: 458f a23d 2da6 03bd f7c1 ddbd a5e6 2bbe
000001c0: 9e20 a3bb 3fc4 b8bd c58d aabe cb02 4e3c
000001d0: c75e 09be 5695 11be 4392 d63d 3f7a 29bd
000001e0: cf77 ea3c d127 ea3d 7820 b0bc 257f 99bb
000001f0: fdc1 3dbe 9865 68be 18f4 1c3e ad8e 433c
00000200: 63c1 6cbd 2e1f e83d 781a 0fbd 51da 173d
00000210: 7f3d e2bc 735c 65bd d008 a635 13b1 9ebc
00000220: 5520 71bb ea11 d9bc c3a8 0c3e 8219 893c
00000230: e926 a7bc 8731 f63c 982b 843e 8b8a c63d
00000240: 8ba9 d83c 2331 3c3e 5bd9 4cbe b716 44bd
00000250: 1152 51bd 78be d0bc 8651 23be 9de1 febd
00000260: 5020 8b3d 8cd7 ac3d 7cc6 31be f6d5 9b3c
00000270: 9f73 a7be 8540 72be cafb 8dbc 48f3 633e
00000280: 386c 28bb 8962 1d3e 147b f7bc 1b65 41bb
00000290: d602 c3be bb25 5f3e 4b66 d63c b16c 183e
000002a0: 8931 a83d b73e 0a3d 9d47 933d 587f 11be
000002b0: 0078 e83c c2ac da3c 517d 963d 75e5 83bd
000002c0: cb40 bb3d 78f1 4f3d 3b47 153d 9289 a0be
000002d0: 7ee8 ae3d 3d7e ebbb 33ba c93d 4347 cf3d
000002e0: 2e8e 0ebe b7c0 e63d b5c9 d0be 760e 743e
000002f0: ab71 8fbd a6a1 6f3d 4529 0c3d 7ac6 b03d
00000300: 7e39 7abe 9400 20be 50f8 9e3d 74c4 4eba
00000310: ee6e 903e a935 15be 1e86 e6bd defc 9e3d
00000320: e603 8dbe d5a8 5dbd ea0d cb3d db60 d1bc
00000330: 5e80 a3bd 67c3 87be 96df 0d3e 82af b8bd
00000340: 7535 2bbe db7b 0bbe dad6 88be adc6 423e
00000350: 340d b3bd cd4e dc3d 64bf 4abd 7fd4 9ebe
00000360: 3414 563d dffc 4c3e c676 523d af77 c43d
00000370: de07 2ebe 8bd5 363d fec1 84be a0ee 173b
00000380: 5f9d a93d c072 c4bd a4d8 cb3d a5f4 463d
00000390: 516e 243e 5d07 1cbe e9ec 1dbe 2bcb 753d
000003a0: 7cee af3d 6887 323e 2dd2 a53d 32e2 86bc
000003b0: 76d8 9d3d 8d06 0abe da9d 9d3c 7e84 883d
000003c0: 5408 9b3c 4965 1bbc 8b26 dcbd 958d fe3d
000003d0: 4f93 7cbe 1d87 c1bd 9785 a6be 8317 e0bc
000003e0: fc1f bb3d 5776 cebd 6c56 4ebd e9d6 d3bc
000003f0: 24c1 3a3e 1d57 06bd 1a55 4dbe 2319 083d
0.15193139 0.10867067 -0.047613047 -0.059315722 0.0724159 0.07078746 -0.22107401 0.09818804
0.03372141 -0.015130035 0.13938716 -0.05521817 0.1262521 -0.1933229 0.009854044 -0.15868472
-0.19208953 0.23758723 -0.11103221 -0.043459386 -0.18107618 0.045882378 -0.21476634 0.02410575
-0.009627522 -0.058949746 0.12649031 -0.038116053 -0.2449272 -0.17632838 -0.37029526 0.16031882
-0.03696886 0.035683274 -0.022489576 -0.10119422 0.07355082 0.02035689 0.008038468 -0.13183272
-0.069263116 0.038203623 0.040750824 -0.036122162 -0.01034256 -0.06651713 0.057027526 -0.041803025
-0.115628205 0.12392749 -0.18241173 0.12891495 -0.15632398 0.18752834 -0.15920591 0.14796261
0.016987227 -0.07114459 0.09308644 -0.21847 -0.07195023 0.09370071 0.006804695 0.13402586
-0.059295073 -0.013384759 -0.03261738 -0.093038395 0.05425417 -0.08143162 -0.1254025 0.028823962
-0.15218596 -0.07395458 0.090335295 0.03457123 0.11294827 -0.13127366 -0.009035134 -0.052202642
-0.11306229 -0.11658025 0.01768361 -0.031728253 -0.09669634 -0.16088983 -0.14376362 0.1732526
-0.059088647 -0.06541236 -0.09076416 -0.09495859 -0.17291677 -0.13251004 0.0770661 0.03874518
-0.120576866 -0.06680611 0.0157898 0.13820235 0.08764093 0.0036175 0.08932328 -0.023724318
-0.16057424 -0.14193575 0.06343 -0.11529227 0.07937483 -0.0321409 -0.108280115 -0.16787203
-0.0049782535 -0.09021806 -0.33311287 0.012573908 -0.13415061 -0.14217123 0.10477116 -0.04137635
0.028621582 0.114333756 -0.021499857 -0.0046843463 -0.18531032 -0.22695005 0.1532749 0.011935872
-0.057801615 0.11334072 -0.034937352 0.037073437 -0.027617214 -0.05599637 1.2370529e-06 -0.019371545
-0.0036792953 -0.0264978 0.13736252 0.016735796 -0.020404296 0.030052913 0.2581451 0.09694394
0.026448032 0.18378119 -0.2000479 -0.047873225 -0.051103655 -0.025481448 -0.15949067 -0.12445376
0.067932725 0.0843955 -0.17360872 0.019022923 -0.327054 -0.23657425 -0.017331976 0.22260773
-0.002569927 0.1536962 -0.030210055 -0.0029509726 -0.380881 0.21791737 0.026171824 0.14885212
0.08212573 0.033751216 0.071913935 -0.14208734 0.028377533 0.026693705 0.07348121 -0.0644025
0.09143218 0.050767392 0.036444884 -0.31354958 0.08540438 -0.0071866796 0.09849968 0.10121014
-0.13921425 0.11267226 -0.4077889 0.23833641 -0.07004102 0.05850377 0.034219045 0.086316064
-0.24435994 -0.1562522 0.077622056 -0.000788755 0.28209633 -0.14571251 -0.112560496 0.07763074
-0.27542037 -0.05411609 0.09914763 -0.02555888 -0.079834685 -0.26516268 0.13854823 -0.090178505
-0.16719611 -0.13621466 -0.2672642 0.19021101 -0.08742753 0.107572176 -0.04949893 -0.31021497
0.05226536 0.20018338 0.051382802 0.0959314 -0.16995189 0.044637244 -0.25929254 0.0023183003
0.08281969 -0.09592199 0.0995343 0.048573155 0.16057707 -0.15237184 -0.15422405 0.06000821
0.08590409 0.17434466 0.080967285 -0.01646528 0.07707302 -0.13479061 0.019240309 0.06665896
0.01892487 -0.0094845975 -0.10749539 0.124293484 -0.24665569 -0.09449599 -0.32523796 -0.027354961
0.0913696 -0.10081165 -0.050375387 -0.025859313 0.1823774 -0.03279792 -0.20051995 0.033227097

hidden2.bias f4 [64]
00000000: 1396 8cbd f78c 833d 4ae5 c23d cd0a 65bd
00000010: 7cf8 c2bd b899 3cbe 9075 29be 4b7e 163e
00000020: 42a6 1dbe 047c 95bd 2374 553d 7903 1c3d
00000030: 287a 29be ac54 bb3c 4e77 dcb8 eb29 3e3e
00000040: b551 d7bc 9b77 7b3d f053 7abc 4f23 0b3e
00000050: e163 5f3c 2f86 e8bd 607b 6c3b ec8f cebd
00000060: baa9 6bbc cefd a63d 9acb 0cbe cd91 02be
00000070: 8cfd 26bc 963a 56bb f90d d7bd 0374 053e
00000080: 58a6 f23c ac54 2dba 8b4f dabc 2ccf b9bd
00000090: e3b0 20be 4d4a 803d 0b11 ffbd 2477 09bc
000000a0: dd5d a23d 70aa 11be 776a 0abd ae95 023e
000000b0: 1ad3 863d 3a9d ecbd 5059 203d 8865 4dbe
000000c0: 7b1c b5bb fc61 083e 36d3 b03d 039d 0dbc
000000d0: 7399 683d 5005 0abe 2468 d8bd 23bf 04bd
000000e0: c8f3 b9bd b7b7 2d3d 817a de3d 3f20 b9bd
000000f0: 08bf 24bd f45c 0abe 53bb ae3c c1e8 193d
-0.06864562 0.06423371 0.0951639 -0.055918504 -0.09520051 -0.18418014 -0.16548753 0.14696614
-0.15395454 -0.07299045 0.05211271 0.03808925 -0.16550505 0.022867523 -0.0001051264 0.18570678
-0.026284078 0.06139336 -0.015278801 0.13587688 0.013634653 -0.113537185 0.003608428 -0.10086045
-0.014383728 0.08153878 -0.13749543 -0.12750931 -0.010192286 -0.0032688729 -0.10500712 0.13032536
0.029620335 -0.00066120434 -0.026649257 -0.09072718 -0.15692477 0.06264172 -0.124544226 -0.008390222
0.07928059 -0.14225173 -0.03379294 0.12752411 0.06583233 -0.11553426 0.039147675 -0.20058262
-0.005527077 0.13318628 0.08634035 -0.008643392 0.056786966 -0.13478589 -0.10566738 -0.032408845
-0.09079701 0.042411532 0.108632095 -0.090393536 -0.040221244 -0.13512021 0.021329558 0.037575487

hidden3.weight f4 [128, 64]
00000000: d40b f33d 980d 0bbe 6cd4 d7bd 00aa 673b
00000010: 3295 ec3d 6c6c bbbc c41e 0e3d 6225 4cbc
00000020: f0e8 74bc acb5 b63d 85b9 7a3d e697 93bd
00000030: d64f 99bd 600f c7bd 5a68 79bd c08b 38bb
00000040: c2e1 963d 1c3a 1abe 62b2 b53d ac58 cebd
00000050: ca4e aabc 03ea 16bd 6fa6 263d 5628 d6bd
00000060: f857 efbd 2c6d e6bc 6c19 813d 1453 76bd
00000070: 50af 1e3d 784e 07bd aeb9 eebd 30c2 693c
00000080: 82fe 5bbd 7be4 2f3d bdde 523d 1a7d a73d
00000090: f459 a03d ea0d c6bd 9898 f5bd d0d6 643c
000000a0: 4099 cb3b cd06 02be a23c d13d 0275 33bd
000000b0: 7458 d5bd fc9a af3d 4437 e03d e855 9d3c
000000c0: 330c 90bd 1d24 80bc 1ab6 bcbd 82aa 3c3d
000000d0: 99cd 453d 68b8 bfbc 48f4 cabd c40a be3d
000000e0: 4a6d d1bd a3bf c5bd 1f07 3a3d 9c18 bebd
000000f0: 8806 c33c 366d d23d 3873 81bc 031a 70bd
00000100: 89a9 a23d 62f2 05bb be8e 043d fa4c 04bd
00000110: 47dc 0abe 9426 293e 1eb2 7cbd 36cb 83be
00000120: f0fd d1bd ab54 92bd 9e26 2fbe 8921 54bd
00000130: f3fc a23c 9311 c5bd 57d8 86bb dc2d 55be
00000140: 3719 7c3d d8e4 bbbd 6053 963b 5d25 dabd
00000150: 84ed 8dbc 84b2 c63d adee 2abe cf5b ff3d
00000160: 4d72 58bb 0656 e9bc 24e9 95bd 1e45 05be
00000170: 1cea 343c 548f 82be 0095 01bb 4a70 49bc
00000180: 3d54 f23d c15d 5a3e 4c20 cb3d 6a7a 9cbd
00000190: f61f adbc 9005 673d d8d6 f6bd 71bd c7bd
000001a0: 96f1 9a3d b570 16bd 7aca 2fbd 50ec 1dbd
000001b0: 6a8a c8bc 0a3b dabd 695b f0bd fe05 bebd
000001c0: c0cc dfbd 60dd 193d e86f 6dbd 0dd8 6d3e
000001d0: fcc7 89be fda3 97bb b905 70bd 7e38 c9bd
000001e0: e90c 953d 5bb1 113e eda7 0dbe 7aad de3d
000001f0: b06c 57bc b784 e7bd 97bd 443d aca6 d43d
00000200: 97ee 973d aed7 d43c 8a9b f6bd ec0f 12bd
00000210: cd17 dabd 9c57 69bd 6362 493d eef9 9fbd
00000220: 3c8c dcbd 09e4 c3bc a7b1 e2bd dd21 e3bb
00000230: ca49 babd 296a 68bd d3bb 05bc f1d7 9d3b
00000240: 04e7 a7bd 39ed b23d 6649 a4bd 09ff eebd
00000250: 5470 afbd e6d3 2bbe f692 433d 637a 6c3d
00000260: 359a 68bd 2808 8dbd 000e 6abd 2076 42bc
00000270: 79ad 42bc daa0 03bd d328 9fbd 12db 06be
00000280: 4494 c4bd eb30 02be face 6ebe a39e c6bd
00000290: 58f7 a5bc eea9 423b be2e b73d 558c ffbd
000002a0: fe3c 7bbd bdb2 673d f495 20bd 2eef 9ebd
000002b0: 0685 893c fe23 58bd aabd 8e3d fce5 9dbd
000002c0: 28b4 cb3d 742c bfbd 296a 21bd f732 1fbd
000002d0: 94ab 883d bc41 f8bd 180e 713d e3fd 72bd
000002e0: 7a8b 2ebc e3b5 1b3d ebcd c0bc 9692 143d
000002f0: 5414 41bd 7b18 e8bd 23ae 1bbd a2ab 063d
00000300: d86c 883d 6d61 a1bd 624b 2e3b 5517 89bd
00000310: ad7f 23bd 6d0d 07be 1251 2a3d c1b3 f8bd
00000320: 8473 283d 86b3 e1bd bad1 583d 32ab 1b3d
00000330: 94ac bcbd 5386 23bd 8fcc 2b3d 7d6a 0abe
00000340: 6354 56bd 1a9e 5c3d 3a27 bdbd c2bd a53d
00000350: 6475 3cbc be9f 253d 5197 a73d 58a2 ffbd
00000360: 1183 b43d fae6 07be 1431 733d 4003 b4bb
00000370: e672 273e 2065 36bd 7cb8 59bd b81c 4dbc
00000380: 9a02 933d ae5a bebd cc98 18be c695 2ebd
00000390: cbcb 3fbb ecac cd3c 3ce9 233d 5542 69bb
000003a0: 4572 36bb 8738 f5bd 721a 673b c72e 5dbb
000003b0: c999 3f3d 7b7a a1bc 8f58 6dbd 4e84 a13d
000003c0: 5717 1bbc 7d6f 09be 0586 013d d9d2 dc3d
000003d0: fac2 1e3e aeaa b23d 47eb eabd 2261 c03d
000003e0: 1181 773e 0406 6cbd f1c3 61bd 7c37 babc
000003f0: b8cd 9abc ebab 523c 634b 213d ba9e 6cbd
0.118674904 -0.13579404 -0.10538563 0.003534913 0.11551894 -0.022878848 0.03469731 -0.012460085
-0.014948115 0.0892137 0.06121208 -0.07206707 -0.074859306 -0.097197294 -0.060890533 -0.002815947
0.07367279 -0.1506123 0.088719144 -0.100755066 -0.020789523 -0.036844265 0.040686067 -0.10456912
-0.116867006 -0.02812823 0.06303677 -0.060137823 0.03874141 -0.033033818 -0.11656509 0.014267489
-0.053709514 0.042942505 0.05148195 0.08178158 0.07829657 -0.09670623 -0.119919956 0.013967231
0.006213337 -0.12697907 0.10216643 -0.04381276 -0.10417262 0.08574483 0.10948041 0.019206002
-0.07033577 -0.01564222 -0.092144206 0.046061046 0.048291776 -0.023403361 -0.09909874 0.09279397
-0.10225923 -0.096556924 0.045416947 -0.092820376 0.023806825 0.102747366 -0.01580201 -0.058618557
0.079424925 -0.002043866 0.032362692 -0.032299973 -0.13560592 0.16518623 -0.061693303 -0.25740975
-0.10253513 -0.071450554 -0.17104575 -0.051789794 0.019896006 -0.09622493 -0.004115145 -0.20818275
0.061547484 -0.09174508 0.004587576 -0.10651658 -0.01732517 0.09702018 -0.1669261 0.12468683
-0.0033027113 -0.028483402 -0.07319859 -0.13014647 0.011042144 -0.25499976 -0.0019772649 -0.012294838
0.118324734 0.21324827 0.099182695 -0.07640536 -0.021133404 0.05640179 -0.12052697 -0.0975293
0.0756561 -0.03672858 -0.042917706 -0.038555443 -0.024480063 -0.10655792 -0.11736185 -0.09278487
-0.10927725 0.037564635 -0.05796805 0.23226948 -0.26910388 -0.004627703 -0.058599208 -0.09825228
0.07277853 0.14227812 -0.1383359 0.10872932 -0.013148472 -0.1130461 0.04803237 0.10383353
0.07418554 0.02598175 -0.120413855 -0.035659716 -0.10649071 -0.056968316 0.049166095 -0.07811342
-0.10768935 -0.023912447 -0.11069041 -0.006931527 -0.090961054 -0.056741867 -0.008162457 0.004817002
-0.081983596 0.08736653 -0.08021812 -0.11669738 -0.08566347 -0.16780052 0.047747575 0.057733905
-0.05678769 -0.06886321 -0.057142258 -0.0118689835 -0.011882179 -0.032135822 -0.077714585 -0.13169506
-0.09598592 -0.12713973 -0.23321143 -0.09698226 -0.020259544 0.0029703337 0.08944462 -0.12477938
-0.061337464 0.056566942 -0.039205506 -0.07760464 0.016787063 -0.0527687 0.06969769 -0.07709882
0.099464715 -0.09334651 -0.039407883 -0.038866963 0.06673351 -0.12121913 0.05885133 -0.059324156
-0.010653371 0.038015258 -0.02353569 0.036272608 -0.047138527 -0.11332794 -0.038007867 0.032878526
0.06661385 -0.078799106 0.0026595225 -0.06693903 -0.039916683 -0.13188715 0.04158122 -0.1214366
0.04112579 -0.110205695 0.052934386 0.03800506 -0.09212604 -0.039923023 0.04194313 -0.13517185
-0.05232657 0.053861715 -0.092359975 0.08092834 -0.0115025975 0.040435545 0.08183158 -0.124821365
0.088140614 -0.13271704 0.059372976 -0.0054935515 0.16352424 -0.044530034 -0.053154454 -0.012519054
0.071782306 -0.092946395 -0.14902037 -0.042623304 -0.0029265757 0.02510687 0.04001735 -0.0035592515
-0.0027839106 -0.11973672 0.0035263565 -0.0033749805 0.04677752 -0.019711724 -0.057945784 0.07886563
-0.009466014 -0.13421436 0.03162195 0.107824035 0.15504065 0.08723961 -0.11470657 0.093935266
0.24170329 -0.057622924 -0.055118505 -0.022731535 -0.018896922 0.012858371 0.039378535 -0.05776856

hidden3.bias f4 [128]
00000000: 05bf 9cbd a62d 3e3d 12cd b13b 0b8d 85bc
00000010: b2ab c1bd 5f43 01be f4f5 dbbd 4cf3 42bd
00000020: c26a eabd 1200 f8bd b920 7dbd d3f6 00bd
00000030: 4745 c13c 422f a7bd c2f0 f7bd 108c f03c
00000040: 7fa3 0fbe aaf7 e03c a842 b73d 783f f6bd
00000050: 7116 a7bb 05a7 10be b94d 293e 81c1 c7bc
00000060: 5779 0d3c 1e48 4fbd c212 e8bd e96d 063e
00000070: 6340 eabd c1cc 1f3e a4b6 583d b108 ffbd
00000080: 70da 023e 378c 69bc bfd7 ee3d ef3f fabd
00000090: 7355 663d 6578 4b3d d351 893c 4169 9fbd
000000a0: de02 f0bc ea27 e6bc f174 343d 6db7 153d
000000b0: 9dd8 d8bd 9320 94bd b4e1 dabd b565 02bd
000000c0: 360f 713d 81ad 213e 5fd5 28be 4cd8 e13b
000000d0: add0 ecbd 1d36 dd3c 4b3f 16be 146b 9d3c
000000e0: ea1d 9e3b 2fbd bb3c 0b6d 743d 1d8b 15bd
000000f0: c495 633c aaf5 69bb 9083 0d3e 3d8a 393b
00000100: 2fc7 29bd 5e1b 80bd 9654 903d cf33 8cbd
00000110: 9372 5a3d 951f 1abe 87d7 a83c c2e6 0abe
00000120: e5dc 18bd 7484 06be 7926 933d d488 c03c
00000130: 2405 c4bd 99ac 59bd fb19 1ebc bf71 46bd
00000140: 5c3d 403d 9251 d6bd cb93 fe3d 4690 c3bd
00000150: 05b9 d3bd 1c19 23bd 5c4c c6bd ab10 853c
00000160: 5938 123e 793b a1bd c3fe 66bd afa3 703d
00000170: 372f 3d3d f874 8c3d 137f 263d ded0 863c
00000180: 7333 1b3e 433c b9bd b3c2 b93d 549a 03be
00000190: c6aa 6dbc cea3 fcbd 74e0 7ebd b36b 823d
000001a0: ee9e ff3d 957a 40bd 0138 a8bd 7b28 69bd
000001b0: 2a35 f93d 7d44 923d 2ca1 b4bd ca7e 85bd
000001c0: 9ef5 e73c 996e eabd 036d 67bd 0502 49bd
000001d0: fd67 ca3d 01e5 073e 7a1d 323d 1206 0cbd
000001e0: 0937 a13b 2909 08bd 0591 de3d 2c7c 003e
000001f0: 0396 e0bd 7572 39be 87ce 89bd 5525 1bbe
-0.076536216 0.046430252 0.0054260576 -0.016302606 -0.094565764 -0.12623356 -0.10740271 -0.047595307
-0.11446144 -0.121093884 -0.061798785 -0.03148539 0.023592604 -0.081633106 -0.12106468 0.029363662
-0.14027213 0.027461845 0.089482605 -0.120238245 -0.005099111 -0.14126213 0.16533555 -0.024384262
0.008634887 -0.050605886 -0.11331703 0.13127865 -0.11438062 0.15605451 0.052908555 -0.1245283
0.1277864 -0.014254621 0.11662244 -0.122192256 0.056233834 0.049675364 0.01676265 -0.077837475
-0.029298242 -0.028095204 0.044056837 0.03655188 -0.10588191 -0.072327755 -0.10687581 -0.031835277
0.058852397 0.15788843 -0.16487645 0.0068922397 -0.11563239 0.027003342 -0.14672582 0.019216098
0.0048253434 0.022917358 0.059674304 -0.036509622 0.013890687 -0.0035699406 0.13819718 0.0028311156
-0.041449722 -0.0625522 0.070473835 -0.06845819 0.053331923 -0.1505111 0.020610584 -0.1356459
-0.037320036 -0.13136464 0.071850725 0.023502745 -0.09571293 -0.053143118 -0.009649749 -0.04844832
0.046933517 -0.10464777 0.12430533 -0.09549002 -0.10338024 -0.039818868 -0.09682533 0.0162433
0.14279307 -0.07872672 -0.056395303 0.05874985 0.046187606 0.068582475 0.04064853 0.016457018
0.15156345 -0.09044697 0.09070339 -0.1285184 -0.014506048 -0.12335931 -0.062225774 0.06368198
0.12481485 -0.046991903 -0.08213807 -0.05692337 0.12168343 0.07141969 -0.088198036 -0.06518324
0.028315362 -0.11446876 -0.056500446 -0.04907419 0.098831154 0.13270952 0.043485142 -0.034185477
0.004919891 -0.03321186 0.10867504 0.12547368 -0.109661125 -0.18110068 -0.06728845 -0.1515096

output.weight f4 [1, 128]
00000000: 283b 093d cb12 c3bd 6764 643c ead4 6f3c
00000010: 6328 8cbb 0108 8d3d 24b2 853c 1dfc 8b3d
00000020: 8269 183d cf95 b13d fa61 85b8 e598 bcbc
00000030: 5258 b2bc 68f1 75bc 931c 99bd 26a8 2b3e
00000040: 05ca 893c 3440 bb3c df8f 8cbe 2a0a 823d
00000050: 4834 19b9 c602 243d c1bf 94be d747 b2bc
00000060: 4710 c63b 946c 093b 122f 12be c24d c43d
00000070: a354 a53d 8164 833d e240 22bd 0d37 29be
00000080: ca69 223d d821 98bd 5a5d 5f3d 9795 1fbd
00000090: 828e 1e3d 82db 853d 133a 533b 7a14 753e
000000a0: 927e 20bc 5822 0a3c 38dd 873b 9e33 86bd
000000b0: 12d9 eb3b 7b5d 57bd 6902 54bd b657 85ba
000000c0: e5e5 5c3d 80f5 be3d 419c c83d e46b b33c
000000d0: 7fd8 4d3d d067 77bc 5415 453b 4852 cb3c
000000e0: 7adf 07bc 4127 34bc a0cf 1c3d 5ea4 103c
000000f0: 6bab 1cbc a300 7f3b 760a d83d 71e1 28bd
00000100: 7f8e 303b ae96 32bd 8b70 173c 83e8 b93d
00000110: 29e1 4c3d 2272 7fbb 86e3 81bc 2ec5 383c
00000120: 5d36 d5bb bf1d 7cbd d25d 923d 85b1 713d
00000130: d259 a03c e45f 56bd bce9 93bc 066d 1fbd
00000140: b8d3 4c3b 1ac9 8cbd 0637 a93d 4522 9dbd
00000150: 6b0a 923c 224b 0abc 8009 91bc 712d 973d
00000160: d3b7 1d3d a81c f23d 284a 853c 25cb 643d
00000170: 686c 93bd a56f 83bb 3be1 0e3c 9355 00be
00000180: 0374 423d d153 69bc 2b9a cc3c 515d d73d
00000190: 7c05 ffbc 603f 0dbb 5acf 103d 07ff e0bd
000001a0: d61b c93c 2842 55bd 9cdb 793d 870b 4dbd
000001b0: e8c1 673d ba55 973d 270e 6a3c dd06 86bd
000001c0: 4164 10ba 7bbf dcbc 9904 d0bb cc0c 7dbc
000001d0: e567 3a3c 694e 623d 2df0 66bc ce4c 45be
000001e0: d720 043c e022 8bbd 069c ba3d a6db ab3d
000001f0: 6997 e5bc 4580 293e 004f 2ebe 10f5 e23c
0.03350368 -0.09525069 0.013939953 0.014638165 -0.0042772754 0.06886292 0.016320296 0.06835196
0.037209995 0.08671152 -6.360184e-05 -0.023022125 -0.02177063 -0.015011169 -0.07476153 0.16763362
0.016819963 0.022857763 -0.27453515 0.06349595 -0.00014610693 0.040041707 -0.29052547 -0.021762772
0.006044421 0.0020969259 -0.14275768 0.095851436 0.08072784 0.06415654 -0.03961266 -0.16524906
0.03965167 -0.0742833 0.054532386 -0.03896102 0.038710125 0.065360084 0.003223066 0.23933592
-0.009795802 0.00843104 0.0041462444 -0.06552814 0.0071975077 -0.052579384 -0.05176011 -0.0010173235
0.053930182 0.09324169 0.09795428 0.021902032 0.050255295 -0.015100434 0.0030072527 0.024819508
-0.008293027 -0.010995687 0.038283944 0.008828251 -0.009562354 0.0038910292 0.1054887 -0.041230623
0.0026940403 -0.04360073 0.009243141 0.09077551 0.050019417 -0.003897794 -0.015855562 0.01127748
-0.0065067247 -0.061551806 0.07146801 0.059007186 0.01957408 -0.052337542 -0.01805579 -0.038922332
0.0031254124 -0.068742946 0.08262448 -0.07672552 0.017827233 -0.008440765 -0.017704725 0.07381714
0.038505387 0.11821872 0.016270712 0.055857796 -0.07198411 -0.004011112 0.008720691 -0.12532644
0.04747392 -0.014241175 0.024975857 0.105158456 -0.031130545 -0.0021552667 0.035353996 -0.109861426
0.024549406 -0.052065045 0.06100045 -0.05005982 0.056581408 0.07389398 0.014285601 -0.06544278
-0.0005508103 -0.026946774 -0.0063482043 -0.015444946 0.011377309 0.05525056 -0.014095348 -0.1926758
0.00806447 -0.06793761 0.0911179 0.08391504 -0.0280263 0.16552837 -0.17022324 0.027704746
