models/MagneticPendulum/p-1_measure_x1*cos(0.0833333333333333*pi) + x2*sin(0.0833333333333333*pi)_N6_sep/al_model_state_dict.pth (torch, 46480 bytes, 7 tensors)

hidden1.weight f4 [32, 6]
00000000: 161b 833d 3542 e6be 38cc babe 87f2 20be
00000010: f41c ecbe fd98 f53e 4cd1 37bf 8b80 3c3e
00000020: 1aef 733e 1d44 c1bc 8778 ae3e fbce e43d
00000030: 0058 273f b054 afbe 9d05 27bd 5ff7 87be
00000040: b2c4 46bc 495c 5bbe 0f63 913e 9e40 ee3d
00000050: 08a9 92bd 6171 84be f5bf c6bb e73c 4cbe
00000060: 12ac 35be b647 233d a456 943b 2435 133e
00000070: e239 d2be 310c 133f 9098 17be b876 973e
00000080: 0b5f f0bc ecc4 babe a514 e4be 325d 49bd
00000090: af16 293e 5b8f 25bd 0f6f c63e 5342 cebd
000000a0: 7506 0b3f c456 b2be b5e9 863e 4e98 b33c
000000b0: 303c 32be e8e0 493e 170b 35be b95f 0a3e
000000c0: ddd7 98bd 586c 493d 0246 06bf 26b2 80be
000000d0: 609e 4c3e 7df7 e83d 1a8f 463e 29dd 073f
000000e0: 8886 a73d c9ea e5bd b842 253e 6c19 093f
000000f0: 868c f3be e011 4a3e ef10 a13e 0933 d43b
00000100: ab3d 513e 7b23 bebe 093c 01bf 7694 c93c
00000110: f0d0 9dbe b13b b4be 8b65 af3e 9090 4cbe
00000120: 804b 5f3e 5850 1bbc 1c05 5c3e 139e a53e
00000130: be83 5e3e b9c2 a43e d078 48bf 92d3 463e
00000140: 4d5a a2be af45 82be 194d e1bd 23d3 9e3d
00000150: aa09 853e 1add b3be cf01 31bf 17ef 7f3e
00000160: fc2b 1abc 7d76 2dbe 657e a33e 68f2 9abe
00000170: e866 03bd 8f3c f43d 5e30 74be 071e 0fbf
00000180: 1cb2 f1bd 461f 123e b800 3cbe fb2b 503c
00000190: af9c 1b3f 3765 9ebd 1cba 103f 1ce8 853e
000001a0: cec8 4dbe 015a acbd 4b3c 133f 0ce7 df3c
000001b0: 801c a43d 2ea3 ae3e ca1a 353e 6832 c63e
000001c0: a876 073f 2006 76be da7d 1b3e 9193 523e
000001d0: 213d ce3e 7806 ec3e 932b 99be ac59 1fbf
000001e0: a9db 9bbc d584 7dbe 4771 203f 2076 d6be
000001f0: 2111 0b3f d1f8 763e 81d6 17bf 1ddc b73d
00000200: 08a1 383e d929 373e 8748 9fbd 0138 94be
00000210: cd21 8f3d 0c3e 2b3e fdfa 5f3e 0314 6b3e
00000220: de78 eb3e e10c 963e 033c 1cbe 4777 2fbe
00000230: 0a57 8ebe 0223 9e3d 6b9d 9fbe ad3f 353e
00000240: c58c 65bd ca49 febd 44eb 673e 196b 9e3e
00000250: 31d2 b73e 6ff5 d03e a4e0 1cbd 42f6 b63e
00000260: 00c2 8abe 1f07 d13e 1d99 17bf e402 b1be
00000270: 416b ec3d d090 e4be 7734 e43e e7b9 e0be
00000280: 466b c1be acd1 fe3d 842d d43e b806 c13d
00000290: 2e83 a0be 003b d13d 68e0 b2be f0e7 9dbd
000002a0: d645 ecbe 07ff 83be 94f3 93be 768f b13e
000002b0: bfef 463e 4458 183e 05e7 093f ba8a d43e
000002c0: 9849 533d 90b0 e53c 4b72 f9be 6563 1f3f
000002d0: fd24 163e 6b45 573e 06c8 90be c37d 88bd
000002e0: 017a d4be 3e33 e03e db45 18bf 115b d0be
000002f0: 2fb9 3cbe d6eb 96be 0658 d23e 2341 243e
0.064016506 -0.44972387 -0.36483932 -0.15717517 -0.4611584 0.47968283 -0.71803737 0.1840841
0.23821679 -0.02359205 0.3407633 0.11172291 0.6536865 -0.342443 -0.040776838 -0.26555917
-0.012131857 -0.21421923 0.28395888 0.116334185 -0.071611464 -0.2586775 -0.0060653635 -0.19945107
-0.17741421 0.03986331 0.00452693 0.1437574 -0.41059786 0.5744048 -0.14804292 0.29582763
-0.029342195 -0.36478364 -0.44547 -0.049161144 0.1651256 -0.040419918 0.38756606 -0.10071244
0.5430673 -0.34831822 0.2635018 0.02192321 -0.17405772 0.19714701 -0.17680012 0.13513078
-0.07463048 0.04917559 -0.52450573 -0.25135916 0.1998229 0.1137533 0.19390526 0.5307184
0.08179957 -0.11226422 0.16138732 0.53554416 -0.47568148 0.19733381 0.31458232 0.0064758104
0.2043368 -0.37136444 -0.5048223 0.024606925 -0.3082347 -0.3520179 0.3425716 -0.19977021
0.21806145 -0.009479605 0.21486324 0.32347164 0.21729943 0.32179812 -0.78309345 0.19416645
-0.3170952 -0.2544379 -0.11001033 0.07755115 0.25983936 -0.35129625 -0.69143385 0.2499355
-0.009409901 -0.16939731 0.3193237 -0.30263066 -0.03208056 0.11925613 -0.23846576 -0.55905193
-0.1180155 0.14269742 -0.18359649 0.012705798 0.60785955 -0.07734149 0.5653398 0.26153648
-0.20096132 -0.084156044 0.57513875 0.027331851 0.080132484 0.3410887 0.17686 0.38710332
0.5291543 -0.24025774 0.15184727 0.20564105 0.40281013 0.46098685 -0.29916057 -0.62246203
-0.01902564 -0.24757703 0.6267285 -0.41886997 0.5432301 0.24118353 -0.5931168 0.0897753
0.18030179 0.17887057 -0.07777505 -0.28948978 0.06988869 0.16722888 0.21873088 0.22956853
0.45990652 0.293067 -0.15257268 -0.17135344 -0.2780078 0.07721521 -0.31174788 0.17700072
-0.05604245 -0.12416418 0.2264834 0.30941084 0.3590255 0.4081225 -0.03830017 0.35734755
-0.27101135 0.40825745 -0.5921801 -0.34572518 0.115438946 -0.44641733 0.44571277 -0.43891832
-0.37777156 0.124423355 0.41440976 0.094251096 -0.31350082 0.102163315 -0.34936833 -0.07710254
-0.4614703 -0.25780508 -0.28896773 0.34679765 0.19427393 0.1487742 0.5386813 0.4151209
0.051583856 0.028038293 -0.4872001 0.6226104 0.14662547 0.21022575 -0.28277606 -0.06664612
-0.41499332 0.43789095 -0.5948159 -0.40694478 -0.18430017 -0.29476804 0.41082782 0.16040473

hidden1.bias f4 [32]
00000000: 6b30 6ebe 85e5 423d a321 1a3e a488 b0be
00000010: f647 ba3d cbcd 223e 92b4 a63e ba81 a8be
00000020: deea c13c 5d35 c4be d042 cf3d e58f d2be
00000030: 4bce e83d 97fd 933b 0dbe 23be 0cb3 89bd
00000040: a113 6e3d 7766 503e a72b c1bd d9c3 123d
00000050: 97a4 55be 9f99 0f3e f44c 4c3e 89cc 633e
00000060: a8d7 503e 4c1b b3be 44cd 66be cc59 d13d
00000070: 60b3 c8be 5784 ad3e b111 ccbe 821a 5cbe
-0.23260657 0.047582168 0.15051894 -0.3447925 0.09095757 0.15898816 0.3255964 -0.32911474
0.023671564 -0.38321963 0.10120165 -0.41125408 0.11367472 0.0045163142 -0.15990467 -0.067236036
0.05812419 0.20351587 -0.09432154 0.035831306 -0.20863567 0.14023446 0.1995123 0.22245993
0.20394766 -0.34981763 -0.2253924 0.102222055 -0.39199352 0.3389003 -0.39857247 -0.21494487

hidden2.weight f4 [64, 32]
00000000: e1a0 bb3e 5dbb edbe a63a 9ebc f343 f93d
00000010: eb21 2b3e fe5f 543e 935c 00be b9be 18be
00000020: e16d c23e a30c c03c 2ee4 eebc 93f5 6bbe
00000030: b4a0 0bbe 5658 d43d 98e5 563e 7d05 cdbd
00000040: b817 5dbe 72b1 6ebe 649d a6bd 4475 8d3e
00000050: 6c31 5bbd 1c90 b33c f304 43be 3996 9dbd
00000060: 7595 6cbe a633 083f a95f e03e 3156 4fbd
00000070: 789f 4abd f049 0a3e 512c 263e 124e 7ebe
00000080: 4616 9d3e 310a 0b3c 253e a2bd c1bd c63b
00000090: fe5f 373d d458 2b3e e181 40be 2f57 493e
000000a0: e632 d63d 407f 37bb 60dc e73d 9d66 09bf
000000b0: 4782 903c bda5 07be b5be d93d 8dc3 9fbc
000000c0: a218 923d c341 de3d 812c d5bd b36f a9bc
000000d0: 535e e8be d6d3 93bd d07c 20be 483b b1bd
000000e0: 66ce 5cbe e597 ca3e e572 743e 3a3d 963d
000000f0: 2e02 8ebe 9e11 9ebd 7f55 bebd 70a4 9c3d
00000100: ed70 db3e 262d 42be 275d d23c 66e0 debd
00000110: cb53 283c f689 193e adfa 1e3d 19be cdbd
00000120: a63c 68bc bef4 adbe 8f90 e4bc 0c9a 86bd
00000130: aeae 223d 8048 c1be 9e39 37be 8b06 debd
00000140: aab8 9fbd f1a2 dabe 41eb 89be b34f a93e
00000150: 4c54 0a3b c498 e93d 1b59 7f3c 8130 86be
00000160: eb7f b5be b7c0 833e d0a2 a03e 5ec2 5bbe
00000170: fbab 6fbe 9977 2f3e 5430 8abe 65ec 97be
00000180: dc53 0fbd c04b 5bbc dc81 09bd 4b76 85bd
00000190: 6e16 973d 729f 76bd e462 cbbd b443 243d
000001a0: 84d7 02be 6087 1abd b601 b93d f44d 873d
000001b0: d11b 1a3e 6aed f6bd 0075 c93a 70d2 55bd
000001c0: 8a7e cabd 87aa cbbd d46b 363d 4083 973c
000001d0: 55cd b8bd b82f ffbd c8fa 15be 2169 313e
000001e0: d8d4 f6bc a46e 27bd cd20 85bd 5114 b5bd
000001f0: 5c8b 25be bf89 d4bd d249 dd3d 44b3 1e3d
00000200: 0143 aabd 54ac f5bd 8c9f c0ba 9f7c 023e
00000210: eb5f 163e 3095 5e3d 2a37 9fbc a0b6 68bc
00000220: d2ba 0dbe e85f 2ebe bfb4 6b3d bd9a ffbc
00000230: 6eb2 c73c 244f 74bd a8ec 90be 2f8d 53be
00000240: a1ca 32bd 83d2 33be f5ff 99be 971d 713d
00000250: 0455 563d 861c e2bd e09d 483c 9679 57bd
00000260: ac96 59be 0068 943e 9d05 f439 47a6 01bd
00000270: e175 c03d ec72 13be 853a c53d 572e c83d
00000280: a443 cabe a5ad 41bd 1282 c83d 17c6 633c
00000290: 259e 21be b24f 2bbd 6b0f 0f3e 9b56 da3d
000002a0: bb97 09bc 3cc0 84bd 42d2 023e 2840 ac3e
000002b0: bd8f 353e e157 afbd 1a1a a83d 5408 58bb
000002c0: 6637 46bb e27e 473e 1b5b 223e b733 41be
000002d0: bb35 0b3f 2918 93be e267 febc 0634 70be
000002e0: 072f 2c3e e59b ffbd 6fc7 063e 3cd3 14bd
000002f0: 11a8 9c3e 105e 5fbe 2719 08be 8ae2 873e
00000300: cb42 84bd 7124 b83e 5cb0 09bf b56f a0bd
00000310: 4054 0bbc bc25 4f3e a6e0 15be 1a2f 0b3e
00000320: f5e1 93bd da29 5fbd 1537 e6bd 6ff5 8abe
00000330: 14f6 df3d 33d1 dfbd ed18 f0bd c1a6 7ebe
00000340: 746a 063d a40f a33c e739 38be e8a3 4cbf
00000350: b304 92bd faa0 dabd 7a21 573e 5e0c cfbb
00000360: 28c3 9ebd af0b a63e 335d 0bbd 0a43 67bd
00000370: 3c45 3e3d 359b 323e 4494 2ebf c286 01be
00000380: 0686 183e 2eb2 07bf a11e 333d 6a6f b43d
00000390: 5254 213e 763e c73d f977 153e 4e20 ef3d
000003a0: 1db7 57be d5d6 bfbe 3685 6b3e 2d5a c6bd
000003b0: 8995 b53d 71a8 13bf b631 fabd 2f35 203e
000003c0: f489 79bd 5c48 58be 48b2 32be 1a74 283e
000003d0: a875 7bbd e551 babc 6215 9bbc 258e 57be
000003e0: fae5 a5bd 1d9c 0a3f 61de 9f3e 7baa 623e
000003f0: ac4f 10be 5453 133e 8535 f6bd 1933 c4bd
0.36646178 -0.4643201 -0.019315075 0.121711634 0.16712157 0.20739743 -0.12535314 -0.14916505
0.37974456 0.023443526 -0.029161539 -0.23042898 -0.13635522 0.10368411 0.2098602 -0.100108124
-0.21591079 -0.23309878 -0.08135489 0.2762853 -0.05351393 0.021919303 -0.19044857 -0.07694668
-0.23103888 0.5320381 0.43822983 -0.050619308 -0.049468488 0.13504767 0.16227843 -0.24834469
0.30681056 0.008486317 -0.079220094 0.006065101 0.04476928 0.16733104 -0.18799545 0.19662164
0.10458927 -0.002799943 0.1132133 -0.536722 0.017640246 -0.13246818 0.106320776 -0.019502426
0.071336046 0.10852387 -0.10408879 -0.020683145 -0.45384464 -0.07218139 -0.15672612 -0.08653885
-0.2156311 0.3956901 0.23871954 0.07335897 -0.27736038 -0.07718204 -0.09293651 0.076485515
0.42859593 -0.18962535 0.025679184 -0.10882644 0.010273884 0.14994034 0.03881328 -0.10046024
-0.014174616 -0.33975786 -0.027900962 -0.06572351 0.03971737 -0.37750626 -0.17893073 -0.10841092
-0.07798894 -0.4270244 -0.26937297 0.33068618 0.0021107374 0.11406091 0.015585209 -0.2620888
-0.35449156 0.25732967 0.31374216 -0.21460864 -0.23405449 0.17135467 -0.26989996 -0.29672542
-0.034992084 -0.013384759 -0.03357111 -0.06516703 0.07377325 -0.060210653 -0.09930971 0.04010363
-0.12777525 -0.03772676 0.090335295 0.06606665 0.15049674 -0.12057002 0.0015369952 -0.052202642
-0.09887417 -0.09944635 0.044536427 0.018495202 -0.09023539 -0.124602735 -0.14646447 0.1732526
-0.030130789 -0.040877 -0.06500397 -0.08841766 -0.16166443 -0.103778355 0.10805096 0.03874518
-0.08313561 -0.119957596 -0.0014695986 0.12742852 0.14685027 0.054341495 -0.019435484 -0.014203697
-0.13840798 -0.17028773 0.05754542 -0.031201715 0.024377074 -0.059645787 -0.28305554 -0.20659326
-0.043650273 -0.17560773 -0.30078092 0.05886611 0.05232717 -0.11040597 0.012244672 -0.052606188
-0.21248883 0.28985596 0.0004654349 -0.031652715 0.093974836 -0.14399308 0.09630302 0.097744636
-0.3950473 -0.04728474 0.09790434 0.013902209 -0.15782984 -0.04182405 0.13970725 0.1066105
-0.008397992 -0.06481978 0.1277552 0.33642697 0.17730613 -0.085616834 0.082081035 -0.0032963948
-0.0030245422 0.19481996 0.15855066 -0.18867384 0.5437886 -0.2872937 -0.031055395 -0.23457345
0.16814815 -0.124809064 0.13162015 -0.03633426 0.30596974 -0.21813226 -0.13290845 0.26540023
-0.06458052 0.35965303 -0.5378473 -0.078338064 -0.0085039735 0.20229238 -0.14636478 0.13592187
-0.07220832 -0.054483272 -0.11240975 -0.27140376 0.109356076 -0.109285735 -0.11723504 -0.24868299
0.032816365 0.019904919 -0.17990838 -0.799376 -0.071298026 -0.10675235 0.21008864 -0.006318613
-0.07752067 0.3243079 -0.03402443 -0.056460418 0.046452746 0.1744202 -0.68194985 -0.12649062
0.14894876 -0.53006256 0.043730382 0.08810313 0.15754822 0.0972871 0.14596547 0.116760835
-0.21065946 -0.3746859 0.23000035 -0.096851684 0.08866412 -0.57678896 -0.12216513 0.15645288
-0.060922578 -0.21121353 -0.17450821 0.16450539 -0.061391503 -0.022744128 -0.018931095 -0.21050318
-0.08100505 0.5414446 0.3122435 0.22135346 -0.14092892 0.14387256 -0.12021927 -0.095800586

hidden2.bias f4 [64]
00000000: 5ec1 2e3c e937 5b3d d8c7 a43a fe25 96bd
00000010: 0f31 08be e7b2 e73d 159f a2bd 1498 45be
00000020: d9a4 22bc d65e 903d 9a7f 86bd 0f71 d1bc
00000030: 97a5 82be 3790 01bd 5f41 fbbd 63fb 663d
00000040: 5e3c f13d b8d9 14be 2562 37be 0c55 b8bc
00000050: 31cb b5bd 8fb3 17bd 6457 b4bd 9abe 06be
00000060: 648a a2bd e484 c9bd 21b1 7f3d f65e 21be
00000070: 44a7 d63d 74d8 28be 66c5 473d 744d 3fbe
00000080: e3b5 42bd dbf6 4f3c cb51 f73d 8e78 01be
00000090: 1ba6 c3bd 7ac6 45be b413 09be bcb2 263e
000000a0: ba77 4fbe b6f4 dfbd 2bcb 813d 4e14 abbd
000000b0: d121 0fbe 085f 2d3d cfb0 96bd 041c a53c
000000c0: 47df 05be d374 c7bd ed45 86bd 0e55 7e3d
000000d0: 7529 ddbd dfbd d4bd d463 9cbd 9e98 0abe
000000e0: 76fe e03d c1a1 733d 85d8 2abe 51f0 24be
000000f0: 86a9 b9bd 91e1 dabc c065 01be b67c 243e
0.0106662195 0.053520117 0.0012571765 -0.07331465 -0.13299964 0.1131342 -0.07940499 -0.19296294
-0.009926998 0.070493385 -0.06567307 -0.025566606 -0.2551696 -0.031631675 -0.12268328 0.056392085
0.11779092 -0.14536178 -0.17908533 -0.022501491 -0.08876646 -0.037036475 -0.08805731 -0.13158646
-0.07936552 -0.098398 0.062424783 -0.15758881 0.10481122 -0.1648882 0.04877224 -0.1868189
-0.047536742 0.012693132 0.12076148 -0.12643644 -0.095531665 -0.19313994 -0.13386422 0.16279119
-0.20260516 -0.10935347 0.06337579 -0.08353482 -0.13977744 0.042326957 -0.07357942 0.02015496
-0.13073455 -0.09739079 -0.06556306 0.062092833 -0.10798923 -0.103877775 -0.07636228 -0.13534781
0.109860346 0.059480432 -0.16684158 -0.16107298 -0.09065537 -0.026718887 -0.12636471 0.16063198

hidden3.weight f4 [128, 64]
00000000: 2ed5 52bd 1f6f 11be 458f 61bd 5011 9abc
00000010: 2fe9 c7bd c7ec e8bc 7136 b8bd 04ad 563d
00000020: 0ac9 ad3d d74c 73bd a088 b33b fa65 843d
00000030: 84f8 363d 5392 46bd e826 a13c adbd 38be
00000040: 1f7a 20bd 5494 de3d de6d a83d c04a 8ebd
00000050: f3e0 1dbd 08a8 67bd 890d bcbd 1d47 13bd
00000060: c21e 95bd 31d2 2dbd c5fa 24bd 9ca9 febc
00000070: 121e f3bd 716e debd 97ba 56bd a0a1 4b3d
00000080: e4a0 8d3d fa92 4ebe b026 6dbe 1ad6 3fbd
00000090: 3295 ec3d 40cc 033c c41e 0e3d c508 26bd
000000a0: d4a8 adbd acb5 b63d 0393 c33c 9b57 edbd
000000b0: 9363 8bbd 68e9 e3bd 88f9 c0bd 3078 453b
000000c0: dd0a 653d a793 17be 2ae7 ac3d b79e a7bd
000000d0: fe5b ed3b 406c bfbb 9a00 513c f739 c2bd
000000e0: 8ef2 e4bc db1f 68bd 6c19 813d 42cb adbd
000000f0: 8742 d53b 784e 07bd 0b7a 40be 50bd 0b3c
00000100: 2332 5cbd 61ab 3f3d 8940 623d 1a7d a73d
00000110: 5c62 533d ea0d c6bd 9898 f5bd ee01 54bc
00000120: 08ad 143d d6ea c4bd a23c d13d 60d8 58bc
00000130: 4407 96bd 4f60 703d 4437 e03d f4fc efbb
00000140: 3f29 89bd 5045 5e3c 1ab6 bcbd 78c8 9d3d
00000150: 859b 523d 68b8 bfbc ac1a 01be aa48 873d
00000160: 4a6d d1bd 6c6e 86bd ee35 423d d474 7ebd
00000170: 8806 c33c 366d d23d 43c2 2ebd 50a1 e7bc
00000180: 484d ed3d 11a7 bdbb e21c 873c 903e 28bd
00000190: 58db dcbd 404e a03c aa55 97bd 23e3 bbbd
000001a0: 85cd 00be 6e51 db3d ded2 abbd d6f5 153c
000001b0: 70b3 d23c 78d0 b03d 140a 303d be83 eabd
000001c0: 88f5 623d 5a09 82bd 6053 963b 4a0f 94bd
000001d0: 982c dbbd c838 193d 60d1 aabd b67d fa3d
000001e0: a857 4e3d f5fb 8fbd 24e9 95bd cbb9 11be
000001f0: 479c b8bd b603 a7bd 8039 5c3c 0e05 543b
00000200: 7001 de3d 40a5 893c 6002 d0bc 6845 64bd
00000210: c1dd 43bd 289d 0e3d d8d6 f6bd 8263 eabd
00000220: 5402 4a3d fcf2 1dbd f088 17bd 48f6 a4bd
00000230: f447 eabd dcb6 bfbd 78cf 9bbd cacb 14be
00000240: efc7 b7bd 9c62 cd3d 6325 cdbd 7095 c23d
00000250: a885 d7bd 307a 6d3c 90ad 29bc 0452 c1bd
00000260: 803b 473b c7a2 953d 8053 67bd e921 ab3d
00000270: b06c 57bc 08e5 21bd 66d9 f93c ea1f c83d
00000280: 8cee 9c3d e863 2f3d becf e4bd 520d 68bd
00000290: c0cd 5e3c 9c57 69bd 0c41 6f3d f86f e1bc
000002a0: 3c8c dcbd e071 62bd d119 e5bd 6415 443d
000002b0: ca49 babd 0810 01bd 3d2b 96bc a8a9 c03c
000002c0: 4ee4 c4bd 62f7 623d 6649 a4bd ec2d c4bd
000002d0: f436 513d e036 96bd 4054 733d 28af 5c3d
000002e0: d082 78bd 2e2b 6cbd 000e 6abd 2076 42bc
000002f0: 00fa 9db9 c00b 47bb 804a a7bd f0d0 09be
00000300: d01e e0bd 4a43 293d 73c1 f1bc c4de 80bd
00000310: 75fb 913c 5e60 8cbd 1793 b33d 91f8 3cbe
00000320: ec12 64bd bc5e 0dbe e02e a8bc 9034 153d
00000330: 6acb 073e c979 e8ba 0098 523c 9908 f8bd
00000340: b47d 4e3d 2a1c 97bd 017b 0dbd a78f 843e
00000350: 7d52 cabd b502 9bbd 8c43 b73d deeb 89bd
00000360: 3063 7bbc ac33 3abd 3888 d8bc 8d4c 063e
00000370: d534 03be 142a 94bd 5b83 24bc 1c26 303d
00000380: 5902 823b a6f5 76bd 9063 24bd b49b 8abd
00000390: 92bb b9bd 1f3a 9bbd 9836 b5bd 3655 1bbe
000003a0: 5f5e d4bd fe65 65bc 98be 433d 7731 bc3d
000003b0: fb82 b93d dc49 723d 3289 253d 3596 8dbd
000003c0: e605 df3c 79f9 803d 3a27 bdbd 91cd 143e
000003d0: 359e a8bc 3852 ba3c 5e10 8b3d f032 efbd
000003e0: 0f25 863e 4b92 38be 99bf 543d d08e 28bb
000003f0: 8ab8 f63d f113 0bbb 2e8d 40bd 5abc 893c
-0.051472835 -0.14202546 -0.055068273 -0.018807083 -0.09761273 -0.028433217 -0.08994759 0.052411094
0.08485611 -0.059399452 0.0054789335 0.06464763 0.044670597 -0.04847939 0.019671872 -0.18041106
-0.039178964 0.10868135 0.082240805 -0.06947851 -0.038544606 -0.05655673 -0.09182269 -0.03595649
-0.07281257 -0.042436782 -0.040278215 -0.031086735 -0.1187097 -0.10860909 -0.05242404 0.049714684
0.06915453 -0.20173255 -0.2315929 -0.046835043 0.11551894 0.008044302 0.03469731 -0.040535707
-0.08479467 0.0892137 0.023873812 -0.11588975 -0.06806102 -0.11128503 -0.09422594 0.0030131452
0.055918563 -0.14802419 0.084425285 -0.08184569 0.0072436323 -0.005841762 0.012756491 -0.09483712
-0.02794769 -0.056671005 0.06303677 -0.08486034 0.006508175 -0.033033818 -0.18796556 0.008529022
-0.05375875 0.0467943 0.055237327 0.08178158 0.051607475 -0.09670623 -0.119919956 -0.012939913
0.036297828 -0.09615104 0.10216643 -0.013235182 -0.073256046 0.058685597 0.10948041 -0.0073238555
-0.0669732 0.01356633 -0.092144206 0.07704252 0.051417846 -0.023403361 -0.12607831 0.066056564
-0.10225923 -0.0656403 0.047414713 -0.062123135 0.023806825 0.102747366 -0.04266573 -0.028275162
0.11587006 -0.005787738 0.016493265 -0.04107529 -0.10784024 0.019568563 -0.07389386 -0.09174182
-0.125784 0.10708891 -0.08389829 0.00915285 0.025720328 0.08633512 0.04297836 -0.11450909
0.055409938 -0.0634944 0.004587576 -0.07229479 -0.10701865 0.037407666 -0.08340716 0.12231009
0.050376564 -0.07030479 -0.07319859 -0.1423103 -0.090141825 -0.08155005 0.013441443 0.0032351646
0.10840118 0.01680243 -0.025391757 -0.055730253 -0.047818903 0.034817845 -0.12052697 -0.11444761
0.049318627 -0.038561806 -0.03699583 -0.08054787 -0.11439505 -0.093610495 -0.07607931 -0.14530864
-0.08973681 0.10028574 -0.100168966 0.09501159 -0.1052354 0.014494464 -0.010356322 -0.09439471
0.0030400455 0.07306438 -0.056476116 0.08356077 -0.013148472 -0.03952506 0.030499171 0.09771712
0.07662687 0.042819887 -0.11172436 -0.05665333 0.013598859 -0.056968316 0.058411643 -0.027519211
-0.10768935 -0.05528438 -0.11186565 0.047871962 -0.090961054 -0.03150943 -0.018331164 0.023518398
-0.09613858 0.055411704 -0.08021812 -0.095790714 0.051077798 -0.07334685 0.05940652 0.05387798
-0.060671628 -0.057658367 -0.057142258 -0.0118689835 -0.00030131638 -0.0030371994 -0.081685066 -0.1345861
-0.10943377 0.041323937 -0.02951119 -0.06292489 0.0178201 -0.06854318 0.087682895 -0.18454196
-0.055682108 -0.1380567 -0.020530164 0.03642708 0.1326119 -0.001773649 0.012853622 -0.12111015
0.05041285 -0.07378419 -0.034541134 0.25890848 -0.09879015 -0.07568876 0.089484304 -0.06734441
-0.015343472 -0.045459434 -0.026432142 0.1311514 -0.12813123 -0.07234588 -0.010041083 0.043005094
0.003967565 -0.060292862 -0.040134013 -0.06767979 -0.09068979 -0.07579445 -0.088483036 -0.15169224
-0.10369562 -0.014001368 0.047789186 0.09189122 0.09058186 0.05915247 0.040414043 -0.06913415
0.027224492 0.06297583 -0.092359975 0.14531542 -0.020583251 0.022744283 0.06790231 -0.116796374
0.26200148 -0.18024556 0.051940534 -0.0025719889 0.12046917 -0.0021221603 -0.04700964 0.016813446

hidden3.bias f4 [128]
00000000: e7f6 aebd 8a73 91bd 6b9a e3bd 91e9 f3bd
00000010: 480f 33bc cd1a 6d3d 18f6 eabd 032d d73d
00000020: 154e 00be 0a72 5d3b 4597 81bd fa73 c7bd
00000030: 1155 8d3c 4927 e0bd 963c 31bd f051 45bd
00000040: 2819 a6bd c97a 14be 64ef cd3c aded afbc
00000050: 0d76 023d 06de 8bbd 7f9c 8abd 8d86 b2bd
00000060: 62e5 25bd ec46 b3bd ee35 60bd cd21 453d
00000070: 1063 85bd 6a7f b33d 32d6 87bc c9e8 07bd
00000080: 6e78 6b3c 3863 f4bb daa2 e4bc 493e f8bd
00000090: a811 cbbd 1913 34be dfbc 28be d183 973b
000000a0: daa3 61be 473f 0abe efa3 debd fb98 53bd
000000b0: 7a58 adbc ab33 29be 1d39 1cbe cec9 98bd
000000c0: 00aa 12be 7e6e 08be 54c2 cd3c 05f8 06be
000000d0: c735 19bd 9677 efbd 24f5 9a3d c539 fdbb
000000e0: e2a0 9dbd 579a 55bd 9ebe 3d3c 2c0e a83d
000000f0: 74cc 83bd 03ba 163b bb6f 3abd 85dd 28be
00000100: e13a ef3c f1f2 2cbd f4e8 f1bc e7f3 febd
00000110: a839 8abc 4981 60bc deea 4ebd 9542 0abd
00000120: 617a e8bd 07e0 2cbd 81d0 2bbc 7880 8fbd
00000130: 9a3d e4bd 3e17 88bd b7b7 0dbe 3312 723b
00000140: c2c9 773c 1d12 fe3c 493c 1ebe 5fe3 b2bd
00000150: 348d 10be 1ad1 e63c 26fe 25be 0ffe 03bd
00000160: efba d4bc c741 43bc 93b5 0b3d 8067 39bd
00000170: 7d91 3fbd 7f44 96bd d3b0 ce3d 7bf7 5ebc
00000180: 1633 afbd a382 f5bd 881e a7bd d19c 84bd
00000190: 15d0 36bd e73b ecbd 6033 59bd d54a fbbd
000001a0: 1ccf 59bd 8a02 42be 73be 34bd 33d4 a2bc
000001b0: b40d 83bd 3623 bfbd 57d7 cdbd 0ee2 89bd
000001c0: 7c55 79bc 9df7 28be 851e c23d 57e6 53be
000001d0: 28dd dcbd d674 f3bd 4a47 36be a15a 173d
000001e0: d980 fc3d 31bb d8bc 3ba8 bebc 2ace b0bd
000001f0: ee8b e13d d14f cdbc 9a54 56bd a87d d0bd
-0.08543187 -0.071021155 -0.11113437 -0.11909784 -0.010928936 0.057886887 -0.1147272 0.10506632
-0.12529786 0.0033789896 -0.063276805 -0.09738918 0.017252477 -0.10944993 -0.04327067 -0.048173845
-0.08110267 -0.14499964 0.025138564 -0.021475637 0.031850863 -0.06829457 -0.067681305 -0.0871707
-0.04050196 -0.08753762 -0.05473893 0.048127938 -0.06513035 0.08764537 -0.016581628 -0.033180986
0.014371974 -0.007458117 -0.027909685 -0.12121255 -0.09915477 -0.1758541 -0.16478299 0.004623868
-0.2203516 -0.13500701 -0.108711116 -0.051659565 -0.021160353 -0.16523616 -0.15256162 -0.07460366
-0.14322662 -0.133234 0.025117077 -0.1318055 -0.0374048 -0.11692731 0.07566288 -0.007727834
-0.076967016 -0.052149143 0.011581091 0.08205828 -0.06435481 0.0022999055 -0.04551671 -0.16490753
0.02920288 -0.042223874 -0.029530026 -0.124488644 -0.016873196 -0.013702699 -0.050516956 -0.033754904
-0.11351467 -0.042205837 -0.010486723 -0.07006925 -0.11144562 -0.06645058 -0.13839613 0.0036937117
0.015123786 0.031014496 -0.15452684 -0.08734774 -0.14116365 0.02817588 -0.16210231 -0.03222471
-0.025968043 -0.011917538 0.03410871 -0.04526472 -0.046769608 -0.07337283 0.1009232 -0.013608809
-0.08554666 -0.119878076 -0.0816012 -0.06475223 -0.044632036 -0.11534863 -0.05302751 -0.122701325
-0.05317603 -0.18946281 -0.04412694 -0.019876575 -0.06399098 -0.09332888 -0.100508384 -0.0673257
-0.015218135 -0.16500707 0.094784774 -0.20693336 -0.1078437 -0.11887519 -0.17800632 0.036951665
0.12329263 -0.026456447 -0.023273578 -0.08633073 0.110130176 -0.025062473 -0.052326776 -0.10180217

output.weight f4 [1, 128]
00000000: 900e 233c 9c8c a9bc 11af c93c 7053 1b3c
00000010: 7114 1cbd b17a 3bbd 28c5 3bbc ab45 bb3d
00000020: 0510 743d 034d 493c 71c2 2bbc 7fac 64bc
00000030: 9aef 4f3c 8dba 35bc c3c6 6cbc 5acd 1dbd
00000040: 8fc9 083d d80b 76bc 1e7e 55be fc06 493c
00000050: 8558 3a3d da90 0cbc 1455 3dba 0ee2 07bd
00000060: 2f85 aebc b7ed 343d b71c 523c f87b 983c
00000070: f6f5 74bd 1c3a b7be c2c7 d9bb 5a8a 73bd
00000080: f6e6 a83d 2015 d4ba d141 fdbb fb92 c53b
00000090: ae3f f43b 6861 983c 5225 f33a 6c2c ff3d
000000a0: 3aa9 e33b c81b 953d 078a 5bba e714 13be
000000b0: f403 febb a90b 583c 8961 51bd 7e26 12bc
000000c0: 2b65 163d 6313 c0b8 904d 72bc 5921 553d
000000d0: a696 efbc dbba c63b 6b86 8cbc cc45 06be
000000e0: edde 863b 2d59 48bc 2529 93bd 1cd1 8a3d
000000f0: 6ea2 173d 7e25 88ba 80ce 343c c611 f53a
00000100: 6ece e63c 8262 98bd 31cf eaba c570 2f39
00000110: 7ed3 de3c 383f 233e 9d34 453c 299a a73d
00000120: 38c7 95bc 2360 3b3c 50c6 c3bd e2ba 113c
00000130: f1cd 333b be7e 99bc 1e93 afbc 55ac 013e
00000140: 190b 573d 9b50 ef3d a6c1 0f3d a9cf 873c
00000150: 3715 293d a5f4 90be 50d6 333d 9df3 bfbc
00000160: 2a10 84be 08b0 39be 9cd4 0e3d b022 0c3d
00000170: f902 603c 96e1 943a 4055 8d3d efce febd
00000180: 76ca 20bc a6de 4d3b 3f0a c7bc 8f8f b43b
00000190: e0f9 383e 38af 30bd ca62 723d 24a3 843d
000001a0: 2f52 d83b 07a7 bdbc bc5c 143d 5153 8c3c
000001b0: fd06 0bbe 0f22 00bd 3768 533c 7c3e fbba
000001c0: 49c9 693b adaf 833b 75f0 3e3d ca62 33bd
000001d0: 1476 f83c dd7c 3cbc b358 023c 41db c83d
000001e0: 5c7e 0d3e d280 e53d 288a 193e 4ad5 7abc
000001f0: c1ef 0dbe 0830 fe3b 7702 423b 6121 563a
0.009952202 -0.02069693 0.024619611 0.009480342 -0.038105432 -0.045771305 -0.01146058 0.091441475
0.05958559 0.012286427 -0.01048337 -0.013957142 0.012691403 -0.01109184 -0.014451685 -0.038525917
0.033395346 -0.015017472 -0.20848891 0.012269732 0.045494575 -0.008579457 -0.00072224555 -0.033174567
-0.021303741 0.044172015 0.012824229 0.0186138 -0.05980488 -0.3578652 -0.0066461274 -0.059458114
0.08247177 -0.0016180612 -0.007728793 0.0060294843 0.0074538803 0.018601134 0.0018550551 0.12459645
0.0069476636 0.072806895 -0.00083747547 -0.14363442 -0.007751936 0.013186374 -0.051118407 -0.00892031
0.036717575 -9.1588845e-05 -0.014789 0.052033756 -0.02924664 0.0060647554 -0.01715394 -0.13112563
0.0041159303 -0.012228292 -0.07185582 0.06778166 0.03702014 -0.001038715 0.011035562 0.0018697313
0.028174605 -0.07440664 -0.0017914531 0.0001673131 0.027200457 0.15942085 0.01203647 0.081837006
-0.018283471 0.011436495 -0.095593095 0.008894654 0.0027435983 -0.018737193 -0.021432456 0.12663396
0.052500818 0.11685296 0.035096787 0.016578512 0.041279998 -0.2831165 0.043905556 -0.023431594
-0.25793582 -0.18133557 0.03487073 0.034212768 0.013672584 0.0011358734 0.06901026 -0.12441813
-0.009813895 0.0031413226 -0.024296878 0.0055102776 0.1806407 -0.04313585 0.059176244 0.06476429
0.006601594 -0.023150934 0.03622125 0.017129572 -0.13576885 -0.03128248 0.012903265 -0.0019168402
0.0035672954 0.004018745 0.046616036 -0.043795384 0.030329742 -0.011504379 0.007955718 0.09807444
0.13817734 0.11206211 0.14994109 -0.015309641 -0.1386099 0.0077571906 0.002960352 0.0008168426
