models/DoublePendulum2/separate_nets__alphalimit_None_N7/al_model_state_dict.pth (torch, 46608 bytes, 7 tensors)

hidden1.weight f4 [32, 7]
00000000: 32b6 823e 5e89 07be 630a 0fbe 5e2c 7a3e
00000010: 37b8 f4be 8af2 eb3c addc a03c a153 113e
00000020: 187c a03d 33c4 0f3c 4b51 a73d 53ef 0cbd
00000030: f1a2 283e 77e1 d7bd 61d3 50bd 15b7 03be
00000040: c19d 0b3e 665f e13d 3d29 a83e dc6a 8d3e
00000050: 1320 1fbe d43f 61be 1bf6 35be 4075 2abe
00000060: 3431 88ba a72c 223e 161b dd3e 3054 133d
00000070: 9f03 e7be 6f16 4e3e 6cd2 293e 25ff b03e
00000080: 6151 663e 27bf 21bf f1be a9be 51f4 e0bd
00000090: 4a0e 543e 8d40 c5bd c42a c73e 4ab6 e0bd
000000a0: c9e2 0b3f 4014 51be 78be 683e 7124 323c
000000b0: 8173 83be 2f26 423e b18d 9c3c f787 bd3d
000000c0: b81b 74be ff62 203d 430d bebe e995 8bbe
000000d0: 5341 a23e 3625 acbe ea0e f73e 8ee2 db3e
000000e0: 92ec be3d 389f 3dbe 8b74 073e 1291 1b3e
000000f0: 8e96 c3bd 2b02 c03e 9cfb 563d 722c a73e
00000100: 2912 45be fcea b5bd 478f 76bc c00b d13d
00000110: 106c 01bf 337e 66be 3818 7f3e ee41 d9bd
00000120: 5184 063e 7cc3 c23d 35ad e43d d669 5d3e
00000130: 6ec0 813e e5e6 3a3e 8bdd b3be 4a12 a13d
00000140: f554 6fbe 1bd0 bcbe 2cc5 85be 8606 363e
00000150: e3bb 313e 6baa 1abe e50f 72be c79c 893e
00000160: 8c36 24be 6e9f a13e d042 003e 9a4a 60be
00000170: 3db4 8d3a 9e9c 853d 1c37 e5be ae71 0bbe
00000180: e5c0 dd3e f4cc c13d 7eb4 9fbd 8b4c acbd
00000190: e2e9 a83e 316d b4bd 5445 7b3e ff6d e53e
000001a0: ccff 98be 6b29 92be dbf1 e53e 3f98 22be
000001b0: 1b95 973e 07de 353e 5b1a 983d a877 8c3e
000001c0: c824 a03e 953b 4bbe 1eda 943d c91d a23e
000001d0: cfcd 803e ed88 543e 08c5 2ebe 8479 33be
000001e0: a71a 1abd 5481 7c3d 7df4 c23e 1d9c 7cbe
000001f0: 9cc4 c03e 4cf0 85be 97aa 8bbe a7e3 993d
00000200: 9bd1 a73e f856 c93e a5ef f8be 3c69 733e
00000210: 339b f93e 19d4 533e e8b7 633e 338b 8b3e
00000220: f9ad 983e 3584 ff3d 6847 0bbf 9e65 78be
00000230: 69ee 87be 0d38 f9bb fb9c 96bd 1374 723e
00000240: de96 863e e354 ff3c 50e9 35bd 9676 893d
00000250: 578c 363e e45a b33e 8e77 30be ebdb 8d3e
00000260: a973 94bd 4b17 9c3d 6666 04bf 7e9f 65be
00000270: b74d 2fbc bfc8 e1bc f31d c83e c176 a7bd
00000280: 5295 cebe b666 043e 5ac1 d63d e3d4 843e
00000290: d1d7 37be 199d c83d c121 fabd 91fa cdbd
000002a0: c50a 8dbe cb96 81be 3cb2 1abe 8ea2 6b3e
000002b0: 4c78 053f 6921 733e b9d3 d53d 719e 1d3e
000002c0: 21c7 0cbb dbf5 953d 4612 99be 884e b23e
000002d0: fc70 2abe 74c7 d0bc 5285 57be 12f9 80bd
000002e0: 6f42 d0be 0fbf 353e d7aa 4abe f9fc 0abf
000002f0: ed72 93bd 4a5b 70bd c9c9 8abc 6a05 83be
00000300: 1822 19be 907a 953d ee83 cb3e 00f6 51be
00000310: 554f 343e f86b 4d3e 7315 9d3e a770 b9be
00000320: 3c13 b33d 18bf 01bf cf3e b13e 00c9 13be
00000330: 8ce7 0d3e a5f1 4fbd 5e78 a03c 335b 6d3d
00000340: 7487 40be 4a3c 283d b06c 9a3d ceec 1d3e
00000350: 2fe9 93be 4bc7 663e 01fa bc3e 675a 1c3f
00000360: 78af 503e 9b6c 9abe 0f71 5fbd dc14 da3e
00000370: a05f d5be d779 453e 33dc afbe 4619 62bd
0.2552963 -0.13235995 -0.13968806 0.24430987 -0.47796795 0.028802175 0.019636476 0.14192058
0.07836169 0.008774805 0.08169802 -0.034407925 0.16468407 -0.10541051 -0.050982837 -0.12862809
0.13634397 0.11004524 0.32843962 0.2762059 -0.15539579 -0.21997005 -0.17769663 -0.1664629
-0.001039064 0.15837346 0.43184727 0.03596896 -0.4511995 0.20125745 0.16584176 0.3456966
0.22491981 -0.631823 -0.3315349 -0.109841 0.20708576 -0.09631453 0.38899815 -0.10972269
0.5464292 -0.20417881 0.22728908 0.010872946 -0.2567406 0.18959878 0.019110532 0.09254449
-0.23838699 0.03915691 -0.37119493 -0.2726281 0.31690463 -0.3362214 0.48253566 0.42946285
0.09322466 -0.18517768 0.13228051 0.15192059 -0.095502004 0.37501654 0.052486047 0.32651097
-0.19245209 -0.0888271 -0.015048808 0.10207319 -0.50555515 -0.22509079 0.24911582 -0.10608278
0.13136412 0.09509942 0.11165849 0.21622404 0.25342125 0.18252142 -0.3512996 0.078648165
-0.23372252 -0.36877522 -0.26126993 0.17775926 0.1735683 -0.15104072 -0.23638876 0.26877424
-0.16036433 0.31566948 0.12525487 -0.21903458 0.0010811161 0.06524013 -0.44768608 -0.13617584
0.4331123 0.0946292 -0.07798098 -0.08413037 0.32990938 -0.08809889 0.24538165 0.44810483
-0.29882658 -0.28547224 0.44911084 -0.1587839 0.29605946 0.17760478 0.07426902 0.2743504
0.31278062 -0.19846947 0.07268165 0.3166335 0.2515702 0.20755358 -0.17067349 -0.17526823
-0.037623074 0.061646774 0.38077155 -0.24668927 0.3765 -0.26159894 -0.27278587 0.07514124
0.32777104 0.39324164 -0.48620334 0.23770612 0.4875122 0.20686378 0.22238123 0.27254638
0.2982023 0.12476388 -0.5440583 -0.24257514 -0.2654908 -0.0076055587 -0.073541604 0.23677091
0.26286978 0.031168407 -0.044411957 0.067120716 0.17826973 0.35030282 -0.17233106 0.27706847
-0.07248623 0.0762163 -0.5171875 -0.22424123 -0.010699681 -0.027561544 0.3908535 -0.081769474
-0.40348297 0.12929806 0.10486098 0.2594367 -0.17953421 0.09795589 -0.12213469 -0.100575574
-0.2754728 -0.25310358 -0.15107054 0.23011228 0.52136683 0.23743214 0.104407735 0.15392472
-0.0021480995 0.07322284 -0.29896754 0.3482554 -0.16644663 -0.025485732 -0.21046951 -0.062975064
-0.40675685 0.17748664 -0.19791733 -0.54292256 -0.07199655 -0.05868081 -0.016941922 -0.25590068
-0.14954412 0.072987676 0.39749092 -0.20503998 0.17608388 0.20060718 0.30680427 -0.3621876
0.08743903 -0.5068221 0.34618232 -0.14432144 0.1385786 -0.05076756 0.019588646 0.057948302
-0.18801671 0.04107312 0.07540262 0.15422365 -0.28888842 0.22536962 0.36909488 0.61075443
0.20379436 -0.30160984 -0.05455118 0.4259404 -0.4167452 0.1928476 -0.34347686 -0.055199884

hidden1.bias f4 [32]
00000000: 9178 3a3e f2c9 a7be 92ad 11be db79 693e
00000010: 1d1d b73e d759 b53e ea8b 61be f3e2 8abe
00000020: c3d3 a43e 3cc2 5fbe d462 32be 96dd 0d3e
00000030: 7925 c1be a3eb 2f3e 4bff 9b3e 32cc a6be
00000040: 683e d6be 79dd b73c 9500 633d c2d7 00bd
00000050: a045 a4be 26ec 11be 08a2 bebe 5d0a 91be
00000060: 6837 85be 772b d03d e827 de3e 7988 7dbe
00000070: ec32 f63d 165d 273e 82e9 423d 56dc 4bbe
0.18210055 -0.3277126 -0.14226368 0.2280039 0.357644 0.35420105 -0.22026029 -0.27126274
0.3219281 -0.21851438 -0.17420512 0.1385406 -0.37723902 0.17179732 0.3046821 -0.32577664
-0.41844487 0.022444474 0.055420477 -0.031455763 -0.3208437 -0.1425024 -0.37232995 -0.2832822
-0.26018834 0.1016454 0.4338982 -0.24759091 0.12021431 0.16344103 0.04758597 -0.1990827

hidden2.weight f4 [64, 32]
00000000: 02cc 593d a789 b23d 81ec 29bd aad9 27be
00000010: 5bb5 683e 239f 12bd ca88 52bd 7e7f 523b
00000020: 797a 98bd b97d 1c3d d91c cfbd f9c9 17be
00000030: 9b04 0b3e b496 eabd 29f2 64bd 94fc 0cbc
00000040: c124 f63d db89 153e 4303 5abd 3639 6b3d
00000050: ce43 2cbe c697 b13d d5a3 62be 201b e83b
00000060: 42f4 0ebd 733b c43d 7c88 373e d741 ef3d
00000070: 7d94 513d e5f9 c1bd 9dd5 53be 261a 6d3e
00000080: 1c51 ffbc 086e e03d 55a6 97bd 4c71 5fbe
00000090: f424 2f3e 581f b8bc f09c f93c 7f2d 20be
000000a0: ecc0 fdbd fa1c e13d 6148 eabd 9be2 94bd
000000b0: 9214 043d decd 903c a739 9bbd 46c0 a0bd
000000c0: 7b6e 743b 8dcc 0d3d e15e 49bd 6e9a 6b3e
000000d0: b24c 443b 66a7 163e f76a 37be ea4a ecbc
000000e0: 80f1 cfbe b36b 48bd a4ec 1b3e 0df0 36be
000000f0: 580d 0f3e 4e9f ea3d 677a cb3d 37c7 8d3e
00000100: 3308 77bd 7ea6 e2bb b3de 19bd 7352 b1bd
00000110: 6eca 603d 3521 9abd 4a7c f3bd b02a 213d
00000120: fa59 21be 9c18 4bbd fd34 af3d 44b8 203d
00000130: 7a20 123e 0396 02be 0461 79bb 70d2 55bd
00000140: 00a8 d0bd 5e79 bdbd 13f4 3d3d b228 7f39
00000150: 5de1 debd 69b4 fcbd c8fa 15be 2169 313e
00000160: d8d4 f6bc 0530 85bd 49e9 a1bd d5d0 a7bd
00000170: 1a4a 2dbe 5768 e1bd 93ef ac3d 44b3 1e3d
00000180: 91ac 81be 6007 b3bd 1534 223e b4b6 033e
00000190: 26e9 543e 2dd0 2a3d ec6e 65bc 0330 52be
000001a0: 74a0 4cbe 3c3b 93be f31c 843d 010b 86be
000001b0: 4591 073d 1d78 ffbc 514a 25be e5c7 7f3e
000001c0: d3b3 0e3a 3431 093e 33f8 f4bd 006c a8bd
000001d0: 58a8 9f3d c92b b3bd 749a fa3d 6fae b13c
000001e0: 28c8 a83d 63b1 b23d 25d5 783d e5ea bc3d
000001f0: 5833 34be 2bf5 d2bd 4bf2 083e 3f88 43be
00000200: 1300 5cbe b79b c23d 28b5 a83d 29fb dd3d
00000210: 2dad e5be 491a 6bbc ce6e d63d 4fc9 93bc
00000220: da36 5b3d 1031 efbc b87f 5d3e e26a eabc
00000230: c0bf 5b3e 3def b03d cc7e 553e 53ac 3c3d
00000240: fb7f 95bc 7ef8 003e e507 813d f27a 1bbe
00000250: 436a 02be 27ab 14be 6706 6abe 983d 00be
00000260: 7393 ae3d 201c 013d b42f 96be 0c8a 7a3e
00000270: 122a 52bd 1816 08be 66d4 2d3e bef1 0fbd
00000280: d743 35be 101d 113e bd5f d0bd b3bf 04bc
00000290: acac 1cbf 23f7 273e a123 643d d740 333e
000002a0: c913 663d 8751 c93d 5bf7 2cbd eafd f0bd
000002b0: b1aa fb3d aa60 3c3a 3a20 a33c d0e0 10be
000002c0: 9691 463d 4824 c33d 0d16 123e 3935 85be
000002d0: 7ee8 ae3d e031 52bd bd04 65bd 6b5f df3d
000002e0: b2a7 a2bd 2f47 113e 2938 e1be b2ce 5d3e
000002f0: 1483 04be 5cb1 8e3c 50cd c03c 9ed5 dfbc
00000300: 6bc0 81be 422f 16be ae64 443e 30c0 1f3e
00000310: 983e 483e 5525 823d 592c f33d 11a0 bdbe
00000320: 0214 cbbd 7210 70be a478 2d3e 7f96 febe
00000330: 417a 843d 38df 6dbe 8ff6 3a3e 1a6f 673e
00000340: 25f9 5bbd 6070 293e 86c1 3cbe b443 38be
00000350: c356 6b3e 147c 06be 32a4 143e 8521 9cbd
00000360: ccaa 9f3e 9bb2 1e3e ec58 d63d ba5d 943e
00000370: 3a0c 7ebe ee45 063d 5c14 193e 3ba6 7bbe
00000380: 0c5b 8abd 545f c4bd c269 133b f577 143d
00000390: 5040 163e fe24 2cbe 5a56 5dbe 40df a03d
000003a0: 5396 f9bc d916 c33a d894 953d f32d 1cbe
000003b0: b583 00bd 70fb edbd 47b8 d5bb 715b 243e
000003c0: ca7b bc3b e9bf c4bd cdb5 41be 29b4 7e3d
000003d0: 025a febd 676b 11bd f655 f5bd 5da4 8fbd
000003e0: 4896 bb3d a86c 34bd 614f 2cbe 9796 58bd
000003f0: 0c6a 693e 20e8 28bd b554 c4bd 8b8f 243e
0.053173073 0.08717661 -0.041485313 -0.16391626 0.22725432 -0.035796296 -0.051399983 0.0032119448
-0.07445235 0.038205836 -0.10112924 -0.1482314 0.13575976 -0.114545256 -0.055895004 -0.008605141
0.12018729 0.14603369 -0.053225767 0.057427607 -0.1682274 0.086715266 -0.2213281 0.0070833117
-0.03490091 0.095816515 0.17923158 0.1168248 0.051167 -0.09471492 -0.20686956 0.23154506
-0.031166606 0.10958487 -0.07404772 -0.21820563 0.1710394 -0.022475883 0.030470341 -0.15642355
-0.123903126 0.10991855 -0.114395864 -0.07269784 0.03224618 0.01767629 -0.07579356 -0.07849173
0.0037297297 0.034618903 -0.04916275 0.23008129 0.002995294 0.14712295 -0.17911898 -0.028844316
-0.40613937 -0.048930835 0.1522699 -0.1786501 0.13969934 0.11456166 0.09935456 0.2769105
-0.060310554 -0.00691682 -0.0375659 -0.08658304 0.054880552 -0.07525865 -0.11888941 0.03934735
-0.1575698 -0.049584016 0.085550286 0.03923823 0.14270201 -0.12752537 -0.003805221 -0.052202642
-0.101882935 -0.092516646 0.046375345 0.00024333855 -0.108828284 -0.12339098 -0.14646447 0.1732526
-0.030130789 -0.065032996 -0.07905824 -0.081941284 -0.16922799 -0.11006229 0.08444133 0.03874518
-0.2532697 -0.08741641 0.1584018 0.12862664 0.20792064 0.04170244 -0.014003497 -0.20526128
-0.19983083 -0.2875613 0.06450834 -0.2618027 0.033097524 -0.031185204 -0.1614163 0.24978597
0.0005443666 0.13397676 -0.11961403 -0.08223724 0.07795781 -0.08748586 0.12236491 0.021689622
0.08241302 0.0872524 0.060750145 0.0922449 -0.17597711 -0.10300668 0.13373677 -0.19094943
-0.21484403 0.095023565 0.08237678 0.108389206 -0.44858685 -0.014349529 0.10470353 -0.018040327
0.053519107 -0.0291982 0.21630752 -0.028615419 0.21459866 0.08639381 0.2084915 0.04606278
-0.018249502 0.12594792 0.06300334 -0.15183619 -0.12735848 -0.14518414 -0.22854005 -0.12523496
0.085242175 0.031520963 -0.2933327 0.24466723 -0.051309653 -0.13289678 0.16975555 -0.035142653
-0.1770166 0.14171243 -0.10174511 -0.008102345 -0.61200976 0.16402869 0.05569804 0.17505203
0.056171212 0.09830003 -0.042228084 -0.1176718 0.12288416 0.0007186035 0.019912828 -0.14148259
0.048478685 0.095284045 0.14266224 -0.26017168 0.08540438 -0.051317096 -0.055912722 0.109068714
-0.079421416 0.1418731 -0.4398816 0.21660879 -0.12940627 0.017418556 0.0235354 -0.02732354
-0.25342116 -0.14666465 0.19179031 0.15600657 0.19555128 0.06354777 0.11873693 -0.37036183
-0.099159256 -0.23443773 0.16940552 -0.49724194 0.064686306 -0.23229682 0.18258117 0.22600976
-0.0537044 0.16546774 -0.18433198 -0.17994577 0.22982316 -0.1313327 0.1451576 -0.07623581
0.31184995 0.1549782 0.10466179 0.28977758 -0.24809352 0.032781534 0.14949173 -0.2457513
-0.06755647 -0.09588495 0.0022493456 0.036247212 0.14672971 -0.16810986 -0.21614972 0.078550816
-0.030467188 0.0014884128 0.0730378 -0.15251903 -0.031375606 -0.116202235 -0.0065222117 0.16050507
0.0057520615 -0.096069165 -0.18917008 0.062183533 -0.124195114 -0.035502817 -0.119792864 -0.07013772
0.09159523 -0.044048935 -0.16827156 -0.05287799 0.2279436 -0.041236997 -0.09586469 0.16070382

hidden2.bias f4 [64]
00000000: 388a c3bd d506 163d fb44 c83d 73bf b0bd
00000010: 2702 fcbd 69c8 3cbe f07c 3ebe 8b77 b63d
00000020: 42a6 1dbe 1cfc babd 6ee5 c23c 218f 903d
00000030: 2dcd 53be b8ba e0bc 3d88 c7bd b8b1 1f3e
00000040: c155 6cbd ec62 42bb d317 14bd 3dae fb3d
00000050: 3493 2e3c f9bb 32be 6ba8 4d3b 5d6a d7bd
00000060: bc4a e53a c6b8 0d3e 9acb 0cbe dab2 03be
00000070: 6ffd aaba 2df0 e9bc fd56 edbd 9737 df3b
00000080: f8c0 23bc 03f0 49bd c3fc 353d f999 b1bd
00000090: 79cb e7bd 9996 993d 74d9 eebd 9e3c f2bc
000000a0: 9c6b 1d3d 0c49 6ebe d1b1 a9bc dc4b 3f3e
000000b0: a898 073d c020 e8bd fb8f 7f3c cbf5 28be
000000c0: d41c 9fbc b94e 1c3e b552 423e b654 4abd
000000d0: dff1 bd3d 6f0e 10be 0e4e 13be e2a8 4ebd
000000e0: 8acc 0abe 57e9 a63d 2f83 ec3d 1eea 23be
000000f0: 08bf 24bd 6298 66be fb3b a1bd d20d 99bd
-0.095478475 0.03662761 0.09778782 -0.08630266 -0.12305098 -0.18435825 -0.18602347 0.0890952
-0.15395454 -0.09130117 0.023791041 0.0705855 -0.20683737 -0.027432784 -0.09742782 0.15595138
-0.05769897 -0.0029661013 -0.036155533 0.12289093 0.010655213 -0.17454518 0.0031380903 -0.10518334
0.0017493586 0.13840017 -0.13749543 -0.12861195 -0.00130455 -0.028556908 -0.11588857 0.0068120467
-0.009994738 -0.04930116 0.044430505 -0.08671946 -0.11318106 0.07499427 -0.1166257 -0.02956992
0.038432702 -0.23270053 -0.020714672 0.18681282 0.03310457 -0.113343716 0.015598292 -0.16500013
-0.019422926 0.15264405 0.18976863 -0.049397193 0.09274649 -0.14068006 -0.14385244 -0.050454028
-0.13554588 0.08149975 0.11548459 -0.16007277 -0.040221244 -0.22519067 -0.078727685 -0.07473339

hidden3.weight f4 [128, 64]
00000000: 5ed4 9c3d 8a02 ffbd 6cd4 d7bd 8a07 88bc
00000010: fdef ea3d fc4f 363c a33c 843c 5077 8ebc
00000020: f0e8 74bc acb5 b63d 36f5 213d 7d83 dfbd
00000030: c9a1 11be fbd5 d1bd b80a b0bd 98ad bc3c
00000040: 9983 933d f67c 2ebe 62b2 b53d 4968 bdbd
00000050: bf9a 55bd b8a6 9a3d fc5e 2d3d 5628 d6bd
00000060: 39e4 b4bd 50ab 64bd 6c19 813d 1453 76bd
00000070: 608a ff3d 25f6 95bd 3b8d f5bd 3a73 433d
00000080: 3f4b 34bd ea6a 253e 058a 383d 1a7d a73d
00000090: f459 a03d 264c 6ebe 9898 f5bd bea0 073d
000000a0: d7f9 893c b433 c3bd 879c 633d a860 0bbe
000000b0: d43a 44bd e532 5d3d 9f84 093e e855 9d3c
000000c0: b5ca a7bd a194 983b ae61 65be f123 ac3d
000000d0: b6e2 1f3e b94f 563c 89c3 0cbe 0cd6 8f3d
000000e0: 4a6d d1bd 7baf 14be 5a66 293d 36ff 96bd
000000f0: 8806 c33c f065 943d 5e22 bebb 1465 d1bc
00000100: 4848 363e 6271 653d dfe2 fb3c 5198 40bd
00000110: c666 fdbc dc43 663d de8c ab3c c9c0 49bd
00000120: f0fd d1bd 64da c53d 534e 11bd df92 fa3c
00000130: b100 8b3d 4440 ec3d bc8f 9b3d ebc0 69bd
00000140: 77d1 8a3d 76a6 a8bc 6053 963b 1e3f 27bd
00000150: 0491 013d e08e 013d eb49 10bc 4569 003e
00000160: bd7b ebbc 00b8 95bd 24e9 95bd 62f4 ebbd
00000170: fb04 aebd 595c 3fbd c498 0b3e a3bb 643d
00000180: 901f b63d 73a5 62bc b2eb 023d 9193 a0bc
00000190: 680b 90bc 4a22 5d3e d8d6 f6bd 85b7 21be
000001a0: 6b45 683d 9887 033d b203 993c 8876 d8bd
000001b0: 9ddb 9dbc 7414 dfbd ed9b 51bd 6c7e 6ebd
000001c0: 2ceb 3dbd 0c30 4d3d 5295 c5bd b7b1 053e
000001d0: 0bf5 56be a893 ea3c 64f9 343c 39fa 39be
000001e0: a708 a2bb d565 c03d 9ed8 91bd b8fe fc3d
000001f0: b06c 57bc 8a12 b8bc d4c1 b23d ea7e f03d
00000200: cad5 0b3e 10aa ba3d 6425 12be 5d2e 973c
00000210: 5222 243e 10c9 d83c cf3c 733e 150e a7bc
00000220: 3c8c dcbd 82f2 96bd 4549 f1bc ce28 793d
00000230: 0952 a7bd ca1e 3d3d 43fc c73c 9063 c43d
00000240: 0f09 27bd 65c2 3d3e a853 cebd 8c6e 80bd
00000250: 30a9 973e bb51 01be 1088 683e 6162 663d
00000260: 2bb0 a6bd fa49 f6bc 000e 6abd 2076 42bc
00000270: ab95 98bd 343b 663c 11e2 bc3d cc07 d6bd
00000280: 9d4e c5bd 01c8 46bd d709 1d3e a47a 00bd
00000290: 58f7 a5bc 0d61 4c3e be2e b73d 4d52 5ebe
000002a0: f2fd 66bd 61f0 eb3d c2af 2fbb e4cb 0ebd
000002b0: e254 cc3d 1b3f 36bd 4acb 7fbd 27ec 033d
000002c0: a2a6 0a3e 45c4 f7bd 90ed 57bc 3469 503e
000002d0: 2519 093b fcbd d6bd 0d4d e33d 64cd c7bc
000002e0: d646 a63b c409 f93d 2144 6eba 1216 ed3d
000002f0: 5414 41bd 0d81 63bd 6fdd 833d 01fd 9f3d
00000300: deff d63d d9e4 83bd b3fb 30bc 5763 a9bd
00000310: b436 9abd 69ae e2bd e3b0 a3bd 7a1e d6bd
00000320: 8473 283d 11e2 9dbc 9df8 983d 2b71 4a3c
00000330: fe8d a4bd 10a5 c9bc 17d4 8c3d 99d1 23be
00000340: 14d4 8ebd f408 09bc df55 9cbd 1913 e53d
00000350: 437e a33c 520f 4d3c c1e7 dd3d 7157 f7bd
00000360: 79c6 e43d 268d 26be 1431 733d 4003 b4bb
00000370: e20c c33d f4ea 913c a6b0 28be 6d8d e23c
00000380: bfb8 993d c084 cabc 956d 6fbe 2e5b cfbc
00000390: 508e 213c 5428 90bd 3ce9 233d 3cd3 0abc
000003a0: 3a09 f2bc f86f a9bc 00cc 6d3d 6322 bebd
000003b0: 842c 5b3d 6cae 36bc a276 05bd 9d45 d83d
000003c0: 5629 4d3b 87ff ebbd 791a 1abd 8998 e43d
000003d0: a083 c6bc 0499 6d3d c9b1 91bd 2226 803c
000003e0: ec0f c83d b4b1 febd 585d 27bd 6e09 92bd
000003f0: b8cd 9abc 6a6a 49bc b7cc 113d 8bcb 44bd
0.07657693 -0.12451656 -0.10538563 -0.016605157 0.114715554 0.011127468 0.016142195 -0.017390877
-0.014948115 0.0892137 0.039540492 -0.10913751 -0.14221872 -0.10245892 -0.085957944 0.023031995
0.07202835 -0.17039856 0.088719144 -0.092484064 -0.05214953 0.0755133 0.042326912 -0.10456912
-0.088325925 -0.05582744 0.06303677 -0.060137823 0.12477565 -0.07322339 -0.11989828 0.04771731
-0.044017073 0.16154066 0.0450535 0.08178158 0.07829657 -0.23271236 -0.119919956 0.03311228
0.016842766 -0.09531346 0.055569198 -0.1361109 -0.047907665 0.054003615 0.13429497 0.019206002
-0.0819296 0.00465639 -0.22400543 0.08405293 0.15613827 0.013080531 -0.13746466 0.07023248
-0.10225923 -0.14520065 0.041357376 -0.073728964 0.023806825 0.072460055 -0.0058024367 -0.025560893
0.1780101 0.056016333 0.030747829 -0.04702026 -0.030932795 0.05621706 0.020941194 -0.04925612
-0.10253513 0.09660795 -0.035475086 0.030587612 0.06787241 0.11535695 0.075957745 -0.057068747
0.067782335 -0.020587187 0.004587576 -0.040831678 0.03163244 0.031630397 -0.008806686 0.12540157
-0.028745526 -0.07310486 -0.07319859 -0.11521222 -0.08497044 -0.04671893 0.13632494 0.055843007
0.08892739 -0.0138333915 0.031963058 -0.019601615 -0.017583564 0.21595111 -0.12052697 -0.15792663
0.056706827 0.032111734 0.01867852 -0.10569483 -0.019269759 -0.10892573 -0.051174093 -0.058226034
-0.046366856 0.05009465 -0.09647621 0.13056074 -0.20991914 0.028634861 0.0110457875 -0.18161859
-0.004944879 0.09394423 -0.071213946 0.12353271 -0.013148472 -0.022469778 0.08728376 0.11742957
0.13655773 0.09114468 -0.14272076 0.018454725 0.16028717 0.026463062 0.23753665 -0.020392457
-0.10768935 -0.073704734 -0.029453883 0.06082993 -0.08169944 0.04617194 0.02441228 0.095893025
-0.040780123 0.18531187 -0.1007455 -0.06271085 0.29621267 -0.12628834 0.22708154 0.056246165
-0.0813907 -0.030064572 -0.057142258 -0.0118689835 -0.07450422 0.014052201 0.09222806 -0.10450706
-0.09634135 -0.048530582 0.15335785 -0.03136696 -0.020259544 0.19958897 0.08944462 -0.21711083
-0.056394525 0.11520458 -0.002680764 -0.034862414 0.099771276 -0.044493776 -0.06244973 0.032207634
0.13540128 -0.12097982 -0.013179198 0.20352632 0.0020919528 -0.104854554 0.11098681 -0.02438993
0.0050743623 0.12160066 -0.00090891315 0.11576475 -0.047138527 -0.055542994 0.064387195 0.078119285
0.104980215 -0.064401336 -0.010802197 -0.08270901 -0.07529965 -0.11068422 -0.07992723 -0.10455032
0.04112579 -0.019272836 0.07469294 0.012356083 -0.08034895 -0.02461484 0.068763904 -0.15997924
-0.069740444 -0.008363951 -0.07633566 0.11185283 0.019957667 0.01251586 0.10835219 -0.12077225
0.11170668 -0.16264781 0.059372976 -0.0054935515 0.095239416 0.01781223 -0.16473636 0.027655328
0.07505941 -0.024721503 -0.23381646 -0.025312033 0.00986059 -0.07038942 0.04001735 -0.008473214
-0.029545415 -0.020683274 0.058055878 -0.092839025 0.05350925 -0.011149984 -0.03258384 0.10560153
0.0031305156 -0.11523347 -0.037622903 0.11161906 -0.024232686 0.058007255 -0.07113988 0.015643183
0.09768662 -0.12436238 -0.040860504 -0.07130705 -0.018896922 -0.0122934375 0.035595622 -0.048045676

hidden3.bias f4 [128]
00000000: 7793 09be 2f64 7f3d 1ec2 6c3d 5f26 10bd
00000010: 8ab7 c0bd 2e48 02be f4f5 dbbd 85df 37bc
00000020: b99c 09be 1200 f8bd eb43 d0bd 78bd d1bd
00000030: f9f5 9e3d 28d7 e3bd c2f0 f7bd f7c7 9bbc
00000040: 22c1 47be e405 53bd aa67 013e 9ffc 08be
00000050: 5e92 8fbd 21a2 c3bd d5c0 3e3e fbd0 f1bc
00000060: c300 6abd 4209 08bd 5633 cebd 0152 e73d
00000070: 68b2 c3bd 3348 d53d d145 6e3d e44c d8bd
00000080: 00e9 cc3c 9ea2 27bc b5fe cc3b 431b 0cbe
00000090: a9f9 303d 26d3 95bd a4f1 46bc 93ab 8c3c
000000a0: 8a7e 46bd 4bc4 f5bd 7bb6 fdbb 30c8 b33a
000000b0: bb86 e4bd 7fbd cfbd b2d7 0dbe d1da 83bd
000000c0: d010 bebd fe8b 113e 209a fbbd 3854 49bd
000000d0: 66fd e6bd 6436 663d 6353 0ebe 25a5 4ebd
000000e0: 89ff 13bc 9898 8d3d ea25 0a3b db98 dabc
000000f0: fd27 c73d 627d b2bb 293d fb3d 53e6 f73c
00000100: 41c4 6cbd 39f0 f3bd bea7 9d3b 2c65 24be
00000110: 376f cd3c a806 02be 6b59 563d c5a9 25be
00000120: 618a bcbc ab7f 05be 96c4 25bd 17fb 56bd
00000130: 44c6 19be a520 58bd 7373 70bc 92d7 e5bc
00000140: dc7a 0e3d 0b9a fabd c373 db3d 5861 ddbd
00000150: 3ca0 e5bd 56af 52bd aee7 97bd 7491 24bd
00000160: 7b03 523d 4d9a 32bd 8a9a a8bd 0c75 1d3d
00000170: 3ff7 c23d 3b48 643d 38ab 4cbb a74f cdbc
00000180: 0860 013e 19cc 5ebd 25cf 5d3c 0920 ccbd
00000190: b215 023d cea3 fcbd 7bfc 50bd 4774 8b3d
000001a0: fb0c 773d 0be6 85bd eb95 bcbd a1aa 4ebd
000001b0: 141c bb3d 66a1 0e3d ab84 c1bd 8103 3bbd
000001c0: d755 87bb 28f4 a8bd 2955 74bd fc5e adbd
000001d0: 087f bb3c 5fb6 613d c218 933d 0dde 84bd
000001e0: a590 51bd 095d 8cbd e3d3 8d3d 3884 c43d
000001f0: 6b3d 02be 347c 30be 286d b6bc 56c7 04be
-0.1343516 0.062351402 0.057802312 -0.035192844 -0.09410007 -0.12722847 -0.10740271 -0.011222725
-0.13438691 -0.121093884 -0.10169204 -0.102412164 0.07761759 -0.11125022 -0.12106468 -0.01901625
-0.19507268 -0.05151929 0.12637201 -0.13377617 -0.07010339 -0.09552408 0.18628247 -0.029518595
-0.057129633 -0.033211954 -0.10068385 0.11294938 -0.09555513 0.104141615 0.05817205 -0.10561541
0.025013447 -0.010231642 0.0062559494 -0.13682275 0.043206844 -0.07315664 -0.012142573 0.017171657
-0.04846052 -0.120003305 -0.0077427006 0.0013716277 -0.1115851 -0.101435654 -0.13851812 -0.0643822
-0.092805505 0.14213559 -0.122852564 -0.049152583 -0.11278801 0.056204215 -0.13898997 -0.050450463
-0.009033092 0.069138706 0.0021079727 -0.026684215 0.09724424 -0.0054470757 0.12267525 0.030261194
-0.05780435 -0.11911053 0.004811256 -0.16054219 0.025077445 -0.12697852 0.05233137 -0.16178043
-0.023015203 -0.13036983 -0.040470682 -0.05248555 -0.15017039 -0.052765507 -0.014675963 -0.028056893
0.034785137 -0.122364126 0.10715439 -0.108095825 -0.11212203 -0.051436745 -0.07417236 -0.040177777
0.05127285 -0.043604184 -0.08232601 0.038441703 0.09519815 0.055732947 -0.0031229984 -0.025062395
0.1263429 -0.05439386 0.013538157 -0.09967048 0.03175897 -0.12335931 -0.051022034 0.068092875
0.060315114 -0.06538018 -0.09208282 -0.050455693 0.09136215 0.03482189 -0.094491325 -0.04565764
-0.004130106 -0.08249694 -0.059651528 -0.084653825 0.022887722 0.055105563 0.071824566 -0.06487665
-0.051163334 -0.068536825 0.0692518 0.09595531 -0.12718742 -0.1723488 -0.022268847 -0.12966666

output.weight f4 [1, 128]
00000000: 4f15 da3b b0b9 87bb a987 c6bd cd7a 2a3c
00000010: be2b 6abb 2fc2 503e 24b2 853c d33a 953d
00000020: 3fca 8d3c cf95 b13d c981 14bc 65c9 ea3c
00000030: 61ab eabc eb46 673c 931c 99bd cc98 9a3e
00000040: fb0b 5bbc f348 123d 67b7 63be 9baf 4c3d
00000050: b339 0a3c 9edc 0c3c 87e1 5dbe a790 99bc
00000060: 7cb8 96bb cbf2 b73b fe43 0bbd f07e 613d
00000070: c1fa c03b f215 a43b c38f 21bb ff2e 12bd
00000080: ca7b 16ba 5287 f3bd 44d8 f33b 600c 583c
00000090: 8978 253d cdd4 9d3d 8ab7 003b 4813 473c
000000a0: 0825 953b 349a ad3d c447 9c3a 75a8 a5bd
000000b0: ed0d 873b 250b 36bd c62d a6bc f9a6 b13a
000000c0: e7a0 8a3d 20c8 853d 6f5c 883d aa9d e23d
000000d0: bb4c 5dbb 9733 14bd b4d9 86bb 85fb d53d
000000e0: 8252 73bb d19b 61bd a0bd 863c cfc0 21bc
000000f0: a419 b8bc 6541 023c 35fa d43d 0369 d73a
00000100: 71f5 f03b 1a7a 1bbd 31b8 b6ba 532d 2abc
00000110: 8c2b f63c 12d4 28bd 6890 94bc 4e07 b73b
00000120: 5453 203c 5265 a1bb 49da 5dbb 32ad ba3d
00000130: c802 40bc 452f 59bd 246f e0b8 0954 c4bd
00000140: 5a1e b3bb 85b4 29bc 4815 a13d 3baf 1cbd
00000150: a119 603b 9572 c9bb f6bc 18bd 90eb bd3d
00000160: 3b28 923c acf3 873b 7752 c1ba cdfc 623d
00000170: 711d 23bd a293 843b 99af 8c3a ab08 f4bc
00000180: e55e 2b3d 2ae4 8fbd 06f0 40ba b7f3 923c
00000190: a4db 5cbd 603f 0dbb f51b 1ebc ab4b b43b
000001a0: 3031 0b3b 166c 163d 3796 4d3d 6b69 f7bd
000001b0: f965 4d3d 0dbe 373c 83c3 a33c 6acd d4bd
000001c0: f792 5a3b 6880 31bc f295 88bb ec0e 3abc
000001d0: bd68 15bc 0cb8 79bb b498 f3bc 9e53 13be
000001e0: 9134 8ebc ab46 50bd 7d6b 5d3d f2ad 363d
000001f0: e77a 79bc 2a0d a83d eb87 13bd b34c fbb9
0.006655372 -0.0041420087 -0.09693844 0.010405255 -0.0035731639 0.20386575 0.016320296 0.072866105
0.017308353 0.08671152 -0.009064146 0.028660486 -0.028646173 0.014116029 -0.07476153 0.301947
-0.013369556 0.0357141 -0.22237931 0.049972158 0.008436608 0.008597521 -0.21668063 -0.018745733
-0.004599629 0.00561366 -0.03400039 0.055052698 0.005889267 0.005007499 -0.002465234 -0.03568935
-0.0005740492 -0.11891045 0.0074415524 0.013186544 0.040398154 0.07706604 0.0019640648 0.012150593
0.0045515336 0.084766775 0.0011923243 -0.08088771 0.004121533 -0.044444222 -0.020285498 0.001355379
0.06768971 0.065323114 0.06658255 0.11065228 -0.0033767659 -0.036182012 -0.0041153077 0.10448364
-0.0037128036 -0.05508024 0.016447842 -0.009872629 -0.022473164 0.007950162 0.10399286 0.0016434494
0.0073534776 -0.037958242 -0.0013940391 -0.010386783 0.030050062 -0.04121787 -0.018135265 0.0055855876
0.009785492 -0.0049254084 -0.0033852032 0.09115066 -0.011719413 -0.053023595 -0.00010701854 -0.09586341
-0.0054662647 -0.010357981 0.07865387 -0.03825305 0.0034194964 -0.0061476924 -0.037289582 0.092734456
0.017841449 0.004148921 -0.0014749308 0.05541687 -0.039823 0.0040459195 0.0010733485 -0.02978929
0.041838545 -0.07025941 -0.0007359985 0.017938478 -0.053920403 -0.0021552667 -0.00965022 0.0055021844
0.0021239035 0.036724173 0.050192084 -0.12080654 0.050146077 0.011214745 0.019990688 -0.10390742
0.0033351758 -0.010833837 -0.0041682655 -0.011356097 -0.00911921 -0.0038104085 -0.0297359 -0.14387366
-0.01735905 -0.050848644 0.054057587 0.04459948 -0.015227056 0.08205636 -0.036018293 -0.00047931596
