models/DoublePendulum2/alphalimit_100/model_state_dict.pth (torch, 49644 bytes, 8 tensors)

hidden1.weight f4 [32, 7]
000000 fd 30 30 3f ff 9f db be ac a1 83 3f 7e ae f3 3e
       0.6882475 -0.42895505 1.0283713 0.47594064
000010 4b 08 b0 bd 77 ef 14 3f e2 c4 32 be 34 dc 3b 3f
       -0.08595332 0.58177894 -0.17457917 0.7338288
000020 a6 90 b7 3e f8 e3 c3 bc e5 aa 54 3e 83 7a 9e bd
       0.35852545 -0.023912415 0.20768316 -0.07738211
000030 40 c2 d2 3e ef 63 2c be 75 3d 28 bf 79 25 73 bd
       0.41163826 -0.16834997 -0.65718776 -0.05936191
000040 83 15 5d 3f 17 12 af 3e 53 db 1c 3f 15 5a c2 3c
       0.8636095 0.3419349 0.6127216 0.023724595
000050 4a d9 b5 3c fd a9 bd be 84 62 5e bd 2e 6d d4 bf
       0.022198338 -0.37043753 -0.05429317 -1.6595819
000060 15 52 fa 3d 65 88 e7 bd ff f1 f9 3e 16 4d a8 3d
       0.12222687 -0.11305312 0.4881744 0.08217828
000070 6e 4f cb be e2 54 d1 3e 94 95 5f bf 4b e9 cd 3f
       -0.39709038 0.40885073 -0.87337613 1.608682
000080 52 60 8b 3e 8f c4 4a be 0c 05 dd be f0 ee 1a be
       0.27221924 -0.19801544 -0.43167913 -0.1513021
000090 f5 15 f6 3e 7f dc b9 be 58 96 8c be b6 51 09 be
       0.48063627 -0.36301038 -0.27458453 -0.13410076
0000a0 c8 a2 79 3e cd f5 b4 be ca 68 5d 3f 2f f7 77 3e
       0.24378502 -0.3534378 0.8648802 0.24215387
0000b0 54 63 88 be 58 1a a5 3e 12 aa 51 be d4 0c 8a 3e
       -0.2663828 0.3224666 -0.20475033 0.26962912
0000c0 21 75 11 be fe 6f 09 be 8f 5a 05 bf d0 4b 47 3e
       -0.14204837 -0.13421628 -0.52091306 0.19462514
0000d0 b5 1d 0a 40 97 8c 97 be ff 0c 58 3e a7 f1 a5 3e
       2.1580632 -0.2959945 0.21098708 0.3241093
0000e0 5f b7 57 3e 59 ff c5 be 3a d5 06 40 97 ab 2e 3f
       0.21066044 -0.38671377 2.1067643 0.68230575
0000f0 b1 10 a0 bd d9 ef d8 3e 45 f4 d3 bd 7a 34 2d 3f
       -0.07815684 0.4237049 -0.10349325 0.676582
000100 04 9e e4 be 8a fa 6d be 49 92 8e bf 84 bd fb 3e
       -0.44651806 -0.23240104 -1.1138393 0.49168026
000110 89 70 17 be 5c f5 b8 be 05 59 a3 3e 78 d4 01 bf
       -0.14789023 -0.36124694 0.31903854 -0.50714827
000120 06 e7 65 3f 7b 93 9b bf be 4b f5 3c e2 cd 10 be
       0.8980564 -1.2154382 0.029943343 -0.14141038
000130 a8 53 a4 3e 0b 9d d5 3e 84 f7 b4 be ac df f6 3f
       0.32095075 0.41721377 -0.3534509 1.9287009
000140 7b 71 5c be 3b f3 f9 bd fe c2 c3 3c 3d 76 9d bd
       -0.21527664 -0.12204596 0.02389669 -0.07688568
000150 2a 9c 1a 3e 71 34 02 bf 9e a2 23 bf d2 d0 f5 3f
       0.15098634 -0.5086127 -0.6392001 1.9204352
000160 a0 60 70 3d 87 d2 ac 3e 9d ca 0e 3e 5b 8d d8 be
       0.0586859 0.3375437 0.13944478 -0.42295346
000170 88 9d 52 3e 16 81 80 3e 82 cb d8 bf 87 e8 80 be
       0.20567906 0.25098485 -1.6937106 -0.25177404
000180 57 cd af 3b 04 78 a1 bd d9 7e e1 3c 33 f1 99 be
       0.0053650546 -0.07884219 0.027526306 -0.30066833
000190 9f be ea 3f dd 3e 94 3f 05 8a dc 3e de a2 8f 3d
       1.8339423 1.1581684 0.4307405 0.07013486
0001a0 52 8a fd be df 4f a3 be 2e 19 4f 3f ce 01 0b 3f
       -0.49519593 -0.31896874 0.80897796 0.5429963
0001b0 10 62 57 bf 4b 10 b3 be bc f5 77 3e 42 ba 8f 3e
       -0.84134007 -0.34973368 0.24214834 0.2807179
0001c0 ef 2c bb 3e 4b 16 6f bf 28 51 85 bd a2 af ab bb
       0.3655772 -0.9339339 -0.0650962 -0.005239443
0001d0 5d 3a 1e 3f ae 65 b5 3e 00 ac ec be e3 7a d5 be
       0.61807805 0.35429138 -0.46224976 -0.41695318
0001e0 64 67 d7 be 46 1d 58 bf e7 62 27 bf 5e e5 17 bf
       -0.42071068 -0.8441967 -0.6538529 -0.5933436
0001f0 4d c8 17 3e 42 ee c3 bc ae 94 4b bf 36 3f 34 be
       0.14822502 -0.023917321 -0.7952374 -0.17602238
000200 fb 00 0a 3e 4c ea 18 40 1d 2e b6 be 9c fb 32 3e
       0.13476937 2.3893003 -0.35582057 0.17478794
000210 6f 27 2a 3e 5b 13 80 3e f7 ac 90 3e d0 52 50 3f
       0.16616605 0.25014767 0.28256962 0.8137636
000220 1e 20 28 40 dc 6c 5b 3e 05 b2 c2 bc 58 92 9c be
       2.6269603 0.21428245 -0.023766527 -0.305804
000230 51 b5 10 3d fd f1 bc be c0 c6 fb be 6d 0f 4d 3f
       0.035329167 -0.36903372 -0.49175072 0.8010166
000240 b6 77 8a 3e db ff a3 be 53 8a 08 3e 23 d9 89 3d
       0.27044457 -0.3203114 0.13334017 0.06730869
000250 37 85 16 3c f7 fb df 3f 2b fc 23 c0 dd d8 d5 3e
       0.009187034 1.7498769 -2.562266 0.41767016
000260 78 d7 ce be 31 99 1b 3d 69 d6 a2 be 6f 92 49 be
       -0.40398765 0.03798789 -0.31804207 -0.19684766
000270 40 d5 76 be b2 da 50 be bd 8f 4f 3e c2 69 e3 bd
       -0.24104786 -0.20395926 0.20269676 -0.11104156
000280 aa e8 77 be 08 fb ff 3d 7c fa cd 3d 87 fe 65 3e
       -0.24209848 0.12499052 0.10057542 0.22460376
000290 ca 64 33 be 62 9d d1 3d 99 18 f0 bd d0 76 d4 bd
       -0.17518917 0.102350965 -0.11723442 -0.10374224
0002a0 64 a1 e4 be 48 13 60 be 79 28 b9 bf bd 95 af bf
       -0.4465438 -0.21882355 -1.4465476 -1.3717571
0002b0 ac ab 90 be 8e 9b 3a 3e c2 92 04 3f df 67 31 3f
       -0.28255975 0.18223402 0.51786435 0.6929912
0002c0 5e 13 25 3e b7 66 46 3f 9e 3a 12 c0 64 e0 05 3f
       0.16120669 0.7750048 -2.2848277 0.5229552
0002d0 8a aa 10 bf c8 63 01 be ef 72 70 be 75 a7 85 bd
       -0.5651022 -0.1263572 -0.23481344 -0.065260805
0002e0 d7 5c 99 bf 19 2b a5 3f 9a e8 ac be 4f f4 28 bd
       -1.1981457 1.2903777 -0.3377121 -0.041248616
0002f0 01 74 8f bd ca b8 c3 be e5 12 0b 3f 7f e1 5d bf
       -0.07004548 -0.3822692 0.54325706 -0.86672205
000300 83 a5 c6 3f f3 0e 58 3d ea e2 0a 3f b3 ee 6c be
       1.551926 0.05274863 0.54252493 -0.23137932
000310 76 93 b9 3e 6d d6 e3 3e 46 98 84 3f c7 2d 9b 3f
       0.36245316 0.4449953 1.035897 1.2123345
000320 d8 47 91 3e a0 7b c4 be ff 3f 8e 3e 9f d5 d4 be
       0.28375125 -0.38375568 0.277832 -0.4156923
000330 d6 ae ef 3e 4a 4f c1 bf 1b d7 72 3f 42 df 39 be
       0.46813077 -1.5102322 0.94859475 -0.18151572
000340 2a c1 b2 3a 29 8e f0 3d 78 1b 12 3f 8c 79 47 be
       0.001363789 0.11745865 0.57073164 -0.1947996
000350 c1 ae 82 bf 07 ba e0 be 9d de 03 3f 68 b5 d7 3e
       -1.0209581 -0.43891928 0.51511556 0.4213059
000360 d6 76 1c 3e c2 b6 79 be 01 0e ea be 50 ff d9 be
       0.15279707 -0.24386123 -0.4571381 -0.425776
000370 50 6f 03 c0 89 32 a6 3d f1 d3 05 bf cd 8d 89 bd
       -2.053669 0.081151076 -0.5227652 -0.067164995

hidden1.bias f4 [32]
000000 36 64 d6 3d 50 31 52 be cf f6 b5 bc 2c 89 0d 3e
       0.104683325 -0.20526624 -0.022212414 0.13821858
000010 ae 44 2c 3e 1e 5a 53 3e 7e c5 81 bd 6a 04 fc bc
       0.16823074 0.20639846 -0.06336497 -0.030763824
000020 2e 6f 0e 3e 87 36 05 bd 75 71 77 bc 41 5d fd 3d
       0.13909599 -0.032522704 -0.015102734 0.123713024
000030 54 2b 39 bc c2 79 ac 3d 44 b5 a6 3d c1 8a 91 bd
       -0.011301834 0.08421661 0.081400424 -0.07106543
000040 03 d8 97 be 17 8d 15 ba 8c 92 81 3d 2b 65 d6 3c
       -0.2965699 -0.0005704923 0.0632678 0.026171288
000050 19 b1 cd bd c7 f0 a1 3d 58 65 ce be 15 3c 93 be
       -0.10043544 0.07907253 -0.40311694 -0.28756776
000060 11 55 03 bd 8d 4b 42 3e ed b1 3c 3e cf 66 a2 bc
       -0.032063548 0.18974133 0.18427248 -0.019824414
000070 4c 3c a4 3c 9b 4d 98 3d 9a d7 f9 bc 78 b6 1a bb
       0.020048283 0.07436677 -0.030498315 -0.0023607295

hidden2.weight f4 [64, 32]
000000 b3 21 2f bc 30 b1 f4 be 7f c5 e6 be fd 6e 28 3d
       -0.010689187 -0.47791433 -0.45072553 0.04112147
000010 6b 9d 75 3e 03 4d 51 3e d2 e1 67 bf 7b 80 25 3f
       0.23985831 0.20439534 -0.9057895 0.6464917
000020 3c e4 c1 bc f3 66 6a bf 11 f4 2c bf ed ef 80 be
       -0.023668401 -0.9156334 -0.67559916 -0.2518305
000030 90 92 13 3f 87 d5 01 be 44 88 41 bb 1b 4b 63 3e
       0.5764551 -0.1267911 -0.0029530684 0.22196619
000040 0a dd 2a bf 7a 0a 49 3d ef e4 3b bd 05 66 c0 bf
       -0.6674353 0.049082257 -0.045872625 -1.5031134
000050 b9 19 84 bf 0f a1 32 be 6f 6b a4 bd 64 2b dc 3c
       -1.032035 -0.17444251 -0.08028304 0.026876159
000060 d5 17 a5 be 1c 9a 23 3d df 9a 55 3e 9d b8 cf be
       -0.32244745 0.039941892 0.2085986 -0.40570536
000070 3b 63 88 be 3d 2d 8f 3d f9 16 0a bf dc 68 e2 be
       -0.26638207 0.069910504 -0.53941303 -0.44220626
000080 c6 c1 ca bd ca ee 0f bf 6c 60 72 3e 89 e0 ec bd
       -0.099002406 -0.5622374 0.23669595 -0.11566264
000090 15 91 c0 3d 79 9c ca 3d 3b 40 62 3e 3a 42 f2 3e
       0.09402672 0.09893126 0.22094814 0.47316152
0000a0 d5 4d aa bd 54 39 c7 3c 7f ef ad bf d6 24 c6 bd
       -0.083156265 0.024319328 -1.3588713 -0.09674995
0000b0 8d 4c 98 3e e3 c8 b9 3b f9 80 f6 3d 49 eb ca bc
       0.29745904 0.0056696995 0.12036318 -0.024770396
0000c0 fd 8c 28 bf 07 ee 48 be ee 28 e4 bd a9 e9 7c bf
       -0.6584013 -0.1962205 -0.11140619 -0.9879404
0000d0 66 0a 83 bd 15 b0 7b 3e 54 87 4f bd a3 2b c7 bc
       -0.06398468 0.24578889 -0.05066617 -0.0243128
0000e0 f1 43 46 bf c0 a6 ef bd aa db a9 3d 05 fd a6 bf
       -0.7744742 -0.11701727 0.08293851 -1.3045965
0000f0 ed 1d 2e bf 13 a8 00 3e de ce 0f 3e 7f a3 55 bf
       -0.68014413 0.12564115 0.14043757 -0.834526
000100 2c 5b 16 3e 2c 83 b5 3e 97 e6 e5 bc 13 f2 43 be
       0.14683217 0.3545164 -0.028064055 -0.19135313
000110 a1 fc 4b bc 58 8e df bd 92 a9 be 3e 81 08 3e be
       -0.012450368 -0.10915822 0.37238747 -0.18557931
000120 95 ca 2a bd f7 84 63 3d c9 60 d1 3e a6 3c 81 3e
       -0.041697104 0.055546727 0.40894154 0.25241584
000130 88 00 d5 3c 93 4f 73 be 20 70 bb 3d c8 4d a3 3d
       0.02600123 -0.23760824 0.091522455 0.0797382
000140 8b 65 08 be d8 26 c5 be f6 43 23 be 52 a7 a4 bc
       -0.13319986 -0.38506198 -0.15943894 -0.020099316
000150 b9 1f 82 bb 70 61 fd 3d 53 e8 01 be ef f2 44 3e
       -0.003971067 0.123721 -0.12686281 0.19233297
000160 e3 0b 28 bf 78 4e 33 3e 82 b6 16 be 9b 86 cf be
       -0.6564314 0.17510402 -0.14718059 -0.40532383
000170 84 4e 84 3e e8 4d c1 be cf 1d d4 3e 35 1b 8e be
       0.25841153 -0.3775475 0.41428992 -0.27755132
000180 64 77 be be 8d 99 9c be 1f 51 ce bd dd 20 22 3e
       -0.37200463 -0.305859 -0.10074066 0.15832849
000190 1b 03 50 3e a1 96 0b 3e f2 19 ab 3e 95 7b 75 bc
       0.20313685 0.13631679 0.33418232 -0.0149830775
0001a0 62 a6 85 be f1 a6 56 bc bc 27 37 be 59 c3 ae be
       -0.26103503 -0.013101325 -0.17886251 -0.34133413
0001b0 2f 56 7a 3d 45 d8 b8 3d 1f 65 b7 be d3 04 11 bd
       0.061117347 0.09025625 -0.35819337 -0.03540499
0001c0 40 7e 3d 3e d2 02 d8 bd 4a 5c 8e be a7 36 19 be
       0.18505192 -0.10547413 -0.27804786 -0.14962254
0001d0 ed 34 30 3e e5 95 80 3d 2c 58 77 3d 5a 2a 6b 3d
       0.1720769 0.0627859 0.06038682 0.057413436
0001e0 a4 a8 ec 39 a7 71 95 3e 71 7f a4 3d 8a 9f 80 bc
       0.00045139075 0.29188272 0.0803212 -0.015701074
0001f0 61 52 52 be bd 5f 9b 3c d0 82 ec 3d a9 74 4e be
       -0.20539238 0.01896655 0.11548388 -0.2016169
000200 e9 3b 3f 3d 47 e6 b4 3e 26 eb b0 3e c8 13 49 3c
       0.046687994 0.35331938 0.34554404 0.012272783
000210 d4 5a c9 3c 3a c1 0e bd 37 aa 62 be b7 5d 91 3e
       0.024579443 -0.034852244 -0.22135244 0.2839181
000220 5b 81 cb 3d 3f 02 1c 3e e2 99 be 3e dc ac 69 3e
       0.09936782 0.15235232 0.37226778 0.22819847
000230 60 a5 95 3e a0 46 b3 3d 46 1a ae 3e 25 cd 2a 3f
       0.29227734 0.08753705 0.3400442 0.66719276
000240 84 c2 8e 3e a1 86 b4 3e 79 44 8f 3e 2f 7e 11 bf
       0.2788278 0.35258964 0.27981928 -0.56833166
000250 cb 06 ce be 24 8f 09 3d 7d 5d d4 bd 98 3d 00 be
       -0.40239558 0.033583775 -0.10369394 -0.12523496
000260 b8 f8 5a 3e 7c 83 36 be d8 37 72 bd b2 40 04 3f
       0.21383941 -0.17823595 -0.059135288 0.5166122
000270 dc 0c 01 bc 97 58 be bc e7 72 a2 bd 8e a4 45 3e
       -0.007876601 -0.023235602 -0.07932072 0.19301054
000280 9e 4b 6e be ef a6 47 3e 6e bf c8 be 99 e1 06 bd
       -0.23271033 0.19497274 -0.3920855 -0.03292999
000290 7f c6 4d be e1 d9 9c 3e bb 14 fd bc eb 4c 0c be
       -0.20095252 0.30634978 -0.030893674 -0.13701217
0002a0 12 68 00 bd d6 6f cd 3d 7d 4b 6c bd 5c f6 e2 3c
       -0.03134925 0.10031097 -0.05768918 0.027705364
0002b0 1e c6 37 be f7 1e 3e 3e cd 92 bf be 73 bd 9d 3e
       -0.1794667 0.185665 -0.37416688 0.308086
0002c0 1e 1f ba bc 3b 97 05 3e 8a a0 73 be 9c 9d f8 be
       -0.022719916 0.13045971 -0.2379171 -0.48557746
0002d0 83 44 8b 3d e1 35 de 3e 56 b4 f9 3d 96 db ff 3d
       0.06800177 0.4340048 0.121925995 0.124930546
0002e0 31 c5 e2 bd d7 cd de 3e fd b0 9d be 3e 52 3a 3e
       -0.110727675 0.43516418 -0.30799094 0.18195435
0002f0 4c ab 44 3e df 97 34 3e d9 89 7b bd ae 64 fa be
       0.1920597 0.17636059 -0.06141076 -0.48904938
000300 3b fc 78 be 7f 66 ce be 0f b8 a4 be df 96 b4 3e
       -0.24314968 -0.40312573 -0.32171676 0.35271356
000310 af 59 a6 3e 49 61 cf 3d 72 f4 82 be 84 70 17 3f
       0.32490298 0.101259775 -0.25577122 0.5915606
000320 9f 37 52 be 7c 98 9d be 14 5a 8f be eb e7 bc be
       -0.2052903 -0.307804 -0.27998412 -0.3689569
000330 3e 58 c5 3e a1 c5 a0 bd 32 21 98 bc 5a c1 f0 3d
       0.38543886 -0.07850195 -0.018570516 0.11755629
000340 bb 8d ee be b5 ff 8f 3e 87 a8 f8 3b ef 76 80 bf
       -0.46592507 0.28124776 0.0075884494 -1.0036296
000350 ce 79 bc be 9f 3f 2e bf ae 0d e7 bc 85 21 9c bd
       -0.3681168 -0.6806583 -0.028204765 -0.07623581
000360 9e 32 27 3f 55 41 2b 3d ff da b0 3e 92 bb 0f 3f
       0.6531161 0.041810352 0.3454208 0.56145585
000370 cc b5 69 bf 62 97 c4 3e 92 17 62 be c2 ef 15 3d
       -0.91293025 0.38396746 -0.22079304 0.036605604
000380 d5 88 3a 3e be f0 a0 be 35 46 ae be ba 20 48 3d
       0.1821626 -0.31433672 -0.3403794 0.048859335
000390 06 17 16 3e 84 0d ad bd 81 90 c3 3c 65 3d 88 3e
       0.1465722 -0.084498435 0.023872616 0.2660934
0003a0 3b 1a a9 3d 70 c4 86 bd 38 e8 0e be 6e ad 49 bd
       0.08256956 -0.06580436 -0.13955772 -0.04923766
0003b0 08 d7 93 3e 40 d7 84 be f5 ad 8e 3d 91 a1 49 3e
       0.28874993 -0.25945473 0.069667734 0.19690539
0003c0 38 85 b7 bd 58 85 b3 be 38 89 23 be c2 ff 82 be
       -0.08960956 -0.3506267 -0.15970314 -0.25585753
0003d0 42 e5 2c bf 2c b0 58 be 00 e0 31 be 7a 3f 87 bd
       -0.6753732 -0.21160954 -0.17370605 -0.06603904
0003e0 d5 15 7d bf 9d 4b 0f be 05 0f 4e bd 65 59 0a bf
       -0.9886144 -0.13993688 -0.050307292 -0.54042655
0003f0 dd d2 9c 3e ac 84 3b bd 91 e5 23 be 0d 07 0b bf
       0.30629626 -0.045780823 -0.16005541 -0.54307634

hidden2.bias f4 [64]
000000 33 4b 3a 3c f3 c3 9e 3d d0 6d 38 3e b2 28 27 3d
       0.011370468 0.07752218 0.1801064 0.040810294
000010 67 58 fb bd 51 10 9d bd c1 c0 4a bd 55 e7 4d 3e
       -0.12272721 -0.07669128 -0.04950023 0.20107777
000020 42 a6 1d be 04 c5 d6 bd 21 e6 8f 3d 28 bc 06 3e
       -0.15395454 -0.104867965 0.070263155 0.13157713
000030 5c 10 aa bd 48 06 d1 3d 17 ac d9 3c 6d bd 11 3e
       -0.083039016 0.10206276 0.026571317 0.14232416
000040 13 24 bd bc 77 06 cf 3d f0 53 7a bc e3 71 fc 3d
       -0.02308849 0.10108655 -0.015278801 0.1232641
000050 ae 07 52 3b d7 db 5a bd 90 0e 97 3d f2 1d 58 be
       0.0032048034 -0.053432312 0.073758245 -0.21105173
000060 19 1a 91 3d 74 ff fc 3d 05 90 48 be ee 97 90 be
       0.07085056 0.12353411 -0.19586189 -0.28240913
000070 85 84 f4 bc 1b 07 c3 3c e7 32 96 bc 60 ec 50 3e
       -0.029848346 0.0238071 -0.018334819 0.2040267
000080 09 2f 5e 3d 24 65 a0 3b 5a 55 ef 3d 8a 9d 4b 3d
       0.054244075 0.0048948694 0.116862014 0.049710788
000090 1a f5 7c bd c3 84 8f 3d 74 d9 ee bd 85 73 1a 3d
       -0.061757185 0.07007744 -0.1166257 0.037707824
0000a0 6c 21 b4 3d 41 50 cd bd 84 58 72 3d 1f 0b 35 3e
       0.08795437 -0.10025073 0.059166446 0.17680024
0000b0 a6 fa 8e 3d 4f 2b 11 be eb 8d a3 3d 75 48 4c be
       0.06981401 -0.14176677 0.07986053 -0.19949515
0000c0 53 d7 aa 3d e8 e9 e2 3d 79 ad 37 3e f9 1c 31 3d
       0.08341851 0.1107977 0.17937268 0.04324052
0000d0 89 4a f1 3d ff fc 13 bc 85 2d 53 bd ef af ce 3d
       0.117817946 -0.009032487 -0.051557083 0.100921504
0000e0 a8 3c 89 bc 26 ec 46 3d 77 a7 b5 3d 05 5d 9d bb
       -0.016752556 0.048565052 0.08869832 -0.0048023486
0000f0 08 bf 24 bd e4 58 88 bd 34 0a 70 3d 00 7b bb 3d
       -0.040221244 -0.066575795 0.05860348 0.0915432

hidden3.weight f4 [128, 64]
000000 49 f4 91 3e 0b 73 fe 3d 27 f5 c1 bd 02 1c 82 3e
       0.28506687 0.124242865 -0.09470587 0.25411993
000010 8e 39 ad 3d 0c 7b cc 3e 2d cd 6b 3d f7 7a 4a 3c
       0.08458243 0.39937627 0.057568718 0.012358419
000020 f0 e8 74 bc ac b5 b6 3d e5 28 ce bd d6 95 d1 3b
       -0.014948115 0.0892137 -0.10066394 0.0063960357
000030 3d 55 8c 3d 81 c1 59 bf 8b 59 0b be c5 ff 1e be
       0.068521954 -0.8506089 -0.13608377 -0.15527256
000040 12 1b 1c 3f 85 77 1b 3e 62 b2 b5 3d ad 3e 01 bd
       0.60978806 0.15182312 0.088719144 -0.031553913
000050 21 06 87 bd de 7a 9f 3e e3 38 49 3e 5d cb 7e 3d
       -0.06592966 0.31148428 0.19650607 0.06220566
000060 7e ee 2d be 56 d2 0e 3e ea ac 8c 3d 04 47 75 3c
       -0.16985509 0.13947424 0.06868918 0.014970545
000070 db d7 10 b9 7b 99 c4 be 26 f7 0a 3d e7 ad 01 3d
       -0.00013813323 -0.38398346 0.033927105 0.031659987
000080 42 3e ce bd 4c 56 9d 3d 89 0c 48 be f2 53 82 be
       -0.100704685 0.076824754 -0.19536032 -0.2545467
000090 26 3f b9 3c 3f 14 81 be 98 98 f5 bd f6 cd 23 3f
       0.02261312 -0.2521076 -0.119919956 0.63986146
0000a0 e3 2a 72 3e a5 62 ce be ae 77 00 be 63 f7 c2 3d
       0.23649172 -0.40309635 -0.12545654 0.095198415
0000b0 b3 9a 7a 3c 3f 99 25 be ea b3 69 3e db 31 06 3d
       0.015295672 -0.1617174 0.22822538 0.03276239
0000c0 26 91 29 39 ad 24 e3 3d 6c 44 fc bd b0 7c 8f bd
       0.00016171168 0.1109098 -0.12317738 -0.07006204
0000d0 ca 3d 29 3f a7 de a2 3e 89 f6 30 bd c2 97 9e 3d
       0.6610991 0.31810495 -0.043203864 0.07743789
0000e0 60 11 09 be fd 46 ad bd 87 1f df bd 33 ff ca 3d
       -0.13385534 -0.084608056 -0.10894685 0.09911957
0000f0 88 06 c3 3c c8 c5 48 3e e0 fe 01 be d8 ae be 3d
       0.023806825 0.19606698 -0.12694883 0.093106925
000100 76 38 be 3d 2b b2 38 3e 04 08 12 bd d3 1c 28 bd
       0.09288113 0.18036716 -0.035652176 -0.041043114
000110 e6 87 2c be 3a 61 e7 bc 25 ce 71 be 14 12 a7 3b
       -0.16848716 -0.028244603 -0.23613794 0.0050985906
000120 f0 fd d1 bd c7 6b e3 3d c1 ca f3 bc c3 f3 86 3d
       -0.10253513 0.11104541 -0.029759767 0.065894626
000130 a5 e0 88 be ee 87 24 3e 08 be dc 3d 90 fa 06 be
       -0.2673389 0.16067478 0.10778433 -0.1318152
000140 47 a3 4a 3e ba 2b 68 bd 60 53 96 3b 45 ef d5 bc
       0.19788848 -0.056682326 0.004587576 -0.02611507
000150 79 d9 d8 be 99 25 85 3d df f0 49 bd f0 9a be bd
       -0.42353418 0.06501312 -0.04930198 -0.09306896
000160 99 98 b1 be a0 f2 ba bd 24 e9 95 bd e7 6c 4b be
       -0.34686735 -0.09128308 -0.07319859 -0.19865762
000170 9b af 75 bd a5 08 b8 3c c5 60 ad 3e 10 ab bd 3c
       -0.059981924 0.02246506 0.33862892 0.023152858
000180 85 11 5a bd 05 b0 1a be f5 b8 f6 bd 28 14 c2 3c
       -0.053239364 -0.15106209 -0.120469965 0.023691252
000190 88 1d af be 2b a2 9b 3e d8 d6 f6 bd 96 66 d5 bd
       -0.34202218 0.30397162 -0.12052697 -0.10419957
0001a0 48 ba fb 3d db 9a 31 be a1 8b 55 be 6a 19 a2 3d
       0.1229139 -0.17344229 -0.20854045 0.079150036
0001b0 b1 54 0a bd e9 bb 37 bd 08 26 3d be bc 59 c5 bd
       -0.033772174 -0.04485694 -0.18471539 -0.09636256
0001c0 7f 9e 6a 3c d1 76 e4 3d 02 86 28 bd 89 27 de bd
       0.014320015 0.11155475 -0.041143425 -0.108473845
0001d0 f1 c8 ed 3c ba 91 ce 3d 5a 4c 55 bc c1 69 25 3d
       0.02902648 0.10086389 -0.013018692 0.040384058
0001e0 b0 9d 8c be 3a 4c 25 3e 4d 99 a8 3d 3e bc cd 3d
       -0.27464056 0.1614236 0.08232365 0.1004567
0001f0 b0 6c 57 bc b1 d1 74 bd 49 07 74 3e 8c f8 a1 3d
       -0.013148472 -0.05977029 0.23830904 0.07908735
000200 9b 77 56 3e 95 d1 61 3e 3a 33 e3 bc ee 56 03 3e
       0.20944063 0.22052605 -0.027734388 0.1282613
000210 04 6f c8 3d 23 3f 5d be 0b 0d 91 bd e6 6b 69 bc
       0.097867996 -0.21606116 -0.07082566 -0.014246916
000220 3c 8c dc bd 1d 81 49 bd 32 8d 16 3d 20 f6 e2 3d
       -0.10768935 -0.049195398 0.036755748 0.11082101
000230 d9 e7 73 be a7 b8 77 3d 2e 91 3d 3e bc 2e 86 be
       -0.23818912 0.060478833 0.18512413 -0.2620753
000240 83 3d 2e be 06 4b 8e 3e 66 49 a4 bd 41 d0 ba 3b
       -0.17015652 0.27791613 -0.08021812 0.0057010953
000250 21 e1 9f be e9 a5 83 be fc 82 74 3d 0c a1 ec be
       -0.31226447 -0.25712517 0.05969523 -0.4621662
000260 c9 3c 0f be 3d 58 0a be 00 0e 6a bd 78 49 5e bc
       -0.13988031 -0.13510223 -0.057142258 -0.013567321
000270 54 c8 15 39 c6 76 fd 3a 20 6f 56 3e 2d 90 3e 3d
       0.00014284375 0.0019337765 0.20940828 0.046524215
000280 b8 3e 7d be c9 e5 62 be 85 9e 10 3d 6b 83 e4 bb
       -0.24730957 -0.22157969 0.035307426 -0.006973674
000290 3b 37 17 bf ab 8e 3b be be 2e b7 3d c1 02 3b 3e
       -0.5906865 -0.18316142 0.08944462 0.1826277
0002a0 5e 60 0b 3e 3c 8e 1a be 25 5f 53 be fd bb 08 bc
       0.1361098 -0.1509332 -0.20641764 -0.008345601
0002b0 d5 7d 71 3d 19 fc 98 bd 91 83 4d 3d 56 a4 40 3d
       0.058957893 -0.07469959 0.0501743 0.047031723
0002c0 73 67 9f 3e 7a d2 c8 3c 02 bc 61 3d 51 a3 ab be
       0.31133613 0.024514426 0.05511094 -0.33523038
0002d0 2a 7d 0c 3d c9 d6 c3 3d 9f 9a 73 3d ce 4a c2 bd
       0.034299053 0.095624514 0.05947363 -0.09486924
0002e0 ad a3 be be 87 6c 8e 3c 74 48 a7 3d 02 2b 47 3e
       -0.3723425 0.017385734 0.08168116 0.1945
0002f0 54 14 41 bd 43 ae 86 be 37 a1 8b 3e 17 ca e6 3d
       -0.047138527 -0.26304826 0.27271435 0.11269014
000300 55 50 c8 bd e9 84 23 3e 9c 8a 76 bd 6f 98 9d bd
       -0.09780947 0.1596867 -0.060190782 -0.0769509
000310 bf b8 a6 bd a5 e8 20 be 55 6f 13 bf 50 f6 4b b8
       -0.08140706 -0.15713747 -0.57591754 -4.8628368e-05
000320 84 73 28 3d 4b 2b d1 bb 04 ea 01 3d 89 e0 18 3e
       0.04112579 -0.0063833348 0.031717315 0.14929403
000330 15 ab 6e 3e 14 68 1b 3e 12 86 ca 3d c7 7c 66 3c
       0.2330745 0.15176421 0.09888853 0.014067835
000340 bf cd 2a 3e 96 81 a6 bc 3a 27 bd bd 02 7f 01 3e
       0.16680048 -0.020325463 -0.092359975 0.12646106
000350 02 89 05 bf ea 84 1f bd 34 67 b5 3d be 75 36 be
       -0.5216218 -0.038945116 0.08857575 -0.17818353
000360 66 27 b4 be 06 17 56 be 14 31 73 3d ed 04 11 bd
       -0.3518631 -0.2090722 0.059372976 -0.03540509
000370 07 39 e8 3d 72 6f 58 3e 70 7f ca bb 11 8a 3d 3c
       0.11339002 0.21136263 -0.0061797425 0.011568562
000380 d7 cd e3 bd ae 04 79 be 8c 64 2d be 58 9d 2f 3e
       -0.11123245 -0.24318191 -0.16932887 0.17149866
000390 87 67 30 be 34 86 c0 3d 3c e9 23 3d 97 7e 47 be
       -0.17226993 0.09400597 0.04001735 -0.19481884
0003a0 23 9a 13 bd cd ca b1 be 35 d2 dc 3c e1 be 0e 3e
       -0.036035668 -0.34725037 0.026955703 0.13940002
0003b0 1d a5 7a bd 04 b7 78 be ac da 8d 3d 7d b3 30 3e
       -0.06119262 -0.24288565 0.06926474 0.1725597
0003c0 f4 aa c0 3d b3 9a 01 be 3c da 43 3d 15 a8 2c 3e
       0.09407607 -0.1265667 0.047815546 0.16860993
0003d0 7a 59 13 3f cb 67 b2 bc e1 8e e9 bd 64 4b 01 3c
       0.57558405 -0.021778008 -0.11404205 0.00789151
0003e0 e1 ca 87 bd 96 a9 d8 bd 0d 28 7a 3d 05 4e 22 be
       -0.06630493 -0.10579221 0.06107335 -0.15850075
0003f0 b8 cd 9a bc 5b b3 bc bd 00 b9 fe 3d 10 77 c7 bc
       -0.018896922 -0.09213897 0.1243763 -0.024348766

hidden3.bias f4 [128]
000000 8a 25 16 be 4b bc 18 3e a7 b3 33 3e cb 30 8b 3d
       -0.14662758 0.14915578 0.17549 0.06796416
000010 36 a1 0f be c7 79 29 be f5 21 ff be 4b d4 5b 3e
       -0.14026341 -0.1655036 -0.49830595 0.21467702
000020 77 34 a4 bb 12 00 f8 bd 31 45 ae bd 73 86 de 3d
       -0.005011137 -0.121093884 -0.08509291 0.10865488
000030 27 a6 e6 3d 46 ad e2 bd b6 fc 10 be c4 84 86 3d
       0.1126216 -0.110682055 -0.14158902 0.06568292
000040 c5 27 91 be 1c 1e ce 3d 23 2d 03 3d 8e 8d 17 be
       -0.28350654 0.10064337 0.032025468 -0.14800093
000050 ad 94 dd 3d 7a 50 71 bd 96 fe a3 3e ad b0 f6 3d
       0.10819373 -0.05891464 0.3203017 0.12045417
000060 01 61 87 bd 0c 8d 95 3d a4 93 ae 3c 90 c3 1c 3e
       -0.06610299 0.07302293 0.021310635 0.15308976
000070 63 7f 09 be 29 de 45 3e 50 c8 5e 3d 56 b7 3d be
       -0.134275 0.19323029 0.05439025 -0.18526968
000080 91 4f 3a 3e 48 e1 16 bc 7d f6 0a 3e 2d 00 f6 bd
       0.18194415 -0.009208985 0.1357059 -0.12011752
000090 d1 7a 8a 3d 8c ca 62 3d 93 fe f4 3d 77 9c 95 bd
       0.067617066 0.055368945 0.11962619 -0.07305234
0000a0 09 d0 43 bd 94 2e a4 bd dd 60 cc 3d ec 23 fc 3d
       -0.04780582 -0.080166966 0.09979413 0.12311539
0000b0 39 0e 28 bd 7e 77 2b 3d e1 53 0f be cf bc eb bc
       -0.04102919 0.041862004 -0.13996841 -0.028776554
0000c0 5a e4 f2 3d 6a 03 1d 3e b5 32 22 bc da e8 3d bd
       0.11859961 0.15333334 -0.009899785 -0.046364643
0000d0 27 c0 34 be a0 86 b5 3d fa db 6c 3c 60 37 13 bd
       -0.17651425 0.08863568 0.014456743 -0.03594148
0000e0 55 1d 70 3c 21 6e e4 3d 70 db b9 38 4a 96 32 bd
       0.014655431 0.11153818 8.862361e-05 -0.043600358
0000f0 0e 8d 39 3e 05 10 11 bd f4 cf 21 3e 57 4e 30 3e
       0.18120214 -0.035415668 0.15801984 0.17217384
000100 9a 26 7a bd a3 62 07 3d 39 94 d0 3d 42 ce e5 3d
       -0.06107197 0.03305305 0.10184521 0.11220981
000110 2b cf 5c be 7d bd 01 be c5 54 43 3e 2d 82 af 3d
       -0.21563403 -0.1266994 0.19075306 0.08569751
000120 cb 0e b6 3c d3 c5 3a be 16 51 07 3e 5b a2 93 bc
       0.02222385 -0.18239526 0.13214526 -0.018021753
000130 52 e3 9b bd 69 5b f6 3d 87 33 cf 3d e6 dd 91 bd
       -0.07611717 0.12029154 0.1011725 -0.07122402
000140 11 0d 23 3e 19 dc 04 be 2e 8d 07 3e 3b 4c f9 bd
       0.15922953 -0.12974586 0.1323745 -0.12172743
000150 ec 9d 0d be 43 85 45 3e c6 e2 90 3c f8 e6 21 3e
       -0.13829774 0.19289117 0.017686259 0.15810764
000160 9c cb 21 3e 52 2f ec 3d 31 b7 f0 bc ce 8d 8f 3d
       0.15800327 0.11532463 -0.029384227 0.07009469
000170 0c a9 39 3e a1 07 56 3d 72 ec b7 3b de ba 28 3e
       0.18130893 0.05225337 0.0056129033 0.16477534
000180 3e b7 a3 3d 42 46 ed bb 80 fe d8 3d eb d6 e2 3c
       0.07993935 -0.0072410414 0.10595417 0.027690371
000190 6c 69 30 3e ce a3 fc bd 74 58 c0 3d 51 b3 fe 3d
       0.17227715 -0.12335931 0.09391871 0.12436546
0001a0 0c 91 27 3e 7f 6a 91 bd b4 55 77 bd 83 59 26 bd
       0.16363925 -0.07100391 -0.060384467 -0.04061271
0001b0 02 91 1e 3e c9 05 ba 3c 47 89 e3 bc 53 bc e8 3c
       0.15485004 0.022707837 -0.02777542 0.028410112
0001c0 7e 9f b8 bc 25 e0 72 3d 22 9d 9c 3d 9f d3 4d bd
       -0.02253699 0.059295792 0.07647158 -0.050250646
0001d0 f6 d9 12 3e a8 8f 4a 3e 5c 04 40 3e 1a f1 36 be
       0.14340958 0.19781363 0.18751663 -0.1786541
0001e0 7b 2f ed 3d 71 ba 57 3c ad 43 b8 3d a2 65 d8 3d
       0.11581322 0.01316701 0.08997283 0.1056626
0001f0 a3 bd 14 be 5f f0 2f be 7b 64 fc 3d fe 5b 17 be
       -0.14525466 -0.17181538 0.12323853 -0.14781186

output.weight f4 [7, 128]
000000 b3 80 d4 3e 39 19 80 bd 02 6b fe bd 33 12 1a be
       0.4150444 -0.06254811 -0.12422754 -0.15046005
000010 cd 0e 41 3d aa da d9 3e a3 2a 40 be 20 75 dd bf
       0.047133256 0.4254964 -0.18766265 -1.7301369
000020 c4 9b 3b 3f cf 95 b1 3d ff c9 eb bc c5 20 78 be
       0.73284554 0.08671152 -0.028782843 -0.2423125
000030 05 73 c9 bd 12 7b 31 bd e6 93 6d ba 38 c7 21 bc
       -0.09836391 -0.04333026 -0.0009062871 -0.009874158
000040 1d a9 b0 3e a2 11 87 3d 73 00 9f be 27 a1 c3 3c
       0.34504023 0.0659516 -0.3105503 0.023880554
000050 28 1e 6c bd 9a b2 23 3c e1 21 2f 3d 1e 32 0e bf
       -0.057645947 0.009991312 0.04275692 -0.5554522
000060 02 c7 02 3f 9b 6f 0b be aa 5d ec bd 3d 97 df bd
       0.5108491 -0.13616793 -0.115413025 -0.10917518
000070 8c 9a b7 bc 90 1a 3e 3f b6 01 b5 bc f2 df 35 bc
       -0.02241256 0.7425928 -0.022095542 -0.011100756
000080 8b c0 5f 3e 35 d9 9a bd 85 b6 f1 3c f0 99 85 bb
       0.21850793 -0.0756096 0.029505977 -0.0040771887
000090 cb 04 8b bd 00 23 00 bd 5f 76 4e 3d 6e 22 41 3d
       -0.067880236 -0.03128338 0.050405856 0.047151975
0000a0 e7 f7 86 3c d3 fa db 3c 1f 0c c7 bc f8 69 a6 3b
       0.01647563 0.026853 -0.024297772 0.0050785504
0000b0 7c 34 f6 be 2b 46 24 3c 16 c3 90 bc b0 fe 5c bc
       -0.48086917 0.010026495 -0.01767115 -0.013488457
0000c0 54 e8 80 3d 1a f5 02 3d 12 5d 46 3d 5b 55 d3 3d
       0.06294313 0.03197203 0.048428603 0.10319015
0000d0 ec 74 1c bc cf dd 12 bd e2 63 39 bf 06 b0 c4 bc
       -0.009549361 -0.035856064 -0.72418034 -0.024009716
0000e0 ca 2e bb be 68 55 50 bd 65 52 43 3f 7e 90 1a bd
       -0.36559135 -0.0508627 0.762976 -0.037735455
0000f0 bf c1 48 bb c9 b3 07 bf dd a3 05 3e 86 63 81 bd
       -0.003063306 -0.53008705 0.1305079 -0.06317811
000100 de f0 28 bd 43 56 55 3c 06 3b 28 bd 2f 8d 90 3d
       -0.041245334 0.013021055 -0.041071914 0.07058179
000110 6f 79 82 3d 7d 79 2c bd 9f 8e 97 bc db 00 b9 3f
       0.06370818 -0.042108048 -0.018500624 1.4453386
000120 5c 50 8d 3e 35 d2 c3 bc a7 eb 00 3f 07 1f 78 3d
       0.27600372 -0.023903945 0.50359577 0.060576465
000130 54 5d 0e bf 3b 40 94 bf c0 9a ff bd 85 72 b5 bd
       -0.5561116 -1.1582102 -0.12480688 -0.088597335
000140 b2 9d 90 3c 0e aa 6a bd cc 74 91 3d 07 3f b2 bd
       0.01765332 -0.057291083 0.07102355 -0.08703428
000150 47 18 9f bc 55 1c 29 3f ca ff b8 3c fe 62 f5 3c
       -0.019420756 0.66058856 0.022582907 0.02995443
000160 eb 99 9a bf e5 d8 23 3e f9 6b da 3b e4 37 02 3c
       -1.2078222 0.16000707 0.0066657034 0.007947896
000170 57 2e 7d bd 9c 11 b5 bf 8d 6b ba 3c bd 5d a9 bf
       -0.06181177 -1.4145999 0.022756362 -1.3231732
000180 c5 1e e6 3e 09 2f a9 be 0f d8 2b 3b 7d c7 28 3f
       0.4494535 -0.33043697 0.002622131 0.65929395
000190 f3 a7 bb be 60 3f 0d bb 48 d2 89 be 77 50 15 3e
       -0.36651573 -0.0021552667 -0.26918244 0.14581476
0001a0 33 61 99 3c dd fb 0a 3c bf c2 a6 3d 3f 54 76 bd
       0.018723106 0.0084829 0.081426136 -0.060138937
0001b0 0e f8 33 3d ec 3b 16 bf 69 86 ed 3d dd 06 fd bc
       0.043937735 -0.58685184 0.11597902 -0.030887062
0001c0 8a 7a f6 be ac 80 1f bf 71 99 6b 3d 37 da 31 3c
       -0.48140365 -0.6230571 0.05751938 0.010855249
0001d0 e7 39 37 be d5 2e b4 3f 2e 10 8e be c1 6b 20 bd
       -0.17893182 1.4076792 -0.2774672 -0.039165262
0001e0 ea 76 ae 3d d2 93 28 bf c5 a3 24 3f 72 76 60 3f
       0.08518775 -0.65850556 0.6431239 0.87680733
0001f0 92 34 55 3d 32 4b 91 3e 46 a0 fb bb dc 12 97 3e
       0.052052088 0.28377682 -0.007679018 0.29506576
000200 0d e7 57 be 09 98 86 bd d6 3a 6e be 8c 02 76 be
       -0.21084233 -0.06571967 -0.23264632 -0.24024409
000210 72 8d ae 3d 6b c8 7b 3d 9f fd c3 3e 92 00 35 bf
       0.08523072 0.06147043 0.38279435 -0.70703995
000220 66 14 63 3e 50 6d 7d bd 5b fe e3 3d 8d 0c f8 3e
       0.2217575 -0.061871827 0.11132499 0.48447075
000230 a9 5a 28 be b3 64 1c 3d 37 be 89 3e 3d e9 e7 3e
       -0.16440834 0.03818197 0.26902935 0.45295134
000240 2c 3a ef 3e 06 0c a0 bd 3a 43 c2 be fe 7b 37 bb
       0.4672407 -0.07814793 -0.37941915 -0.002799749
000250 95 cc d1 bc ac 4a f1 bc c2 72 2a bc 64 44 9b 3f
       -0.025610248 -0.029454552 -0.010403337 1.2130246
000260 21 c6 4f 3e 45 a3 08 3f 36 4d 12 be a7 7c a2 3c
       0.20290424 0.5337413 -0.14287266 0.01983483
000270 9c 46 c3 3c 54 a8 33 3e b0 fa a1 3c 64 fe 68 3d
       0.02383738 0.17544681 0.019772857 0.05688323
000280 50 65 f9 be 00 c6 84 3d 65 58 e3 bd 71 2a 70 bc
       -0.48710108 0.06483078 -0.11100844 -0.014658556
000290 23 0f bd bd 3a 84 80 be e0 cf 53 be 6c f4 b2 bd
       -0.09231403 -0.2510088 -0.20684767 -0.08738026
0002a0 b9 44 12 3d 92 df 30 bd 88 7d f0 3d 9e 5c 86 bd
       0.03571007 -0.043181963 0.11742693 -0.06560634
0002b0 96 4c 8e bd c7 92 f2 bd 15 22 31 3d 45 07 42 bc
       -0.06948201 -0.11844402 0.043245394 -0.0118425535
0002c0 41 dc df bd 31 ae 97 bd 6f 47 03 3d 2b 64 91 bd
       -0.10930682 -0.07406271 0.032050546 -0.07099184
0002d0 ae a5 b2 3d dd 99 0d be 30 6d 0b 3e bb dd 54 3c
       0.08723007 -0.13828225 0.1361587 0.012992318
0002e0 de bf b3 3e 4b a9 ca bd 13 8c 62 be dc 5d 2c 3d
       0.3510732 -0.09895571 -0.22123747 0.0420817
0002f0 1c 72 39 bd c3 e7 ef bc 6e 16 de 3c 2c 24 aa bd
       -0.04527484 -0.029285317 0.027110305 -0.083076805
000300 0c 50 a3 3c e8 cf 05 be db d1 80 3e 46 4b 36 be
       0.01993563 -0.13067591 0.25160107 -0.17802152
000310 c3 f4 27 3e 18 bb 77 3d 6e 9d 29 be 62 2e 34 bf
       0.16401963 0.06048116 -0.16563961 -0.70383275
000320 ec ac 31 be 02 86 e5 bc e0 f6 41 3f 33 3c 6f bd
       -0.1735112 -0.028018001 0.75767326 -0.05840702
000330 b8 40 c8 be 34 c7 12 bf 3b de 01 be 45 37 8d 3c
       -0.39111876 -0.5733521 -0.1268243 0.017238269
000340 28 38 72 be f4 e6 1a 3d 94 93 f0 bd 36 62 a1 bd
       -0.23654234 0.03781791 -0.11746898 -0.078800604
000350 1b 9d ae 3d 1e d5 da 3f f6 c8 29 bf 42 83 e9 bd
       0.08526059 1.7096288 -0.6632227 -0.114019886
000360 ad e9 1e bf 51 d8 58 be 5f ef 2b 3c 76 8d 7d bb
       -0.6207531 -0.21176268 0.010494082 -0.0038689054
000370 ab 1c 85 be be 57 82 3f cb b9 47 3d 77 17 ef be
       -0.25998434 1.0183027 0.04876117 -0.4669759
000380 2b 2f 87 bd 6f 0e ec be 2e b4 83 bd 42 d4 48 3d
       -0.066007935 -0.46104762 -0.06430851 0.04903055
000390 d4 f4 8c 3f 90 ec 9a bc 90 60 34 3f fd 28 d4 3e
       1.1012216 -0.01891163 0.7045984 0.41437522
0003a0 02 31 26 3b 0d af f2 bc 15 53 a9 3d 88 d8 bc 3c
       0.00253588 -0.029624486 0.082678 0.023052469
0003b0 b0 4a e9 bc 4c 1d af 3e 20 78 1d bf b2 0c 0c 3e
       -0.028477997 0.3420204 -0.6151142 0.13676718
0003c0 0e 13 3d 3e df 3f 08 3e d3 d0 11 be f4 49 4a 3d
       0.184643 0.13305615 -0.14239816 0.049386933
0003d0 15 34 95 be b4 82 1c bf 45 ef 21 3e bf 06 2d 3d
       -0.29141298 -0.6113694 0.1581393 0.04224276
0003e0 1d 5c 87 bc 54 03 68 be 43 0f b4 be 7c e4 52 bf
       -0.016523415 -0.2265752 -0.35167894 -0.8237989
0003f0 97 c5 91 3e f1 bb 9a 3e 5f b6 62 be 16 97 00 be
       0.28471062 0.30221513 -0.22139882 -0.12557635

output.bias f4 [7]
000000 4c 3e 12 bd 78 25 c3 bd 07 7b 05 bd b0 d5 ab bd
       -0.035703942 -0.09528631 -0.03258803 -0.08390367
000010 7b 34 c0 bd ca 1f a3 3d 5e 25 70 3e
       -0.0938501 0.07965048 0.23451754
