models/MagneticPendulum/p1_measure_x3_N6_sep/al_model_state_dict.pth (torch, 46480 bytes, 7 tensors)

hidden1.weight f4 [32, 6]
0	0x3ecba845	0.39776817
1	0x3dbd9844	0.09257558
2	0xbed50d7c	-0.4161185
3	0x3e8583d0	0.26077127
4	0xbeeb1db3	-0.45921096
5	0xbe124993	-0.14285879
6	0xbddd2291	-0.10797609
7	0x3e6974a4	0.22798401
8	0x3e9bce43	0.30430803
9	0xbd4ada77	-0.04952475
10	0x3ed9463e	0.42436403
11	0xbda13baa	-0.07872708
12	0x3e104e2e	0.14092323
13	0xbd2696a3	-0.040671002
14	0xbe3947f2	-0.18093851
15	0xbdd5c8bd	-0.104386784
16	0xbeaf438c	-0.34231222
17	0x3d0fdfbd	0.035125483
18	0x3e51da00	0.20493317
19	0x3ba4f750	0.0050343648
20	0xbdd8e286	-0.10590081
21	0xbe7cfab3	-0.24705009
22	0xbd53dab3	-0.05172224
23	0xbdfceb06	-0.12349515
24	0xbcc4ee3d	-0.024039382
25	0x3d4f2662	0.050573714
26	0x3dca7293	0.098851345
27	0x3e07f2b3	0.13276176
28	0xbf3a1cd0	-0.72700214
29	0x3ee7798f	0.4520993
30	0x3ebbc379	0.3667257
31	0x3e590fb7	0.21197401
32	0xbdc679cf	-0.09691202
33	0xbee168d6	-0.44025296
34	0xbf1163f7	-0.5679316
35	0xbe460e19	-0.19341315
36	0x3e41bf3e	0.1892061
37	0xbe00c6fb	-0.12575905
38	0x3f0fea2f	0.5621671
39	0xbe087e59	-0.13329448
40	0x3f2e51a3	0.6809332
41	0xbe707676	-0.2348269
42	0x3e640f47	0.22271453
43	0x3dfe1072	0.124054804
44	0xbea2ad32	-0.31772763
45	0x3e638332	0.22218016
46	0xbe1bee1e	-0.15227553
47	0xbbc46840	-0.005993873
48	0xbec472fd	-0.3836898
49	0xbe2c8423	-0.16847281
50	0xbdab971b	-0.083784305
51	0xbd63877c	-0.05554913
52	0x3ed9ec7b	0.42563233
53	0xbbf45a66	-0.0074570654
54	0x3eece22e	0.4626631
55	0x3e35a71c	0.17739528
56	0x3df74bc0	0.12074995
57	0xbe86d2e2	-0.26332766
58	0xbcb2fbfb	-0.02184867
59	0x3e68f431	0.22749402
60	0xbe824c78	-0.25448966
61	0x3d4efacf	0.05053216
62	0x3eb02bcb	0.3440841
63	0x3ea3e5dd	0.3201131
64	0xbd1dad79	-0.038495515
65	0xbf0415aa	-0.51595557
66	0x3c102f3a	0.008800322
67	0xbe03c5eb	-0.12868468
68	0xbe73270e	-0.23745367
69	0xbee1647a	-0.4402197
70	0x3e52f971	0.20602967
71	0xbe0d9e6c	-0.13829964
72	0x3e170485	0.14747818
73	0x3db0fe89	0.08642299
74	0x3ea9a61b	0.3313454
75	0x3e4395bb	0.19100086
76	0x3ed54991	0.4165769
77	0x3ea8fabd	0.33003798
78	0xbec082a8	-0.37599683
79	0x3db50fa0	0.08840871
80	0x3da5aa51	0.08089126
81	0xbea8c937	-0.32966015
82	0xbe122782	-0.14272884
83	0x3ed98346	0.42482966
84	0x3ddbfbb5	0.10741369
85	0xbe156b91	-0.14591815
86	0xbe641c8e	-0.22276518
87	0x3f416f20	0.7556019
88	0xbd38c7c3	-0.045112383
89	0xbe6d4c3d	-0.23173614
90	0x3e60e00b	0.21960466
91	0xbdd8e442	-0.10590412
92	0xbdc4ec1b	-0.09615346
93	0x3de044d7	0.1095063
94	0xbf33ae7d	-0.70188123
95	0xbe6705d7	-0.22560821
96	0xbd93cf51	-0.07217277
97	0x3db68203	0.089115165
98	0x3cc84b20	0.024449885
99	0xbdfbf442	-0.12302448
100	0x3f462acb	0.77409047
101	0xbd44b1a2	-0.048020966
102	0x3eb0d60f	0.34538314
103	0x3c22d87f	0.009939312
104	0xbe04875e	-0.12942263
105	0xbe94a1b9	-0.29029635
106	0x3f0ba5ff	0.54550165
107	0x3f1b3acf	0.6063661
108	0x3ec14da1	0.3775454
109	0x3e7134b1	0.23555256
110	0x3db465c5	0.088084735
111	0x3e616d6c	0.22014397
112	0x3f2b5651	0.66928583
113	0xbf141ec5	-0.5785945
114	0x3de90b39	0.11379094
115	0x3e8e2515	0.27762666
116	0x3e494812	0.19656399
117	0xbd478401	-0.048709873
118	0xbee89bea	-0.45431453
119	0xbf240de9	-0.64083725
120	0xbe63895d	-0.22220369
121	0xbdc4e7a1	-0.09614492
122	0x3f1ebf8f	0.62011045
123	0xbedde3b2	-0.4333778
124	0x3ef5db14	0.48018706
125	0x3ec29b16	0.38008946
126	0xbe92dc3a	-0.28683645
127	0x3d8121a3	0.06305244
128	0x3dedb4c0	0.11606741
129	0x3e6fcd60	0.23418188
130	0xbf0cfb99	-0.5507141
131	0xbe6f829a	-0.23389664
132	0x3e736210	0.23767877
133	0x3e36e6c8	0.17861474
134	0x3f00eee3	0.5036451
135	0x3e85ef76	0.26159257
136	0x3f09eecf	0.5388002
137	0x3d19e753	0.037574124
138	0xbe8390e1	-0.2569647
139	0xbebf8fa9	-0.37414292
140	0xbe5f0a76	-0.21781334
141	0xbc4e2099	-0.012581014
142	0xbea62299	-0.3244827
143	0x3f044d6e	0.5168065
144	0x3cad12e0	0.021127164
145	0xbd63e0f4	-0.055634454
146	0x3ec7dd3b	0.39035973
147	0x3e7208a4	0.23636109
148	0x3f23cdad	0.6398571
149	0x3e471f2f	0.1944549
150	0xbec5234d	-0.38503495
151	0x3e82ec2a	0.25570804
152	0xbd97219a	-0.07379456
153	0xbeccd806	-0.40008563
154	0xbe903758	-0.28167224
155	0xbed40082	-0.41406637
156	0xbe2f65e0	-0.17128706
157	0xbe29bdde	-0.16576335
158	0x3e30724b	0.172311
159	0xbd724246	-0.059145235
160	0xbf1d5f06	-0.6147312
161	0x3d76a9ab	0.0602204
162	0xba6e656e	-0.00090940937
163	0x3e4a2944	0.19742304
164	0xbef3ae58	-0.4759395
165	0x3e24f2be	0.16108224
166	0xbed3588b	-0.4127849
167	0xbd8bc4ad	-0.06824622
168	0xbea5dfab	-0.32397208
169	0xbe7e31dd	-0.24823709
170	0xbe47e53c	-0.1952104
171	0x3e43fc00	0.19139099
172	0x3ebd0896	0.36920613
173	0xbd8e355a	-0.0694377
174	0x3ed71761	0.42010024
175	0x3d9a7c82	0.07543279
176	0x3e140c9e	0.14457938
177	0x3e129acb	0.14316861
178	0xbf2f0dee	-0.6838063
179	0x3eb5e4a2	0.35525995
180	0x3d0ab7e8	0.033866793
181	0x3d8a0d2b	0.06740793
182	0xbee28e79	-0.44249323
183	0x3d0b03f5	0.03393932
184	0xbeb88732	-0.36040646
185	0x3f0c3ee1	0.54783446
186	0xbea52c09	-0.3226016
187	0xbeb5f845	-0.35540977
188	0x3e2465b2	0.16054419
189	0xbe287a15	-0.1645282
190	0x3e087711	0.1332667
191	0xbea2995f	-0.31757638

hidden1.bias f4 [32]
0	0xbd15cce2	-0.036572345
1	0x3d845608	0.06461722
2	0x3d73dd69	0.059537325
3	0xbede1f4e	-0.4338326
4	0x3dbf8b7a	0.09352775
5	0x3e7966e1	0.24355651
6	0x3e9083e5	0.28225628
7	0xbecf801a	-0.4052742
8	0x3d8daabc	0.069173306
9	0xbe915900	-0.28388214
10	0x3e81bf5f	0.25341317
11	0xbe93ee22	-0.28892618
12	0x3dde9d87	0.1086989
13	0x3db16bda	0.08663149
14	0xbc830b90	-0.015996724
15	0xbca6829f	-0.020325957
16	0x3d05ef4c	0.032698914
17	0x3e586f94	0.21136314
18	0x3dd83c42	0.10558368
19	0x3e110631	0.14162518
20	0xbdc71439	-0.09720654
21	0x3e39a2e2	0.18128541
22	0x3e3bce21	0.1834035
23	0x3dfbb1a7	0.12289744
24	0x3e6d5106	0.23175439
25	0xbe2f6c25	-0.17131098
26	0xbe188929	-0.14896072
27	0x3e4c3998	0.19943845
28	0xbecaea71	-0.3963199
29	0x3ed3e4a0	0.41385365
30	0xbe6156d2	-0.22005776
31	0xbecb4346	-0.39699763

hidden2.weight f4 [64, 32]
0	0xbe540544	-0.20705134
1	0xbebe355b	-0.37150082
2	0xbb0d14ed	-0.0021527365
3	0x3e2b1bef	0.16709875
4	0x3e430e66	0.19048461
5	0x3e6840bc	0.22680944
6	0xbe94ffdc	-0.29101455
7	0xbd25f32c	-0.04051511
8	0x3e6c8487	0.2309743
9	0xbd826390	-0.06366646
10	0xbe52838b	-0.20557992
11	0xbe0ec117	-0.13940845
12	0xbd9f8a56	-0.07790057
13	0x3e43edb0	0.1913364
14	0xbbca00da	-0.0061646523
15	0xbe101f46	-0.1407443
16	0x3caa0764	0.020755477
17	0x3e26c1e2	0.16284898
18	0xbf2e8d2a	-0.6818415
19	0x3b122a83	0.002230317
20	0xbe54555d	-0.20735689
21	0xbd93acd4	-0.07210699
22	0xbeb278ee	-0.34857887
23	0x3d415241	0.047197584
24	0xbe49cad2	-0.19706276
25	0x3e40ec1b	0.18840067
26	0x3e375943	0.17905144
27	0x3cdf5617	0.02726273
28	0x3f123f70	0.5712805
29	0x3e4e2274	0.2013033
30	0x3ddfcdee	0.1092795
31	0x3df82fc0	0.121184826
32	0x3dbf1c26	0.09331541
33	0xbdea5651	-0.11442245
34	0xbda66f91	-0.08126748
35	0x3b1202a2	0.0022279401
36	0x3da57c59	0.08080358
37	0x3b781b37	0.0037858018
38	0xbe8b17ce	-0.271666
39	0x3e995ba0	0.29952717
40	0xbb16b89e	-0.0022998224
41	0xbd910671	-0.07081307
42	0x3d3600c1	0.044434313
43	0xbe005b45	-0.12534817
44	0x3de6967b	0.112591706
45	0xbe60b9ec	-0.21945924
46	0x3db75a20	0.08952737
47	0xbdddc0c4	-0.10827783
48	0x3d355c09	0.044277225
49	0x3dfb2f26	0.12264852
50	0xbe538578	-0.20656383
51	0xbe0737e6	-0.13204917
52	0xbeb98c36	-0.36239785
53	0xbd373329	-0.044726525
54	0xbe5ca8b0	-0.21548724
55	0x3d90d24f	0.07071363
56	0xbe056731	-0.13027646
57	0xbca1b2c5	-0.019738564
58	0x3dd66077	0.10467618
59	0x3cb3c53c	0.021944635
60	0xbc7670ad	-0.015041512
61	0xbe476b14	-0.19474441
62	0xbcb06808	-0.021533981
63	0x3dbec39a	0.09314652
64	0xbea93215	-0.33046022
65	0xbda625db	-0.08112689
66	0xbd065fd7	-0.032806244
67	0xbe3c6cc6	-0.18400869
68	0x3e8f2ddf	0.27964684
69	0x3e69b9f5	0.22824843
70	0xbe537bfe	-0.20652768
71	0x3c6318d1	0.013860897
72	0xbe894c42	-0.26815993
73	0xbd93f076	-0.07223599
74	0xbc8dad12	-0.01729444
75	0xbecc41bc	-0.398939
76	0xbe12d20a	-0.14337936
77	0xbbb5a15a	-0.0055429162
78	0x3d5837ba	0.05278752
79	0xbdb0f6e6	-0.08640842
80	0xbe951113	-0.2911459
81	0xbdb5b701	-0.08872796
82	0xbf045107	-0.5168614
83	0x3e9256a8	0.28581738
84	0x3dc6acdb	0.09700938
85	0x3e77f337	0.24213873
86	0xbe3111bd	-0.17291923
87	0x3d284c8f	0.041088637
88	0xbebdb0b9	-0.3704889
89	0xbd5fc6df	-0.054633018
90	0x3e7ab176	0.24481758
91	0xbdd97ad3	-0.1061913
92	0xbe34f456	-0.17671332
93	0x3e565da1	0.20934154
94	0x3dce6cab	0.100793205
95	0xbd7b4bb0	-0.061351478
96	0xbd0f53dc	-0.034992084
97	0xbc5b4bc0	-0.013384759
98	0xbd0981dc	-0.03357111
99	0xbd85764b	-0.06516703
100	0x3d97166e	0.07377325
101	0xbd769f72	-0.060210653
102	0xbdcb62e4	-0.09930971
103	0x3d2443b4	0.04010363
104	0xbe02d784	-0.12777525
105	0xbd1a8760	-0.03772676
106	0x3db901b6	0.090335295
107	0x3d874df4	0.06606665
108	0x3e1a1bd1	0.15049674
109	0xbdf6ed6a	-0.12057002
110	0x3ac97500	0.0015369952
111	0xbd55d270	-0.052202642
112	0xbdca7e8a	-0.09887417
113	0xbdcbaa87	-0.09944635
114	0x3d366bd4	0.044536427
115	0x3c978340	0.018495202
116	0xbdb8cd55	-0.09023539
117	0xbdff2fb8	-0.124602735
118	0xbe15fac8	-0.14646447
119	0x3e316921	0.1732526
120	0xbcf6d4d8	-0.030130789
121	0xbd276ea4	-0.040877
122	0xbd8520cd	-0.06500397
123	0xbdb51451	-0.08841766
124	0xbe258b5c	-0.16166443
125	0xbdd489bf	-0.103778355
126	0x3ddd49d2	0.10805096
127	0x3d1eb344	0.03874518
128	0x3e094ee4	0.13409
129	0xbd7e983a	-0.062156893
130	0x3d9ad5cc	0.0756031
131	0x3e3098af	0.17245744
132	0x3e1c4697	0.15261303
133	0xbcb543b6	-0.022127014
134	0x3d50ac8b	0.0509458
135	0xbc2cc17a	-0.010544175
136	0xbdd66fea	-0.10470565
137	0xbdff9c63	-0.12481
138	0x3da2bbf8	0.079460084
139	0x3d423a93	0.047419142
140	0x3cf2196a	0.029553134
141	0xbc8ccb06	-0.017186653
142	0xbe5fc0c1	-0.21850874
143	0xbde72021	-0.11285425
144	0x3ce70286	0.028199445
145	0xbde87353	-0.11350121
146	0xbe7679bf	-0.2406988
147	0x3c0f495a	0.008745516
148	0x3d39041d	0.04516994
149	0xbd8e1229	-0.069370575
150	0x3cf32934	0.029682733
151	0x3cbaed2f	0.022818176
152	0xbdbf80d9	-0.093507476
153	0x3dd20631	0.10255087
154	0x3db28656	0.08717029
155	0xbd2f7f5e	-0.042846076
156	0xbc9fc020	-0.019500792
157	0xbe6d0c26	-0.23149166
158	0x3d3ab8b6	0.04558631
159	0xbd0f1f0e	-0.034941725
160	0xbe618a7f	-0.22025488
161	0x3d708481	0.058720116
162	0xbd76b6de	-0.06023299
163	0xbcc736ef	-0.024318187
164	0x3d686d86	0.056745075
165	0xbe09d24e	-0.13459131
166	0xbdaad339	-0.08341069
167	0xbbdf8665	-0.006821441
168	0xbe4a006f	-0.19726728
169	0xbe1b1808	-0.15145886
170	0x3e00675a	0.12539425
171	0x3b238a84	0.0024954388
172	0x3d054a63	0.032541644
173	0xbbccb0c7	-0.0062466594
174	0x3dbbd9ba	0.091723874
175	0x3cda7db5	0.02667127
176	0xbe47977a	-0.19491377
177	0x3daac004	0.08337405
178	0xbd373b95	-0.044734556
179	0xbe3b4729	-0.18288864
180	0x3dc0625a	0.09393759
181	0xbe20fb6d	-0.15720911
182	0xbe40003d	-0.18750091
183	0xbe3be127	-0.18347608
184	0x3d50bd4a	0.05096177
185	0xbdf2ff16	-0.1186506
186	0x3e0c6f09	0.13714232
187	0xbde3aa5d	-0.111164786
188	0x3da1cb68	0.07900125
189	0xbe613db8	-0.219962
190	0xbc4c735d	-0.012478677
191	0x3dcb5506	0.09928326
192	0x3dad0db9	0.08449883
193	0x3e795e93	0.24352483
194	0xbd824eba	-0.06362672
195	0xbda59c91	-0.08086503
196	0xbe0898cb	-0.13339536
197	0x3d681d85	0.056668777
198	0xbd71289c	-0.05887662
199	0x3e9ac6b0	0.30229712
200	0x3d06695c	0.032815322
201	0x3e18a806	0.14907846
202	0xbe92cb76	-0.28670853
203	0xbd59813c	-0.053101763
204	0x3cf3ade0	0.029745996
205	0xbd92ea79	-0.07173628
206	0x3e88d06f	0.26721522
207	0x3d7007fa	0.058601357
208	0x3d9ac384	0.07556823
209	0x3e10a1f6	0.14124283
210	0x3e07fcba	0.13280001
211	0xbedce02c	-0.4313978
212	0x3e10f9b5	0.14157756
213	0xbe56b8c2	-0.20968917
214	0x3df86057	0.1212775
215	0xbd881479	-0.0664453
216	0xbdfc9910	-0.12333882
217	0x3c395d16	0.011313697
218	0xbe994af1	-0.29939988
219	0x3ddd4ab6	0.108052656
220	0xbd9e9d6c	-0.077448696
221	0x3d84de94	0.06487766
222	0xbe995dc1	-0.2995434
223	0x3c9ead45	0.01936973
224	0xbc3bee46	-0.011470383
225	0xbe6f9e90	-0.2340033
226	0x3d35c130	0.04437369
227	0x3db10c8e	0.08644973
228	0x3e70b63d	0.23507018
229	0xbd2930d7	-0.041306343
230	0x3dccf5c8	0.100078166
231	0x3e2a0038	0.16601646
232	0xbdab1c42	-0.08354999
233	0xbe4bfa08	-0.19919598
234	0xbd8a3f61	-0.0675037
235	0xbdd7827b	-0.10522934
236	0x3b025c3b	0.00198914
237	0xbf0555ec	-0.5208423
238	0x3e00fe3e	0.12596986
239	0x3dc22074	0.09478846
240	0xbe275ae9	-0.16343273
241	0x3d0c2d50	0.0342229
242	0xbe037ddb	-0.12840979
243	0xbdd6b860	-0.104843855
244	0xbd4ba448	-0.049717218
245	0xbe8319d3	-0.2560564
246	0xbd93d66c	-0.07218632
247	0xbe1866be	-0.14882943
248	0x3dc9933f	0.09842538
249	0x3e1b347e	0.15156743
250	0x3e322a20	0.17398882
251	0x3db87f85	0.090086974
252	0xbe6af279	-0.22944058
253	0x3d9299c1	0.071582325
254	0xbe03bd75	-0.12865241
255	0xbe666aa4	-0.22501618

hidden2.bias f4 [64]
0	0x3d2220e9	0.039582167
1	0x3cf50f69	0.029914575
2	0x3e069b0b	0.13145082
3	0xbd9625fe	-0.07331465
4	0xbda9cfe8	-0.08291608
5	0x3d2bcaad	0.041941334
6	0xbdeac066	-0.11462478
7	0xbe7c6135	-0.24646457
8	0xbacb7380	-0.0015522093
9	0xbd5abda1	-0.0534035
10	0xbd867f9a	-0.06567307
11	0xbe27943c	-0.1636514
12	0xbe2aeb96	-0.16691431
13	0xbba00943	-0.0048839166
14	0xbdbf0b17	-0.09328287
15	0x3d56b646	0.052419923
16	0x3e15ac5c	0.14616531
17	0xbe0d3064	-0.13787991
18	0xbe12b134	-0.1432541
19	0xbd4a5f90	-0.04940754
20	0xbdf99422	-0.12186457
21	0x3db10df4	0.086452395
22	0xbdd2720a	-0.102756575
23	0xbd68e051	-0.05685455
24	0xbdb46adc	-0.08809444
25	0xbca0037c	-0.019532911
26	0x3de61741	0.11234904
27	0xbe26874a	-0.16262546
28	0x3c19120f	0.009342684
29	0xbdc38b0a	-0.09548004
30	0xbd1c386c	-0.038139746
31	0xbe853f44	-0.2602483
32	0xbd1de4e5	-0.03854837
33	0xbc598a5f	-0.013277619
34	0x3d3e6eff	0.046492573
35	0xbde67d90	-0.11254418
36	0xbe01cf1d	-0.12676664
37	0xbe1097a4	-0.14120346
38	0xbe0913b4	-0.13386422
39	0x3dfd7cca	0.12377317
40	0xbd97c473	-0.074105166
41	0xbd0c407c	-0.034241185
42	0x3adecd07	0.0016998359
43	0xbd571391	-0.052508894
44	0xbe48cfa0	-0.19610453
45	0x3ce48b24	0.027898379
46	0xbddffaad	-0.109364845
47	0x3ce5ad25	0.028036663
48	0xbcfeca50	-0.03110233
49	0xbb6ce978	-0.00361499
50	0xbd930dcd	-0.07180367
51	0x3c8ba635	0.017047027
52	0xbd479922	-0.048730023
53	0xbdd4bddf	-0.103877775
54	0xbce0c046	-0.027435433
55	0xbe2d74d6	-0.169391
56	0x3e0bb481	0.13643076
57	0xba79c77b	-0.0009528321
58	0xbe1b4964	-0.15164715
59	0xbde69322	-0.11258532
60	0xbdca6341	-0.098822124
61	0xbc90eb6c	-0.017690383
62	0xbe0fc824	-0.14041191
63	0xbca13375	-0.019677857

hidden3.weight f4 [128, 64]
0	0x3d6b2024	0.0574037
1	0xbd67cb3e	-0.05659031
2	0xbd77eec1	-0.060530428
3	0xbc9a1150	-0.018807083
4	0xbe00258e	-0.12514326
5	0xbb6693bd	-0.0035183274
6	0xbe057dd9	-0.13036288
7	0xbcca68ab	-0.024708113
8	0x3dadc90a	0.08485611
9	0xbdfa201d	-0.12213156
10	0x3bb388a0	0.0054789335
11	0x3df623c3	0.1201854
12	0x3c94e9e3	0.018177932
13	0xbd8bf59f	-0.06833958
14	0xbd31fe5f	-0.043455478
15	0xbe165ee0	-0.1468463
16	0xbd614adb	-0.05500303
17	0x3dde9454	0.10868135
18	0x3db89c8d	0.09014235
19	0xbd9d9b9d	-0.076956965
20	0x3d6a20cf	0.057160195
21	0x3ca64e09	0.020300882
22	0xbc82c1cb	-0.015961548
23	0xbd3019f3	-0.042993497
24	0xbd951ec2	-0.07281257
25	0x3cdba7e1	0.02681345
26	0xba2f3646	-0.00066838076
27	0xbcedcb8e	-0.029027727
28	0xbd2268e6	-0.03965082
29	0xbddac7a0	-0.10682607
30	0xbd03fd29	-0.032223854
31	0x3db180cc	0.08667144
32	0x3d9ff39b	0.07810136
33	0xbe1d33fb	-0.1535186
34	0xbdea61a7	-0.11444407
35	0xbd1b662a	-0.037939228
36	0x3dec9532	0.11551894
37	0xbd28c3b4	-0.041202262
38	0x3d0e1ec4	0.03469731
39	0xbd7099a8	-0.058740288
40	0xbd7e896c	-0.062142774
41	0x3ce9e9c2	0.028553847
42	0x3b989365	0.0046562427
43	0xbdff7f65	-0.124754705
44	0xbd994fd6	-0.074859306
45	0xbdd1b628	-0.10239822
46	0xbd9ef741	-0.07762004
47	0xbd85ae17	-0.06527346
48	0x3db16f07	0.08663755
49	0xbe246472	-0.16053942
50	0x3db5b262	0.088719144
51	0xbe03285f	-0.12808369
52	0x3d22e83f	0.03977227
53	0xbbbf6c40	-0.005841762
54	0x3a5cc8e3	0.00084222684
55	0xbe1452e9	-0.14484753
56	0xbd0b0e91	-0.03394944
57	0xbc26776c	-0.010160308
58	0x3d81196c	0.06303677
59	0xbdab46e8	-0.08363134
60	0xbb9fd8f3	-0.0048781573
61	0xbd82efa1	-0.06393362
62	0xbdfe704a	-0.12423761
63	0xbd009521	-0.03139222
64	0xbd6a7a86	-0.057245754
65	0x3d4885ce	0.04895573
66	0x3d5112c6	0.051043294
67	0x3da77d1a	0.08178158
68	0x3d71701f	0.058944818
69	0xbdd085f8	-0.101818025
70	0xbe000aa9	-0.12504067
71	0x3a961d58	0.0011452837
72	0x3d14ad08	0.036297828
73	0xbdc4ead6	-0.09615104
74	0x3dd13ca2	0.10216643
75	0xbd3ad029	-0.045608673
76	0xbda3a1cc	-0.07989845
77	0x3d3c04fb	0.045903187
78	0x3de03744	0.10948041
79	0xbca3a9b9	-0.019978391
80	0xbd97a744	-0.0740495
81	0x3c5e4550	0.01356633
82	0xbdbcb61a	-0.092144206
83	0x3d9dc878	0.07704252
84	0x3d6a4550	0.057195008
85	0xbcbfb868	-0.023403361
86	0xbdec80ec	-0.115480274
87	0x3d9929a2	0.07478644
88	0xbdd16d4a	-0.10225923
89	0xbda6f97f	-0.08153056
90	0x3d39da8f	0.04537445
91	0xbd7e74d4	-0.062123135
92	0x3c4abd76	0.012374273
93	0x3d971f79	0.0737905
94	0xbd252688	-0.04031995
95	0xbce7a150	-0.028275162
96	0x3ded4d48	0.11587006
97	0xbac1c22a	-0.0014782597
98	0x3cbd5949	0.023113864
99	0xbd675b34	-0.056483462
100	0xbddcdb58	-0.10784024
101	0x3ca04e40	0.019568563
102	0xbd9755aa	-0.07389386
103	0xbdc151d4	-0.094394356
104	0xbdfee635	-0.12446252
105	0x3d7cc269	0.06170884
106	0xbdc6af75	-0.097014345
107	0x3c4ce51e	0.012505798
108	0x3ca8db0c	0.020612262
109	0x3d915a10	0.07097256
110	0x3d353a53	0.044245075
111	0xbddc6d1c	-0.107629985
112	0x3cd8a6d2	0.026446734
113	0xbd8c8401	-0.06861115
114	0xbc391142	-0.0112956185
115	0xbd8218a7	-0.06352358
116	0xbddb2c98	-0.10701865
117	0x3d1938c8	0.037407666
118	0xbdc5379a	-0.09629746
119	0x3db6c317	0.08923929
120	0x3d4e57a8	0.050376564
121	0xbd4c4cb1	-0.049877826
122	0xbd95e924	-0.07319859
123	0xbe1f4b70	-0.15556121
124	0xbda73c81	-0.08165837
125	0xbda703b6	-0.08155005
126	0x3c5c3980	0.013441443
127	0x3ccb4bc8	0.024816409
128	0x3dde0170	0.10840118
129	0x3c89a540	0.01680243
130	0xbcd00260	-0.025391757
131	0xbd644568	-0.055730253
132	0xbc900b68	-0.017583564
133	0x3d875258	0.06607503
134	0xbdf6d6d8	-0.12052697
135	0xbdea6382	-0.11444761
136	0x3d4a0254	0.049318627
137	0xbd1df2fc	-0.038561806
138	0xbd1788f0	-0.03699583
139	0xbda4f648	-0.08054787
140	0xbdaa7516	-0.083231136
141	0xbdbfb6dc	-0.093610495
142	0xbd9bcf78	-0.07607931
143	0xbdea10e0	-0.11429
144	0xbd709e0c	-0.058744475
145	0x3dcd629c	0.10028574
146	0xbd8da78a	-0.06916721
147	0x3dc29570	0.09501159
148	0xbdd785a8	-0.1052354
149	0x3c6d7a30	0.014494464
150	0xbc29ad90	-0.010356322
151	0xbdc15204	-0.09439471
152	0x3b473b80	0.0030400455
153	0x3dd53c7a	0.104119256
154	0xbd675380	-0.056476116
155	0x3deb1a86	0.11479668
156	0xbc576cb0	-0.013148472
157	0xbd21e508	-0.03952506
158	0x3d7cbd2c	0.061703846
159	0x3dc81fea	0.09771712
160	0x3ddcf510	0.107889295
161	0x3d978a44	0.07399419
162	0xbde4cfbe	-0.11172436
163	0xbcd09090	-0.025459558
164	0x3c5ecdc0	0.013598859
165	0xbd69579c	-0.056968316
166	0x3d6f410c	0.058411643
167	0xbce16ff8	-0.027519211
168	0xbddc8c3c	-0.10768935
169	0xbd6271e0	-0.05528438
170	0xbda51e22	-0.08062388
171	0x3d441564	0.047871962
172	0xbdba49ca	-0.090961054
173	0xbd011008	-0.03150943
174	0x3c52a790	0.012857333
175	0x3d5cc674	0.053900197
176	0xbdc4e44e	-0.09613858
177	0x3db099f8	0.08623117
178	0xbda44966	-0.08021812
179	0xbdc42dec	-0.095790714
180	0x3d5136f4	0.051077798
181	0xbd9636e0	-0.07334685
182	0x3db9b49e	0.09067653
183	0x3d5caf28	0.05387798
184	0xbd7882d0	-0.060671628
185	0xbce0c8f8	-0.02743958
186	0xbd6a0e00	-0.057142258
187	0xbc427620	-0.0118689835
188	0xb99dfa00	-0.00030131638
189	0xbb470bc0	-0.0030371994
190	0xbda74a80	-0.081685066
191	0xbdd57db4	-0.104243666
192	0x3cebad24	0.028769083
193	0xbcd0695b	-0.025440862
194	0xbca6b74a	-0.02035107
195	0xbd80dec4	-0.06292489
196	0xbdf9643a	-0.1217732
197	0x3cfeec19	0.03111844
198	0xbd04bd5f	-0.03240716
199	0xbe62d31d	-0.22150846
200	0xbd6412ec	-0.055682108
201	0xbcb1ffa1	-0.021728339
202	0xbca82ee0	-0.020530164
203	0xbd27ae39	-0.040937636
204	0x3dcdc182	0.10046674
205	0x3d6da12a	0.058015026
206	0x3de60af4	0.11232558
207	0x3c46f581	0.012143494
208	0xbe107d69	-0.1411034
209	0xbd512035	-0.051056106
210	0x3e2d450b	0.16920869
211	0x3e003712	0.12521008
212	0x3b8b0abc	0.004243223
213	0xbb742531	-0.0037253613
214	0x3dd19d33	0.102350615
215	0xbe3911f1	-0.1807325
216	0xbd442bc7	-0.04789331
217	0x3d69f7c9	0.057121072
218	0xbe27c40f	-0.16383384
219	0x3dbde4cd	0.09272156
220	0xbd860e74	-0.065457255
221	0xbc150cae	-0.009097261
222	0x3ce0d4ee	0.027445283
223	0x3e2daaf3	0.16959743
224	0x3e70b847	0.23507796
225	0xbd9ce999	-0.07661743
226	0xb9a62adf	-0.0003169393
227	0xbd0596de	-0.03261458
228	0xbd80cc4b	-0.06288966
229	0x3d0dc51e	0.034611814
230	0xbdb53698	-0.088483036
231	0xbe4012da	-0.18757191
232	0xbeb5510c	-0.35413396
233	0xbe37b83f	-0.17941378
234	0x3d44c366	0.04803791
235	0x3da9ad01	0.08284951
236	0xbddbb037	-0.1072697
237	0xbd69ed58	-0.057111114
238	0x3e07150f	0.13191627
239	0xbcfc628a	-0.030808706
240	0x3da8fea9	0.082516976
241	0x3e523c20	0.20530748
242	0xbdc7a129	-0.09747536
243	0x3e2b21d8	0.16712129
244	0xbdcfde78	-0.101498544
245	0x3cba5238	0.022744283
246	0x3df0407d	0.1173105
247	0xbde6d400	-0.112709045
248	0x3dcf1cd8	0.101129234
249	0xbdf90a74	-0.12160197
250	0x3d4f7888	0.050652057
251	0x3d8f1974	0.06987277
252	0x3d02ca3e	0.031931154
253	0x3d03c10d	0.03216653
254	0xbe26a0e1	-0.16272308
255	0xbc8e832e	-0.017396536

hidden3.bias f4 [128]
0	0xbd94fbbc	-0.07274577
1	0xbd8fec1b	-0.070274554
2	0xbda340e0	-0.07971358
3	0xbe4a4f31	-0.19756772
4	0xbd9ca301	-0.07648278
5	0x3db28eb2	0.08718623
6	0xbdeaf618	-0.1147272
7	0xbd2722dd	-0.040804733
8	0xbdc1fe3c	-0.094723195
9	0xbd69fb8f	-0.05712467
10	0xbd855724	-0.065107614
11	0xbe1b19ef	-0.15146612
12	0xbdd6d85c	-0.10490486
13	0xbbeafdac	-0.0071713533
14	0xbda5c779	-0.08094687
15	0xbda31c8b	-0.079644285
16	0xbd737fe0	-0.059448123
17	0xbe06db47	-0.13169585
18	0xbdec216d	-0.11529813
19	0x3d37e93f	0.044900175
20	0xbbe1b356	-0.0068878336
21	0xbe06d734	-0.13168031
22	0xbda8c820	-0.08241296
23	0xbdb18dfe	-0.08669661
24	0xbd46f352	-0.048571892
25	0xbdaeaa21	-0.08528543
26	0xbdd02915	-0.10164086
27	0xbcacb4fe	-0.021082398
28	0xbddcc7f6	-0.10780327
29	0xbb1128f4	-0.0022149654
30	0xbd826d48	-0.063685
31	0xbcc15de4	-0.02360434
32	0xbd3f4618	-0.046697706
33	0x3d5be589	0.0536857
34	0xbca330c1	-0.019920709
35	0xbdd357a7	-0.10319453
36	0xbe14ec66	-0.14543304
37	0xbe6f1972	-0.2334955
38	0xbe5ce464	-0.21571499
39	0xbaa49c68	-0.001255882
40	0xbdfe749e	-0.12424587
41	0xbe0efb83	-0.13963132
42	0xbdd73298	-0.10507697
43	0xbe0a7e70	-0.13524795
44	0xbc96c36d	-0.018403733
45	0xbe089828	-0.13339293
46	0xbe142bbd	-0.1446981
47	0xbddf0ebb	-0.108914815
48	0xbe07186c	-0.1319291
49	0xbd601c4a	-0.05471448
50	0xbc95c3de	-0.018281873
51	0xbe1a48fe	-0.15066907
52	0xbd489359	-0.048968647
53	0xbd54cd13	-0.051953387
54	0x3e0e175e	0.13876101
55	0xbd893ff8	-0.06701654
56	0xbd8061fe	-0.062686905
57	0xbdbd18f6	-0.092332765
58	0xbe7da50d	-0.24769993
59	0xbc482e42	-0.01221806
60	0xbd9e079d	-0.07716296
61	0xbca0cb18	-0.019628093
62	0xbd43ff95	-0.047851164
63	0xbdd84ce4	-0.10561541
64	0xbccef195	-0.02526168
65	0xbda53233	-0.08066215
66	0xbd825f29	-0.063658066
67	0xbdfd71fe	-0.12375258
68	0xbe31cf0e	-0.17364141
69	0xbdb1b9d7	-0.08678024
70	0xbdcaf164	-0.09909323
71	0xbd2b7216	-0.041856848
72	0xbdaf9f7a	-0.085753396
73	0xbe11ee79	-0.14251126
74	0xbd20dc45	-0.039272565
75	0x3d47a9f1	0.048746053
76	0xbdae6b9d	-0.08516619
77	0xbd93a86b	-0.072098576
78	0xbddae1b4	-0.10687581
79	0xbdcb9cff	-0.09942054
80	0xbd82ce50	-0.06387007
81	0xbd054606	-0.032537483
82	0xbdfb9a20	-0.122852564
83	0xbcb5cb4e	-0.02219167
84	0xbe15d5ec	-0.14632386
85	0xbcd73c1c	-0.02627378
86	0xbe32f746	-0.1747714
87	0xbd50043b	-0.050785284
88	0xbd68e90c	-0.056862876
89	0x3d6228e8	0.055214792
90	0xbd8476f7	-0.06468003
91	0xbcb155ed	-0.021647418
92	0x3da08a21	0.07838846
93	0xbd8d6f79	-0.06906027
94	0x3c52737e	0.012844918
95	0xbd71e831	-0.059059326
96	0xbda1af1a	-0.07894726
97	0xbddfdf41	-0.10931254
98	0xbd43fe02	-0.047849663
99	0xbd774a55	-0.060373623
100	0xbd133535	-0.035939414
101	0xbe0bcfcd	-0.13653488
102	0x3d3dc498	0.046330065
103	0xbe0065d1	-0.1253884
104	0xbb8ddee4	-0.004329549
105	0xbe091506	-0.13386926
106	0xbdbc9491	-0.09208024
107	0xbe16f245	-0.14740856
108	0xbdaf04b6	-0.085458204
109	0xbdf85d8d	-0.121272184
110	0xbcc76a5a	-0.024342705
111	0xbca41fa6	-0.020034622
112	0xbd271936	-0.040795527
113	0xbe1737fb	-0.14767449
114	0x3d8b3658	0.067974746
115	0xbe0ba0b9	-0.1363553
116	0xbda5d0d4	-0.080964714
117	0xbdc76781	-0.09736539
118	0xbe383f04	-0.17992789
119	0xbdaadff0	-0.08343494
120	0xbda62ae7	-0.08113652
121	0xbdfed285	-0.12442497
122	0xbd9e08ec	-0.077165455
123	0xbd2cb347	-0.04216316
124	0x3dcd393c	0.10020682
125	0x3da94fcb	0.082671724
126	0xbcefb198	-0.029259488
127	0xbcbd45e9	-0.023104625

output.weight f4 [1, 128]
0	0xbc700685	-0.014649992
1	0xbbb221e9	-0.0054361713
2	0x3d593702	0.053030975
3	0xbcdddbc7	-0.027082337
4	0x3c359a60	0.011084169
5	0xbdb9b56c	-0.090678066
6	0xbc3bc528	-0.01146058
7	0x3b186a7b	0.0023256827
8	0x3da8915f	0.08230852
9	0x3b472b04	0.003039063
10	0xbcb93b27	-0.022611214
11	0xbdb23b94	-0.0870277
12	0x3ddd20e5	0.1079729
13	0x3ddf4811	0.109024175
14	0x3ab002b3	0.0013428539
15	0xbc44007f	-0.011963009
16	0x3d264978	0.04059741
17	0xbcdcd54c	-0.026957177
18	0xbe2e976a	-0.17049947
19	0xbcef4c8c	-0.029211305
20	0x3e1ec332	0.15504149
21	0x3c29291b	0.010324742
22	0x3ca6475f	0.020297704
23	0xbd55a619	-0.052160356
24	0xbaa9b9e9	-0.0012949082
25	0xbe5ad5d3	-0.2137063
26	0xbb4876b3	-0.0030588328
27	0x3acced0c	0.001563461
28	0x3be18dc4	0.006883355
29	0x39f9a90b	0.00047618928
30	0xbc22c2fb	-0.009934182
31	0xbd7519b7	-0.059838977
32	0x3d8672fa	0.06564899
33	0xbca3b490	-0.01998356
34	0x3b16fddb	0.0023039493
35	0x3c4ca7ad	0.012491149
36	0x3d3822e4	0.04495515
37	0x3d588c48	0.052868158
38	0x3c98473a	0.018588651
39	0x3df2e4f6	0.11860077
40	0x3cecae9c	0.028891854
41	0x3d8db8d0	0.06920016
42	0xbd02dfd2	-0.031951733
43	0xbc91f91b	-0.017818978
44	0x3b9a206f	0.0047035734
45	0xbb54567d	-0.0032400184
46	0xbd52301b	-0.05131541
47	0x3bd9bb17	0.0066446173
48	0x3d41b8fa	0.047295548
49	0x3bd3deb1	0.006465756
50	0x3ba5513a	0.0050450834
51	0x3d0e90b7	0.03480598
52	0x3d95a1e7	0.07306271
53	0x3a38073d	0.00070201216
54	0xbdbda6db	-0.09260341
55	0xbc49acc9	-0.012309262
56	0x3c28cdd1	0.010302977
57	0x3ca82fa0	0.020530522
58	0xbce871e5	-0.028374622
59	0x3c95500d	0.018226648
60	0x3c42e69d	0.011895803
61	0xbb3bd81e	-0.0028662751
62	0xbc0c25cd	-0.008553934
63	0xbd122eff	-0.03568935
64	0x3d871122	0.06595065
65	0xbe342d83	-0.17595486
66	0xbc85f610	-0.016352683
67	0x3c9bb085	0.01900507
68	0x3cadd787	0.021220936
69	0x3d04c5ab	0.032415073
70	0xbc741dff	-0.01489973
71	0x3de2369c	0.11045572
72	0xbc4e0369	-0.012574055
73	0xbaad29fd	-0.0013211366
74	0x3c0183f8	0.007904999
75	0xbcf4b71e	-0.029872473
76	0xbd5c3397	-0.053760137
77	0x3be9a2a1	0.0071299826
78	0xbd540269	-0.05176011
79	0x3db9e264	0.09076384
80	0x3d92d63e	0.0716977
81	0xbbf3bc99	-0.007438254
82	0x3d885c6f	0.06658255
83	0x3dfb85d1	0.12281383
84	0x3cc8ee6e	0.024527755
85	0x3c643600	0.01392889
86	0x3caa798a	0.020809907
87	0x3cb4766f	0.02202913
88	0x3b39e4ea	0.0028365203
89	0xbcedd91a	-0.029034186
90	0x3dae3936	0.08507006
91	0xbbab5276	-0.005228336
92	0xbd355ce9	-0.04427806
93	0x3b753feb	0.0037422131
94	0x3d156b0d	0.036479045
95	0x3bbd434d	0.005775845
96	0xbaf03324	-0.0018325788
97	0x3c166016	0.009178182
98	0xbe30a76d	-0.17251368
99	0xbbc3114d	-0.00595299
100	0xbab1d2e9	-0.0013566884
101	0x3c28af76	0.010295739
102	0xbc33f59c	-0.010983851
103	0x3d2cba78	0.042170018
104	0x3b1619af	0.0022903492
105	0xbb9bd3fa	-0.004755494
106	0x3c6b0230	0.014343783
107	0xbae76e57	-0.0017656785
108	0xbb44cd63	-0.0030029647
109	0xbd10ea16	-0.03537949
110	0xbd6605e8	-0.056157976
111	0x3bd6e14c	0.006557619
112	0x3bd28e52	0.0064256573
113	0xbcc85255	-0.024453321
114	0x3df3f8f5	0.11912719
115	0xbda8aa8f	-0.082356565
116	0xbc1db9b6	-0.0096267965
117	0x3dcd2562	0.10016896
118	0xbb79f5f8	-0.0038140994
119	0x3c35163a	0.0110526625
120	0xbc5a83a7	-0.013337052
121	0x3de2c772	0.110731974
122	0x3cbf3d65	0.023344705
123	0x3bc4e1fd	0.006008385
124	0xbd5ea68c	-0.05435805
125	0xbd124705	-0.03571226
126	0x3da24aed	0.07924447
127	0x3b72e592	0.0037063104
