models/DoublePendulum2/N7/model_state_dict.pth (torch, 49644 bytes, 8 tensors)

hidden1.weight f4 [32, 7]
000000 eb 7c f5 3e 82 40 ad be 5d d2 5b 3f 39 ea 3c be
       0.47946867 -0.33838278 0.85867864 -0.18448724
000010 57 53 e1 3d 55 3c 8a 3e 83 ff 8e be 72 95 93 3f
       0.11002224 0.26999155 -0.27929315 1.1529982
000020 ef a5 03 3e c9 66 f5 be 78 e4 a5 3e 26 57 5f 3e
       0.12856267 -0.4792998 0.3240087 0.21810588
000030 5d 29 18 3f 98 6d ab 3d e6 72 bf 3c 67 90 e7 bd
       0.59438115 0.08370513 0.023370218 -0.113068394
000040 c0 1f 45 3f 56 1a 39 40 26 c4 09 3f 7b 77 d4 3e
       0.7700157 2.8922324 0.53814924 0.41497406
000050 ae 9c 48 be 32 ac 16 bf 79 d6 d4 3b 6b db c4 bf
       -0.19591019 -0.588565 0.0064952937 -1.5379461
000060 5d 53 29 3e ce df ae bf ef 43 17 be e3 47 b9 be
       0.16535707 -1.366205 -0.14772008 -0.36187658
000070 1e 47 1c bf db 38 bf 3e 44 7b 67 bf b5 a2 92 3f
       -0.61046016 0.37348065 -0.90422463 1.1455904
000080 b9 f3 4e bf e9 e6 2b 3e b0 79 24 bf e7 40 1c 3d
       -0.8084064 0.16787304 -0.6424818 0.038147833
000090 e0 60 87 3d f5 ac fe 3d b2 3b 3d be f6 46 e8 be
       0.06610274 0.12435333 -0.18479803 -0.4536664
0000a0 ac 20 95 3f 9f f2 01 bf 76 30 90 3f 82 b6 3f 3e
       1.1650596 -0.50760835 1.1264789 0.18721965
0000b0 83 79 5f 3f c8 77 6a 3f b7 e5 35 bf 34 26 37 3f
       0.8729479 0.9158902 -0.7105364 0.7154267
0000c0 05 78 cb be 08 95 29 bd af d8 2c bf 40 8f 93 3c
       -0.39740005 -0.041401893 -0.6751813 0.018012643
0000d0 24 2d 9f 3f 17 6a 79 bf 43 bb bc be e5 ac 00 3f
       1.2435651 -0.97427505 -0.3686162 0.50263816
0000e0 45 3e 57 3e a6 91 3f be 6e 6b fd 3f 09 bb 40 40
       0.21019848 -0.18707904 1.979841 3.0114157
0000f0 c9 f4 f5 be b7 de 2d 3f 19 cc 06 be 89 4f 9f 3e
       -0.4803832 0.6791796 -0.13163795 0.31115368
000100 8c 36 37 bf 6c ef 6d 3e 22 ee 3b c0 d4 ce 25 3d
       -0.71567607 0.23235863 -2.9364095 0.04048045
000110 67 29 79 bf ee 3d 28 be e4 b0 c0 3e 77 df e1 be
       -0.973288 -0.16429874 0.37634957 -0.44115803
000120 9c 22 6c 3f 05 34 6a c0 8e f5 97 be 3d 80 89 be
       0.9224031 -3.659425 -0.2967953 -0.2685565
000130 99 86 84 3e 6f 96 17 3f 48 fe 5b be 3b 00 34 40
       0.2588394 0.5921392 -0.2148372 2.812514
000140 69 32 36 bf f8 66 b1 be cb e3 f1 bd a5 7a 20 3d
       -0.7117067 -0.3464887 -0.11811026 0.039179463
000150 18 a5 95 3e 65 43 df be bd 12 65 bf 98 ed 6d 40
       0.2922752 -0.43606105 -0.8948172 3.7176266
000160 8f 74 6a 3e f6 bc f1 bd a3 ff f4 3d 7c 89 02 bd
       0.22896026 -0.118036196 0.11962821 -0.031869397
000170 98 ee 45 bd cb 55 56 be 98 8f 93 c0 45 05 21 be
       -0.048323244 -0.20931165 -4.6112785 -0.15724666
000180 4a 45 ca be e9 7f 0b 3e e5 e4 2d 3e af 04 5d 3d
       -0.39505988 0.13623013 0.16981848 0.053959545
000190 fd e9 b0 3f 15 77 56 3f f3 af 49 3f 9b 45 33 3f
       1.3821408 0.83775455 0.787841 0.70028085
0001a0 c3 2a 00 bf 14 1a 27 bf df 3d 6c 3f f5 12 88 3f
       -0.5006525 -0.6527417 0.9228191 1.0630785
0001b0 c0 15 8a be 7e ac 39 bf 5f 1e 55 3f 3a b1 8f 3d
       -0.2696972 -0.7252883 0.8324947 0.07016225
0001c0 c3 32 7a 3f 81 66 44 bf e4 cf 5d be fc d5 6a bf
       0.97733706 -0.7671891 -0.21661335 -0.91732764
0001d0 7d 8c 95 3e de 63 84 3d 58 dc 89 3c 4d 6f 1d bf
       0.29208747 0.06464361 0.0168287 -0.61497957
0001e0 e4 0b 45 be 2d a9 c1 bf 38 c7 06 bf 79 6a b7 bf
       -0.19242817 -1.5129753 -0.52647734 -1.4329368
0001f0 de 31 f9 be 65 41 8f be 48 ca ab be b7 ac 13 be
       -0.48670858 -0.2797958 -0.33552766 -0.14421354
000200 ef 86 b7 3f 1c ca fb 3f 46 d3 c0 be 22 d2 21 3f
       1.4338053 1.9671054 -0.3766119 0.6321126
000210 6d 4c b2 bc 80 6d 36 3e a4 c8 eb 3e a6 ba 20 3f
       -0.021764958 0.17815208 0.46051514 0.627848
000220 bd 57 8a 40 b0 76 e2 3d ef 17 d4 bd f9 50 89 be
       4.3232102 0.11057794 -0.103561275 -0.2681959
000230 42 c5 96 3e 82 ed a9 bd 29 df 92 bf ab fd 79 3e
       0.2944737 -0.08297254 -1.1474353 0.24413173
000240 68 2b e4 3f 4b 10 78 bf 83 dc 83 3f 24 f4 1c 3e
       1.7825747 -0.9689986 1.030167 0.15327507
000250 0c 04 3e 3d 53 8a 1e 40 f9 5b 23 c0 45 09 15 3f
       0.04639058 2.4771926 -2.5524886 0.5821727
000260 4a a6 56 bf 2d 90 ae bb a9 d8 62 bf ce e7 6c bf
       -0.83847487 -0.0053272457 -0.8861185 -0.92541206
000270 52 5b 65 3f 00 a4 47 3e 41 e0 88 3f cc 66 26 bf
       0.8959247 0.19496155 1.0693437 -0.65000606
000280 99 40 05 bf 4a 0f 28 3f ff be 67 3f 29 b5 e9 3e
       -0.52051693 0.6564833 0.9052581 0.45646027
000290 e0 f4 9c be 9e ac 16 be 68 84 5d bf ab 45 25 bf
       -0.30655575 -0.14714286 -0.8653016 -0.6455943
0002a0 fe 98 2c bf 30 50 0c bf a1 6b b8 bf ef 19 f2 bf
       -0.6742095 -0.54809856 -1.4407846 -1.8914164
0002b0 8e 49 b1 3d 11 8c 14 bf 6e b1 0a 3f 00 5a 55 3f
       0.086566076 -0.58026224 0.54176986 0.83340454
0002c0 e7 61 33 3e 7e 98 bb 3f e3 5b c5 be 2e 30 c5 3f
       0.17517816 1.4655912 -0.38546667 1.5405328
0002d0 a4 37 7b bf c9 05 c9 3e 21 71 e6 be c8 91 90 3d
       -0.98131776 0.39262226 -0.45008186 0.070590556
0002e0 82 e5 d4 bf 96 40 1e 3f 38 ff db bf 44 b3 f9 bd
       -1.663254 0.618173 -1.7187262 -0.12192395
0002f0 a2 fd 1f bf bb 0a 35 bf bc 3b dc 3e 37 44 99 bf
       -0.6249639 -0.707195 0.43014324 -1.1973943
000300 9c 6f 0f 40 95 38 05 3f 88 64 9f 3e c0 81 fe bd
       2.241187 0.5203946 0.31131387 -0.124270916
000310 12 be 92 3e 9f cf 25 3f 49 0c bd 3f e3 94 c7 3f
       0.28660637 0.6476993 1.4769374 1.5592312
000320 6d b2 09 3f 94 33 09 3d 8d c1 d0 3e b7 ca 9d be
       0.5378788 0.033496454 0.40772668 -0.30818722
000330 36 04 52 3f 2c 17 39 bf e4 98 04 c0 4e 6f 05 3e
       0.82037675 -0.7230098 -2.0718317 0.1303074
000340 7b 04 08 3e 86 b3 0d 3e 25 4e 22 3c 75 5b ea 3c
       0.13282959 0.13838014 0.009906326 0.028608063
000350 9b cc fa bf 28 17 bd 3f 6c 8d 48 be 2c 31 29 3f
       -1.9593691 1.4772692 -0.19585198 0.66090655
000360 f2 4e 9c 3d 7a b6 78 bf 00 04 00 be 96 84 99 3f
       0.07632245 -0.9715344 -0.12501526 1.1993587
000370 cb 06 ab bf 05 69 6c bf e6 75 ea be c2 db 4e bf
       -1.3361448 -0.9234775 -0.45793074 -0.80804074

hidden1.bias f4 [32]
000000 49 30 c4 3d e6 74 64 be 33 79 f0 3c 3c 87 37 ba
       0.09579522 -0.22310218 0.029354667 -0.00070010475
000010 6c 7d a5 3c f0 b8 ab bd 81 3d e8 bc d8 c0 b5 bd
       0.020201407 -0.083848834 -0.02834964 -0.08874673
000020 cb 5f f5 3d e9 7f b9 3c 98 1c 4a bc cf f7 b1 3d
       0.11981162 0.022644 -0.012335919 0.08689844
000030 be 29 0c 3d 2f 8e 88 3d b8 af 22 3d 3b c8 62 be
       0.034219496 0.06667744 0.03971836 -0.22146694
000040 dd 05 1f be 37 56 11 3b 52 cb 82 3d 00 d7 0a 3d
       -0.1552958 0.0022176632 0.063864365 0.033896446
000050 08 a0 be bc 40 41 93 3d 59 43 4e be f7 9c 4e be
       -0.023269668 0.0719018 -0.20142879 -0.20177065
000060 49 7b 8b bc 53 19 1a 3e 2c 16 8b bb c7 7f a4 bc
       -0.01702656 0.15048723 -0.0042445865 -0.02008046
000070 61 59 df bb 4f 6e 64 bd 0e b3 9f 3d 50 9e 0a be
       -0.0068160747 -0.05576926 0.07797824 -0.13536954

hidden2.weight f4 [64, 32]
000000 5c 68 53 bd bb 24 1e c0 c2 68 c4 be 9c c8 e9 3e
       -0.051613197 -2.4709918 -0.38361174 0.45660865
000010 0c 9c c0 3e be 4e 4d 3e 5f 86 2e bf c6 e4 29 be
       0.37619054 0.20049569 -0.68173784 -0.16591176
000020 4a 2f fb bc fa f3 2c bf d7 b9 f1 bf de 81 be be
       -0.030662198 -0.6755978 -1.8884839 -0.37208456
000030 72 03 04 3f be 60 95 3d 60 9f 13 3e 48 17 a0 be
       0.5156776 0.07293843 0.14416265 -0.31267762
000040 d0 1a fd be 53 7d d6 3e 13 a4 13 be 6b c6 34 c0
       -0.4943452 0.4189249 -0.14418058 -2.8246105
000050 61 db 2f be ac 2f 46 be f8 2a b3 be 1f 96 ed bf
       -0.1717353 -0.19354123 -0.3499372 -1.8561438
000060 0d fb 82 be a9 0b 9b be 50 58 49 3f 59 05 66 be
       -0.25582162 -0.30282333 0.7865038 -0.22462977
000070 c2 50 2e bf 5a eb 55 3e bb 00 49 be 5c 57 55 3e
       -0.68091977 0.20890561 -0.19629185 0.20834106
000080 8b 32 8a be e0 b5 a3 bd 8d 85 1c 3f 85 f9 6b bf
       -0.26991686 -0.07993674 0.6114128 -0.9217761
000090 3f 0f 19 be 97 7b db 3e e3 04 92 be 0a 76 e6 bd
       -0.14947222 0.4286773 -0.28519353 -0.11252983
0000a0 f0 e1 84 3e 38 e3 0e bf 2b 9f 14 bf dd 7c 40 bd
       0.25953627 -0.5581546 -0.5805537 -0.04699408
0000b0 03 8b 5b 3e 31 d9 3e bd 1b 04 0c 3f e9 53 bd be
       0.21439748 -0.04659385 0.54693764 -0.3697808
0000c0 96 70 fd bb c4 b1 4f bf a7 57 82 be 8f ba f9 be
       -0.0077343686 -0.81130624 -0.25457498 -0.48775145
0000d0 21 4c e1 3e 80 5a 36 3e 86 be f1 be f1 6f 1b 3f
       0.44003394 0.1780796 -0.4721567 0.60717684
0000e0 5e 53 4a bf a1 5a 88 bc 7d f9 5f 3d 9f c9 c4 bf
       -0.7903346 -0.016644778 0.05468129 -1.537403
0000f0 3c 4e 71 bf 89 3b 11 3f 88 00 ad 3e e8 15 15 3f
       -0.9426 0.5673147 0.33789468 0.5823655
000100 1e 90 3e 3e 85 70 e0 3e b3 02 d2 bb 95 2a 71 be
       0.18609664 0.43835846 -0.006409013 -0.235514
000110 27 c4 a9 bf 1c ff eb bd 1a c0 e6 3e a8 3b 08 bd
       -1.3262986 -0.115232676 0.45068437 -0.033260018
000120 38 61 1a 3d 02 c8 5c 3e b3 90 27 3e aa 8f 10 3e
       0.03769037 0.21560672 0.16363792 0.14117303
000130 90 12 c0 3e 55 ba 18 be 22 04 9f be fb a9 a2 be
       0.37514162 -0.1491483 -0.3105784 -0.3177031
000140 34 25 21 3e b5 6d 47 bf 5e 0a 6e bc 4f 5a 08 3d
       0.15736848 -0.77901775 -0.014528839 0.03328925
000150 f0 85 3f 3d 6c a5 0c bf 12 03 a6 be 1b 61 86 3e
       0.046758592 -0.54939914 -0.32424217 0.2624596
000160 f0 75 66 bf 7e d1 98 3d 5c 68 94 be 08 75 c4 be
       -0.9002371 0.074618325 -0.2898587 -0.38370538
000170 d7 a1 12 bf 8b f8 e7 be 75 ee 56 3e 9c 13 43 bf
       -0.572782 -0.4530681 0.20989402 -0.76201797
000180 03 e0 dd be 81 57 59 bf e7 4a 8b bf e0 f0 3a 3e
       -0.4333497 -0.84899145 -1.0882233 0.18255949
000190 c4 6e af 3e 6e d0 1b 3e 91 5e 75 be bb 47 a9 be
       0.34264195 0.15216228 -0.23961855 -0.33062539
0001a0 d9 95 40 bf b9 fd c2 3d c6 ae 0e bf ba f5 b9 be
       -0.7522865 0.0952105 -0.55735433 -0.36320287
0001b0 c3 c9 6a 3d ca bd a7 3e df 59 c9 be 79 54 09 3e
       0.05732132 0.32761985 -0.3932638 0.1341113
0001c0 ac 76 ef 3e 09 c0 6a bd 7f 84 da bf 99 e7 9b 3d
       0.46770227 -0.057312045 -1.7071685 0.07612533
0001d0 a4 76 cb bb 4e e3 8d 3d ec aa 80 bf 0f b8 b4 3d
       -0.0062092114 0.069281206 -1.0052161 0.08824169
0001e0 78 87 d9 be f6 bd b1 3e b6 ee cb 3e 45 63 a9 bd
       -0.42486167 0.3471524 0.3983056 -0.08270887
0001f0 93 53 55 3e 88 e9 1a 3e dd c3 a3 3e 44 2a 90 bf
       0.20832662 0.15128148 0.3198537 -1.1262898
000200 8f bd e5 bd 6e 60 62 be 4e 9a 28 bf 46 ab 4c 3d
       -0.11217796 -0.22107098 -0.6586045 0.049968027
000210 cc 5a cb 3d d9 e7 12 be 1a f9 92 3e e4 3b a5 be
       0.099294275 -0.14346255 0.28705674 -0.32272255
000220 02 7b 23 3e 66 25 29 3e 28 2f a0 bd 69 18 76 be
       0.15964893 0.16518173 -0.07821494 -0.24032749
000230 49 6e 9e be f6 d0 a6 be 9b 12 e6 3e 86 94 09 3f
       -0.30943516 -0.325813 0.4493607 0.53742254
000240 10 47 b1 be c4 cc ee 3e 0d a6 ae 3e fc 28 07 3e
       -0.3462453 0.466406 0.34111062 0.13199228
000250 68 80 e5 3e 9b e5 dd bd 0f 49 0f 3c 6d 0a c2 be
       0.4482453 -0.108348094 0.008745446 -0.3789858
000260 28 0f f4 3e 06 e2 b7 be 8e 34 04 be 81 0b c5 3e
       0.47667813 -0.3591463 -0.12910673 0.3848534
000270 1e 2b fb 3e eb bc 55 be ba 68 75 be 7c e7 0c 3f
       0.49056333 -0.20872848 -0.23965731 0.5504072
000280 b9 ae 26 be d4 76 b8 3d 1b 0b df bd 0c 0d 11 be
       -0.16277589 0.0900704 -0.1089079 -0.14165133
000290 6a 29 39 be fe fc 86 3d ed a8 3f bd b1 6c 18 3e
       -0.18082204 0.06591223 -0.04679196 0.14885212
0002a0 0d c1 96 bc 8d 7f 32 3d 3f 00 e0 bd 5e fe 37 be
       -0.0184026 0.043578673 -0.10937547 -0.17968127
0002b0 34 6a 1e 3b 46 0c f3 bd ac 7d 11 bd f0 c2 00 be
       0.0024172189 -0.11867575 -0.03552024 -0.12574363
0002c0 61 dc b7 bc 2c 1c 19 3d f8 ef 2e 3d 23 ab 42 be
       -0.022443952 0.037380382 0.04270932 -0.19010596
0002d0 41 c9 5b 3d ac bb 3b bd 56 b4 f9 3d 91 d4 2a 3d
       0.053658728 -0.045833275 0.121925995 0.041706625
0002e0 2e 8e 0e be fc c2 a7 3d 38 7d 88 be 0e 1f 41 3d
       -0.13921425 0.08191487 -0.26658034 0.047148757
0002f0 2c a9 6d bd 60 d9 a7 bc 47 7a 23 be f7 f3 b1 3d
       -0.058022663 -0.020489395 -0.15964614 0.08689111
000300 19 89 e5 bd 1a 84 0d bf 61 af 25 bf 60 b5 98 3e
       -0.1120779 -0.55279696 -0.6472073 0.29825878
000310 6e 01 a5 3e 02 95 97 3e 0c 86 b9 3e bc 4c 60 3d
       0.32227653 0.2960587 0.36235082 0.05476068
000320 52 d2 4e bc e8 c1 b9 be 30 d2 40 3e 49 5c 64 bf
       -0.012623386 -0.3628075 0.1883018 -0.89203316
000330 90 85 23 3e 9b c1 5e be 19 4a 86 bd fe 09 f2 3e
       0.15968919 -0.21753542 -0.06557102 0.47273248
000340 04 b2 63 bf be 1f 1a 3e 45 39 47 bd 26 42 5d 3e
       -0.88943505 0.15051171 -0.0486386 0.21607265
000350 04 86 c7 be 2e 8d 0b bf 48 8c 26 3f 8f 5c 6d 3f
       -0.38969433 -0.545123 0.650578 0.9271936
000360 5e ed 81 3d 5e 8d 20 3e b2 f0 38 3f da 0b 7a 3e
       0.06344102 0.15678927 0.7224227 0.24418584
000370 e4 f8 6a be bb b7 9d 3e cd e3 39 3f 37 03 43 3f
       -0.22946507 0.30804238 0.7261322 0.7617678
000380 28 31 9f 3e 3e 6f f2 be 0a 45 e4 3e b5 e1 81 be
       0.3109219 -0.47350496 0.44583923 -0.25367513
000390 5d ab 2d bf 1d 40 1d 3f 9e 52 00 bf ae af bf bb
       -0.67839605 0.61425954 -0.50126064 -0.0058498
0003a0 b3 52 b6 3e 15 ac 74 bc 7d 8e 34 bf 2e cb 7e 3e
       0.3560997 -0.014933606 -0.7052992 0.24882194
0003b0 98 01 a1 3e bf e3 aa bf f5 55 28 3e 86 fb b8 bf
       0.31446528 -1.3350753 0.1643904 -1.4451759
0003c0 af 80 29 bf 61 79 eb be c8 60 df bc d9 51 63 3e
       -0.6621198 -0.45991042 -0.027267829 0.22199191
0003d0 b2 fc a5 bd 38 63 7d bf 63 09 0b bf b7 b1 93 bf
       -0.081048384 -0.9897952 -0.543112 -1.1538609
0003e0 40 30 2c be 41 5c d6 bd ff d9 15 bf bc b2 3e bf
       -0.16815281 -0.10466815 -0.5853576 -0.74491477
0003f0 f7 c6 30 be 1b 3f af 3e f8 38 d9 3d 46 47 28 bf
       -0.17263399 0.34227833 0.10606569 -0.65733755

hidden2.bias f4 [64]
000000 cf eb 67 3e fb 51 5f 3d 30 5e 7a 3d 62 f0 1c 3e
       0.22648548 0.054521542 0.06112498 0.15326074
000010 f7 c9 fa bd cf dd 68 be 19 38 da bd bb 23 40 3e
       -0.12245553 -0.22740863 -0.10655231 0.1876363
000020 75 25 3e be 5c 82 ec 3d 35 17 35 3e 67 38 0d 3e
       -0.18568976 0.115483016 0.17684634 0.13791047
000030 ee 69 62 be d2 ad 65 3d d8 8d f8 3b 22 7f 21 3e
       -0.22110721 0.05607397 0.0075852685 0.15771154
000040 5f 72 00 3d ae e4 27 3e 8c 06 05 bf 71 5b 78 3e
       0.031359073 0.16395828 -0.51963115 0.24253632
000050 de 8a 4f 3e 86 4d 66 bd 12 00 b6 3d 58 b4 d8 bd
       0.20267817 -0.056226276 0.08886732 -0.10581273
000060 20 f8 ac 3c 41 ca 54 3e 05 c2 66 be 31 a2 5d be
       0.021114409 0.20780279 -0.2253495 -0.21643902
000070 7b bf f2 bc cd 72 53 bd 55 70 ba 3b c6 0b d5 3d
       -0.02963232 -0.051623154 0.0056896606 0.10402636
000080 d9 f5 92 3d 20 fb 01 be 8b b8 14 3e 25 69 be 3d
       0.07175798 -0.12693453 0.14523523 0.092973985
000090 ee db 1d bd 96 24 16 3c 79 2a 34 be 3e 10 89 3d
       -0.03853982 0.009163996 -0.17594327 0.06692551
0000a0 0e 8c 83 3e 31 d5 2d be d8 94 0c 3e f2 05 a1 3e
       0.2569279 -0.16975857 0.13728654 0.31449848
0000b0 ad 98 2f 3e 79 20 5f bc 96 db 9b 3d 96 ff 3d be
       0.17148085 -0.013618582 0.07610242 -0.1855453
0000c0 5e 73 ac 3d 84 25 e2 3d f0 e3 97 3d 82 2d c7 3d
       0.08420442 0.11042312 0.074165225 0.09725477
0000d0 c8 1a ea 3c 20 10 48 3b 08 07 13 3e 27 de 52 bd
       0.028577223 0.003052719 0.14358151 -0.051481392
0000e0 74 8b c0 bd 74 94 1a 3e e8 f6 22 3e c2 e5 85 3c
       -0.094015986 0.15095693 0.159145 0.016344909
0000f0 08 bf 24 bd aa 55 20 3d 3e 0b aa bd 9e fb 54 3d
       -0.040221244 0.039144196 -0.083029255 0.051997773

hidden3.weight f4 [128, 64]
000000 88 47 c7 3c d9 b7 07 3d bf 4c 74 3e eb 90 66 be
       0.024326101 0.033134315 0.23857401 -0.2251622
000010 83 39 8c be 03 b8 e5 bc 82 1d a9 3e 8e 08 1e 3d
       -0.27387628 -0.028041845 0.33030325 0.038582377
000020 b1 c5 59 bc 99 44 82 bd 8b 0c ca 3e 78 1c 8f 3f
       -0.013291762 -0.0636074 0.39462695 1.1180563
000030 b7 84 88 bd 00 88 c1 be 43 1a 04 3e 8b 3d 0f 3e
       -0.06665938 -0.37799072 0.12900643 0.1398832
000040 75 c6 d0 3e 45 6d 1c bf 31 7e b3 bf 1b 68 02 3f
       0.4077641 -0.6110423 -1.4022886 0.509401
000050 ed 2d 21 bd e6 c8 cf be 18 48 9f 3d d4 b1 ca bd
       -0.03935044 -0.4058296 0.07777423 -0.09897199
000060 d9 9c c4 be 47 eb a8 be 94 f2 4e 3a 97 82 0b bd
       -0.38400915 -0.32992002 0.00078944233 -0.034060087
000070 de f7 a0 3c 48 a5 46 be 0c 05 88 3e 6e df 93 3d
       0.019649442 -0.19398987 0.2656635 0.0722035
000080 76 ec 90 3d 66 a2 a7 3d 72 5a da 3d 64 a8 2b be
       0.07076351 0.08185272 0.10661782 -0.16763455
000090 1d 07 23 3f ea 0d c6 bd 93 f9 5e bd 18 95 51 3e
       0.6368273 -0.09670623 -0.05443723 0.20467031
0000a0 0e 62 93 be 02 b2 7e be 68 b0 9e 3e 3d 40 9a be
       -0.28785747 -0.24872592 0.30993962 -0.30127135
0000b0 ae b6 af be bd 18 0f 3e 08 b9 22 bf d7 b1 07 3f
       -0.3431906 0.1397428 -0.63563585 0.5300574
0000c0 10 f7 3c 3e e3 db c0 bd 39 a9 e8 3a 35 e7 11 bc
       0.18453622 -0.0941694 0.0017750628 -0.008905222
0000d0 29 7e 21 3e 0f 6d 4e 3d 0b b6 36 be 36 3f f3 3d
       0.15770783 0.050396975 -0.17842881 0.11877291
0000e0 58 28 8c bf 08 67 be 3e c6 a9 17 be ea 19 d7 3e
       -1.0949812 0.37187982 -0.14810857 0.42011958
0000f0 88 06 c3 3c 61 e2 88 be e0 0d 85 3b a0 1a 98 3e
       0.023806825 -0.26735213 0.004060492 0.29707813
000100 3b f8 a1 3d ad 9a 97 3d 67 91 0e bf bb 45 51 3d
       0.07908674 0.07402549 -0.55690616 0.05109189
000110 02 cf fe bb 1a d0 2b bc 8d d6 6a be aa 80 9b 3e
       -0.007776142 -0.010486627 -0.22933407 0.303716
000120 f0 fd d1 bd d1 61 d0 3e a5 9f 6e 3c c4 a9 ef 3d
       -0.10253513 0.40699628 0.014564429 0.11702302
000130 3b 79 9b 3d 91 11 7e 3e b4 09 c4 3d fb 82 8e bd
       0.07591482 0.24811389 0.09572163 -0.06958576
000140 ca c2 7c 3e d5 19 b6 3e 82 90 af 3e 7e c7 37 3d
       0.24683681 0.35566583 0.34289938 0.044867985
000150 cc 9c 1e bf 38 64 26 be 17 5e 81 be fd 02 90 3d
       -0.61958003 -0.16249168 -0.25267097 0.0703182
000160 47 ab 04 3e d2 44 49 be 24 e9 95 bd 97 44 f4 bd
       0.12955962 -0.19655159 -0.07319859 -0.11927145
000170 e1 f3 20 be e9 b7 f4 3b bc 3d 63 3e 45 af 57 3d
       -0.15718032 0.007468213 0.22191519 0.052657384
000180 ae be b7 3e b6 90 b4 3c 4c 3b 5d be 2f 54 83 be
       0.35887665 0.02204166 -0.21604651 -0.25650164
000190 b5 73 76 bf d7 29 d8 3c a0 70 e5 bd 66 2a 0e bf
       -0.96270305 0.026387138 -0.11203122 -0.55533445
0001a0 3a 54 3a 3d 75 a1 77 be 2a 52 fc bd 7f f1 31 be
       0.04549048 -0.24182685 -0.12320359 -0.1737728
0001b0 1c eb 70 3e e4 77 47 bd 58 0b 06 bf 37 14 4f be
       0.23527187 -0.04869832 -0.5236106 -0.20222555
0001c0 bb c7 22 3e 84 e3 89 3e 3b 2a 90 3d 46 89 2b bd
       0.15896504 0.26931393 0.07039305 -0.04187896
0001d0 f7 e4 1b be 00 e9 84 3d 6b fb 82 bc 04 52 c1 bd
       -0.15224062 0.06489754 -0.015989026 -0.09439471
0001e0 66 3d 5d bd e0 15 7e 3d 48 10 16 be 6c 5e d9 3e
       -0.054013632 0.06203258 -0.14654648 0.4245485
0001f0 b0 6c 57 bc d3 c5 28 3e 32 5a 90 3d 40 7c 85 3e
       -0.013148472 0.16481714 0.070484534 0.26071358
000200 ff 53 e3 3d 30 75 b6 be 0e 85 15 be 4a 15 07 3d
       0.11100005 -0.35636282 -0.14601538 0.032979287
000210 b7 63 a6 3e 86 82 91 bd dc 12 28 bf 82 10 21 3f
       0.3249795 -0.071049735 -0.6565378 0.62915814
000220 3c 8c dc bd 15 5c 22 be 6c 5c 90 3d 7a 0b ab 3e
       -0.10768935 -0.15855439 0.07048878 0.33407193
000230 e7 f3 be bd 29 ad 03 bd 78 5e 39 3e 52 47 bc 3d
       -0.093238644 -0.03214756 0.18102443 0.09193291
000240 8d 38 9e be 19 62 66 be e3 28 21 be b7 33 ba 3d
       -0.3090252 -0.22498359 -0.15738253 0.09091895
000250 4b c6 c4 bb 1d a5 b0 bf e3 3f e1 3d ba 24 3f 3c
       -0.0060050837 -1.3800389 0.109985135 0.011666471
000260 1a e8 8e be 2b 1f 90 be 00 0e 6a bd 8c a0 28 bd
       -0.27911454 -0.2814878 -0.057142258 -0.041168734
000270 43 d8 18 3a bb 7b a0 3e d4 db f2 3c 3d 2b f9 bd
       0.00058305654 0.313444 0.029645838 -0.1216645
000280 b9 6f 03 3e a8 e6 41 3c 45 7c 19 bf dc e2 83 3d
       0.12835588 0.011834778 -0.59955245 0.06439754
000290 a0 9c 0a bf d1 7e ec 3c be 2e b7 3d 2a 6d 3e be
       -0.5414524 0.028869065 0.08944462 -0.1859633
0002a0 3a 57 52 bc e3 f4 cb be 9e 63 fb 3e e4 46 e5 3d
       -0.012838179 -0.3983527 0.4909944 0.11195162
0002b0 37 ce ea bd 34 65 27 bf 17 51 e7 3e a7 a1 1c bf
       -0.114651136 -0.653888 0.45179054 -0.6118416
0002c0 30 27 b7 3d 71 7c 21 3e a2 4f 27 3f 7f 14 cc bc
       0.08943021 0.15770127 0.65355885 -0.024912117
0002d0 14 d8 24 3e a4 66 8e be e1 af f0 bd b2 a3 88 bd
       0.16098052 -0.27812684 -0.11752296 -0.066718474
0002e0 cf d6 00 bf 71 b3 f1 3e fb e6 0c 3e d3 0f 04 3d
       -0.5032777 0.47207215 0.13759987 0.032241654
0002f0 54 14 41 bd 2e 31 55 3d 9b dc 54 3d 96 14 19 3e
       -0.047138527 0.052048855 0.0519682 0.14949259
000300 66 9b 42 3e 3d 23 9b be e5 62 9e be ee 04 be 3e
       0.19004592 -0.30300322 -0.30934826 0.37113136
000310 40 65 0d be 40 db f3 bd 41 c9 85 bf e3 76 fa 3e
       -0.13808155 -0.11907053 -1.0452043 0.48918828
000320 84 73 28 3d 84 38 03 be 80 25 18 3e 0c ba 69 3e
       0.04112579 -0.12814528 0.14858055 0.22824878
000330 ff 25 36 bd 32 6a 86 3e fc 50 91 3e 78 e7 9b bc
       -0.04446983 0.26252896 0.283821 -0.019031271
000340 26 36 1a bd 2f cd d8 3d 9f fc be bf 3e b6 53 3e
       -0.037649296 0.10586011 -1.4920844 0.20674989
000350 a7 8d d9 be 83 8e 90 bd 84 ee 8e bc fe 02 ed bd
       -0.42490885 -0.07058432 -0.017447717 -0.11572836
000360 62 ac 9b 3e c3 66 cc 3c 14 31 73 3d 8f b9 71 3c
       0.30404955 0.024951344 0.059372976 0.014753713
000370 26 be d7 bc 7e e3 39 be 1c 3d 57 be b5 ea 45 be
       -0.026335787 -0.18153188 -0.21019405 -0.19327815
000380 2f 9e fc 3c 64 21 97 bc 2d fe cc be 99 ff e3 be
       0.030837147 -0.01844854 -0.4003767 -0.44530943
000390 67 bd 24 bf 00 a4 ac b9 85 b8 a1 3d 39 1a 1a bf
       -0.64351505 -0.00032928586 0.078965224 -0.6019626
0003a0 e3 d3 79 3e 72 fc 28 be 2b 10 e5 3e af 80 e8 bb
       0.24397235 -0.1650255 0.44738898 -0.0070954184
0003b0 f0 ae 8b 3d 5f 3d c8 bc 62 04 81 3e ee 51 6e 3e
       0.06820476 -0.024443327 0.25198656 0.23273441
0003c0 29 5d 5f 3e 9f 17 2d be da 7a 18 3f 89 f3 81 be
       0.21812882 -0.16903542 0.59562457 -0.25381115
0003d0 2e 0a 42 bd 75 ac 0d 3d 89 f0 bc be d9 33 e0 3b
       -0.04737299 0.034588296 -0.36902264 0.006842118
0003e0 57 c8 a3 be bb f1 de bc 5e 68 b3 bd b5 2f 97 3e
       -0.31988785 -0.027214875 -0.08760141 0.29528585
0003f0 b8 cd 9a bc a0 a0 66 bd 7d 00 f7 3d fd 6f 76 3e
       -0.018896922 -0.056305528 0.1206064 0.24066158

hidden3.bias f4 [128]
000000 e4 8e 52 3d 4a 8b 8c 3e 19 ec 86 3e a0 a3 3d 3e
       0.051405802 0.2745002 0.26352003 0.18519449
000010 02 aa bd 3c a7 3f 81 bd 8a bb 0e bf 04 76 3a 3e
       0.023152355 -0.06310969 -0.5575491 0.18209082
000020 1f d5 2d be 12 00 f8 bd 87 4d 5e 3d 01 f7 a8 bd
       -0.1697583 -0.121093884 0.054273155 -0.08250237
000030 50 de 16 3e 5e 02 c0 bd 42 ce b7 bc 55 4c 2a 3e
       0.14733243 -0.093754515 -0.022437219 0.16630681
000040 34 0a a8 3d a8 58 5d bd 3f 3b 0b 3e a3 ee 87 be
       0.08205071 -0.054039627 0.1359682 -0.26549253
000050 e7 1b 06 3e 86 61 22 3d 43 19 5d 3e 7d c0 b7 bd
       0.13096581 0.039643787 0.21591668 -0.08972261
000060 97 7c 53 3e 4f e5 8c 3e ed 4e 96 3d 7f c4 8a 3e
       0.20652996 0.275187 0.07339273 0.2710304
000070 b7 63 04 be 47 bb 72 3e d2 dc 3a 3e f7 9d 26 be
       -0.12928663 0.23704253 0.18248299 -0.16271196
000080 54 8d 5a 3e 0f c3 28 be 83 b2 9e 3e 9d 70 00 be
       0.21342975 -0.16480659 0.3099557 -0.12542959
000090 15 e1 30 3e c7 2c 14 bc 83 fa 8a 3e 9c 42 6e be
       0.17273362 -0.009043879 0.2714425 -0.23267597
0000a0 d4 f7 c8 bd 57 88 db bd da bb bb 3d bb 47 27 3d
       -0.098128945 -0.10719364 0.09166689 0.040839892
0000b0 11 a0 1d be c4 f4 91 bd 68 d9 02 be 5d 35 e0 3d
       -0.15393092 -0.071267635 -0.12778246 0.10947678
0000c0 74 f9 d0 3d 55 5e 74 3e b5 6f 40 be d0 8e 22 3d
       0.102038294 0.2386411 -0.18792613 0.039686978
0000d0 dc 2f 32 be 03 ef 11 3e e9 64 0e bf 89 ea 2d bd
       -0.1740107 0.14251332 -0.55622727 -0.04246
0000e0 40 a1 b1 3e 7e 98 25 3e 3d 25 31 3d 7e 94 6d 3e
       0.34693336 0.16171452 0.043248404 0.23201177
0000f0 8f f8 15 3d 98 62 3c 3e 1f 19 c3 3e 92 39 4d 3e
       0.036613997 0.18396986 0.38105103 0.20041493
000100 ce 04 5c be b0 e5 c4 be 5c e0 03 3e 9b 8c eb 3d
       -0.21486208 -0.38456488 0.12878555 0.11501428
000110 78 f8 10 3d 2f fc 11 bf 13 6f 1c 3e 1b f0 48 be
       0.03539321 -0.57025427 0.15276746 -0.19622843
000120 b4 15 2d 3e 8d 6e bf bd 16 01 b4 3e 6c 08 8e 3e
       0.1690281 -0.09347258 0.35157079 0.277408
000130 cc 8c 7c 3e 91 de 09 bd 25 20 13 3e 74 43 1f bf
       0.24663085 -0.03365952 0.14367731 -0.622123
000140 84 01 56 3d bd c4 44 be db 85 6e 3e bf 68 54 3e
       0.05224754 -0.19215675 0.2329325 0.20743082
000150 81 a6 00 be bd 90 a6 3e 9e 79 b4 bd a6 65 c0 3d
       -0.12563516 0.32532302 -0.08812259 0.09394388
000160 de 37 26 3e 3a 6f 17 3e ab 9e de bd 2b 37 72 3e
       0.16232249 0.14788523 -0.10870107 0.23653857
000170 1d 8f 7b 3e 48 e9 a0 3e a7 28 ea 3b 97 ec 35 3e
       0.24566312 0.3142798 0.0071459594 0.17766033
000180 0e a1 79 3e 52 bd 80 3d d5 47 69 3d fb af 53 3b
       0.24377844 0.0628611 0.05695327 0.0032300937
000190 d5 a1 cc bc 7d b2 2d be 0a 7c 64 be c2 e5 9b 3d
       -0.024979511 -0.16962619 -0.22312942 0.07612182
0001a0 09 6b 45 bc db 2a a7 bd ad 70 81 3d 3f f6 fc 3b
       -0.012049445 -0.08162471 0.06320319 0.0077197845
0001b0 87 13 c8 3e cf 9f 7f 3e de fb 6b 3a a9 79 f1 bd
       0.39077398 0.24963306 0.000900207 -0.11790783
0001c0 ec a3 14 3c 8b 08 95 3e cb 33 21 3d 53 ef ac bd
       0.009072285 0.2910808 0.039356034 -0.08444085
0001d0 2e e8 9f 3e 1e 76 67 3e 3a 7a ae 3d 47 94 22 be
       0.31231827 0.22603652 0.085194066 -0.15876876
0001e0 2f 2d 78 bc ea f5 d9 bc 36 e2 8b ba ba 94 89 3e
       -0.015147491 -0.026606519 -0.0010672275 0.26871282
0001f0 25 fc 5d bd d8 2f 62 bf c3 5b 82 3d c8 73 18 3b
       -0.054195542 -0.88354254 0.063651584 0.002326237

output.weight f4 [7, 128]
000000 0b 4f 63 3d 02 fc 51 bd f0 0c 77 be 04 8b 00 bd
       0.055495303 -0.051265724 -0.24126029 -0.031382576
000010 aa d7 85 3f 28 e2 36 3d 90 68 98 3e 9a 8d ea bd
       1.045644 0.044649273 0.29767275 -0.114527896
000020 90 51 57 3d cf 95 b1 3d f1 4e 07 bf a6 96 52 3c
       0.05256802 0.08671152 -0.5285483 0.0128533
000030 f5 68 03 be a6 c6 db 3e 76 65 89 be 74 ff bf bf
       -0.12833007 0.42924994 -0.2683522 -1.4999833
000040 97 d4 08 bf 7c 92 be 3c 69 38 07 bf a0 96 6d be
       -0.53449386 0.023263209 -0.5282045 -0.2320199
000050 d1 62 01 bd e3 7b a5 bd b6 e6 07 bf 2d 4e 76 bc
       -0.03158838 -0.0808027 -0.5308641 -0.015033287
000060 94 e9 3b 3c 0c 9e 14 be fb 30 5d 3f d5 9e 10 be
       0.011469264 -0.14513415 0.86402863 -0.1412309
000070 3d 1d aa 3d bb 3d 1a 3d 70 3f 8c bf cc 5f 9a bc
       0.08306358 0.037656527 -1.095686 -0.018844508
000080 33 49 d1 3d 23 4a 5a 3c 35 3a 09 3f 55 bc 31 3f
       0.1021904 0.01332334 0.5360444 0.69427997
000090 d1 4a b9 3e 8b 5f 8e 3d e6 7a b5 bd 28 90 07 3f
       0.36189893 0.06951817 -0.08861332 0.5295434
0000a0 d2 ff 41 3c 5b d6 06 3e 4f 8c 16 3e c5 6f 7c 3e
       0.0118407775 0.13167708 0.14701961 0.24652012
0000b0 04 f8 c9 3d 1d 09 df be f9 42 00 bd da 8b 60 3f
       0.09861758 -0.4356164 -0.03131387 0.87713397
0000c0 6e 58 11 bc dd bd c8 3e a8 6d a4 3d 09 7e 6c 3e
       -0.008871181 0.39207354 0.08028728 0.23094954
0000d0 ac eb f2 3c 1e a7 0a 3e 8e b6 99 be d3 fb c7 3c
       0.029653393 0.13540313 -0.3002209 0.024412071
0000e0 fa b2 89 bf 68 e2 a6 3e 43 38 18 3d 45 7e 76 3e
       -1.0757744 0.3259461 0.03716303 0.24071606
0000f0 5d ae 9e 3d b5 5c f3 3b 23 5b 0f 3e 7e ab 9e be
       0.07748101 0.007426823 0.1399961 -0.30990213
000100 e5 0d a5 be d9 79 0a bf 56 74 f5 be 63 21 1b 3b
       -0.32237163 -0.54092175 -0.4794032 0.0023671023
000110 24 8d 9b 3f dc e3 d3 be fc ed 2e bf db 45 12 3d
       1.2152448 -0.4138478 -0.68331885 0.03571115
000120 3e d3 51 3e 27 da 11 be 58 65 3a 3e 72 e1 d0 3e
       0.20490739 -0.14243375 0.18202722 0.40797
000130 53 4b 14 3f b4 3b e1 bf cb ba 81 be 27 27 6f 3e
       0.57927436 -1.7596345 -0.25337824 0.23354779
000140 dd b6 b0 be ac 3d 93 3d d3 50 e3 3c d1 ba 47 3b
       -0.34514514 0.07189497 0.0277485 0.0030476341
000150 20 6b cf bc 8f e5 49 be 48 87 01 be 06 7b 3b 3e
       -0.025319636 -0.19716476 -0.12649262 0.18308648
000160 89 60 50 bf e9 1e a4 3d fd 17 35 3c c7 82 a1 3d
       -0.813973 0.08013708 0.0110530825 0.07886272
000170 18 5f cb 3c b3 b5 f4 3e 1f a8 36 3d a4 2f cd 3d
       0.024825618 0.47794876 0.044593927 0.10018852
000180 e6 70 6b 3f f4 26 66 be 72 25 20 be b6 ae 00 3f
       0.91969144 -0.22475797 -0.15639284 0.5026659
000190 f7 9d 5b 3c 8f 72 11 bc 6e 8c ad 3d a1 72 22 3f
       0.013404361 -0.008877411 0.084740505 0.6345616
0001a0 8a bf 72 3c 49 b2 d3 bb ea c8 29 3f 38 a3 6c bf
       0.014816174 -0.006460462 0.66322196 -0.9243655
0001b0 b3 c7 2e 3e 69 a8 b7 be 7c df 87 bd f0 ae 87 bd
       0.17068367 -0.35870674 -0.06634423 -0.066251636
0001c0 73 cc 5e bf 0d ee 93 bf f8 85 06 bf 67 ae 93 3d
       -0.87030715 -1.1557022 -0.5254817 0.07210999
0001d0 77 7c 25 bd b4 95 36 3e 6b 3b a3 3f 3c 20 6d bb
       -0.040401902 0.17830545 1.2752508 -0.0036182543
0001e0 19 18 f1 bc 6c ea e6 3e 60 25 92 3f 7b 65 c0 3f
       -0.029430436 0.45100725 1.1417656 1.5030969
0001f0 b8 7b 29 3e f2 3d c4 bd 77 50 f4 3c be 08 33 bd
       0.16551101 -0.09582128 0.029823525 -0.04370951
000200 2b 51 ad bd 1e 5d 07 3c ee e6 98 be 52 af 39 be
       -0.08462747 0.008261947 -0.29863685 -0.18133286
000210 3c a4 ba bf df e0 84 3e 07 a8 21 3f 36 98 d9 3f
       -1.458137 0.25952813 0.63147014 1.6999576
000220 00 ad a5 bc 50 6d 7d bd b9 df a7 3f 54 f9 3a bd
       -0.020224094 -0.061871827 1.311515 -0.045647934
000230 93 8d d7 be 44 d6 e1 bd 0c 2e 3b bd bd fb b1 be
       -0.421002 -0.11027196 -0.04569821 -0.34762374
000240 3c af fe 3e 68 e5 49 3c ab ef c0 be 0c d0 9a bf
       0.49743068 0.012322761 -0.37682852 -1.2094741
000250 5f 45 86 be 72 61 c8 3d 5b 72 eb bd 50 00 04 39
       -0.262248 0.09784211 -0.11496421 0.00012588617
000260 b2 bf 66 be 17 a0 43 3f 12 1b 00 bf a7 d1 63 3f
       -0.22534063 0.7641615 -0.50041306 0.8899178
000270 3a c0 dd 3d 27 13 06 bf 2b 83 f6 be 36 0d 82 3c
       0.1082768 -0.52372974 -0.48146948 0.01587544
000280 04 c7 8d bf c6 09 0f be bf d4 96 be 40 ff 86 3e
       -1.107636 -0.13968572 -0.29459187 0.26366615
000290 4f 55 12 3f 01 48 23 be 51 3f fb be 6c 76 ab bf
       0.5716142 -0.15945436 -0.49071744 -1.3395514
0002a0 4c 68 04 bd d4 2f 7d 3e 80 16 b6 3e 6c dc 3c 3e
       -0.032326028 0.24725276 0.3556404 0.1844346
0002b0 46 f9 17 3e bd 9e 79 3e 10 52 eb 3b 4c 4e 4a 3d
       0.14841184 0.2437696 0.0071814135 0.049391076
0002c0 5a 46 56 3e 24 c1 07 bf fc bb 5d bd ed 30 d9 be
       0.20925274 -0.53029084 -0.054134354 -0.4242014
0002d0 d2 c3 e0 bb 71 25 56 be 05 07 b2 3e 05 b2 19 bd
       -0.006859281 -0.2091272 0.3477098 -0.03752329
0002e0 73 b9 1c bf c5 04 ee 3e 20 d2 6d be 82 a2 51 bf
       -0.61220473 0.46488014 -0.23224688 -0.8188859
0002f0 fc a6 8a 3d a9 b0 a4 be 68 81 28 be fd 0a b4 be
       0.06770131 -0.3216603 -0.16455615 -0.35164633
000300 5b 60 a1 bd 08 1b b5 be 51 d0 14 3f d0 ee af 3d
       -0.078797065 -0.35372186 0.58130366 0.08590472
000310 16 10 37 be 8f cf 85 3e ce f9 a1 3e dd ec 8d bd
       -0.1787723 0.26134917 0.31635898 -0.06929944
000320 0a 56 8a be 3c 78 12 bf 3d b8 96 3f fe 9d 99 be
       -0.27018768 -0.57214713 1.1774975 -0.3000335
000330 33 c8 9c 3f e2 27 69 bf 00 1f e9 3e 2d ca 29 be
       1.2248596 -0.9107648 0.45531464 -0.1658103
000340 09 69 75 be 8f ce 34 3f 73 0d cc bd aa 89 77 3e
       -0.23965849 0.70627683 -0.09963503 0.24173608
000350 cc 72 a6 3d 82 63 66 3f 07 78 1e bf 68 f9 b8 bd
       0.081273645 0.89995587 -0.619019 -0.090319455
000360 f3 34 99 bf 52 2b 2c be 70 29 35 3d 56 12 26 bb
       -1.1969284 -0.168134 0.04422897 -0.002534052
000370 f2 5c f1 bd c5 4a 89 be 47 d3 28 3d b5 3a 3a bf
       -0.11785306 -0.26814857 0.041217115 -0.7274583
000380 5a a1 4d 3e 83 10 ef bd c3 16 77 bd ae ea 75 3e
       0.20081082 -0.11673071 -0.06032444 0.24015304
000390 0c 0c 30 3d 30 ee 2f ba f3 fa 27 3f 4a 51 b2 bd
       0.04298024 -0.0006711213 0.65617293 -0.08706911
0003a0 0f 24 55 be 39 4b 0e bd 2f b8 29 be a2 e7 1b 3e
       -0.20814537 -0.034739707 -0.16574167 0.1522508
0003b0 43 00 9a 3e 2b dd 3e be 9c ae 5f 3f 43 f9 21 3d
       0.30078325 -0.18639056 0.8737581 0.039544355
0003c0 78 b4 36 bf eb e4 86 be fb 74 d1 3c a6 47 c1 be
       -0.71369123 -0.26346526 0.025568476 -0.37749976
0003d0 0d 4d b1 be dc 71 0d bf c3 96 7c be 42 61 62 bc
       -0.34629098 -0.5525186 -0.24666886 -0.013817133
0003e0 b9 83 2a 3c f0 4d f1 3f ac e6 5b 3f 82 30 dc bd
       0.010407382 1.885191 0.8589885 -0.1075144
0003f0 a2 e4 11 3f 2a 56 ba 3e bd b9 2b 3e a4 6a bc be
       0.5698949 0.36393863 0.16770072 -0.3680011

output.bias f4 [7]
000000 fd eb 0b bd 05 5b 87 bd 5d aa 4d bd 9b 84 0d be
       -0.034160603 -0.066091575 -0.0502113 -0.13820116
000010 fe ea 7b bd 91 a5 cd 3d ff 78 f8 3b
       -0.061503403 0.10041345 0.0075827832
