models/InvPendulum2/measure_x3_N2/model_state_dict.pth (torch, 47468 bytes, 8 tensors)

hidden1.weight f4 [32, 2]
0.081637464 -0.7297739 0.04249978 0.55812126 -1.1811277 0.7307187 0.003840607 0.58505046
0.09829986 -0.08658111 0.19612378 0.034882843 -0.013208546 -0.027659718 -0.051554263 -0.06365895
0.6426883 -0.22694024 1.1598897 0.7253639 -0.65979296 -0.60689265 -0.6081046 -0.34979796
-0.95089644 0.30928943 1.0431149 0.37845638 -1.112076 0.3184704 0.025624316 0.54524523
0.8152987 -0.9931371 -1.0428973 -0.7786801 0.9998251 -0.5232115 -0.023454363 -0.76747054
0.82089746 -0.23554148 1.3027731 0.004787521 -0.36396262 0.35474885 -0.59894115 0.14653635
-0.9516219 0.012133041 -0.81930214 -0.5354524 0.8610513 -0.40554374 0.6937511 0.9680161
-0.03725341 -0.6650759 0.9095335 0.29327026 -0.295403 0.8311792 0.15510628 1.066994
00000000: 8b31 a73d 76d2 3abf 4014 2e3d 09e1 0e3f
00000010: 312f 97bf 6110 3b3f b1b2 7b3b dec5 153f
00000020: 7051 c93d 7051 b1bd acd4 483e 50e1 0e3d
00000030: a868 58bc a296 e2bc 902a 53bd a05f 82bd
00000040: 3887 243f 0663 68be 4477 943f 73b1 393f
00000050: 31e8 28bf 515d 1bbf beac 1bbf b818 b3be
00000060: f36d 73bf 2f5b 9e3e ca84 853f 09c5 c13e
00000070: 8258 8ebf 8d0e a33e 16ea d13c 3195 0b3f
00000080: 6ab7 503f 3c3e 7ebf a97d 85bf 9457 47bf
00000090: 8af4 7f3f 30f1 05bf 5d23 c0bc f378 44bf
000000a0: 5626 523f c931 71be 45c1 a63f a3e0 9c3b
000000b0: 4f59 babe a4a1 b53e 3554 19bf a00d 163e
000000c0: 7e9d 73bf aac9 463c c9bd 51bf 6913 09bf
000000d0: dc6d 5c3f 6ea3 cfbe ac99 313f e7cf 773f
000000e0: 0897 18bd 6a42 2abf 30d7 683f 8527 963e
000000f0: 103f 97be 29c8 543f 2ed4 1e3e 4293 883f

hidden1.bias f4 [32]
-0.5578782 -0.43129238 0.08042317 0.18154797 -0.53663623 -0.5017788 -0.03744404 -0.16581082
0.1574822 0.0873868 0.2603167 0.17789996 0.19656864 0.24157284 -0.55600077 0.45523852
-0.36784047 -0.36616215 0.05404946 -0.21661165 0.24363533 -0.13588957 -0.63723475 0.16840829
-0.10104318 0.38876602 0.22927538 -0.38104832 0.21511646 0.1959843 -0.30041257 -0.3431143
00000000: 1bd1 0ebf 5bd2 dcbe e7b4 a43d b6e7 393e
00000010: fe60 09bf 9374 00bf ec5e 19bd 50ca 29be
00000020: 0443 213e daf7 b23d 3b48 853e 682b 363e
00000030: 4a49 493e df5e 773e 1156 0ebf 0615 e93e
00000040: 9655 bcbe 9b79 bbbe f762 5d3d 72cf 5dbe
00000050: 8a7b 793e a326 0bbe d121 23bf 3973 2c3e
00000060: baef cebd 570c c73e 2ac7 6a3e c418 c3be
00000070: 7d47 5c3e 1cb0 483e adcf 99be adac afbe

hidden2.weight f4 [64, 32]
0.2357261 -0.0035393778 -5.097508 -1.7409818 0.1619067 -0.032707453 0.08105512 0.076544866
-0.11950405 -2.4937642 0.15507202 0.013912555 0.18881498 0.047399543 0.056855395 0.20936322
0.29697016 0.039567083 0.009290178 0.04604007 0.13353647 0.58223915 -0.12793663 -0.12369659
-0.24126403 0.023381187 0.16230267 0.93055904 0.0734809 0.02808334 -0.16620822 0.027166752
0.06529878 -0.6462927 -0.22427906 -0.0648105 0.15253358 0.11714171 0.1353671 0.12562327
0.08692252 0.2242992 -0.06706784 -0.10265093 -0.07938855 -0.12079533 -0.61000544 0.10283787
-0.45741057 -3.3530412 -0.31447223 -0.79124683 0.018761981 -0.6323214 -0.054564912 0.19876498
-0.42251003 0.014906757 -0.16331263 -0.033984516 -0.05022598 -0.2557098 -0.09993505 0.023759091
1.2222247 -0.15611848 -0.07023544 0.16423489 -0.091477014 0.038327843 -0.11156991 -0.039717257
-0.14928775 -0.05231524 -0.052106988 0.04939516 0.008677153 -0.038992207 0.09487397 0.029809099
0.6045156 0.45198008 -0.37788385 0.3926071 -0.12014794 -0.42875168 -0.14641194 -0.09830996
0.0040507093 0.0890035 -0.04504874 0.08916082 -0.044159524 -0.0636657 0.36808112 0.17359817
-0.89773303 -0.55422634 0.23806618 -0.6949669 0.08301546 0.11356868 0.16136697 -0.12373147
0.15945776 -0.2309017 -0.040563215 -0.4297987 0.053296182 0.22029464 0.4542676 -0.17052875
-0.013791831 0.44149998 0.18442893 -0.17612623 -0.07521856 0.043120872 0.15754025 0.12637614
0.40245333 -0.36721185 -0.06473335 -0.32661977 -0.10616032 0.30028352 -0.80762994 0.39558443
-0.9505087 -1.2509218 -1.3527446 -0.11136655 0.14002286 0.16718756 0.05526876 -0.13740158
0.3222832 0.1567796 -0.1944483 -0.12984604 -0.5533921 0.14458185 0.10239596 -0.23438895
-0.63736725 -0.01965553 0.8242427 0.29520926 0.18169336 0.28526223 -0.16615811 -0.24272805
-0.41797942 0.3427434 0.5027431 -0.20782445 0.10409096 0.13913386 -0.56246835 -0.40865758
-0.8245498 -0.3568172 -0.030467985 -0.09102831 0.16064496 0.1545256 -0.060492367 0.17295612
0.14853118 -0.6595572 0.15218191 -0.12354133 0.017216027 -0.02095889 0.34202647 0.120552056
-2.92954 0.087285385 -0.13348536 -0.45392808 -0.076991946 -2.9622223 -0.07882238 0.087877564
0.081820324 0.10974635 0.35880253 -0.99051946 -0.023325773 -0.06965475 -0.039840378 0.043170728
-0.034538515 0.035683274 0.006539166 -0.11265397 0.099557355 0.099068955 -0.0054586655 -0.10046024
-0.09049581 -0.013773336 -0.10985307 -0.10817139 -0.034935888 -0.06761409 0.04339528 -0.06424229
-0.037995487 -0.067472406 -0.17623572 0.14444111 0.0187712 0.13255721 -0.028489515 -0.060984224
-0.16618885 -0.067106314 0.10092996 -0.17848879 -0.07625741 0.09258513 0.10188441 0.059928957
-1.5627656 0.47301716 0.22000085 -0.14484271 0.07377325 -0.060210653 -0.05957102 0.04010363
-0.3697562 -0.32929704 0.2368543 0.2150295 0.32954165 -0.43314254 -0.08152777 -0.04711159
-1.0466663 -0.25851744 -0.87855446 -0.5783398 -0.36344588 -0.03748974 -0.14723943 0.29010573
0.47177538 0.1495765 -0.7372715 -1.0623171 -0.17751916 -0.653447 -0.34008273 -0.37000182
00000000: 2f62 713e e8f4 67bb c91e a3c0 7ed8 debf
00000010: dfca 253e 40f8 05bd 3a00 a63d 8ec3 9c3d
00000020: 8abe f4bd d599 1fc0 33cb 1e3e 7cf1 633c
00000030: b758 413e 0626 423d 34e1 683d 5063 563e
00000040: 790c 983e 1811 223d d535 183c 8394 3c3d
00000050: c9bd 083e a00d 153f d201 03be a354 fdbd
00000060: eb0d 77be e789 bf3c ac32 263e 1e39 6e3f
00000070: 277d 963d 080f e63c 7d32 2abe cf8c de3c
00000080: 5ebb 853d 7073 25bf 69a9 65be 5ebb 84bd
00000090: c331 1c3e fee7 ef3d ac9d 0a3e 63a3 003e
000000a0: 6f04 b23d b1ae 653e dd5a 89bd a73a d2bd
000000b0: 7796 a2bd 8b63 f7bd 5129 1cbf a99c d23d
000000c0: b831 eabe 3a98 56c0 8102 a1be 278f 4abf
000000d0: bab2 993c d1df 21bf 757f 5fbd 0c89 4b3e
000000e0: 3c53 d8be 783b 743c 6d3b 27be 5933 0bbd
000000f0: c2b9 4dbd 65ec 82be bfaa ccbd 6da2 c23c
00000100: dc71 9c3f 86dd 1fbe 99d7 8fbd 312d 283e
00000110: 4d58 bbbd a8fd 1c3d c47e e4bd 90ae 22bd
00000120: e3de 18be 8148 56bd 236e 55bd 9452 4a3d
00000130: 9e2a 0e3c 4bb6 1fbd 494d c23d 3632 f43c
00000140: 89c1 1a3f ef69 e73e fe79 c1be cc03 c93e
00000150: 2010 f6bd 5785 dbbe 03ed 15be bb56 c9bd
00000160: d0bb 843b 7847 b63d 0785 38bd f399 b63d
00000170: 9ee0 34bd 2a63 82bd 2175 bc3e b8c3 313e
00000180: d5d1 65bf c7e1 0dbf 9fc7 733e 5ae9 31bf
00000190: 0204 aa3d b296 e83d 623d 253e ed66 fdbd
000001a0: e548 233e 7f71 6cbe 9d25 26bd 930e dcbe
000001b0: 194d 5a3d eb94 613e c395 e83e 179f 2ebe
000001c0: 22f7 61bc 490c e23e f0da 3c3e 6f5a 34be
000001d0: 300c 9abd 839f 303d 3b52 213e bf68 013e
000001e0: 5d0e ce3e 3103 bcbe eb92 84bd b53a a7be
000001f0: 956a d9bd c3be 993e d6c0 4ebf 0b8a ca3e
00000200: 8a54 73bf 351e a0bf bc26 adbf 2514 e4bd
00000210: 2762 0f3e 3733 2b3e 7f61 623d 00b3 0cbe
00000220: 4e02 a53e d58a 203e 751d 47be 5cf6 04be
00000230: 1bab 0dbf 440d 143e f9b4 d13d a803 70be
00000240: 802a 23bf a204 a1bc 9201 533f ab25 973e
00000250: d30d 3a3e e40d 923e 5a25 2abe b48d 78be
00000260: 6601 d6be 107c af3e c6b3 003f efcf 54be
00000270: a42d d53d 1b79 0e3e edfd 0fbf 913b d1be
00000280: b215 53bf beb0 b6be ff97 f9bc 0d6d babd
00000290: 1d80 243e f53b 1e3e d8c6 77bd 691b 313e
000002a0: 8f18 183e bed8 28bf 93d5 1b3e 3d03 fdbd
000002b0: a008 8d3c fab1 abbc 181e af3e ffe3 f63d
000002c0: 957d 3bc0 aec2 b23d 63b0 08be 4369 e8be
000002d0: f4ad 9dbd 0d95 3dc0 a16d a1bd 27f9 b33d
000002e0: 6a91 a73d b2c2 e03d f7b4 b73e af92 7dbf
000002f0: b115 bfbc 26a7 8ebd aa2f 23bd cad3 303d
00000300: 4278 0dbd a028 123d 8046 d63b 20b7 e6bd
00000310: bae4 cb3d aae4 ca3d 9bde b2bb 19be cdbd
00000320: de55 b9bd 8fa9 61bc a5fa e0bd f688 ddbd
00000330: ef18 0fbd 4279 8abd 40bf 313d 7691 83bd
00000340: 28a1 1bbd f92e 8abd 2377 34be 5fe8 133e
00000350: 0fc6 993c 14bd 073e d862 e9bc 98ca 79bd
00000360: 692d 2abe 096f 89bd 5eb4 ce3d c4c5 36be
00000370: d82c 9cbd 469d bd3d c6a8 d03d 1178 753d
00000380: b408 c8bf 4e2f f23e e747 613e a651 14be
00000390: 6e16 973d 729f 76bd be00 74bd b443 243d
000003a0: af50 bdbe 9f99 a8be ef89 723e b130 5c3e
000003b0: afb9 a83e dcc4 ddbe 08f8 a6bd 15f8 40bd
000003c0: 29f9 85bf 665c 84be f2e8 60bf 140e 14bf
000003d0: 9415 babe d78e 19bd efc5 16be bd88 943e
000003e0: 8b8c f13e 952a 193e d3bd 3cbf 02fa 87bf
000003f0: 95c7 35be 4d48 27bf 531f aebe e170 bdbe

hidden2.bias f4 [64]
-0.14909074 0.21266137 -0.19248982 0.14461525 0.09175962 0.15812787 0.022811525 0.007477786
0.013510395 -0.014982539 0.12837316 0.039440803 0.089814834 0.12844443 0.13052075 -0.065109305
-0.13096075 -0.0060644895 -0.09142524 0.0692828 -0.05650117 0.21053061 -0.03524399 0.15489696
-0.1431334 -0.2861678 -0.0327367 0.087689266 0.037814263 -0.040509008 0.012397923 -0.011007115
-0.08859931 0.16891624 0.040199205 0.21404 -0.015299739 -0.1119466 0.19129431 0.17126088
-0.051722165 -0.60710764 0.11057281 -0.059680946 -0.18675633 -0.034249883 0.090424836 0.014590409
-0.15539338 -0.08826385 -0.32336417 -0.17657325 0.06370643 0.043671504 0.13576691 -0.03397292
0.09004448 -0.06726311 0.1609974 -0.17443034 0.1375833 -0.15238348 -0.19580518 -0.13466206
00000000: 3eab 18be e7c3 593e 0d1c 45be 0516 143e
00000010: 78ec bb3d 46ec 213e 3cdf ba3c 3708 f53b
00000020: b45a 5d3c 5379 75bc 4174 033e ae8c 213d
00000030: d7f0 b73d f086 033e 3ba7 053e 0758 85bd
00000040: 931a 06be a0b8 c6bb 283d bbbd 24e4 8d3d
00000050: c56d 67bd 5695 573e 015c 10bd 4f9d 1e3e
00000060: 9091 12be 9684 92be eb16 06bd 6e96 b33d
00000070: 21e3 1a3d c6ec 25bd a820 4b3c 3057 34bc
00000080: 8e73 b5bd 61f8 2c3e eca7 243d 4d2d 5b3e
00000090: c2ab 7abc 4244 e5bd a8e2 433e 035f 2f3e
000000a0: 9fda 53bd 686b 1bbf ff73 e23d 0274 74bd
000000b0: 0d3d 3fbe 9b49 0cbd a830 b93d 9c0c 6f3c
000000c0: 711f 1fbe adc3 b4bd fd8f a5be 9ecf 34be
000000d0: 8478 823d e4e0 323d 7b06 0b3e 3027 0bbd
000000e0: 3e69 b83d 3ec1 89bd 81dc 243e de9d 32be
000000f0: a3e2 0c3e 6a0a 1cbe 2781 48be dae4 09be

hidden3.weight f4 [128, 64]
-0.017473394 0.22292447 -0.041629855 -0.13876556 0.12254534 -0.23312572 0.074011326 -0.082892
0.023027368 0.015404484 -0.4727998 -0.04649134 -0.1156244 -0.03673123 -0.8201075 -0.013388908
0.03841433 -0.071493104 0.057213336 -0.10035111 -0.3741302 -3.2618322 0.12063132 0.015595882
0.028214639 0.07117042 -0.44509378 -0.20061646 0.052582357 -0.21027704 -0.2188759 -0.35971844
0.039122805 0.0042690793 0.011518602 -0.1720488 0.09531821 -0.5290232 -0.20134525 0.11612147
-0.12572964 0.13570265 -0.14350718 0.06046012 0.071694754 0.011222783 -0.8068319 -0.22637837
-0.0012238771 -0.040241748 -0.43230405 -0.07123917 -0.16942684 -0.2457565 -0.09929847 0.0031737238
-0.054217186 0.18832946 -0.16050214 -0.090099074 -0.6595961 -0.15104033 -0.02037786 -0.09000592
-0.2775016 0.268162 -0.02477508 -0.72174484 -0.071829885 0.3168827 0.00059041666 -0.1281513
-0.102704056 0.0503424 0.015724229 0.039641827 -0.17850852 0.031983443 0.03648909 0.16416682
0.10517818 -0.080699146 -0.04894212 0.14842062 0.09303111 0.3286163 -0.08453169 0.044691484
-0.31723946 -0.81627905 -0.5761556 0.08179248 0.16712059 -0.19364075 0.21920905 -0.14271909
0.021228464 0.1361381 0.20523112 -0.13971792 -0.44666922 -0.08231221 0.059641078 0.2549197
-0.08856246 -0.5705169 0.14434305 0.06835684 -0.08988206 -0.06739845 -0.15736087 0.18847176
-0.008213374 0.053081676 -0.013913058 0.111573055 0.041505653 -0.18470933 0.14584388 -0.0528483
0.14055349 -0.11107823 0.36466622 -0.26029208 -0.6383753 -0.3261284 -0.03890343 0.1125163
-0.028613307 -0.009793639 -0.018660784 -0.094795786 -0.16806242 -0.02666127 -0.08884123 -0.06300539
0.0057992483 -0.19879021 -0.011418895 0.07738717 0.041702542 -0.06430601 0.012031577 -0.12998559
0.01320613 0.10868135 0.10862444 -0.057108615 0.026246672 -0.016760638 -0.1035203 -0.014314596
-0.18924344 0.008766628 -0.0046227584 -0.06644148 -0.030247228 -0.15579563 -0.029711135 0.026806545
0.14627627 -0.1720582 -0.07023504 -0.03497886 0.04031788 -0.034083046 -0.030677577 -5.9244427e-05
-0.020412745 0.06671162 0.01670946 -0.07206707 -0.16178785 -0.13382557 -0.094686046 -0.076643676
0.10462329 -0.12097764 0.025103075 -0.06982346 -0.022336582 -0.10057938 0.035224695 -0.11877487
-0.16648781 -0.030492326 0.07526425 -0.13995266 0.03874141 -0.05539485 -0.11656509 0.0072442316
-0.026640147 0.04328056 0.051883075 0.08178158 0.048124302 -0.12563986 -0.119919956 0.013967231
0.036297828 -0.09615104 0.07429735 -0.013235182 -0.073256046 0.08574483 0.10948041 -0.0115687875
-0.039864138 0.01356633 -0.092144206 0.04622938 0.04799895 -0.04934799 -0.12890342 0.09279397
-0.10225923 -0.09562282 0.0745641 -0.062123135 -0.006977088 0.102747366 -0.046583302 -0.028275162
0.11587006 -0.0093843 0.012924979 -0.04107529 -0.10784024 -0.010970539 -0.07389386 -0.09510484
-0.10253513 0.07708401 -0.08389829 0.036163136 -0.0050772363 0.05547083 0.039860677 -0.11715425
0.055409938 -0.0634944 0.004587576 -0.04528095 -0.13783689 0.006808391 -0.11409645 0.12231009
0.01999737 -0.07389257 -0.10381355 -0.1453059 -0.09349843 -0.11178437 0.013441443 0.029920444
00000000: 5d24 8fbc 5046 643e 1184 2abd 8f18 0ebe
00000010: 0df9 fa3d 82b8 6ebe 4093 973d 48c3 a9bd
00000020: e4a3 bc3c 1763 7c3c d112 f2be b46d 3ebd
00000030: 7ccc ecbd 7c73 16bd 91f2 51bf 265d 5bbc
00000040: 5858 1d3d fa6a 92bd 8858 6a3d e284 cdbd
00000050: fe8d bfbe dcc1 50c0 8e0d f73d df85 7f3c
00000060: 6322 e73c ccc1 913d 55e3 e3be 676e 4dbe
00000070: 9960 573d dd52 57be 0121 60be 042d b8be
00000080: 3c3f 203d a2e3 8b3b 85b8 3c3c 902d 30be
00000090: 3236 c33d 106e 07bf 732d 4ebe 18d1 ed3d
000000a0: 45bf 00be a3f5 0a3e 8cf3 12be 08a5 773d
000000b0: b3d4 923d c3df 373c 898c 4ebf bbcf 67be
000000c0: 806a a0ba 88d4 24bd f556 ddbe d8e5 91bd
000000d0: 3b7e 2dbe 98a7 7bbe ff5c cbbd 40fe 4f3b
000000e0: d712 5ebd 70d9 403e ac5a 24be dd85 b8bd
000000f0: 4adb 28bf 51aa 1abe 78ef a6bc 0655 b8bd
00000100: b114 8ebe 884c 893e 1cf5 cabc 45c4 38bf
00000110: 8c1b 93bd 733e a23e 31c6 1a3a 183a 03be
00000120: 8156 d2bd d533 4e3d 19d0 803c 785f 223d
00000130: f0ca 36be 1201 033d 9675 153d 591b 283e
00000140: a867 d73d 9845 a5bd 8877 48bd 93fb 173e
00000150: 1887 be3d 6540 a83e f31e adbd 6b0e 373d
00000160: 366d a2be aaf7 50bf ef7e 13bf d182 a73d
00000170: a921 2b3e c349 46be 5678 603e f424 12be
00000180: 51e7 ad3c c967 0b3e 1b28 523e 3712 0fbe
00000190: d4b1 e4be 4e93 a8bd 344a 743d d684 823e
000001a0: 3c60 b5bd 650d 12bf aace 133e acfe 8b3d
000001b0: 1614 b8bd 3308 8abd 3523 21be befe 403e
000001c0: 6391 06bc 2c6c 593d 98f3 63bc 6a80 e43d
000001d0: d501 2a3d 7124 3dbe 1958 153e 7677 58bd
000001e0: 41ed 0f3e fc7c e3bd 88b5 ba3e 0145 85be
000001f0: 906c 23bf 4dfa a6be 3459 1fbd f26e e63d
00000200: 7466 eabc 8075 20bc 80de 98bc 4b24 c2bd
00000210: 8e18 2cbe bc68 dabc 64f2 b5bd f808 81bd
00000220: 9f07 be3b a98f 4bbe 5116 3bbc 2a7d 9e3d
00000230: 49d0 2a3d dfb2 83bd 1720 453c f11a 05be
00000240: 865e 583c 5494 de3d 7e76 de3d b9ea 69bd
00000250: 4303 d73c 9b4d 89bc 7302 d4bd c487 6abc
00000260: 08c9 41be e7a1 0f3c 827a 97bb 7812 88bd
00000270: 09c9 f7bc e488 1fbe c464 f3bc 6699 db3c
00000280: 72c9 153e 0630 30be 63d7 8fbd fe45 0fbd
00000290: 5d24 253d aa9a 0bbd 8b4f fbbc 387d 78b8
000002a0: a138 a7bc 1aa0 883d 47e2 883c e697 93bd
000002b0: b7ab 25be 9209 09be c2ea c1bd 5cf7 9cbd
000002c0: bc44 d63d 20c3 f7bd f7a4 cd3c 9aff 8ebd
000002d0: 35fb b6bc 90fc cdbd c547 103d 3d40 f3bd
000002e0: c87b 2abe 0bcb f9bc 2524 9a3d c04f 0fbe
000002f0: 50af 1e3d b6e5 62bd aeb9 eebd 0561 ed3b
00000300: 703c dabc f546 313d 5983 543d 1a7d a73d
00000310: fd1d 453d bca7 00be 9898 f5bd d0d6 643c
00000320: 08ad 143d d6ea c4bd 3629 983d 60d8 58bc
00000330: 4407 96bd fc9a af3d 4437 e03d 038b 3dbc
00000340: 9448 23bd 5045 5e3c 1ab6 bcbd 055b 3d3d
00000350: 8c9a 443d 1e21 4abd 42ff 03be c40a be3d
00000360: 4a6d d1bd e6d5 c3bd 10b5 983d d474 7ebd
00000370: 0ea0 e4bb 366d d23d 22ce 3ebd 50a1 e7bc
00000380: 484d ed3d 9bc0 19bc 4bc3 533c 903e 28bd
00000390: 58db dcbd c7bd 33bc aa55 97bd 54c6 c2bd
000003a0: f0fd d1bd 39de 9d3d ded2 abbd cc1f 143d
000003b0: f25e a6bb 6235 633d f344 233d 91ee efbd
000003c0: 88f5 623d 5a09 82bd 6053 963b 8478 39bd
000003d0: 1d25 0dbe ec18 df3b 66ab e9bd b67d fa3d
000003e0: 86d1 a33c fd54 97bd 339c d4bd 12cb 14be
000003f0: 1b7c bfbd 34ef e4bd 8039 5c3c b81b f53c

hidden3.bias f4 [128]
-0.2702687 0.19533412 -0.028413648 -0.13875248 0.011983646 0.2853654 0.011455254 0.04847274
-0.12750883 -0.06429874 0.14838032 -0.10718727 -0.04902664 -0.021691808 -0.2710006 0.046041623
0.0728371 0.12193133 0.09526001 -0.040344782 -0.03006778 -0.065198846 0.12765864 0.1504133
-0.04324374 0.18848808 0.12641402 0.014880549 -0.17358074 0.008601116 -0.34013602 -0.065618716
-0.097523674 0.16121934 -0.14855364 0.021563755 -0.07579041 -0.025794508 -0.016062196 0.20405094
0.041699335 -0.033529073 0.050170224 0.09759203 -0.0937334 -0.0613005 0.14532258 -0.13169378
-0.2583867 0.12352064 0.021857824 0.10943288 0.020773094 -0.1474591 -0.18460472 -0.008051904
-0.018775612 -0.01624797 0.31941897 -0.10224663 0.057338145 -0.11100188 -0.035538483 -0.088492446
0.010873124 -0.115544215 -0.14915447 0.11938356 0.1755192 -0.1178949 0.052745797 -0.005656688
-0.1601687 -0.11236914 -0.014168093 0.0072186096 -0.019079912 0.27205873 0.14385542 0.03679586
-0.10895774 -0.061113324 -0.096196294 -0.028185923 -0.06613686 -0.051967967 -0.047008686 -0.06764365
0.29861715 -0.066087216 -0.050107725 0.13373467 -0.058221035 -0.10271868 0.015373531 -0.108488634
-0.08916639 0.12474433 0.037848115 -0.007500912 -0.024962649 0.07436406 -0.05317607 0.034155823
-0.027976058 0.11254471 0.1663719 -0.011037988 0.15377061 -0.1651608 0.016244479 -0.0030712476
-0.053380776 -0.14329912 0.042248484 -0.018865865 -0.1112542 -0.11086565 0.07865215 0.09475768
0.046928007 -0.03675765 0.115130715 0.07330517 -0.088168405 -0.04201851 -0.02953629 -0.052434113
00000000: a960 8abe ab05 483e bdc3 e8bc 2115 0ebe
00000010: 0e57 443c 6a1b 923e d1ae 3b3c 5a8b 463d
00000020: ad91 02be 0faf 83bd 03f1 173e 0085 dbbd
00000030: 28d0 48bd 05b3 b1bc 97c0 8abe 2496 3c3d
00000040: 9e2b 953d 22b7 f93d ae17 c33d 9240 25bd
00000050: b450 f6bc f986 85bd f2b8 023e f205 1a3e
00000060: 5920 31bd 0503 413e ad72 013e 8ccd 733c
00000070: 26bf 31be b2eb 0c3c 4f26 aebe 1b63 86bd
00000080: 7eba c7bd af16 253e 721e 18be 79a6 b03c
00000090: 0138 9bbd 014f d3bc de94 83bc bbf2 503e
000000a0: eccc 2a3d c855 09bd 4b7f 4d3d 55de c73d
000000b0: 4cf7 bfbd 3c16 7bbd 71cf 143e bcda 06be
000000c0: 434b 84be 64f8 fc3d 2e0f b33c 591e e03d
000000d0: 562c aa3c 85ff 16be 0509 3dbe 22ec 03bc
000000e0: 50cf 99bc 761a 85bc e28a a33e ae66 d1bd
000000f0: 67db 6a3d f454 e3bd cd90 11bd 873b b5bd
00000100: 3025 323c 72a2 ecbd f3bb 18be 5e7f f43d
00000110: 4ebb 333e e272 f1bd fa0b 583d bd5b b9bb
00000120: 4403 24be cb21 e6bd 4a21 68bc 168a ec3b
00000130: 7a4d 9cbc 484b 8b3e d64e 133e 41b7 163d
00000140: 3c25 dfbd f751 7abd 9002 c5bd 2ae6 e6bc
00000150: c372 87bd 5ddc 54bd 2e8c 40bd c188 8abd
00000160: 59e4 983e bc58 87bd c23d 4dbd bef1 083e
00000170: 2e79 6ebd 2c5e d2bd 43e1 7b3c 4a2f debd
00000180: de9c b6bd f579 ff3d a006 1b3d 36ca f5bb
00000190: 787e ccbc 2f4c 983d 27cf 59bd fae6 0b3d
000001a0: 0c2e e5bc d77d e63d 655d 2a3e add8 34bc
000001b0: 0b76 1d3e ea1f 29be 2413 853c fc46 49bb
000001c0: cda5 5abd 01bd 12be bf0c 2d3d 968c 9abc
000001d0: 3ed9 e3bd 880d e3bd 6114 a13d 5110 c23d
000001e0: 9537 403d 318f 16bd a7c9 eb3d 0521 963d
000001f0: a391 b4bd 9a1b 2cbd 17f6 f1bc 27c5 56bd

output.weight f4 [4, 128]
-0.11427329 0.07064011 -0.007980667 -0.031558424 0.20309573 0.1212185 -0.28884152 -0.10629124
-0.06156804 0.08878913 -0.12796363 -0.025410712 -0.001520142 0.0028796913 0.0047785398 0.15627266
0.039521333 0.0155907255 0.022003755 -0.15479974 -0.07550286 -0.044147886 0.041998755 -0.13819918
0.09831108 -0.0036097656 -0.10488203 0.11286384 0.04833451 -0.013197835 0.0013506028 0.0074018002
-0.032165103 -0.028826067 0.039550558 -0.044014655 -0.043825973 -0.042417306 -0.066699386 -0.08168191
-0.07899294 0.044953484 -0.00095588685 -0.21217051 0.28765532 -0.080740884 -0.13820347 0.007947768
-0.053379927 0.0068238517 0.035070363 0.030967353 0.036495276 0.014298645 -0.019813498 0.023375437
0.15507355 -0.27138552 -0.052357513 0.13923602 -0.104809396 0.24269272 -0.0031435026 0.15030374
0.06633968 0.057029918 0.07823659 -0.0037493096 0.010924236 -0.17875966 0.04967893 -0.18252337
-0.0006708324 -0.022523763 0.02948002 -0.06303768 -0.011293712 0.004213176 0.004183498 0.024550524
-0.030569691 0.041770183 -0.08287961 -0.042252768 -0.02092203 0.0020563654 -0.16234615 0.0059595485
-0.03021385 0.004802008 -0.027000107 -0.008997486 -0.00599004 0.039114352 -0.036223013 -0.008418819
-0.021479912 -0.018416079 0.5933201 -0.060732704 0.024185255 0.057454783 -0.097021736 -0.0755729
-0.010600306 -0.5071769 0.051552888 0.0043369313 -0.31638265 0.04100145 0.20616391 0.022169987
-0.065240234 -0.06296289 0.32836756 0.0028572325 -0.037228953 -0.0675732 -0.124726586 -0.021161046
0.32712156 -0.01884143 -0.047584657 0.023069968 -0.0056037502 0.24751365 0.051942248 0.16810544
0.46494552 -0.13710052 -0.07548761 -0.02563954 0.15525308 -0.12688772 0.0048275604 -0.009302098
0.07560687 0.028230414 0.29164055 -0.009376727 0.057765044 -0.009646027 0.311463 0.25593707
0.24952391 -0.070177294 -0.28497708 0.05324274 1.1413006 0.018088738 1.2464848 -0.034739606
-0.0056011416 -0.45488188 0.8338195 2.0164514 -0.04270511 0.009724878 0.1589801 -0.047850914
0.06374452 -0.26509234 -0.032070536 -0.03952254 -0.0035986945 0.17123395 0.04586305 -0.6632842
0.7896457 0.59102273 -0.24089125 -0.12423331 0.14870311 0.015400922 -0.0013170907 0.020240938
0.89430565 1.5401442 -0.43222252 0.74289083 0.45458752 0.6943888 -0.056200076 -0.13273479
-0.14596629 0.027751338 -0.6177703 0.27687374 0.16777085 0.123508774 -0.59546494 -0.0067625903
-0.4210091 -0.00592441 0.035486687 -0.23134825 1.4586459 -1.5132104 0.76009715 0.23945872
0.014769351 0.02945467 -0.021640018 0.40136844 0.03618161 -0.23155282 -0.17525181 1.3818166
-0.6937464 1.1783284 0.2191367 0.023368176 0.009568254 -0.03118598 -0.008367034 0.000222351
-0.27200752 -0.026283477 0.0070321485 -0.3700408 -1.1378101 -0.00031102428 1.2251067 0.0076220287
-0.01156006 -0.23824756 0.07107888 0.032322023 0.7780755 -1.9952756 0.55543584 0.6929317
-0.05584741 -0.0024790482 1.2074049 0.018320873 -0.010095109 -0.045963585 0.043501105 -0.22297297
-0.21915078 -0.05300432 -0.033581946 -0.04327706 -0.026242916 0.017807955 0.006217782 0.47195613
0.034599036 0.05570626 0.110940434 0.2153824 -0.103458546 0.011693723 0.04891259 0.013189021
00000000: 1d08 eabd c3ab 903d 58c1 02bc 6843 01bd
00000010: 54f8 4f3e 6841 f83d 09e3 93be 39af d9bd
00000020: c52e 7cbd 13d7 b53d e608 03be 202a d0bc
00000030: 803f c7ba 34b9 3c3b 4c95 9c3b f105 203e
00000040: 1fe1 213d 3e70 7f3c 3841 b43c d383 1ebe
00000050: 3ea1 9abd 6ad4 34bd e306 2c3d 1684 0dbe
00000060: 5257 c93d d191 6cbb 64cc d6bd 2825 e73d
00000070: 68fa 453d bb3b 58bc b606 b13a cd8a f23b
00000080: 8ebf 03bd a524 ecbc c4ff 213d b648 34bd
00000090: dd82 33bd c5bd 2dbd b099 88bd d848 a7bd
000000a0: 0dc7 a1bd 2521 383d 7b94 7aba 3a43 59be
000000b0: 8f47 933e 7a5b a5bd 3685 0dbe 5b37 023c
000000c0: e9a4 5abd 9e9a df3b f1a5 0f3d 3faf fd3c
000000d0: 127c 153d dd44 6a3c eb4f a2bc d87d bf3c
000000e0: 9acb 1e3e 0bf3 8abe d574 56bd e393 0e3e
000000f0: 4fa6 d6bd 7184 783e 3903 4ebb 39e9 193e
00000100: 19dd 873d 3498 693d 813a a03d fab6 75bb
00000110: 91fb 323c c60c 37be 227c 4b3d 68e7 3abe
00000120: cdda 2fba c183 b8bc 1580 f13c e619 81bd
00000130: 4309 39bc af0e 8a3b ba15 893b 2e1e c93c
00000140: 4a6d fabc 3617 2b3d c9bc a9bd 3d11 2dbd
00000150: ad64 abbc 16c4 063b 123e 26be 5148 c33b
00000160: 0983 f7bc 2a5a 9d3b 542f ddbc 316a 13bc
00000170: 1948 c4bb 5f36 203d 955e 14bd 16ef 09bc
00000180: a4f6 afbc 51dd 96bc d3e3 173f dbc2 78bd
00000190: 2820 c63c b555 6b3d 55b3 c6bd f7c5 9abd
000001a0: e8ac 2dbc 58d6 01bf 1f29 533d d11c 8e3b
000001b0: e8fc a1be 23f1 273d a21c 533e d59d b53c
000001c0: ac9c 85bd b0f2 80bd cb1f a83e 6840 3b3b
000001d0: 637d 18bd d163 8abd a770 ffbd ee59 adbc
000001e0: 7a7c a73e 5859 9abc 21e8 42bd 3bfd bc3c
000001f0: aa9f b7bb 3874 7d3e 65c1 543d d523 2c3e
00000200: 570d ee3e 1464 0cbe 4099 9abd 030a d2bc
00000210: aafa 1e3e dbee 01be 8330 9e3b d467 18bc
00000220: c6d7 9a3d 7843 e73c e951 953e d8a0 19bc
00000230: 0a9b 6c3d 5f0a 1ebc 1478 9f3e 2f0a 833e
00000240: 3283 7f3e 1db9 8fbd 84e8 91be 0f15 5a3d
00000250: 2316 923f d52e 943c d08c 9f3f 1e4b 0ebd
00000260: c889 b7bb 47e6 e8be 3275 553f 8a0d 0140
00000270: 8eeb 2ebd 1855 1f3c aecb 223e 52ff 43bd
00000280: 7d8c 823d 2fba 87be 655c 03bd 63e2 21bd
00000290: 13d8 6bbb f457 2f3e e5da 3b3d fecc 29bf
000002a0: 3826 4a3f 444d 173f 32ac 76be 096e febd
000002b0: a145 183e 2654 7c3c 3ba2 acba 53d0 a53c
000002c0: 37f1 643f 7223 c53f 454c ddbe 182e 3e3f
000002d0: b2bf e83e 77c3 313f 0d32 66bd a1eb 07be
000002e0: 3078 15be c656 e33c 3226 1ebf 65c2 8d3e
000002f0: 1fcc 2b3e 2bf2 fc3d 6470 18bf b898 ddbb
00000300: 818e d7be 8e21 c2bb 7d5a 113d 8ee6 6cbe
00000310: e9b4 ba3f e1b0 c1bf ba95 423f ab34 753e
00000320: 26fb 713c ec4a f13c 6846 b1bc 2a80 cd3e
00000330: 2b33 143d 2f1c 6dbe 3675 33be 5edf b03f
00000340: 5d99 31bf 77d3 963f 5f65 603e 9e6e bf3c
00000350: 2bc4 1c3c be79 ffbc e215 09bc e426 6939
00000360: 9244 8bbe 7250 d7bc f06d e63b fd75 bdbe
00000370: c3a3 91bf f910 a3b9 4cd0 9c3f 36c2 f93b
00000380: 6866 3dbc 2bf7 73be ce91 913d 1964 043d
00000390: f52f 473f 3165 ffbf 0b31 0e3f f963 313f
000003a0: 41c0 64bd 8777 22bb 3e8c 9a3f a815 963c
000003b0: f565 25bc 5044 3cbd 372e 323d 0753 64be
000003c0: 1069 60be 0f1b 59bd 398d 09bd 4943 31bd
000003d0: 62fb d6bc fde1 913c 89be cb3b 3ca4 f13e
000003e0: b8b7 0d3d 3f2c 643d bd34 e33d 348d 5c3e
000003f0: 13e2 d3bd 0797 3f3c 9158 483d c316 583c

output.bias f4 [4]
-0.0559934 -0.15677528 -0.027517512 -0.016456213
00000000: 5659 65bd b389 20be 686c e1bc 2ecf 86bc
