models/MagneticPendulum/p-1_measure_x1*cos(0.0833333333333333*pi) + x2*sin(0.0833333333333333*pi)_N4_sep/al_model_state_dict.pth (torch, 46224 bytes, 7 tensors)

hidden1.weight f4 [32, 4]
0.34881264 -0.46504545 -0.06201619 0.046337564 -0.24289271 0.32668433 -0.13323791 0.0953696
0.06950849 -0.061222076 0.13868046 0.024665892 0.65163916 -0.07703641 0.08853156 -0.017107245
0.0598152 0.069466 0.45540866 0.103231266 -0.29633895 -0.20580396 -0.1591102 -0.09501416
-0.11263348 0.06930604 0.14947899 0.06578383 -0.4063811 0.085662045 0.2775046 0.5955247
0.2837128 -0.38662815 -0.17667328 -0.032801636 0.5106159 -0.17677984 0.65739787 -0.62322
0.5665655 -0.7637939 0.6870748 -0.18242909 -0.6596462 0.5613218 -0.41146064 0.37051004
-0.26747343 -0.74892586 -0.72528833 -0.41984633 0.5262296 0.13472484 1.0337085 0.40009013
-0.03397228 -0.565559 0.64360464 0.38985065 -0.112993695 0.40701348 0.52076 0.98435396
-0.2223106 -0.01666187 -0.40642887 0.19317071 -0.983252 -0.6550662 0.43449637 0.03331839
0.62865686 -0.04528313 0.19767654 0.09962293 0.4017773 0.73602986 -0.77118784 0.30778453
-0.5123435 -0.5045375 0.1179311 -0.14080808 0.29648978 -0.3302197 -0.42936927 0.74586564
-0.5357992 0.5666865 0.5795421 -0.7368489 -0.045587745 0.05187576 -0.50049454 -0.42357376
0.23453118 -0.24477589 -0.27381155 -0.6968255 1.1241926 -0.02928891 0.7097809 0.0471375
-0.4410649 -0.90113825 0.68536144 -0.31997627 0.970869 0.37356058 0.66413504 0.53156054
0.62849647 -0.36520064 0.19711155 0.83487195 0.9714002 0.3998007 -0.26663375 -0.811668
-0.12442024 -0.039025318 0.6195685 -0.5854543 -0.05153553 -0.83872694 -0.45435652 -0.48054394
00000000: 9297 b23e 701a eebe b004 7ebd 75cc 3d3d
00000010: deb8 78be 2b43 a73e 856f 08be 2351 c33d
00000020: 785a 8e3d 00c4 7abd 4002 0e3e 2010 ca3c
00000030: d3d1 263f 44c5 9dbd 0950 b53d 7e24 8cbc
00000040: c800 753d 3144 8e3d 532b e93e ea6a d33d
00000050: bdb9 97be 46be 52be c9ed 22be c996 c2bd
00000060: 62ac e6bd 53f0 8d3d 0511 193e acb9 863d
00000070: 2f11 d0be 956f af3d 1515 8e3e 4f74 183f
00000080: ce42 913e 20f4 c5be d7e9 34be 025b 06bd
00000090: b9b7 023f c605 35be 3a4b 283f 598b 1fbf
000000a0: 700a 113f ff87 43bf 22e4 2f3f b1ce 3abe
000000b0: 93de 28bf c9b2 0f3f f8aa d2be 7eb3 bd3e
000000c0: 47f2 88be 9bb9 3fbf 7fac 39bf 19f6 d6be
000000d0: fcb6 063f 4ff5 093e 8f50 843f 9dd8 cc3e
000000e0: 8426 0bbd 7ac8 10bf 46c3 243f 819a c73e
000000f0: 3d69 e7bd 1264 d03e 8750 053f 9ffe 7b3f
00000100: 64a5 63be 797e 88bc 7217 d0be 8bce 453e
00000110: 67b6 7bbf 6bb2 27bf 4f76 de3e dd78 083d
00000120: a8ef 203f ce7a 39bd b86b 4a3e 1b07 cc3d
00000130: c1b5 cd3e 746c 3c3f 916c 45bf ef95 9d3e
00000140: f228 03bf 5f29 01bf dc85 f13d fe2f 10be
00000150: 82cd 973e 8e12 a9be 4ad6 dbbe 0df1 3e3f
00000160: 232a 09bf 5e12 113f df5c 143f 21a2 3cbf
00000170: 37ba 3abd ad7b 543d 6920 00bf a9de d8be
00000180: f128 703e 88a6 7abe 0731 8cbe 2863 32bf
00000190: 8be5 8f3f 4cef efbc 33b4 353f 4013 413d
000001a0: 42d3 e1be ffb0 66bf d973 2f3f eed3 a3be
000001b0: df8a 783f 5543 bf3e c104 2a3f 5a14 083f
000001c0: 25e5 203f 94fb babe 9cd7 493e 2bba 553f
000001d0: afad 783f adb2 cc3e 3884 88be 79c9 4fbf
000001e0: 0ad0 febd 03d9 1fbd 0b9c 1e3f 55e0 15bf
000001f0: eb16 53bd cfb6 56bf 6ba1 e8be db09 f6be

hidden1.bias f4 [32]
0.23839827 0.31711298 -0.3105194 0.3007213 0.28323364 0.08345004 0.03694957 0.17698391
0.38055235 0.21900171 -0.46352923 -0.46766964 -0.44804156 0.020217858 -0.40451118 0.05373897
0.098473944 -0.08841143 0.36297506 0.118380986 0.11930532 0.09808104 -0.15288718 0.12731163
-0.1820232 0.020448852 -0.5151796 -0.20553756 -0.19577874 -0.23336214 0.14535081 -0.1421299
00000000: ad1e 743e a25c a23e 66fc 9ebe 24f8 993e
00000010: 0004 913e dbe7 aa3d 6f58 173d 453b 353e
00000020: c2d7 c23e fc41 603e b453 edbe 6572 efbe
00000030: b465 e5be ec9f a53c 171c cfbe 651d 5c3d
00000040: b5ac c93d 0d11 b5bd ded7 b93e bb71 f23d
00000050: 5956 f43d b6de c83d 758e 1cbe fb5d 023e
00000060: 4a64 3abe 5a84 a73c cfe2 03bf 7078 52be
00000070: 397a 48be 7cf6 6ebe d8d6 143e 808a 11be

hidden2.weight f4 [64, 32]
-1.2783837 0.11526777 0.056598514 0.001481959 0.053264253 -0.28456333 -0.061530575 -0.07357934
-0.5217625 -0.7132402 -0.077806816 0.19460139 0.54507434 0.04587082 0.16319405 0.20747875
-0.06889335 -1.4556769 -0.025287468 0.42784733 -0.9700856 -0.40510604 -0.518457 0.052000046
0.29932767 -0.0017405893 -0.15304145 0.22970255 -0.5735911 -0.05468102 0.11943066 -0.06744971
-0.19490376 0.052372277 0.1279683 0.07710963 -0.058324046 -0.006901285 -0.061492316 -0.30345902
-0.048213165 -0.4768114 -0.6737407 -0.6045436 -0.25950125 0.16510828 0.22501093 -0.21916792
-0.014571998 -0.14714137 0.06331382 0.57043195 -0.62086475 0.075499006 0.36661333 0.36066467
0.2535566 -0.20890686 -0.042159524 -0.11761807 0.52907777 0.0037001835 -0.3129418 -0.7290692
0.13720816 -0.29452485 -0.040499657 0.34034458 0.07255832 -0.059445843 -0.3141371 -0.3610653
0.21069692 0.01770277 0.78440166 -0.24346972 0.26901907 0.22948185 0.2199923 -0.16219454
-0.46616176 -0.34980047 0.2459736 0.23281237 -0.31983128 0.09577129 -0.5741308 0.04777256
0.25311938 0.4993785 0.77360886 -0.33142588 0.040437452 0.033583872 -0.37302127 -0.60168046
0.1419476 0.093968056 -0.010245189 0.073540814 0.33222836 -0.0072371606 -0.015261883 0.17243028
0.0590604 -0.5038545 0.11936054 -0.41844627 0.29005572 -0.021934427 0.162687 0.18520784
-0.091336414 0.122452214 0.014560527 0.022982161 -0.30066833 -0.063105404 -0.18590862 -0.0325418
-0.092281215 -0.13680096 0.29146835 -0.003687431 -0.088655256 -0.07925793 -0.2178668 0.28246707
0.07087013 -0.01827222 0.006539166 -0.065474726 -0.06557897 0.03736226 -0.037384063 -0.04014827
-0.011391641 0.07332461 -0.37246427 -0.6546174 -1.1279746 -0.3983778 -0.30258033 -0.09772548
-0.008976233 0.06594132 -0.27081278 0.3876243 0.08317267 0.11712549 0.19238523 -0.057422303
0.6344695 -0.20916718 -0.036527157 -0.41455314 -0.95435226 0.18844593 0.1897765 0.47199556
-0.14111441 0.06505217 -0.03357111 0.0575736 0.1723322 -0.13977446 -0.08825676 0.07433177
-0.035598725 0.08833044 -0.4706666 -1.1814052 0.16909586 -0.33780682 -0.053348783 -0.03628825
-0.25796446 -0.06129601 0.20679799 0.1418258 -0.09132918 -1.0907128 -0.65151364 0.25790676
-0.056643266 -0.051312253 -0.09909185 -0.3368643 0.04160529 -0.7445262 0.13409753 0.3276117
0.025077743 -0.04282379 0.11292739 0.21375966 0.1665942 0.09769836 0.12913263 -0.036480803
-0.03356599 -0.111587934 -0.26411146 -0.24026962 0.34875497 0.25117746 -0.8445117 -0.39683217
-0.12115959 -0.053042058 -0.076214515 -0.34066483 0.044204526 -0.36666042 -0.37027416 -0.024874555
-1.436988 0.48783988 1.026164 0.10416028 -0.21080795 -1.8031443 -0.03301714 -0.32804734
-0.193582 0.06875445 0.06278242 0.015428911 -0.110844366 -0.08843074 -0.03494415 0.083141126
-0.06581135 -0.22824632 0.14963642 0.06069933 0.13974507 -0.06779727 0.16109505 0.04655573
-0.11702194 0.10382006 -0.077278525 -0.14526087 -0.06602131 -0.19917394 -0.12734447 -0.14078899
0.121752925 -0.10236423 0.002892177 0.084393576 0.08409399 -0.13461791 0.008874013 0.07509874
00000000: 14a2 a3bf 8211 ec3d d8d3 673d 4b3e c23a
00000010: 9e2b 5a3d 49b2 91be 7c07 7cbd c4b0 96bd
00000020: 3a92 05bf e996 36bf 2e59 9fbd 9645 473e
00000030: fe89 0b3f 0ae3 3b3d 571c 273e 4f75 543e
00000040: f517 8dbd 9f53 babf aa27 cfbc ce0e db3e
00000050: 8857 78bf 0f6a cfbe 99b9 04bf 00fe 543d
00000060: 7a41 993e 7c24 e4ba e6b6 1cbe 2537 6b3e
00000070: ded6 12bf 35f9 5fbd 1098 f43d 1323 8abd
00000080: da94 47be 5084 563d 1f0a 033e a7eb 9d3d
00000090: 32e5 6ebd 2d24 e2bb 5edf 7bbd fb5e 9bbe
000000a0: 2b7b 45bd a020 f4be 457a 2cbf 5fc3 1abf
000000b0: 59dd 84be 2512 293e 4469 663e 8e6d 60be
000000c0: 64bf 6ebc 3aac 16be adaa 813d d407 123f
000000d0: fef0 1ebf 399f 9a3d beb4 bb3e 0aa9 b83e
000000e0: 2cd2 813e aeeb 55be 77af 2cbd bee1 f0bd
000000f0: a471 073f c77e 723b e839 a0be 47a4 3abf
00000100: 4c80 0c3e f6cb 96be f8e2 25bd a541 ae3e
00000110: 7599 943d 7c7d 73bd 94d6 a0be 8ddd b8be
00000120: efc0 573e 6605 913c 8cce 483f 2050 79be
00000130: debc 893e 4afd 6a3e a945 613e 5316 26be
00000140: c1ac eebe 0c19 b3be 81e0 7b3e 5e66 6e3e
00000150: edc0 a3be bd23 c43d 3cfa 12bf 29ad 433d
00000160: dd98 813e 8aae ff3e 3b0b 463f a7b0 a9be
00000170: bea1 253d 3e8f 093d a5fc bebe bb07 1abf
00000180: b65a 113e 5372 c03d 70db 27bc 919c 963d
00000190: d619 aa3e b425 edbb fa0c 7abc 9091 303e
000001a0: 51e9 713d 9cfc 00bf 4c73 f43d 973e d6be
000001b0: 2f82 943e d4af b3bc 6c97 263e 20a7 3d3e
000001c0: 960e bbbd 3ac8 fa3d 478f 6e3c 1645 bc3c
000001d0: 33f1 99be 683d 81bd d45e 3ebe 8d4a 05bd
000001e0: effd bcbd 8d15 0cbe 573b 953e d4a8 71bb
000001f0: e390 b5bd fb51 a2bd 7918 5fbe 869f 903e
00000200: 5c24 913d 9faf 95bc 8046 d63b 9d17 86bd
00000210: 444e 86bd 2b09 193d 0820 19bd 8372 24bd
00000220: 01a4 3abc 372b 963d a3b3 bebe 0295 27bf
00000230: 7961 90bf 2df8 cbbe cfeb 9abe 4c24 c8bd
00000240: 0d11 13bc 3e0c 873d f9a7 8abe b176 c63e
00000250: 6f56 aa3d 7ddf ef3d a200 453e a633 6bbd
00000260: 986c 223f ec2f 56be 809d 15bd 4f40 d4be
00000270: 6e50 74bf f8f7 403e c554 423e 67a9 f13e
00000280: 4c80 10be 123a 853d dc81 09bd 4cd2 6b3d
00000290: da77 303e 0921 0fbe f6bf b4bd 413b 983d
000002a0: f8cf 11bd 97e6 b43d 36fb f0be 4938 97bf
000002b0: 7727 2d3e 04f5 acbe 4184 5abd fda2 14bd
000002c0: eb13 84be 8611 7bbd dac2 533e c83a 113e
000002d0: cb0a bbbd 7a9c 8bbf 99c9 26bf 5b0c 843e
000002e0: c502 68bd cc2c 52bd abf0 cabd 7a79 acbe
000002f0: 4f6a 2a3d 4599 3ebf dd50 093e b9bc a73e
00000300: d76f cd3c 0068 2fbd 7a46 e73d d0e3 5a3e
00000310: ac97 2a3e 1416 c83d 583b 043e e56c 15bd
00000320: 7e7c 09bd 3788 e4bd 9e39 87be 3d09 76be
00000330: 0390 b23e 559a 803e eb31 58bf 962d cbbe
00000340: 8522 f8bd a142 59bd 5b16 9cbd 9f6b aebe
00000350: ce0f 353d eaba bbbe 9394 bdbe b9c5 cbbc
00000360: 39ef b7bf 26c6 f93e 5859 833f fc51 d53d
00000370: 0ade 57be 6fcd e6bf fb3c 07bd d2f5 a7be
00000380: 5c3a 46be 22cf 8c3d 1294 803d 8bc9 7c3c
00000390: 5f02 e3bd 2d1b b5bd 9921 0fbd e545 aa3d
000003a0: 1ac8 86bd 67b9 69be 4a3a 193e dc9f 783d
000003b0: 5519 0f3e 4cd9 8abd 1af6 243e 39b1 3e3d
000003c0: 33a9 efbd 9d9f d43d 3444 9ebd 44bf 14be
000003d0: 2e36 87bd 41f4 4bbe 9766 02be fd2a 10be
000003e0: 9959 f93d 56a4 d1bd ae8a 3d3b 8ad6 ac3d
000003f0: 7839 ac3d 47d9 09be 4f64 113c 5ecd 993d

hidden2.bias f4 [64]
0.13424212 0.12972668 -0.02014797 0.031059807 0.115441516 0.19734593 0.12058981 -0.18249296
0.03819231 0.26090878 -0.14446543 0.19718644 -0.12650049 -0.06324214 0.023705542 -0.07295367
0.023182625 -0.12923256 0.19187154 0.16414897 -0.18143946 -0.17594172 0.25782228 0.029515726
0.015241104 0.0551208 -0.15141223 0.060878318 -0.047153004 -0.039987136 -0.21080142 -0.11066933
0.0045764083 0.14715357 0.029366413 -0.110158384 -0.07081211 -0.07252886 0.18717068 -0.07199935
-0.15336205 -0.1207681 -0.1839733 -0.07119343 -0.014459434 -0.04029925 0.08430203 -0.019994644
-0.1930935 -0.093310915 -0.060446948 -0.13502192 -0.33752343 -0.15731113 -0.08597067 -0.009084011
-0.08252775 0.12884596 0.06761504 -0.036068857 0.037393585 -0.09773118 0.04347368 -0.15867023
00000000: c476 093e 12d7 043e 5b0d a5bc 2371 fe3c
00000010: 9a6c ec3d 0d15 4a3e caf7 f63d 6fdf 3abe
00000020: 8a6f 1c3d d695 853e bfee 13be 3eeb 493e
00000030: 5889 01be 1885 81bd 2032 c23c bc68 95bd
00000040: 7de9 bd3c 8a55 04be f979 443e ab16 283e
00000050: 44cb 39be 112a 34be 4801 843e f7ca f13c
00000060: d3b5 793c 59c6 613d cf0b 1bbe 8b5b 793d
00000070: 8223 41bd 8dc9 23bd 54dc 57be 9aa6 e2bd
00000080: b2f5 953b 6daf 163e d591 f03c b89a e1bd
00000090: f105 91bd 038a 94bd aca9 3f3e 6574 93bd
000000a0: f10a 1dbe 4455 f7bd 7f63 3cbe dccd 91bd
000000b0: 43e7 6cbc d410 25bd 8ba6 ac3d cfcb a3bc
000000c0: 4dba 45be cb19 bfbd 3897 77bd 3043 0abe
000000d0: dfcf acbe 2b16 21be 6411 b0bd 1bd5 14bc
000000e0: 4f04 a9bd 32f0 033e c179 8a3d f0bc 13bd
000000f0: 042a 193d 4927 c8bd 7511 323d 737a 22be

hidden3.weight f4 [128, 64]
-0.0075218007 0.047853615 0.041727785 -0.052656427 -0.08103053 0.080522284 -0.046372656 -0.13934614
-0.050175216 -0.012708775 -0.046437874 -0.042418666 -0.10193084 0.025468951 -0.10766076 0.023597216
0.09418453 -0.10995541 -0.087190434 0.0006851495 -0.008053938 0.0732895 -0.026786525 0.025513796
-0.03283637 -0.0047252937 0.03776659 -0.14388135 0.041338287 -0.0723598 0.10084769 -0.14491622
-0.036864676 0.04093928 0.07006186 -0.036031485 -0.020948768 -0.10741235 -0.12334298 0.10064547
-0.108862296 -0.049461573 0.05498298 0.055286586 -0.117732145 0.0012942436 -0.018767 0.096639216
-0.05003308 0.053081676 -0.04101833 0.08737857 -0.0018413581 -0.1087772 -0.002385682 -0.06616433
0.027329037 0.04618398 -0.1136386 -0.07964713 -0.051799707 -0.007311508 -0.08430444 0.10463087
0.290068 0.3304746 -0.08788601 -0.32640466 0.09879455 -0.013966266 -0.8217954 0.015127093
0.45367888 -1.7792627 -0.014915033 -0.61776155 0.056452483 0.63917726 -0.18806455 -0.48119146
0.006988239 0.11445734 -0.24399735 -0.0976454 -0.32922605 -0.020745635 -0.15995961 -0.34555313
-0.7648486 0.052597143 0.043307386 0.18163188 0.071600854 -0.43793842 -0.40691453 -0.9384874
0.28253666 0.17477085 -0.41980734 -0.23944776 0.24207468 -0.1500876 0.19935971 0.017747194
-0.014948115 0.0892137 0.27434123 -1.82426 -0.10451105 -0.4715398 -0.2778139 -0.077666715
-0.35262105 -0.0151203135 0.23530908 -0.19216996 0.019182727 0.5366679 -0.13409203 -0.10456912
0.14771971 -0.15473323 -1.1362128 0.11530057 0.01986441 -0.033033818 -0.6797961 0.014267489
-0.034888826 0.06410745 0.05284837 0.041555088 0.06972201 -0.10500114 -0.12714599 0.009900559
0.026781838 -0.13428918 0.10216643 -0.013235182 -0.073256046 0.07815423 0.068538725 0.01506163
-0.039864138 -0.022650298 -0.10175129 0.069008976 0.07000531 -0.023403361 -0.10777201 0.051652033
-0.110727936 -0.07573545 0.0745641 -0.071711496 -0.01277012 0.098241016 -0.01580201 -0.05787047
0.10816248 0.012843844 0.037900686 -0.080391645 -0.10784024 -0.010098196 -0.08172784 -0.06464811
-0.10253513 0.10708891 -0.092530824 0.027154213 0.016994644 0.04751543 0.06044985 -0.0875144
0.050198004 -0.0634944 -0.0016757756 -0.05120677 -0.10701865 0.037407666 -0.09025422 0.12231009
0.010560249 -0.051909294 -0.10968195 -0.12264457 -0.072414815 -0.08155005 0.005460773 0.029920444
0.107980125 -0.00022121523 -0.4090185 0.16437578 0.19930495 -0.0020520668 0.06939866 -0.11630714
0.030561697 0.16319296 0.0053861747 -0.33854374 -0.11168421 -0.06339446 0.05051159 -1.259419
-0.06071292 0.036770396 -0.09651758 -0.08302241 -0.04778322 0.014494464 0.030747434 0.08699469
-0.06270823 -0.05821385 -0.06954199 0.2516215 0.011498726 -0.19937025 -0.4114291 0.35713828
0.33240286 -0.24355584 -0.13131234 0.090254545 0.02582432 -0.44904587 -0.03433877 -0.033532914
-0.115304425 -0.05528438 -0.33592573 -0.24552737 -0.29936653 0.23640719 0.13780066 0.046135597
-0.1673635 0.09933549 -0.53594464 -0.59948796 -0.92835665 -0.14266123 -0.26943764 0.10754362
0.2037026 -0.65220726 0.3004915 0.30428573 0.028480258 -0.0002521358 -0.010365801 -0.1219432
00000000: 7079 f6bb 2702 443d c1ea 2a3d 44ae 57bd
00000010: 56f3 a5bd dee8 a43d 41f1 3dbd c1b0 0ebe
00000020: 8784 4dbd 7738 50bc a435 3ebd 32bf 2dbd
00000030: 1ec1 d0bd 43a4 d03c 3f7d dcbd f34e c13c
00000040: d2e3 c03d 4d30 e1bd e690 b2bd 9b9b 333a
00000050: aaf4 03bc ce18 963d 6a6f dbbc 4f02 d13c
00000060: 6e7f 06bd a3d6 9abb 24b1 1a3d a255 13be
00000070: 5652 293d 6031 94bd 3c89 ce3d eb64 14be
00000080: 6aff 16bd f2af 273d 987c 8f3d c095 13bd
00000090: c09c abbc 02fb dbbd 3f9b fcbd 361f ce3d
000000a0: 32f3 debd 3898 4abd d535 613d 3074 623d
000000b0: 8d1d f1bd 9ca3 a93a 40bd 99bc c8ea c53d
000000c0: 7def 4cbd 2c6c 593d d602 28bd 89f3 b23d
000000d0: ba59 f1ba 95c6 debd 1a59 1cbb 2a81 87bd
000000e0: 25e1 df3c 6a2b 3d3d 5bbb e8bd 091e a3bd
000000f0: ee2b 54bd 6095 efbb cea7 acbd b648 d63d
00000100: cb83 943e f733 a93e 95fd b3bd 831e a7be
00000110: cc54 ca3d c4d2 64bc 2f61 52bf a0d7 773c
00000120: 9948 e83e e1be e3bf 2f5e 74bc 9f25 1ebf
00000130: b83a 673d 1fa1 233f fe93 40be ba5e f6be
00000140: 99fd e43b 9c68 ea3d 71da 79be 50fa c7bd
00000150: 5190 a8be c0f2 a9bc 74cc 23be 57ec b0be
00000160: 1ecd 43bf 1a70 573d 1663 313d b5fd 393e
00000170: 78a3 923d 7739 e0be 1a57 d0be b640 70bf
00000180: a5a8 903e 21f7 323e fdf0 d6be cb31 75be
00000190: 6de2 773e 90b0 19be f424 4c3e 9062 913c
000001a0: f0e8 74bc acb5 b63d 7476 8c3e 5a81 e9bf
000001b0: e409 d6bd aa6d f1be a03d 8ebe ba0f 9fbd
000001c0: bf8a b4be 31bb 77bc ddf4 703e 34c8 44be
000001d0: 1825 9d3c 1163 093f 6c4f 09be 5628 d6bd
000001e0: d643 173e 6372 1ebe 6c6f 91bf b522 ec3d
000001f0: b0ba a23c 784e 07bd 1e07 2ebf 30c2 693c
00000200: 96e7 0ebd c44a 833d 8877 583d ab35 2a3d
00000210: 6aca 8e3d d60a d7bd 8f32 02be f435 223c
00000220: 9665 db3c 1a83 09be a23c d13d 60d8 58bc
00000230: 4407 96bd 530f a03d 085e 8c3d 0ec5 763c
00000240: 9448 23bd 1e8d b9bc fb62 d0bd 9454 8d3d
00000250: f25e 8f3d 68b8 bfbc 92b7 dcbd 1591 533d
00000260: 54c5 e2bd 301b 9bbd 10b5 983d 7add 92bd
00000270: c439 51bc 9632 c93d 3873 81bc 9609 6dbd
00000280: 4a84 dd3d fc6e 523c c03d 1b3d 60a4 a4bd
00000290: 58db dcbd e772 25bc ed60 a7bd 3a66 84bd
000002a0: f0fd d1bd 6e51 db3d cd80 bdbd 8372 de3c
000002b0: 5a38 8b3c 8a9f 423d 439a 773d c03a b3bd
000002c0: 6c9c 4d3d 5a09 82bd b3a5 dbba 31be 51bd
000002d0: 982c dbbd c838 193d 34d7 b8bd b67d fa3d
000002e0: e504 2d3c d79e 54bd eea0 e0bd 142d fbbd
000002f0: 384e 94bd b603 a7bd 49f0 b23b b81b f53c
00000300: af24 dd3d 03f6 67b9 df6a d1be 2052 283e
00000310: 9916 4c3e f87b 06bb e220 8e3d 7032 eebd
00000320: 865c fa3c 0e1c 273e 827e b03b 9b55 adbe
00000330: b1ba e4bd f4d4 81bd 3ee5 4e3d a434 a1bf
00000340: 1cae 78bd 8e9c 163d 02ab c5bd a707 aabd
00000350: 56b8 43bd 307a 6d3c 0be2 fb3c 462a b23d
00000360: 2c6d 80bd a571 6ebd 086c 8ebd 89d4 803e
00000370: 2765 3c3c b727 4cbe d6a6 d2be d4da b63e
00000380: b530 aa3e b466 79be be76 06be 60d7 b83d
00000390: 868d d33c 57e9 e5be cfa6 0cbd cf59 09bd
000003a0: ba24 ecbd e071 62bd 75fe abbe 876b 7bbe
000003b0: 9246 99be ba14 723e 9e1b 0d3e aef8 3c3d
000003c0: 5661 2bbe 6870 cb3d ab33 09bf 0b78 19bf
000003d0: c8a8 6dbf c915 12be bbf3 89be d43f dc3d
000003e0: 6a97 503e 0ef7 26bf 06da 993e 57cb 9b3e
000003f0: 6e4f e93c 1831 84b9 52d5 29bc 5bbd f9bd

hidden3.bias f4 [128]
-0.13655914 -0.043459263 -0.1403233 0.08896518 -0.054089446 -0.07574873 -0.33329013 -0.123519026
-0.4147942 -0.1934411 0.016640397 -0.024274757 -0.09478087 -0.14592846 -0.006349671 -0.23241022
-0.049802296 -0.09515107 -0.11658199 -0.05386247 -0.07218641 0.06839707 -0.06378348 -0.11397911
-0.043419663 -0.11013286 0.1546358 -0.029561635 -0.20168014 0.049963262 -0.04329809 -0.030520635
-0.12172864 -0.034184664 -0.041981872 0.061348908 -0.053642936 0.0009628412 -0.27001682 -0.08430926
0.08743685 -0.028391698 0.0009198222 0.0019737226 -0.05154985 -0.19979233 0.12731588 -0.21629113
-0.07506775 -0.14450838 -0.019228356 -0.103935435 -0.15733328 -0.17732915 -0.2032774 0.05455562
-0.08516191 -0.09181285 0.034821052 -0.07904198 -0.020080743 -0.0382598 -0.06468116 -0.006071422
-0.17196567 -0.11420141 -0.09161489 -0.17800954 0.13299876 0.039535627 -0.41961008 0.017022816
-0.14710197 -9.132677e-05 -0.09671586 -0.10859156 -0.30563703 -0.09577947 -0.05012548 -0.1985522
-0.1086928 -0.46290037 0.009167135 0.14159292 -0.07185317 0.01820711 -0.04281147 -0.124807216
0.03951745 -0.08241259 0.11886318 -0.04861342 -0.19311243 -0.028353501 -0.18005246 -0.06261383
-0.13050702 -0.00086556707 -0.04676754 -0.050345402 -0.11199511 -0.42936707 -0.1520908 -0.056773026
-0.20582767 -0.13425358 -0.21949679 -0.0112355035 0.004307416 -0.24136347 -0.16991575 -0.0589298
-0.22967392 -0.24422418 -0.05819422 -0.13519269 -0.17824362 -0.2691612 -0.0118309865 -0.056863338
-0.12242812 -0.041508902 -0.17909752 0.03044333 -0.13405001 0.11421904 -0.006593841 -0.21017635
00000000: 29d6 0bbe 5702 32bd e9b0 0fbe 6033 b63d
00000010: e58c 5dbd 2622 9bbd 01a5 aabe 8bf7 fcbd
00000020: e85f d4be 6c15 46be 7151 883c dbdb c6bc
00000030: 791c c2bd 456e 15be e710 d0bb f2fc 6dbe
00000040: 7efd 4bbd 90de c2bd 8ac2 eebd e59e 5cbd
00000050: 78d6 93bd c313 8c3d eaa0 82bd e16d e9bd
00000060: d1d8 31bd 568d e1bd d958 1e3e 3e2b f2bc
00000070: 3d85 4ebe 47a6 4c3d 5759 31bd 6906 fabc
00000080: dd4c f9bd 3805 0cbd 2ff5 2bbd fe48 7b3d
00000090: b2b8 5bbd 2e67 7c3a a53f 8abe 55aa acbd
000000a0: 1712 b33d b595 e8bc 3920 713a 9259 013b
000000b0: ef25 53bd 5c96 4cbe 185f 023e 6c7b 5dbe
000000c0: 1fbd 99bd 01fa 13be c984 9dbc 1adc d4bd
000000d0: fa1b 21be c695 35be f327 50be b775 5f3d
000000e0: 5e69 aebd 6008 bcbd 85a0 0e3d c3e0 a1bd
000000f0: 5f80 a4bc 4fb6 1cbd 8e77 84bd c7f2 c6bb
00000100: c517 30be 6ee2 e9bd 96a0 bbbd 2248 36be
00000110: d430 083e 1cf0 213d 22d7 d6be 6f73 8b3c
00000120: e6a1 16be b086 bfb8 f712 c6bd 4065 debd
00000130: 757c 9cbe 0728 c4bd 6050 4dbd 4551 4bbe
00000140: 559a debd 4701 edbe c031 163c bcfd 103e
00000150: c127 93bd 1427 953c 145b 2fbd ed9a ffbd
00000160: 0ddd 213d efc7 a8bd 8a6e f33d de1e 47bd
00000170: 44bf 45be 9a45 e8bc ac5f 38be ae3b 80bd
00000180: a2a3 05be 39e7 62ba 528f 3fbd fb36 4ebd
00000190: b15d e5bd 00d6 dbbe b1bd 1bbe d58a 68bd
000001a0: 7dc4 52be c579 09be c4c3 60be 1e15 38bc
000001b0: 3925 8d3b fc27 77be 65fe 2dbe 6060 71bd
000001c0: a42f 6bbe e715 7abe 105d 6ebd f46f 0abe
000001d0: 7f85 36be 7fcf 89be c1d6 41bc 88e9 68bd
000001e0: 98bb fabd 3d05 2abd 5765 37be 4a64 f93c
000001f0: 6844 09be aceb e93d 2611 d8bb 7838 57be

output.weight f4 [1, 128]
0.0638758 -0.23020916 0.022110375 -0.060412426 0.006454953 0.001646844 -0.18166763 0.017426267
-0.29206538 0.025999157 -0.0058050575 0.02157722 -0.3865529 -0.5636344 -0.43559748 -0.20393035
-0.012095753 -0.008799925 0.025653843 -0.027401222 -0.0021445262 -0.5306146 -0.009861209 -0.0011370614
0.2346946 -0.026936358 0.19339094 0.008750397 0.51282847 -0.1796262 -0.67740345 0.117146134
0.0022400494 -0.01882581 -0.2944055 -0.4522268 -0.12280941 -0.19537783 0.22188859 -0.11701545
0.14215314 -0.7199528 -0.031887505 -0.19391142 0.0027817893 -0.026762893 0.403186 -0.02694339
0.35669452 -0.23053963 -0.029562121 -0.14606366 0.019015064 0.012039985 0.59289706 -0.30288282
0.08823876 0.45203257 -0.081090845 -0.0028475425 0.048009418 0.019399758 -0.024419958 0.1475799
0.14034529 -0.02008681 0.16136757 -0.016505746 0.12269205 -0.27900878 -0.21228817 0.19682722
0.035175346 0.026648615 -0.027252782 0.01954144 0.20275186 0.25939834 0.011116397 -0.18841708
0.018888373 -0.35482603 -0.01055536 -0.42347413 0.0155851925 0.82426447 0.011817709 -0.05606053
0.6470864 0.0013344465 0.085551046 0.0026994576 0.18063915 0.026080715 0.20341015 0.0017280004
-0.009181107 -0.0041272724 -0.020835971 0.025427513 0.2530292 0.41764283 0.025552617 0.45978323
0.009694428 -0.0015398479 -0.25716534 -0.14157753 0.020675147 0.13596855 -0.05392109 0.23862375
0.00849954 0.1480175 -0.016236473 0.04950681 0.318358 -0.36170265 0.00029860833 -0.133127
0.3127542 0.08681515 -0.34172428 0.1508618 -0.024162283 0.51948076 -0.0074110106 -0.012573082
00000000: 51d1 823d f3bb 6bbe d120 b53c 0573 77bd
00000010: 1284 d33b eada d73a 1407 3abe 88c1 8e3c
00000020: 9889 95be 2ffc d43c 5a38 bebb b6c2 b03c
00000030: 43ea c5be 584a 10bf a206 dfbe 1ed3 50be
00000040: 442d 46bc 902d 10bc 0228 d23c 8778 e0bc
00000050: 2e8b 0cbb 5cd6 07bf e990 21bc 7309 95ba
00000060: c853 703e a3a9 dcbc 4608 463e d35d 0f3c
00000070: ba48 033f eeef 37be 506a 2dbf 50ea ef3d
00000080: cbcd 123b 9638 9abc 51bc 96be 458a e7be
00000090: 8083 fbbd 2011 48be c336 633e cca5 efbd
000000a0: 9890 113e d44e 38bf 799c 02bd b790 46be
000000b0: ae4e 363b db3d dbbc 656e ce3e 62b8 dcbc
000000c0: aaa0 b63e 9512 6cbe 432c f2bc b691 15be
000000d0: 7bc5 9b3c 5b43 453c 1ac8 173f 7513 9bbe
000000e0: 86b6 b43d d070 e73e f512 a6bd d69d 3abb
000000f0: 86a5 443d 3eec 9e3c 5d0c c8bc 2f1f 173e
00000100: adb6 0f3e 188d a4bc 8a3d 253e 0f37 87bc
00000110: f845 fb3d 3dda 8ebe 1262 59be 138d 493e
00000120: 0614 103d 324e da3c 3a41 dfbc 5f15 a03c
00000130: 2f9e 4f3e dccf 843e 8c21 363c 68f0 40be
00000140: cabb 9a3c c2ab b5be 63f0 2cbc 9ad1 d8be
00000150: 0959 7f3c ff02 533f 109f 413c ba9f 65bd
00000160: 74a7 253f 98e8 ae3a 6335 af3d 62e9 303b
00000170: 78f9 383e 39a7 d53c c04a 503e 127e e23a
00000180: 5b6c 16bc 123e 87bb 33b0 aabc 5c4d d03c
00000190: 0b8d 813e 48d5 d53e b953 d13c b568 eb3e
000001a0: 61d5 1e3c b9d4 c9ba 2dab 83be b3f9 10be
000001b0: ed5e a93c 573b 0b3e 5cdc 5cbd c959 743e
000001c0: a841 0b3c e691 173e 5a02 85bc a7c7 4a3d
000001d0: d2ff a23e 1731 b9be 888e 9c39 7252 08be
000001e0: 5221 a03e 24cc b13d 7cf6 aebe 847b 1a3e
000001f0: fbef c5bc b1fc 043f 10d8 f2bb 54ff 4dbc
