models/MagneticPendulum/p1_measure_x1*cos(0.0833333333333333*pi) + x2*sin(0.0833333333333333*pi)_N4_sep/q_model_state_dict.pth (torch, 47748 bytes, 8 tensors)

hidden1.weight f4 [32, 4]
0	0x3e999625	0.29997364
1	0xbe8d7817	-0.27630684
2	0x3e7e5f9f	0.24841164
3	0xbe6f0820	-0.23342943
4	0xbeef8bb5	-0.46786276
5	0x3eeec869	0.46637276
6	0xbeb0f041	-0.345583
7	0x3e16c4b0	0.14723468
8	0x3d8e5a78	0.06950849
9	0xbd7ac400	-0.061222076
10	0x3e0e0240	0.13868046
11	0x3cca1020	0.024665892
12	0x3eb52f22	0.35387522
13	0xbd76a045	-0.06021144
14	0x3e431bc5	0.19053562
15	0xbeb08d8f	-0.34483
16	0x3ebad8c8	0.36493516
17	0xbe8a56f2	-0.2701946
18	0x3f4aaf2c	0.7917354
19	0xbebbc24b	-0.3667167
20	0xbe862949	-0.26203373
21	0xbea71d67	-0.3263962
22	0xbe6b9f77	-0.2301005
23	0xbf0ed44c	-0.5579269
24	0x3da4ab72	0.08040513
25	0xbd8bdd70	-0.06829345
26	0x3eb7c052	0.35888916
27	0x3f9e3bbf	1.2361983
28	0xbf200186	-0.62502325
29	0x3dcd8627	0.10035353
30	0xbc9e1d5d	-0.01930111
31	0x3ed8df09	0.42357662
32	0x3ec51c2c	0.38498056
33	0xbf2679b8	-0.6502948
34	0xbe9b998a	-0.30390579
35	0xbfe3ded9	-1.7802383
36	0x3f610563	0.87898844
37	0x3dcce4cc	0.10004577
38	0xbcaf4e25	-0.021399567
39	0x3e8b2c53	0.27182254
40	0x3f1ccc6e	0.61249435
41	0xbf2f2421	-0.68414503
42	0x3f01e93e	0.50746524
43	0xbe0bf2bc	-0.13666815
44	0xbe86dd82	-0.26340872
45	0x3e83967a	0.25700742
46	0xbe87e3d4	-0.26541007
47	0x3e1694e4	0.14705235
48	0xbebbf530	-0.367105
49	0x3d1d7cc1	0.038449053
50	0xbf68638b	-0.9077689
51	0x3f19a65a	0.6001946
52	0x3ef50228	0.47853208
53	0x3a56fb06	0.00082008576
54	0x3f91a932	1.1379759
55	0x3ffed6bc	1.9909282
56	0xbe185551	-0.14876296
57	0xbebd7076	-0.36999863
58	0x3eebe0ba	0.4606989
59	0x3fd2ee0e	1.6478899
60	0xbe375118	-0.17902029
61	0x3f0892c6	0.5334896
62	0x3e1dbe06	0.1540452
63	0x3f3087f7	0.68957466
64	0xbeea1380	-0.45718002
65	0xbd95f78e	-0.07322608
66	0xbee2de4b	-0.4431022
67	0x3f7cade9	0.98702866
68	0xbf03b07a	-0.51441157
69	0xbf4b0d77	-0.7931742
70	0x3dd6fb14	0.10497108
71	0xbf28c405	-0.659241
72	0x3f0c0bdc	0.54705596
73	0x3e122aae	0.14274094
74	0x3e60d6f0	0.21956992
75	0x3de1ae3f	0.11019563
76	0xbe7a6eea	-0.24456373
77	0x3e207c0c	0.1567232
78	0xbf45bfad	-0.772456
79	0xbe7925d8	-0.24330842
80	0xbef2bc92	-0.47409493
81	0xbf01fb0d	-0.507737
82	0xbe6b03fe	-0.22950742
83	0x3e668ec7	0.22515403
84	0x3de8dd18	0.11370295
85	0xbd7d81d1	-0.06189138
86	0xbf1ace38	-0.60470915
87	0x401f0c90	2.4851418
88	0xbde2e46b	-0.110787235
89	0x3e029026	0.12750301
90	0x3e181eb2	0.1485546
91	0xc019a37a	-2.4006028
92	0xbe5d26d3	-0.21596842
93	0x3cb4a1b9	0.022049772
94	0xbf333296	-0.69999063
95	0xbf64294a	-0.891255
96	0x3e261eb2	0.16222647
97	0x3da2565f	0.0792663
98	0xbe4cc405	-0.1999665
99	0xc00cb153	-2.198323
100	0x3f6ce417	0.9253554
101	0xbd093421	-0.03349698
102	0x3eb31f73	0.3498493
103	0xbdf6a6c6	-0.12043528
104	0xbecf939e	-0.4054231
105	0x3b7b55e5	0.0038350758
106	0x3f434f15	0.76292545
107	0x3e91d77e	0.2848472
108	0x3edad439	0.42740038
109	0xbd0cf42a	-0.03441254
110	0xbdc1e467	-0.094673924
111	0x3fbf8e93	1.4965385
112	0x3ead96d4	0.33904135
113	0xbefcdb3c	-0.49386013
114	0x3bde91a4	0.006792264
115	0x3ffbefac	1.9682517
116	0x3ef1e7dc	0.47247207
117	0x3e9d7579	0.30753687
118	0xbefd8593	-0.49515972
119	0xbff14e36	-1.8851993
120	0xbd6a2796	-0.05716666
121	0x3df8e561	0.121531256
122	0x3f3413a8	0.70342493
123	0xc0165e43	-2.3495033
124	0x3e4ddbc1	0.2010336
125	0xbe397137	-0.18109594
126	0xbf3ae857	-0.7301077
127	0x4004c055	2.074239

hidden1.bias f4 [32]
0	0x3e26b7b6	0.16281018
1	0x3e872891	0.26398137
2	0xbe9efc66	-0.3105194
3	0x3dc4cd90	0.096095204
4	0x3e591748	0.21200287
5	0x3e3ace22	0.18242696
6	0x3d9aa222	0.07550456
7	0x3e88a340	0.2668705
8	0x3e8b8c28	0.27255368
9	0x3e94587e	0.28973764
10	0xbdc177d7	-0.09446686
11	0xbed6fa6a	-0.41987926
12	0xbda2248a	-0.079171255
13	0x3dc9c5c6	0.098521754
14	0xbea83593	-0.32853374
15	0x3de75461	0.11295391
16	0x3df67a57	0.12035053
17	0xbda31ef7	-0.079648905
18	0x3e22ddb2	0.15904883
19	0x3e651a3c	0.22373289
20	0x3e92fff1	0.28710893
21	0x3ea771ff	0.3270416
22	0xbdcd7288	-0.10031611
23	0x3e648fbf	0.2232046
24	0xbbce54bf	-0.0062967236
25	0x3dbebf17	0.09313791
26	0xbf08fb34	-0.53508306
27	0xbeaa4796	-0.3325774
28	0xbd9f532d	-0.077795364
29	0xbdc1eecd	-0.09469376
30	0x3e7898ff	0.24277113
31	0x3b30ff67	0.00270077

hidden2.weight f4 [64, 32]
0	0xbf24b9a8	-0.6434579
1	0x3e53a70f	0.20669197
2	0x3d67d3d8	0.056598514
3	0xbf12d747	-0.5735974
4	0xbeb5c935	-0.3550507
5	0xbe5e28ce	-0.21695253
6	0xbda6eaa2	-0.081502214
7	0x3d6d2b1f	0.05790245
8	0xbec19211	-0.37806752
9	0xbef12f9a	-0.4710663
10	0xbdfa4cc7	-0.12221675
11	0x3d9ad20e	0.07559596
12	0x3d7863d3	0.060642075
13	0xbc60851a	-0.013703609
14	0x3de827c3	0.11335709
15	0x3ec96d26	0.39341086
16	0x3e748ca6	0.23881778
17	0xbef5b34d	-0.47988358
18	0xbea1f4c2	-0.31632048
19	0x3ea724bc	0.32645214
20	0xbe4e571e	-0.2015042
21	0x3e653605	0.22383888
22	0x3e65c440	0.22438145
23	0x3c86bb46	0.01644672
24	0xbecf60e2	-0.40503603
25	0x3f268886	0.6505207
26	0x3d7eb3d1	0.062183205
27	0x3e864a34	0.26228487
28	0xbdca9fa3	-0.098937295
29	0x3d55aed2	0.052168675
30	0xbe2a672b	-0.16640918
31	0xbea05170	-0.31312132
32	0xbe5a62a8	-0.21326697
33	0x3e04dacb	0.12974088
34	0x3e030a1f	0.1279683
35	0xbe854541	-0.260294
36	0xbd9320e9	-0.071840115
37	0x3e31f91c	0.17380184
38	0x3c8bb96f	0.017056195
39	0x3d1eb723	0.03874887
40	0x3d554a43	0.052072775
41	0xbed15f1b	-0.40892872
42	0x3ed68917	0.41901466
43	0xbd8c6fe5	-0.0685728
44	0x3c497399	0.012295627
45	0xbf91b7d6	-1.1384227
46	0x3e9506f0	0.29106855
47	0x3d2a1729	0.041525993
48	0x3e15658b	0.14589517
49	0x3ed01e97	0.40648338
50	0xbe65dd04	-0.22447592
51	0x3dc78a12	0.09743132
52	0xbdb03a8d	-0.08604918
53	0x3c844f4a	0.01615109
54	0x3eb5bf6f	0.35497615
55	0x3e4e92b2	0.20173147
56	0x3f1c0d09	0.6095739
57	0xbe8fac43	-0.28061113
58	0xbc65f3a0	-0.0140351355
59	0x3f248fa3	0.6428167
60	0x3ea28d40	0.3174839
61	0x3ebb1fc1	0.36547664
62	0xbc348527	-0.011018074
63	0xba83583e	-0.0010020805
64	0x3e065b91	0.13120867
65	0xbdec0e83	-0.115262054
66	0xbd25e2f8	-0.040499657
67	0x3dd1fe41	0.10253573
68	0x3dd5dadd	0.104421355
69	0x3e669dd9	0.22521152
70	0x3d1eaf4c	0.038741395
71	0xbe12c8c1	-0.14334394
72	0x3e4cb5cf	0.1999123
73	0x3cb3233e	0.02186739
74	0x3cac52ca	0.02103557
75	0x3d3082d8	0.043093532
76	0x3d3f3e30	0.046690166
77	0x3e06f592	0.13179615
78	0xbc6d14eb	-0.014470319
79	0xbdfff681	-0.12498189
80	0xbd01bddc	-0.031675205
81	0x3e18feeb	0.14940993
82	0x3c36728c	0.011135709
83	0x3c1955de	0.009358851
84	0xbcb22788	-0.021747366
85	0x3d7ae7a8	0.06125608
86	0xbede72b7	-0.43446895
87	0xbdd157a6	-0.10221796
88	0xbe117438	-0.1420449
89	0x3e693840	0.22775364
90	0xbc1d8b87	-0.009615785
91	0xbec55903	-0.38544473
92	0x3da6d026	0.0814517
93	0x3e2698be	0.16269204
94	0xbd3e412a	-0.046448864
95	0xbda9dff0	-0.08294666
96	0x3d974fe9	0.073882885
97	0x3e4195a4	0.1890474
98	0xbc27db70	-0.010245189
99	0xbc7d73ec	-0.015469532
100	0x3d0c665f	0.034277316
101	0x3e187604	0.1488877
102	0xbe84af25	-0.25914875
103	0x3e7dc752	0.24783066
104	0x3d9e823b	0.07739683
105	0xbe9f4588	-0.31107736
106	0x3eee29aa	0.46516162
107	0xbe0724f9	-0.13197698
108	0xbc93feb4	-0.018065788
109	0xbf2bf79b	-0.6717469
110	0x3eec4fce	0.46154636
111	0x3e32c50e	0.17457983
112	0x3d4930fa	0.049118973
113	0x3eb16726	0.3464901
114	0xbe1f97fc	-0.15585321
115	0x3e0b1217	0.1358112
116	0xbe3f8d95	-0.18706353
117	0x3d4aba08	0.04949382
118	0x3e89ee36	0.26939553
119	0x3de20a90	0.11037171
120	0x3d732f40	0.059371233
121	0xbd4f50cb	-0.05061416
122	0x3eee5d24	0.46555436
123	0x3ddb27b7	0.107009344
124	0x3e5607b5	0.20901377
125	0x3e1f0459	0.15529002
126	0xbe51bd45	-0.20482357
127	0x3dd04c13	0.1017076
128	0x3b14ee4c	0.0022725044
129	0xbb2b67fc	-0.0026154509
130	0x3bd64680	0.006539166
131	0xbe5c0118	-0.21484792
132	0xbc16c6db	-0.009202684
133	0x3dcdde34	0.100521475
134	0x3cce2d7d	0.025168175
135	0xbdd3768a	-0.10325344
136	0xbe33817a	-0.1752986
137	0xbe7bbd1d	-0.2458386
138	0xbf015ded	-0.50533944
139	0xbdca00a1	-0.09863401
140	0xbeb0ca83	-0.34529504
141	0xbe038755	-0.12844594
142	0xbe9ecc9b	-0.31015477
143	0xbcb4159d	-0.021982962
144	0x3dcab9e7	0.09898739
145	0xbe7587b4	-0.23977548
146	0xbeb41265	-0.35170284
147	0x3e7684d1	0.24074103
148	0x3da2c440	0.07947588
149	0x3ee9b834	0.45648348
150	0x3e1ce55e	0.15321872
151	0x3ba9417d	0.0051652775
152	0xbfb1e7a9	-1.3898822
153	0xbe34e127	-0.17664014
154	0xbe276b25	-0.16349466
155	0xbf5355fd	-0.8255308
156	0x3dd21718	0.10258311
157	0xbd7026c9	-0.05863074
158	0xbe5f6ccf	-0.21818851
159	0x3ed49b4a	0.41524726
160	0xbe899009	-0.26867703
161	0x3e219d29	0.15782608
162	0xbd0981dc	-0.03357111
163	0xbed19007	-0.40930197
164	0xbca016ab	-0.019542059
165	0xbe29bbce	-0.16575548
166	0xbc9a9048	-0.018867627
167	0x3e1453b0	0.14485049
168	0xbf256ae4	-0.6461623
169	0x3e723ada	0.23655263
170	0x3e591cc5	0.21202381
171	0x3d874df4	0.06606665
172	0xbe4a91be	-0.19782159
173	0xbe85aad8	-0.26106906
174	0xbea25e43	-0.3171254
175	0x3e39e7c6	0.18154821
176	0x3d3dcf37	0.046340194
177	0xbe13f143	-0.14447503
178	0x3c52023e	0.012817917
179	0x3dd59a3d	0.10429809
180	0xbe2420d8	-0.16028154
181	0xbe45fee3	-0.19335513
182	0xbf8188aa	-1.0119832
183	0x3e327c89	0.17430319
184	0xbd7107f9	-0.058845494
185	0xbec0a306	-0.37624377
186	0xbf4aea32	-0.79263604
187	0x3ee418fd	0.44550315
188	0xbe28ca58	-0.16483438
189	0xbedeb6c1	-0.43498805
190	0x3dc3662e	0.095409736
191	0x3e506d17	0.20354114
192	0xbc9d1ff0	-0.019180268
193	0x3d43c5c8	0.04779604
194	0x3de7467a	0.11292739
195	0x3e4a5ff1	0.19763161
196	0x3e035f4e	0.12829325
197	0x3d233d20	0.039853215
198	0x3d2bfd9c	0.041989908
199	0xbb42b8b9	-0.0029712154
200	0xbd1c5c78	-0.038174123
201	0xbe92373d	-0.28557768
202	0x3dab9693	0.08378329
203	0xbcd27c18	-0.025693938
204	0x3d049f25	0.032378335
205	0xbeb80796	-0.35943288
206	0xbeb13d71	-0.3461719
207	0xbd83769f	-0.064191096
208	0x3de67578	0.11252874
209	0x3d80144a	0.0625387
210	0xbdd42e0a	-0.10360344
211	0x3e866ce8	0.26254964
212	0xbc8f7572	-0.017512057
213	0x3e1fd635	0.15609057
214	0xbf1ebdfa	-0.6200863
215	0x3e49ee10	0.1971972
216	0xbfc6b2db	-1.5523332
217	0x3e88e8c1	0.26740077
218	0x3e5d9eac	0.2164256
219	0xbd154857	-0.03644594
220	0xbf7277df	-0.9471416
221	0xbfc06f3f	-1.503395
222	0x3d66f196	0.056382738
223	0xbfb786f0	-1.4338055
224	0xbf030dce	-0.5119294
225	0x3dbfae76	0.09359448
226	0x3d809412	0.06278242
227	0xbe0931a9	-0.1339785
228	0xbcdf281f	-0.02724081
229	0xbe0096f6	-0.12557587
230	0x3d458f5c	0.04823242
231	0x3e1b4370	0.15162444
232	0xbe1df7b4	-0.15426522
233	0xbfe8b722	-1.8180888
234	0x3e3f852a	0.18703142
235	0x3b77c640	0.0037807375
236	0x3e1d033c	0.15333265
237	0x3e77df01	0.24206163
238	0x3f24bbed	0.6434925
239	0x3e4ac683	0.19802289
240	0xbdee0549	-0.11622102
241	0x3e9d4da5	0.307233
242	0x3cfdc11e	0.030975875
243	0xbf9e8b2c	-1.2386222
244	0xbda48884	-0.08033851
245	0x3d3d693e	0.046242945
246	0x3ef9a9ed	0.48762456
247	0xbf5b630e	-0.8569802
248	0x3e2616e0	0.16219664
249	0xc00c7da3	-2.1951683
250	0x3fa4421a	1.2832673
251	0x3d15d6d4	0.03658183
252	0xbefb38aa	-0.4906667
253	0x3e0f7d68	0.14012682
254	0x3e2a33fc	0.16621393
255	0x3e7d69b2	0.24747351

hidden2.bias f4 [64]
0	0x3d8b7d7d	0.06811044
1	0x3dc78448	0.097420275
2	0x3d932529	0.07184822
3	0x3a18f82a	0.0005835319
4	0x3e1dc6d8	0.15407884
5	0x3e02fc65	0.12791593
6	0x3e34b0ff	0.17645644
7	0xbe54156d	-0.20711298
8	0x3d3a7ed5	0.045531113
9	0x3e367cf5	0.17821105
10	0xbdff0840	-0.124527454
11	0x3e7854d3	0.24251108
12	0xbded2088	-0.115784705
13	0xbd32e879	-0.043678734
14	0x3b89cee0	0.0042055696
15	0x3d6e37fb	0.058158856
16	0x3cbe2ae8	0.023213819
17	0xbd885ca5	-0.066582955
18	0x3d81b1ed	0.06332765
19	0x3de69e2b	0.11260637
20	0xbd504d22	-0.05085481
21	0xbe342a11	-0.17594172
22	0x3e29891c	0.1655621
23	0xbdbc24a0	-0.09186673
24	0xbd6df3f1	-0.05809397
25	0x3e3c3006	0.18377694
26	0xbce3bf13	-0.027801072
27	0x3dde3a7c	0.10850999
28	0x3e35422a	0.17701021
29	0xbdb2c4f7	-0.08728974
30	0xbd970067	-0.073731236
31	0xbd9dd5d2	-0.077067986
32	0x3d0e60d8	0.034760326
33	0x3e2d361f	0.16915177
34	0xbd11067c	-0.035406575
35	0xbcb9ef82	-0.022697214
36	0xbd65d62d	-0.056112457
37	0xbd9d54d5	-0.07682196
38	0x3e4725e9	0.19448055
39	0xbcb616a8	-0.0222276
40	0xbe0f3fb8	-0.1398915
41	0xbdf75544	-0.1207681
42	0x3e0cf472	0.13765123
43	0x3e183a84	0.14866072
44	0x3d8a28f3	0.06746092
45	0x3d1587e6	0.036506556
46	0xbcad3b6d	-0.0211465
47	0x3da93aa7	0.0826314
48	0xbc13e3d5	-0.009026487
49	0xbc51df34	-0.012809563
50	0xbb1da3f3	-0.002405402
51	0xbe233b3d	-0.15940566
52	0xbe5dc5c8	-0.21657479
53	0xbd240bbc	-0.040050253
54	0xbd7edd88	-0.062222987
55	0xbc6b2b4d	-0.014353585
56	0xbcd473ed	-0.025934184
57	0x3e2ddd91	0.16979052
58	0x3d968a29	0.07350571
59	0xbbe8f7f8	-0.0071096383
60	0xbd332f79	-0.043746445
61	0xbcae232d	-0.021257007
62	0xbd12cdc1	-0.035840753
63	0xbe15b362	-0.1461921

hidden3.weight f4 [128, 64]
0	0xbf840c86	-1.0316322
1	0xbd3895a8	-0.0450646
2	0x3d8eaa58	0.06966084
3	0xbea22c8d	-0.31674615
4	0xbd862526	-0.06550054
5	0x3ddb2f11	0.107023366
6	0xbde585b3	-0.11207142
7	0xbf6b7e64	-0.9198973
8	0xbe78da6f	-0.24302076
9	0x3dce9283	0.10086539
10	0xbd3e35a4	-0.046437874
11	0xbd21283f	-0.039345022
12	0xbdd0c11e	-0.10193084
13	0x3d74a3dd	0.059726585
14	0x3d34febd	0.04418825
15	0xbf06b9d0	-0.5262728
16	0x3d96bbd9	0.07360048
17	0x3c05de96	0.008170744
18	0x3e4a403b	0.19751064
19	0x3e0fa19a	0.1402649
20	0x3e2e98c1	0.17050458
21	0x3d9618ce	0.0732895
22	0x3d170853	0.036873173
23	0x3d1974e8	0.037465006
24	0xbecc5f65	-0.3991653
25	0x3da02bbb	0.07820841
26	0x3eaa63fd	0.3327941
27	0xbe393f5a	-0.18090573
28	0x3e8c1b6f	0.2736468
29	0xbf8442a2	-1.0332835
30	0x3e34360f	0.17598747
31	0x3e253d1d	0.16136594
32	0x3dfa00ff	0.12207221
33	0x3d6c5947	0.05770233
34	0x3df67a4a	0.120350435
35	0x3d93577f	0.07194423
36	0xbe72a572	-0.23695925
37	0x3d2f2f3f	0.042769667
38	0xbe5b0e3d	-0.2139215
39	0x3da1b45e	0.078957304
40	0xbddef332	-0.108862296
41	0xbd4a9838	-0.049461573
42	0x3e0da17d	0.13831134
43	0x3df41694	0.11918369
44	0xbde1407d	-0.10998628
45	0x3e81e798	0.25372005
46	0x3d19dd18	0.037564367
47	0x3e28735e	0.16450259
48	0xbec9788c	-0.39349782
49	0xbc51ce06	-0.0128054675
50	0xbc2950da	-0.010334218
51	0x3ed7a67d	0.42119208
52	0x3e3ec972	0.18631533
53	0xbe392de7	-0.18083917
54	0xbeddd192	-0.43323952
55	0xbd0e93f6	-0.034809075
56	0x3e07dc66	0.13267669
57	0x3dff3586	0.12461381
58	0xbdd91cad	-0.106011726
59	0xbd2cb881	-0.042168144
60	0xbdeafb6a	-0.11473735
61	0xbe699586	-0.22810945
62	0x3da7be2b	0.081905685
63	0x3dd648b6	0.10463087
64	0x3d6587c4	0.05603768
65	0xbdd64fa2	-0.104644075
66	0xbca95776	-0.020671587
67	0xbd920706	-0.07130246
68	0xbe0b1e73	-0.13585834
69	0x3cebaf9b	0.028770259
70	0xbdbafd9b	-0.09130403
71	0x3c77d7a0	0.015127093
72	0x3cc6d6f0	0.024272412
73	0xbdfab8a4	-0.12242249
74	0x3bb388a0	0.0054789335
75	0x3d971c4a	0.073784426
76	0x3d673ab8	0.056452483
77	0xbd9e937a	-0.07742973
78	0xbd1ffbb4	-0.039058402
79	0xbdf05ec0	-0.11736822
80	0x3ca46d30	0.020071596
81	0x3d700dba	0.05860684
82	0x3d845b7d	0.064627625
83	0xbcc2f503	-0.023798471
84	0xbbe096bf	-0.006853908
85	0xbca9f2c0	-0.020745635
86	0xbdcbf012	-0.09957899
87	0xbd3baf94	-0.04582174
88	0xbdbfd47a	-0.093666986
89	0xbb32f45b	-0.0027306292
90	0x3cabd971	0.020977708
91	0xbdab0c59	-0.083519645
92	0xbd45cae7	-0.048289206
93	0xbdd42e4c	-0.10360393
94	0x3c182873	0.009286988
95	0x3d711b12	0.058863707
96	0x3d58e2a6	0.052950524
97	0xbe17fb0c	-0.1484186
98	0xbe03c113	-0.1286662
99	0xbc611552	-0.013737993
100	0x3db063ac	0.08612761
101	0xbd20bcea	-0.039242662
102	0x3bd42ed5	0.0064753094
103	0xbcae33a5	-0.02126486
104	0xbc74e8f0	-0.014948115
105	0x3db6b5ac	0.0892137
106	0x3d92ca70	0.07167518
107	0xbe0848cd	-0.13309021
108	0xbdfdb179	-0.12387366
109	0xbda61c66	-0.08110885
110	0xbd694579	-0.05695102
111	0xbd4105a0	-0.047124505
112	0x3d97aa25	0.07405499
113	0xbe1a3c20	-0.15061998
114	0x3d237daa	0.039914764
115	0xbd6f4772	-0.058417745
116	0xbc33d52f	-0.01097612
117	0xbd519db8	-0.051175803
118	0x3d3b77f9	0.04576871
119	0xbdd62856	-0.10456912
120	0xbdda7b78	-0.10668081
121	0xbd4c084f	-0.04981261
122	0x3d05553e	0.032551996
123	0xbdb387bc	-0.08766124
124	0x3b30b36b	0.002696241
125	0xbd1542bf	-0.036440607
126	0xbe29957d	-0.16560932
127	0x3c69c230	0.014267489
128	0xbf5fc994	-0.8741696
129	0xbd9e26c5	-0.077222385
130	0x3e69eaf9	0.22843541
131	0x3d0f53ee	0.03499215
132	0xbb30ce80	-0.0026978552
133	0xbeaa7224	-0.33290207
134	0xbdc40509	-0.09571273
135	0xbe24b85f	-0.16085957
136	0x3e4a3220	0.19745684
137	0xbd5c4672	-0.05377812
138	0x3dd13ca2	0.10216643
139	0xbe24c6cd	-0.16091461
140	0xbd960744	-0.073256046
141	0x3c81bf2f	0.015838234
142	0x3d954980	0.0728941
143	0x3e10ae2a	0.14128938
144	0xbd234894	-0.039864138
145	0x3e383ae8	0.17991221
146	0x3cd4810b	0.025940439
147	0x3dd7f8fd	0.105455376
148	0x3d3ce568	0.046117216
149	0xbcbfb868	-0.023403361
150	0xbefa2786	-0.4885828
151	0x3eba7ded	0.364242
152	0x3e0f1407	0.13972484
153	0x3aa7456e	0.001276178
154	0x3c140662	0.009034725
155	0x3dde2554	0.108469635
156	0xbe169b81	-0.14707758
157	0x3f01ecdf	0.5075206
158	0xbe4a6224	-0.19764
159	0x3c50e11d	0.012748984
160	0xbddba4b2	-0.107247725
161	0xbd058b85	-0.03260376
162	0xbef683cb	-0.48147425
163	0xbdcf266c	-0.1011475
164	0xbe0e2c25	-0.13884027
165	0xbd6af86c	-0.05736582
166	0xbe28c685	-0.16481979
167	0xbee62b26	-0.44954795
168	0xbdd1fdf0	-0.10253513
169	0x3ddb516e	0.10708891
170	0xbdf8b1ec	-0.12143311
171	0xbee2b11b	-0.44275746
172	0x3e79f77d	0.24410816
173	0x3e386967	0.18008958
174	0x3ad183b3	0.0015984684
175	0xbeae3fd5	-0.34033075
176	0x3e0d3271	0.13788773
177	0xbe7005db	-0.23439734
178	0x3e969070	0.29407072
179	0xbcb49f2c	-0.022048555
180	0xbf08d131	-0.534442
181	0x3e6fa18e	0.23401472
182	0x3ddc79e1	0.10765434
183	0x3dc9df93	0.098570965
184	0x3e42f5ec	0.19039124
185	0x3d2da3c6	0.042392515
186	0xbef13e7d	-0.47117987
187	0xbf019015	-0.50610477
188	0x3e8ad5ca	0.27116233
189	0x3e03d477	0.12874018
190	0x3e0dd6e5	0.13851507
191	0x3c4d0019	0.01251223
192	0xbc82ce92	-0.015967641
193	0xba85c9f6	-0.0010207284
194	0x3c1d080e	0.00958444
195	0x3cfdc64f	0.03097835
196	0xbe5f813e	-0.21826646
197	0xbb3a4d76	-0.0028427518
198	0x3d07062b	0.032964867
199	0xbf31bf4d	-0.69432527
200	0xbd81816b	-0.06323513
201	0xbd1bc252	-0.038027115
202	0xbd1788f0	-0.03699583
203	0xbd305db6	-0.04305812
204	0xbdaa7516	-0.083231136
205	0xbe3de379	-0.18543805
206	0xbbc83246	-0.0061095087
207	0xbefcc554	-0.493693
208	0xbd709e0c	-0.058744475
209	0xbe03a61f	-0.12856339
210	0xbe2e933d	-0.17048354
211	0x3ccd5d15	0.025068799
212	0x3d156462	0.036472686
213	0x3c6d7a30	0.014494464
214	0xbdae5f5d	-0.08514283
215	0xbd224891	-0.039619986
216	0x3e30be79	0.1726016
217	0x3c8d8213	0.017273938
218	0xbc497f8a	-0.012298474
219	0x3df2e619	0.11860294
220	0xbbef594e	-0.007304347
221	0x3d4c500e	0.049881034
222	0x3eb599f3	0.35469016
223	0x3e180a31	0.14847638
224	0x3db2d527	0.08732062
225	0xbd80671b	-0.06269666
226	0xbceadfa1	-0.028671088
227	0xbd6679f4	-0.056268647
228	0xbec37eec	-0.3818277
229	0xbd896892	-0.06709398
230	0x3b438a41	0.0029837044
231	0x3d9b7974	0.07591525
232	0xbddc8c3c	-0.10768935
233	0xbd6271e0	-0.05528438
234	0xbddfa495	-0.109200634
235	0x3dd38c0b	0.103294455
236	0xbe2ff010	-0.1718142
237	0x3c560d21	0.013064654
238	0x3e931da5	0.28733554
239	0xbd20bdef	-0.039243635
240	0x3e9bcc24	0.30429184
241	0x3e322435	0.17396624
242	0xbe91682b	-0.28399786
243	0xbe8edd72	-0.27903324
244	0xbe075ce2	-0.13219026
245	0xbde8e82d	-0.11372409
246	0x3e226272	0.15857866
247	0x3d5caf28	0.05387798
248	0x3d8e55a7	0.06949931
249	0xbe33c44d	-0.17555352
250	0xbe863d54	-0.26218665
251	0x3d8ac3c6	0.06775622
252	0xbd29ae62	-0.04142607
253	0xbf9f9760	-1.2468071
254	0x3d68391b	0.056695085
255	0xbdd57db4	-0.104243666

hidden3.bias f4 [128]
0	0x3bfb4630	0.007668279
1	0xbdb067db	-0.08613559
2	0xbde423fd	-0.11139677
3	0x3dad2912	0.08455099
4	0xbbd97caf	-0.006637178
5	0xbd8d3aeb	-0.06896003
6	0xbca44279	-0.020051228
7	0xbda74c42	-0.08168842
8	0xbe710064	-0.23535305
9	0xbde92fb1	-0.113860495
10	0x3d0504af	0.03247517
11	0x3e0321da	0.12805882
12	0xbca2dc85	-0.019880543
13	0x3dd867f2	0.10566701
14	0xbd58a36c	-0.052890226
15	0xbd8b16ef	-0.067914836
16	0xbc3d349f	-0.01154819
17	0x3dff2867	0.12458878
18	0xbd8cca34	-0.06874505
19	0xbc8dc518	-0.017305896
20	0xbc3098f6	-0.010778656
21	0xbd84c202	-0.064823166
22	0xbc60b8a1	-0.013715894
23	0xbd99e755	-0.07514826
24	0x3d20c469	0.03924981
25	0xbd0e88d6	-0.034798466
26	0xbbcbd93e	-0.0062209656
27	0xbd93a664	-0.07209471
28	0xbe190e41	-0.14946844
29	0xbe35eeff	-0.17766951
30	0x3d01cdad	0.03169029
31	0xbd403e20	-0.046934247
32	0xbd4f7d86	-0.050656818
33	0xbd3eb49c	-0.04655896
34	0x3dc092f5	0.0940303
35	0x3b1b30ad	0.0023680136
36	0xbd63d20f	-0.05562025
37	0xbca5b451	-0.020227583
38	0xbe36fba0	-0.17869425
39	0xbe1db221	-0.15399982
40	0xbe28ef28	-0.16497481
41	0xbd40ff35	-0.047118384
42	0x3d72d272	0.059282728
43	0x3d7307ab	0.059333485
44	0xbd4bc963	-0.049752604
45	0xbe3a0c86	-0.1816884
46	0x3d4b3c47	0.04961803
47	0xbcf2bd8a	-0.029631395
48	0xbd8eecc6	-0.06978755
49	0xbdf72ef4	-0.120695025
50	0x3d03ee1c	0.0322095
51	0xbdc28877	-0.09498685
52	0xbe257357	-0.1615728
53	0xbe876f9d	-0.26452342
54	0x3cfd2761	0.030902566
55	0x3dd68b2a	0.10475762
56	0xbc3dd6a7	-0.011586822
57	0x3d75ddd3	0.060026
58	0xbe48173d	-0.19540115
59	0x3da53ac1	0.08067847
60	0x3d3cd393	0.04610021
61	0x3d12ea29	0.035867844
62	0xbd502ea4	-0.05082573
63	0x3d9d0974	0.07667819
64	0x3da3f09d	0.08004878
65	0xbdd12396	-0.102118656
66	0xbd5b4396	-0.05353125
67	0xbd57a42e	-0.05264681
68	0x3e35e318	0.1776241
69	0x3d06cf36	0.032912455
70	0xbe775626	-0.24153957
71	0x3d8875de	0.066631064
72	0xbcd8a8bd	-0.026447648
73	0x3e1bb506	0.15205774
74	0xbc20baa6	-0.009810125
75	0xbd86cb40	-0.065817356
76	0xbda491d6	-0.080356285
77	0x3d4e99b6	0.05043956
78	0x3e0cd1ec	0.13751954
79	0xbcb05ed4	-0.021529593
80	0xbe2a7286	-0.1664525
81	0xbe13a7dc	-0.14419502
82	0x3d98c7c4	0.07459977
83	0x3dc048fc	0.09388921
84	0x3d320d1f	0.043469545
85	0x3d67f20e	0.056627326
86	0x3dc61c98	0.096734226
87	0x3d5d632f	0.054049667
88	0x3c8da3a8	0.017289951
89	0x3bc506c7	0.006012771
90	0x3d86732a	0.065649346
91	0x3e1ae86c	0.15127724
92	0xbda06473	-0.07831659
93	0x3e172177	0.1475886
94	0xbe01ab67	-0.12663041
95	0xbdf51c4d	-0.119682886
96	0xbd8aeb20	-0.06783128
97	0x3e165e41	0.14684393
98	0xbd3d1204	-0.04615976
99	0x3d633fa8	0.05548063
100	0xbdb7b24c	-0.08969554
101	0xbde98760	-0.11402774
102	0xbe02c5ac	-0.12770718
103	0x3dda945a	0.10672827
104	0xbe128343	-0.14307885
105	0xbe1c49e6	-0.15262565
106	0xbe5d7b0d	-0.21628971
107	0xbd5ba1ec	-0.053621218
108	0x3c480d74	0.012210239
109	0xbd41a997	-0.047280874
110	0xbe325063	-0.17413478
111	0xbd7af665	-0.061270136
112	0xbe181929	-0.14853348
113	0xbda633cb	-0.081153475
114	0x3da17acc	0.0788475
115	0xbe83ad4c	-0.25718153
116	0x3cf57e42	0.029967431
117	0xbdc6bb01	-0.09703637
118	0x3dfc6842	0.12324573
119	0x3ce8a950	0.028401047
120	0x3d04dfb2	0.032439895
121	0x3d7cd9c2	0.061731108
122	0xbd7a93fb	-0.06117628
123	0x3d3366a5	0.04379906
124	0xbde3b208	-0.11117941
125	0x3e304b78	0.17216289
126	0x3d95b2a7	0.07309466
127	0x3d37eff0	0.044906557

output.weight f4 [4, 128]
0	0xbe004e26	-0.12529811
1	0x3ca90ee2	0.02063698
2	0xbb816dac	-0.0039498415
3	0x3df5a5f9	0.119945474
4	0x3aba0fbf	0.0014195367
5	0xbcb2504e	-0.021766808
6	0xbc4864d9	-0.012231075
7	0xbd43fb3f	-0.04784703
8	0xbd991a30	-0.07475698
9	0xbd3b9f1f	-0.045806047
10	0x3d9aa206	0.07550435
11	0xbc73b348	-0.014874287
12	0xbd5e9f61	-0.054351214
13	0x3e364419	0.17799415
14	0xbda19933	-0.078905486
15	0x3c87a929	0.016560154
16	0x3cf0c2b3	0.029389715
17	0xbe5ea749	-0.21743502
18	0xbd06a77a	-0.03287456
19	0xbdcfc1d7	-0.10144394
20	0xbe324488	-0.17408955
21	0x3d0d990e	0.034569792
22	0xbd6d9a21	-0.058008317
23	0x3db192da	0.08670588
24	0xbcad878d	-0.0211828
25	0x3ea971c6	0.33094615
26	0xbe591370	-0.21198821
27	0xbcf76618	-0.03020005
28	0x3cf49921	0.029858174
29	0xbea453a4	-0.32095063
30	0x3db7fde6	0.08983974
31	0xbcb35bde	-0.021894392
32	0xbdd5a965	-0.104327
33	0xbc1f9e2c	-0.009742301
34	0x3dac7f35	0.084227
35	0xbbe961a1	-0.007122234
36	0x3d461d0e	0.048367552
37	0x3e1aa555	0.15102132
38	0x3d452ef1	0.04814047
39	0xbed15474	-0.40884745
40	0xbd760fe4	-0.06007375
41	0xbe3cc768	-0.18435442
42	0xbe0c958c	-0.13728923
43	0x3cc2538e	0.023721483
44	0x3c9bbac3	0.019009953
45	0x3da6df9b	0.08148118
46	0x3dddcaf7	0.10829728
47	0xbd619b16	-0.055079542
48	0x3df52775	0.119704165
49	0x3e0159d6	0.12631926
50	0x3e28ebe4	0.16496235
51	0xbd540bc1	-0.051769022
52	0xbe403872	-0.18771532
53	0x3d1a23f7	0.037631955
54	0xbd9ce79a	-0.07661362
55	0xbd9cc7a8	-0.07655269
56	0x3dafd735	0.08585969
57	0xbd85ad82	-0.065272346
58	0xbc5fd76b	-0.0136621995
59	0x3c51777b	0.012784834
60	0x3eeccc8c	0.46249807
61	0x3bc4b0c0	0.0060025156
62	0x3e190cbc	0.14946264
63	0x3dbbb021	0.09164453
64	0x3e5cfac6	0.21580037
65	0xbda59b63	-0.08086278
66	0xbd50eedd	-0.051009048
67	0xbda1c6ae	-0.07899223
68	0x3e067118	0.1312908
69	0xbe1784e0	-0.14796782
70	0x3e58da17	0.21176945
71	0x3dcb5a5f	0.09929346
72	0x3d9a8039	0.07543988
73	0xbe12aa7a	-0.14322844
74	0x3d15b775	0.03655191
75	0x3b1c83dd	0.0023882308
76	0x3c632deb	0.013865928
77	0x3dd799fa	0.105274156
78	0xbe27aa7f	-0.16373633
79	0xbd626df1	-0.05528063
80	0x3d72aaf8	0.05924508
81	0xbdbb4864	-0.09144667
82	0x3e8f5d93	0.2800108
83	0xbe37841c	-0.1792149
84	0x3e8b6da8	0.272321
85	0x3dd5975c	0.1042926
86	0xbdd51495	-0.10404316
87	0xbe7307d9	-0.23733462
88	0xbd88c4ba	-0.066781476
89	0x3d97f116	0.0741903
90	0x3e18ef4e	0.14935037
91	0x3c39e1c6	0.0113453325
92	0xbd710744	-0.05884482
93	0xbd33865d	-0.04382931
94	0xbe59ea22	-0.21280721
95	0xbde6c9ca	-0.11268957
96	0x3daa7c8b	0.08324536
97	0xbe841d06	-0.25803393
98	0xbe254973	-0.161413
99	0x3df0af66	0.117522046
100	0x3e34114e	0.17584726
101	0x3c4f2d75	0.012645115
102	0x3dabe72d	0.08393703
103	0xbd8d270a	-0.06892212
104	0x3c57225c	0.0131307505
105	0x3d69ab8e	0.057048373
106	0xbe125136	-0.14288792
107	0xbbb09328	-0.005388636
108	0xbd5a1d4f	-0.053250607
109	0xbe2b1fce	-0.16711351
110	0xbda81448	-0.08206993
111	0xbd766353	-0.060153317
112	0x3d410730	0.047125995
113	0x3cf4f4d2	0.029901896
114	0xbd9aff3d	-0.07568214
115	0x3daab20b	0.0833474
116	0x3d70f81c	0.058830366
117	0x3ce78a89	0.0282643
118	0xbc97babf	-0.018521665
119	0x3c325c35	0.010886242
120	0x3dbafeb8	0.09130615
121	0xbd413f46	-0.047179483
122	0xbdc02092	-0.09381212
123	0x3db58921	0.08864046
124	0x3d56cfeb	0.05244438
125	0x3e2fe417	0.17176853
126	0xbe0719c2	-0.1319342
127	0xbe14c8e5	-0.1452976
128	0x3e914a8e	0.28377193
129	0xbdd2f7fa	-0.10301204
130	0x3ce8fd32	0.028441045
131	0x3dd0e360	0.10199618
132	0x3d2de7b6	0.042457305
133	0x3dc0d0d7	0.09414833
134	0xbe2ace9f	-0.16680382
135	0x3b44cc82	0.0030029123
136	0x3db944cf	0.09046327
137	0x3e76041b	0.24025004
138	0x3b016658	0.001974484
139	0x3d6f2493	0.05838449
140	0x3ccd645e	0.025072273
141	0xbf280b9f	-0.6564273
142	0xbd2bec03	-0.041973125
143	0xbd917f63	-0.07104375
144	0x3db9a4c2	0.09064628
145	0x3ee8d0e9	0.45471886
146	0x3d273603	0.040822994
147	0x3e890415	0.26760927
148	0x3f225af4	0.63420033
149	0xbca6332e	-0.020288076
150	0xbdc0240c	-0.093818754
151	0xbbc1fb30	-0.0059198365
152	0x3da9076e	0.0825337
153	0x3d29d602	0.04146386
154	0x3f4c7d88	0.79879045
155	0x3ed0c7be	0.4077739
156	0xbe44636a	-0.19178548
157	0x3ebc8eaa	0.36827594
158	0xbdda7b0a	-0.10667999
159	0x3d517674	0.051138356
160	0xbcac1c75	-0.021009663
161	0xbe73656c	-0.23769158
162	0xbcb63db0	-0.022246212
163	0xbdbebc57	-0.09313267
164	0xbdc334a0	-0.09531522
165	0xbf3e83df	-0.7441997
166	0x3c472e4f	0.012157037
167	0x3faea41f	1.3643836
168	0x3cc14bde	0.023595747
169	0xbda7fb36	-0.082022116
170	0x3e8c9c65	0.2746307
171	0xbdd7e3ac	-0.10541472
172	0xbd8eb3b6	-0.06967871
173	0xbdbc179c	-0.09184191
174	0xbec5ff80	-0.38671494
175	0xbe3dc2c0	-0.18531322
176	0x3e088676	0.13332543
177	0xbeebe813	-0.46075496
178	0xbf086c96	-0.5329069
179	0xbdc0101e	-0.09378074
180	0x3f0ed403	0.55792254
181	0xbd19dc2c	-0.037563488
182	0xbdb62aec	-0.088949054
183	0x3d085428	0.033283383
184	0x3dedadfb	0.1160545
185	0x3e3e9e8b	0.18615167
186	0xbe84c7a2	-0.25933558
187	0x3e67ab11	0.2262385
188	0xbffe9dee	-1.9891946
189	0x3e81f6cb	0.253836
190	0xbcd565e8	-0.02604957
191	0xbdb42421	-0.087959535
192	0x3dc74634	0.09730187
193	0xbb678b21	-0.003533073
194	0x3e8bd582	0.2731133
195	0xbd239e31	-0.039945785
196	0xbd9bd0ed	-0.07608209
197	0x3e8e7927	0.27826807
198	0xbeeeb713	-0.4662405
199	0x3cf126db	0.029437473
200	0xbe419f58	-0.18908441
201	0x3ec12354	0.37722266
202	0x3a229e9c	0.0006203444
203	0xbd8e7251	-0.06955398
204	0x3d4418c9	0.0478752
205	0x3dbfb659	0.09360952
206	0x3efc5f02	0.49291235
207	0xbe4b8f1e	-0.19878814
208	0xbe028895	-0.12747414
209	0x3cc2fb8b	0.023801586
210	0xbf5d61a8	-0.86477137
211	0xbd4b3120	-0.049607396
212	0xbe6e369e	-0.23263022
213	0x3db22ba9	0.08699734
214	0x3e5c88d0	0.21536565
215	0xbddf6a4c	-0.109089464
216	0x3e2c10be	0.16803262
217	0xbeb05761	-0.34441665
218	0x3d5e96ea	0.05434314
219	0x3e263b09	0.16233458
220	0xbd91c3f0	-0.0711745
221	0x3e542516	0.20717272
222	0x3f070ca4	0.52753663
223	0x3ee4ad0e	0.4466328
224	0xbd61a5af	-0.05508965
225	0xbd01c8e8	-0.03168574
226	0x3e25caac	0.16190594
227	0xbf0e4b68	-0.5558381
228	0xbe2cb41a	-0.16865578
229	0xbe262927	-0.16226636
230	0x3dc52080	0.096253395
231	0x3ec22d40	0.37925148
232	0xbd57c2a7	-0.05267587
233	0xbd03b32d	-0.032153297
234	0x3d8bc4cd	0.06824646
235	0xbd2f9b10	-0.04287249
236	0xbd7451b0	-0.059648216
237	0x3f62162b	0.88315076
238	0xbd7172e9	-0.058947477
239	0x3ea24d59	0.31699637
240	0x3d158119	0.03650007
241	0xbddf7c01	-0.10912324
242	0x3e01f94e	0.12692758
243	0xbe137e3a	-0.1440362
244	0xbe99bf4d	-0.30028763
245	0x3dfad427	0.12247496
246	0x3de7188b	0.11283978
247	0x3de97f15	0.11401192
248	0xbeb1448d	-0.34622613
249	0x3ea21596	0.31657094
250	0xbc20026b	-0.0097662015
251	0x3dcd4605	0.10023121
252	0x3c085fcf	0.008323624
253	0xbf01d027	-0.5070824
254	0xbcfabd15	-0.03060774
255	0x3ec94b53	0.3931528

output.bias f4 [4]
0	0xbc9ee1c0	-0.019394755
1	0xbdda9544	-0.106730014
2	0xbdbe9f43	-0.093077205
3	0x3d8096c5	0.06278757
