models/MagneticPendulum/p1.0_measure_['x1dot', 'x2dot']_N[4, 4]_sep/al_model_state_dict.pth (torch, 47248 bytes, 8 tensors)

hidden1.weight f4 [32, 8]
0	0x3e564699	0.20925368
1	0xbdeae56c	-0.1146954
2	0xbf036770	-0.5132971
3	0x3edf1a13	0.4357458
4	0xbddacc89	-0.10683543
5	0x3d15d00b	0.03657536
6	0xbddc2e2a	-0.107509926
7	0xba0e559a	-0.0005429626
8	0x3dab6666	0.0836914
9	0x3d35ea5a	0.04441295
10	0x3e31ace0	0.17351103
11	0x3db1d858	0.086838424
12	0x39eb7642	0.00044910802
13	0xbe337136	-0.17523655
14	0xbe17b507	-0.1481515
15	0x3d160f12	0.036635466
16	0x3e4e04db	0.2011904
17	0xbcb00f4c	-0.02149167
18	0x3f0aa419	0.54156643
19	0x3e2c9d15	0.16856797
20	0xbe665f03	-0.22497182
21	0xbe70464d	-0.23464318
22	0xbcafa842	-0.021442536
23	0x3deb1679	0.11478896
24	0xbdddd7ce	-0.10832177
25	0x3d8bced9	0.068265624
26	0x3ebc11d2	0.36732346
27	0x3e298e58	0.16558206
28	0xbec9f2ca	-0.39443046
29	0x3db89362	0.09012486
30	0x3f0513f6	0.5198358
31	0x3e826b2a	0.25472385
32	0x3d89fe79	0.0673799
33	0xbe638c41	-0.22221471
34	0xbeb91161	-0.36146072
35	0x3e76f45f	0.24116658
36	0x3e852e28	0.26011777
37	0xbdc22aa0	-0.09480786
38	0x3ea1e454	0.31619513
39	0xbd9551c6	-0.07290988
40	0x3eae3dbf	0.34031484
41	0xbda3bb51	-0.07994712
42	0x3f1b029c	0.60550857
43	0xbe002d39	-0.12517251
44	0xbe53993b	-0.20663922
45	0x3df18ae5	0.1179407
46	0xbeafce13	-0.3433691
47	0x3c83ff73	0.016113019
48	0xbcfdc5b7	-0.030978067
49	0x3cc7cfa9	0.024391012
50	0xbe1dfc17	-0.15428196
51	0xbe3994e8	-0.1812321
52	0x3ee4d709	0.4469531
53	0xbdb71ff2	-0.0894164
54	0x3f04cf31	0.5187865
55	0x3f169982	0.58827984
56	0xbd99579d	-0.07487414
57	0xbd35bece	-0.04437142
58	0x3f035964	0.51308274
59	0x3f1b758b	0.6072623
60	0xbdb69c52	-0.089165345
61	0x3dfdd992	0.12395014
62	0x3e37ea82	0.17960551
63	0x3f00cea1	0.5031529
64	0xbe245818	-0.1604923
65	0xbe0460ad	-0.12927504
66	0xbe752007	-0.23937999
67	0x3e8eeb59	0.2791393
68	0xbe804166	-0.25049895
69	0xbe3fb7fe	-0.18722531
70	0x3ec4b815	0.38421693
71	0x3e30f6ea	0.1728169
72	0x3cfacb39	0.030614482
73	0xba791e80	-0.0009503141
74	0xbc9fe986	-0.019520532
75	0x3e220100	0.15820694
76	0x3eadf074	0.33972514
77	0x3bd7d87c	0.0065870862
78	0xbf46d849	-0.77673775
79	0xbe0b604d	-0.13610955
80	0xbe03ea81	-0.12882425
81	0xbd5cba98	-0.053888887
82	0x3d3b4b50	0.04572612
83	0xbd85150d	-0.06498156
84	0x3de86d1b	0.11348935
85	0xbac32c80	-0.0014890581
86	0xbedd2440	-0.4319172
87	0x3f3574a1	0.70881087
88	0xbdf04348	-0.11731583
89	0x3ce5819d	0.028015906
90	0x3e26b7af	0.16281007
91	0xbe044575	-0.12917121
92	0x3ea09aec	0.31368196
93	0xbd84c60a	-0.064830855
94	0xbefbb4af	-0.49161288
95	0xbd3ef7a8	-0.046622902
96	0x3e06e44f	0.1317303
97	0xbcd00598	-0.025393292
98	0xbd8fb149	-0.07016236
99	0xbe8e6d04	-0.27817547
100	0x3e834993	0.2564207
101	0xbcb1d35e	-0.021707233
102	0x3f17064d	0.5899399
103	0x3e559f06	0.20861444
104	0xbee6a0a1	-0.45044425
105	0xbdcdd0b8	-0.100495756
106	0x3ef01357	0.46889755
107	0x3e749e6d	0.2388856
108	0x3ed78491	0.42093328
109	0x3db79a20	0.08964944
110	0xbdf67dee	-0.12035738
111	0xbe152755	-0.14565785
112	0x3ec77834	0.38958895
113	0x3d95965c	0.073040694
114	0x3ea809d2	0.32819992
115	0x3f3432a6	0.70389783
116	0x3e1f5137	0.15558325
117	0xbb0b1354	-0.0021221237
118	0x3e283c85	0.16429336
119	0xbbc15d47	-0.005901012
120	0xbda178ca	-0.07884367
121	0xbd3cc366	-0.046084784
122	0x3efe645d	0.49685946
123	0xbedbfd70	-0.42966795
124	0xbd753131	-0.059861366
125	0xbdce1dd4	-0.10064283
126	0xbeaea9c3	-0.34113893
127	0x3e0ecbbf	0.1394491
128	0x3eac39e0	0.33637905
129	0x3dbde670	0.09272468
130	0xbeb726f8	-0.35771918
131	0xbec7b7fb	-0.39007553
132	0x3edf0f99	0.43566588
133	0x3e35cdf4	0.17754346
134	0x3d6ca1dd	0.057771552
135	0xbea7c3de	-0.32766622
136	0x3d635f80	0.055510998
137	0xbd523f9f	-0.051330205
138	0xbe88899f	-0.26667497
139	0xbeb1195e	-0.34589666
140	0xbe854808	-0.26031518
141	0x3d8caedd	0.0686929
142	0xbee3d1a1	-0.44495872
143	0x3e339554	0.17537433
144	0x3e62ab8e	0.22135755
145	0x3d160ef5	0.036635358
146	0x3c4793a8	0.0121812
147	0x3e1583b9	0.1460103
148	0x3ec903be	0.39260668
149	0x3dcb6497	0.09931295
150	0xbe829beb	-0.2550958
151	0x3e330fa4	0.17486435
152	0x3ed86df4	0.42271388
153	0x3d81ecbe	0.06343983
154	0xbec77f03	-0.3896409
155	0xbf078b27	-0.52946705
156	0xbec6c0ef	-0.38819072
157	0xbdbef3ee	-0.0932387
158	0x3e66120a	0.22467819
159	0x3ec0c272	0.3764835
160	0xbe828af2	-0.25496632
161	0x3e13b30c	0.1442377
162	0x3cad8355	0.021180788
163	0xbcecc682	-0.02890325
164	0xbeaa7753	-0.33294162
165	0x3e47dcc6	0.19517812
166	0xbe9a2d00	-0.30112457
167	0xbed3691d	-0.41291133
168	0xbf0b481f	-0.54406923
169	0xbda65b7d	-0.08122919
170	0xbd35a856	-0.04434999
171	0x3f12c36d	0.57329446
172	0xbe049f7f	-0.12951468
173	0xbcf92117	-0.030411286
174	0x3eae2af2	0.3401714
175	0x3e46c6db	0.19411795
176	0x3e9e91e2	0.30970675
177	0x3cfbfba8	0.030759647
178	0xbf168bcd	-0.5880707
179	0x3d6a52d1	0.057207886
180	0x3de9af6f	0.114104144
181	0x3c5cb847	0.0134716695
182	0xbf052b5a	-0.52019274
183	0xb932f868	-0.00017067941
184	0xbf15a3bb	-0.5845296
185	0x3dc049b9	0.093890615
186	0xbf08bb1e	-0.5341052
187	0xbf1806ec	-0.5938556
188	0xbd1fd2c1	-0.03901935
189	0x3cb36e27	0.02190311
190	0x3ceb82b1	0.028748842
191	0xbe3bc5d8	-0.1833719
192	0xbe035e9b	-0.12829058
193	0x3a7ccf31	0.0009643911
194	0x3f22f855	0.63660175
195	0xbefc706e	-0.49304527
196	0x3d7233ec	0.059131548
197	0xbd7cdfd7	-0.061736908
198	0x3f071557	0.52766937
199	0xbe8cb623	-0.2748271
200	0x3e757d0f	0.23973487
201	0xbe852df7	-0.2601163
202	0x3edc76a8	0.43059278
203	0xbdbe6d74	-0.0929822
204	0x3cf9f8d6	0.030514162
205	0xbd2c89c0	-0.042123556
206	0x3ddc2cc5	0.107507266
207	0xbdd49ffd	-0.10382078
208	0x3db5ff65	0.08886603
209	0x3d7169a4	0.058938637
210	0x3df045b4	0.11732045
211	0xbd7a52d2	-0.06111414
212	0xbe10eed1	-0.14153601
213	0x3e1f5e95	0.15563424
214	0x3f02e0d7	0.5112433
215	0x3d8a8e5b	0.067654334
216	0x3d577451	0.052601162
217	0xbd123911	-0.035698954
218	0x3d789849	0.060692105
219	0x3efd036a	0.49416667
220	0xbe98b5db	-0.29826245
221	0x3df843f0	0.12122333
222	0xbeb69894	-0.35663283
223	0xbf1df1c3	-0.61697024
224	0xbdfe4fe7	-0.12417584
225	0xbca47438	-0.020074949
226	0xbe74e458	-0.23915231
227	0x3e76ea06	0.2411271
228	0x3ed67a0b	0.41889986
229	0x3e6f7742	0.23385337
230	0x3de7b337	0.113134794
231	0xbf1fe634	-0.6246064
232	0x3ed89795	0.42303148
233	0xbd3877b5	-0.045036037
234	0xbef73309	-0.48281124
235	0x3e8f0d11	0.27939656
236	0xbedfd363	-0.43715963
237	0x3d3acd02	0.045605667
238	0x3ef1760e	0.4716038
239	0xbeffde5f	-0.49974343
240	0xbead8dc6	-0.33897227
241	0x3c93f2b8	0.018060073
242	0x3ecd3514	0.40079558
243	0xbca45d52	-0.02006403
244	0xbc9239c9	-0.01784982
245	0xbd8a4212	-0.06750883
246	0xbf058566	-0.52156675
247	0xbde8ee3d	-0.11373565
248	0xbe0d15dd	-0.13777871
249	0xbbf51dac	-0.007480344
250	0x3edc0832	0.42975003
251	0xbef3e1da	-0.4763325
252	0x3cc6295c	0.024189644
253	0x3cc111f5	0.023568133
254	0x3e41b85b	0.18917982
255	0xbee39e76	-0.44456834

hidden1.bias f4 [32]
0	0x3de69e1e	0.11260627
1	0x3de27dba	0.11059137
2	0xbd11ef3f	-0.035628553
3	0xbe7343a3	-0.2375627
4	0x3e876a26	0.26448172
5	0x3e8b7eee	0.27245277
6	0xbe346eb1	-0.1762035
7	0x3e5f96aa	0.21834818
8	0xbc5ff9fc	-0.013670441
9	0xbe3684a2	-0.17824033
10	0x3e81f042	0.25378615
11	0xbed47875	-0.4149815
12	0x3ea4a2fc	0.32155597
13	0xbe604fc8	-0.21905434
14	0xbd5236b3	-0.051321696
15	0x3c1ec3bc	0.009690221
16	0xbd15a87b	-0.03653763
17	0x3e9309c4	0.28718388
18	0xbeb3d267	-0.35121462
19	0xbd15dbc2	-0.03658653
20	0xbe7397f5	-0.23788436
21	0xbc9f4c67	-0.019445611
22	0xbed50d6f	-0.41611812
23	0xbd3bbcdf	-0.04583442
24	0x3cbe0cfa	0.023199547
25	0x3d9c4874	0.07631007
26	0x3ce072d9	0.027398514
27	0x3d97d87b	0.07414337
28	0xbe3a6220	-0.18201494
29	0xbe3a9a21	-0.18222858
30	0xbf039466	-0.51398313
31	0x3e24a393	0.16078024

hidden2.weight f4 [64, 32]
0	0xbefab47e	-0.4896583
1	0x3db83547	0.08994537
2	0xbe028028	-0.127442
3	0xbe966c2d	-0.29379407
4	0xbe2a39b4	-0.16623574
5	0x3ecc319d	0.39881602
6	0x3de850a6	0.113435075
7	0xbec604dd	-0.38675585
8	0xbe1f4adc	-0.155559
9	0x3c4844be	0.012223421
10	0xbe89b823	-0.26898298
11	0x3dd3addb	0.10335895
12	0x3de1b4c5	0.11020807
13	0xbedbe861	-0.4295073
14	0xbef83943	-0.48481187
15	0xbcaf973e	-0.021434423
16	0x3dbf4671	0.093396075
17	0x3de652a7	0.112462334
18	0xbe9b1eda	-0.30296975
19	0x3e7c5376	0.24641213
20	0xbf000981	-0.500145
21	0x3eb13189	0.34608105
22	0xbc540025	-0.012939488
23	0xbf0f895f	-0.56068987
24	0x3c95bd90	0.018278867
25	0x3d3211c1	0.043473963
26	0x3d8bad7a	0.068201974
27	0xbee49fbd	-0.4465312
28	0x3bba1836	0.0056791557
29	0xbdff80de	-0.12475751
30	0xbd920963	-0.071306966
31	0x3e4c5225	0.1995321
32	0x3e3e28fc	0.18570322
33	0x3d0964b0	0.03354329
34	0x3e981058	0.2969997
35	0xbf0dfcc5	-0.5546382
36	0x3e1aff5a	0.15136471
37	0xbc6b812a	-0.014374057
38	0x3eba0f0d	0.36339608
39	0x3f04d7e5	0.5189193
40	0x3be7054a	0.007050191
41	0xba3e4776	-0.00072585733
42	0x3e668604	0.2251206
43	0x3c7ef820	0.015562087
44	0x3eae9364	0.34096825
45	0xbd991efa	-0.074766114
46	0x3e6db3f1	0.23213173
47	0xbd603a34	-0.054743007
48	0xbec631b2	-0.3870979
49	0xbec0c82d	-0.37652722
50	0x3df83342	0.12119152
51	0xbe213363	-0.15742259
52	0xbc89a5b2	-0.016802642
53	0xbf11cd9d	-0.56954366
54	0xbca079a8	-0.01958926
55	0x3e9057a1	0.28191856
56	0xbec84868	-0.39117742
57	0xbcfc9cd3	-0.030836498
58	0xbd49d766	-0.049277686
59	0xbd70e908	-0.058815986
60	0xbe1382d2	-0.14405373
61	0xbd4de34c	-0.050265595
62	0xbd53ee70	-0.051741064
63	0xbeecc2d7	-0.462424
64	0xbe93e673	-0.28886756
65	0xbeb5bb52	-0.35494477
66	0xbf020132	-0.50783074
67	0x3ce4ae70	0.02791521
68	0x3d83ec26	0.06441526
69	0x3d59a80b	0.053138774
70	0x3eba458c	0.36381185
71	0xbccf00b8	-0.025268897
72	0x3dab558d	0.08365927
73	0x3b688211	0.0035477916
74	0x3df90b13	0.12160315
75	0x3e5ddce9	0.21666302
76	0x3e79d06c	0.24395913
77	0xbd900ec4	-0.07034066
78	0xbef2ef87	-0.4744837
79	0xbe860dbe	-0.2618236
80	0x3ea6adff	0.32554623
81	0x39b05666	0.00033633708
82	0x3c7fccb7	0.015612773
83	0xbe895cef	-0.26828715
84	0xbd017602	-0.03160668
85	0xbed16046	-0.40893763
86	0x3ec8e3c7	0.3923628
87	0xbc2920fc	-0.0103228055
88	0x3df9b1c2	0.12192108
89	0x3dd19248	0.10232979
90	0x3eb9e14a	0.36304694
91	0xbe8c1d89	-0.27366284
92	0xbed56b80	-0.41683578
93	0xbe3f9ab7	-0.18711363
94	0x3e236856	0.1595777
95	0xbd35c068	-0.044372946
96	0xbeb6b81f	-0.35687348
97	0x3ec9f32b	0.39443335
98	0x3e937972	0.28803593
99	0x3e1d10bd	0.15338416
100	0xbe9717e9	-0.2951043
101	0xbe805448	-0.25064301
102	0xbc8f6f3e	-0.0175091
103	0x3d32ffd8	0.043701023
104	0xbddff75f	-0.10935854
105	0x3cd90953	0.026493704
106	0x3e4aabcb	0.19792096
107	0xbd2ea746	-0.042639993
108	0x3df0c256	0.11755817
109	0xbec03bbc	-0.37545574
110	0xbe8a3bac	-0.2699865
111	0x3e3a075e	0.18166873
112	0xbe110f6a	-0.14166036
113	0x3d9b4e88	0.07583338
114	0xbd9b7018	-0.075897396
115	0xbdf1730f	-0.11789524
116	0xbdb3f6be	-0.08787297
117	0xbef68d8e	-0.48154873
118	0x3e57b9a7	0.21066914
119	0xbe774cd7	-0.24150406
120	0x3d46a5b4	0.04849787
121	0xbecab9be	-0.39594835
122	0x3e065d2f	0.13121484
123	0xbe4d6c70	-0.20060897
124	0xbded839a	-0.11597367
125	0x3dc32ea9	0.09530384
126	0x3be91e31	0.007114195
127	0xbda6c4f6	-0.08143036
128	0xbdc52dc4	-0.0962787
129	0x3e0f6c5e	0.14006183
130	0x3e894153	0.2680765
131	0xbe2918b4	-0.1651333
132	0xbea000fc	-0.3125075
133	0x3e526448	0.20546067
134	0x3c19bb05	0.009382968
135	0xbe22c8fb	-0.1589698
136	0x3bcc0b2c	0.0062269177
137	0x3e4f87aa	0.20266595
138	0xbe0edcbd	-0.13951392
139	0xbad22924	-0.0016033989
140	0xbf10220c	-0.5630195
141	0xbe52fcb1	-0.20604207
142	0x3df99e07	0.121883444
143	0xbd4186bf	-0.047247645
144	0xbeae27cf	-0.34014747
145	0x3e09d5a9	0.13460411
146	0x3ef231b9	0.4730356
147	0xbe223321	-0.15839817
148	0x3ec4eb75	0.3846089
149	0x3c5c7aa0	0.01345697
150	0x3e6d9cdc	0.23204368
151	0x3edb5d05	0.42844406
152	0xbd8254bf	-0.0636382
153	0x3e7d7253	0.24750642
154	0xbe88a563	-0.2668868
155	0x3e8c21c1	0.27369502
156	0xbe56089d	-0.20901723
157	0x3eb25ba8	0.34835553
158	0xbd5d68d0	-0.054055035
159	0x3e0603b9	0.13087358
160	0xbe330774	-0.17483312
161	0xbd997597	-0.074931316
162	0xbea53d35	-0.3227326
163	0x3d62adfb	0.055341702
164	0x3ced4952	0.028965626
165	0x3e468f93	0.19390707
166	0x3e0831f8	0.13300312
167	0x3d872826	0.065994546
168	0xbef64de8	-0.48106313
169	0xbd9b6b5f	-0.07588839
170	0xbce4a9e4	-0.027913041
171	0xbd042f0f	-0.03227144
172	0x3c8532c9	0.016259568
173	0xbedc37d3	-0.4301134
174	0x3ec46d79	0.3836477
175	0x3e39c0af	0.18139909
176	0x3e992440	0.2991047
177	0xbddfd391	-0.10929025
178	0x3dea1458	0.114296615
179	0xbe26e050	-0.16296506
180	0xbbceaf02	-0.0063074837
181	0xbe806ba3	-0.2508212
182	0xbd674d94	-0.05647047
183	0xbe025df6	-0.12731156
184	0x3ebebf11	0.37255147
185	0x3e85c967	0.2613022
186	0x3e91512e	0.28382248
187	0x3e157cf6	0.1459845
188	0x3d9ae611	0.07563413
189	0xbba8e62a	-0.005154391
190	0x3d2a43d3	0.04156859
191	0xbe5fe7fe	-0.21865842
192	0xbdd194db	-0.1023347
193	0x3d2a8027	0.04162612
194	0x3d9c67d3	0.076369904
195	0x3e862af0	0.26204634
196	0x3e014883	0.12625317
197	0xbe17d026	-0.14825496
198	0x3d6b71ed	0.057481695
199	0x3e7df52b	0.24800555
200	0x3dc32226	0.09527998
201	0xbe801836	-0.2501847
202	0x3dad61af	0.08465897
203	0xbe7933f2	-0.24336222
204	0x3e718ca9	0.23588814
205	0xbd281f2e	-0.04104536
206	0x3ea1a713	0.3157278
207	0x3c7e40d2	0.015518384
208	0x3eb95bab	0.3620275
209	0xbe7bdd75	-0.24596198
210	0x3e098136	0.13428196
211	0x3d8052ea	0.062658146
212	0xbe82dee8	-0.2556069
213	0x3baebdf7	0.005332704
214	0xbeaac535	-0.33353582
215	0x3c89743f	0.016779063
216	0x3eb4b0cf	0.35291144
217	0x3a631dca	0.0008663802
218	0xbd37043e	-0.04468178
219	0xbdbfbaf4	-0.0936183
220	0x3eb9178f	0.36150786
221	0x3e0dec2a	0.1385962
222	0xbf09b3e3	-0.5379011
223	0x3e826b97	0.2547271
224	0xbe10ac69	-0.1412827
225	0x3dd6efa4	0.104949266
226	0x3db04df3	0.08608618
227	0xbe408cc2	-0.18803695
228	0xbe25afbc	-0.16180319
229	0xbe0dcc85	-0.1384755
230	0xbdc3fb9a	-0.095694736
231	0x3b8f100e	0.0043659275
232	0xbe381b22	-0.179791
233	0xbe16125d	-0.14655443
234	0x3d839ddc	0.06426594
235	0xbd81da9c	-0.063405246
236	0xbdb37cb3	-0.08764019
237	0xbe250fc7	-0.161193
238	0x3d5220bf	0.05130076
239	0xbb91e8dc	-0.004452808
240	0xbd99d833	-0.0751194
241	0xbdfb31c9	-0.12265355
242	0x3cd41d88	0.025892988
243	0x3d4503f4	0.048099473
244	0x3d79c397	0.060977545
245	0x3d1a687c	0.0376973
246	0xbd1aca86	-0.037790798
247	0xbe0c20ee	-0.13684437
248	0x3dc97818	0.09837359
249	0xbcb925bf	-0.022601007
250	0xbe014bd8	-0.12626588
251	0x3e0232ff	0.12714766
252	0x3d9c8799	0.07643051
253	0xbe0e44b8	-0.13893402
254	0xbddaed11	-0.10689748
255	0xbda2f7b3	-0.07957401

hidden2.bias f4 [64]
0	0x3d067c8e	0.03283363
1	0xbe07a139	-0.13245095
2	0xbe01784e	-0.12643549
3	0xbbb4f2f9	-0.0055221287
4	0xbe8b8b60	-0.27254772
5	0xbdecdd2d	-0.115656234
6	0xbe66ad76	-0.22527108
7	0x3aa28b37	0.0012401108
8	0x3df02a56	0.11726825
9	0xbeb1fdc7	-0.3476393
10	0xbd962451	-0.073311456
11	0x3e093da9	0.13402428
12	0xbc42af4e	-0.011882616
13	0xbea700e8	-0.3261788
14	0xbe77e13a	-0.24207011
15	0xbe29f7a3	-0.16598372
16	0xbd50e089	-0.050995383
17	0x3e64f1e9	0.22357906
18	0x3e0d340b	0.13789384
19	0xbde49120	-0.11160493
20	0xbe8e04ad	-0.27737942
21	0x3d15fb13	0.036616396
22	0xbdb3181e	-0.08744834
23	0xbe7a1263	-0.24421076
24	0xbd8da0ce	-0.06915437
25	0x3cd041e9	0.025422053
26	0x3c23e1b6	0.010002544
27	0xbea04d79	-0.31309107
28	0xbe051df5	-0.12999709
29	0xbe0e4a5b	-0.13895552
30	0xbb5ad0f4	-0.0033388706
31	0xbc5eb174	-0.013592113
32	0x3e1f5c10	0.15562463
33	0xbe7bbd1b	-0.24583857
34	0xbee5da52	-0.44893128
35	0xbe6d5700	-0.23177719
36	0x3e70889f	0.23489617
37	0xbd1eada2	-0.038739808
38	0xbd78ecf7	-0.060772862
39	0xbe0a4ff7	-0.13507067
40	0xbccbca95	-0.024876872
41	0x3e12d595	0.14339288
42	0x3cfc8207	0.03082372
43	0xbe1ccafc	-0.15311807
44	0xbe62fc5c	-0.2216658
45	0xbe8d1b9a	-0.2756012
46	0xbe9f5644	-0.31120503
47	0xbc850d59	-0.016241716
48	0x3e029078	0.12750423
49	0xbe5e6fd4	-0.21722347
50	0x3d9931a7	0.074801736
51	0xbd72b3f9	-0.059253667
52	0xbe4802e4	-0.19532353
53	0xbe8db0d6	-0.27673978
54	0x3e358d56	0.17729697
55	0xbe5bf467	-0.21479951
56	0xbe1bf818	-0.15231359
57	0xbdf7ec73	-0.12105646
58	0x3cb4013a	0.021973241
59	0xbddadb0d	-0.10686312
60	0x3ddf3d54	0.10900369
61	0xbe561dc9	-0.209098
62	0xbe28cde6	-0.16484794
63	0xbdc46d9e	-0.0959122

hidden3.weight f4 [128, 64]
0	0xbe4f6a40	-0.20255375
1	0x3c8bdcf8	0.01707314
2	0x3e13fe1f	0.14452408
3	0xbf0f0201	-0.5586243
4	0xbe3092a7	-0.17243443
5	0xbe8c88ad	-0.27448025
6	0xbe0b957e	-0.13631245
7	0x3b846ddb	0.004041416
8	0xbe09de0d	-0.13463612
9	0xbf585036	-0.8449739
10	0xbe03bbf4	-0.12864667
11	0xbe497230	-0.19672465
12	0xbef438fd	-0.4769973
13	0x3e433fad	0.19067259
14	0x3edfbe3a	0.4369982
15	0x3c9d55e8	0.019206002
16	0x3ca7cb0c	0.020482562
17	0x3e10fbeb	0.14158599
18	0xbd929055	-0.071564354
19	0x3d30d4d1	0.043171708
20	0xbda26de9	-0.0793112
21	0xbd5739dc	-0.052545413
22	0xbdcaf448	-0.09909874
23	0x3dd1bba7	0.1024087
24	0xbeb0c46f	-0.34524867
25	0xbe3a3343	-0.18183617
26	0xbec16600	-0.37773132
27	0xbe0fc7aa	-0.1404101
28	0xbed03134	-0.4066254
29	0x3dbb75ad	0.09153304
30	0xbef3dd04	-0.4762956
31	0xbe321d54	-0.17394
32	0x3ee633e1	0.44961455
33	0xbda33124	-0.07968357
34	0xbf1517d0	-0.5823946
35	0xbd6617ee	-0.056175165
36	0xbde56b45	-0.11202101
37	0x3cba559c	0.0227459
38	0x3d6f44eb	0.058415335
39	0x3d9ece58	0.07754201
40	0x3e72c6b2	0.23708609
41	0x3e1460b7	0.14490019
42	0xbf04c486	-0.5186237
43	0xb9ca4ad9	-0.00038584208
44	0x3f0f92c4	0.5608332
45	0xbe928e20	-0.28624058
46	0x3e97e1fd	0.29664603
47	0xbdd4775f	-0.10374331
48	0x3dfa13e1	0.12210823
49	0xbdb0c1da	-0.08630724
50	0xbdf3003f	-0.11865281
51	0x3eb208c1	0.34772304
52	0xbe6db54f	-0.23213695
53	0xbc77888b	-0.015108238
54	0x3d9d36c2	0.0767646
55	0x3e0d3067	0.13787995
56	0x3cb1286d	0.021625722
57	0xbf3ef0e1	-0.745863
58	0xbe22c2d8	-0.1589464
59	0xbe02edbb	-0.12786
60	0xbd756568	-0.05991116
61	0xbe6846e9	-0.226833
62	0x3c5c3980	0.013441443
63	0xbed7b36a	-0.4212907
64	0x3dd5b840	0.104355335
65	0xbd00861e	-0.031377904
66	0xbd145876	-0.036217175
67	0xbda92a1a	-0.08259983
68	0xbce7c4bc	-0.028292052
69	0x3d26aa1e	0.04068958
70	0xbe3f1e7a	-0.1866397
71	0xbdea6382	-0.11444761
72	0xbbfda214	-0.0077402685
73	0xbd8c3669	-0.068463154
74	0xbd3ee423	-0.046604287
75	0xbdd340ee	-0.10315119
76	0xbdb06d07	-0.08614545
77	0xbdc2ee9d	-0.09518168
78	0xbdad4dc9	-0.08462102
79	0xbdea10e0	-0.11429
80	0xbdca3218	-0.09872836
81	0x3d5e57ee	0.054283075
82	0xbde7001d	-0.112793185
83	0x3db38842	0.087662235
84	0xbdf3c705	-0.11903194
85	0x3a56eae9	0.00081984565
86	0xbc29ad90	-0.010356322
87	0xbdc4ead1	-0.096151
88	0xbc00c8cc	-0.007860374
89	0x3d292d3b	0.0413029
90	0xbdabf120	-0.083956
91	0x3deb1a86	0.11479668
92	0xbc872604	-0.01649762
93	0xbd21e508	-0.03952506
94	0x3c8e71a2	0.017388169
95	0x3d964686	0.0733767
96	0x3d9943fe	0.074836716
97	0x3d978a44	0.07399419
98	0xbe1400f1	-0.14453484
99	0xbd01e5c0	-0.031713247
100	0x3c376828	0.011194266
101	0xbd69579c	-0.056968316
102	0x3d009be1	0.031398658
103	0xbd1cfc28	-0.038326412
104	0xbe35c76a	-0.17751852
105	0xbdab67f0	-0.08369434
106	0xbdc2f524	-0.09519413
107	0x3d441564	0.047871962
108	0xbdef7e98	-0.11694068
109	0xbcc35d8b	-0.023848316
110	0xbcd4b7db	-0.025966575
111	0x3d5d0dbb	0.053968173
112	0xbdfb1533	-0.12259903
113	0x3db099f8	0.08623117
114	0xbdef7048	-0.11691338
115	0xbdf699f9	-0.12041087
116	0x3d0be8c3	0.034157526
117	0xbda96e9e	-0.08273052
118	0x3db57af2	0.088613406
119	0x3d4035d7	0.046926346
120	0xbd7882d0	-0.060671628
121	0xbd2e9433	-0.042621803
122	0xbddab216	-0.106784984
123	0xbc427620	-0.0118689835
124	0xbcbf4d66	-0.023352336
125	0xbd8c8c36	-0.068626806
126	0xbda74a80	-0.081685066
127	0xbe07aeb5	-0.13250239
128	0xbe8911b8	-0.2677133
129	0x3d4970e8	0.04917994
130	0x3dd6e907	0.10493665
131	0x3e871777	0.2638509
132	0x3e61b1df	0.22040509
133	0x3a4c93fa	0.00078040326
134	0xbd17359a	-0.036916353
135	0xbdf7147f	-0.12064456
136	0xbe6596d7	-0.22420822
137	0x3ceb6f1a	0.0287395
138	0xbbf2133f	-0.007387548
139	0xbc950a4c	-0.018193386
140	0xbc9da6d1	-0.019244583
141	0x3e0a4542	0.13502982
142	0x3e9b4857	0.30328628
143	0xbd91a232	-0.071110144
144	0x3e898b32	0.2686401
145	0xbdc52600	-0.096263885
146	0xbc61aab6	-0.013773611
147	0x3c9b1f6b	0.01893588
148	0x3e3e71b0	0.18598056
149	0xbcfcb031	-0.030845733
150	0x3dc9a255	0.098454155
151	0x3e467c41	0.19383337
152	0xbd4cc45c	-0.04999195
153	0x3ec6268b	0.3870128
154	0x3dfec51c	0.124399394
155	0xbdad0262	-0.0844772
156	0xbe12cb83	-0.14335446
157	0xbdc4ab58	-0.09602994
158	0xbcc53ed4	-0.02407781
159	0x3db28e41	0.08718539
160	0xbdd337fc	-0.103134125
161	0x3d2fa034	0.04287739
162	0x3edd089b	0.43170628
163	0xbe8df31b	-0.27724537
164	0xbe5821f4	-0.21106702
165	0xbe0024ba	-0.1251401
166	0xbe4248f1	-0.18973137
167	0xbc8ccbdc	-0.017187051
168	0x3e60f58d	0.2196867
169	0x3cc801d3	0.024414932
170	0xbcae0fb5	-0.021247724
171	0x3de47820	0.111557245
172	0x3eae61ee	0.3405909
173	0xbe8ba746	-0.27276057
174	0x3eb3a158	0.35084033
175	0x3e3ead3f	0.18620776
176	0xbe2ea04d	-0.17053337
177	0x3d9cd306	0.07657437
178	0xbeb19792	-0.3468595
179	0x3ec12a7b	0.37727723
180	0xbdec54b5	-0.11539594
181	0x3e1e12e2	0.1543689
182	0x3e8ce2b9	0.27516726
183	0xbe2c535a	-0.16828671
184	0x3de2ace3	0.11068132
185	0x3df37b88	0.11888796
186	0x3e5263e9	0.20545925
187	0x3ceaa5ed	0.028643573
188	0xbe7915f9	-0.24324788
189	0xbdf850d7	-0.12124794
190	0xbdfb431a	-0.12268658
191	0xbea09220	-0.31361485
192	0x3d9bd398	0.07608718
193	0xbcca84c0	-0.024721503
194	0xbe0ee7b1	-0.13955571
195	0xbd23c87f	-0.03998613
196	0xbc683c01	-0.014174462
197	0x3c8de857	0.017322702
198	0x3cc8dd8b	0.024519702
199	0xbc883908	-0.016628757
200	0xbbd67240	-0.0065443814
201	0xbd0a1404	-0.033710495
202	0xbbc7c0de	-0.0060959896
203	0x3ca2dc67	0.019880487
204	0x3d4f69a8	0.05063787
205	0xbc94462c	-0.018099867
206	0xbc3eb060	-0.011638731
207	0x3dbc31aa	0.0918916
208	0xbd125f42	-0.035735376
209	0xbe198531	-0.14992215
210	0xbc97298d	-0.01845243
211	0x3d8cecfa	0.06881137
212	0xbd96390d	-0.073351
213	0x3cb72350	0.022355705
214	0xbdb848a4	-0.0899823
215	0xbd4c4a5e	-0.04987561
216	0x3d9a58eb	0.07536491
217	0xbd8000c6	-0.062501475
218	0xbdabaaa5	-0.08382157
219	0xbcca0cac	-0.024664246
220	0xbd0cf88c	-0.03441672
221	0xbd0fe348	-0.03512886
222	0x3d1effb1	0.038818065
223	0xbd9ae4cb	-0.0756317
224	0xbd0a927c	-0.033831105
225	0x3d405b5f	0.04696214
226	0xbb1ce878	-0.0023942273
227	0xbdc7ee34	-0.097622305
228	0x3d0df01d	0.034652818
229	0xbd7b44d0	-0.06134492
230	0x3dda2c87	0.10653024
231	0x3d4c72fd	0.04991435
232	0xbd2e8e33	-0.04261608
233	0xbc8232b0	-0.01589331
234	0xbdd31ea5	-0.10308579
235	0xbdc5e052	-0.09661926
236	0xbdb61cb2	-0.08892192
237	0x3d228494	0.039677218
238	0x3d7a7618	0.06114778
239	0xbc0b74c6	-0.008511728
240	0xbd45f6f3	-0.048331212
241	0xbd26a628	-0.040685803
242	0xbdd73d66	-0.10509758
243	0xbd9a995a	-0.07548781
244	0x3d7a767f	0.061148163
245	0xbddcf90c	-0.107896894
246	0x3d3b2209	0.045686755
247	0x3cafd084	0.021461733
248	0xbd0baf4c	-0.034102723
249	0xbd3b2133	-0.045685958
250	0xbd77af0d	-0.060469676
251	0xbdd727c6	-0.10505633
252	0xbd28ada8	-0.041181237
253	0xbde3ffd2	-0.11132778
254	0x3b6ac4c0	0.0035822839
255	0xbd322bf0	-0.043498933

hidden3.bias f4 [128]
0	0xbcbabac8	-0.022794142
1	0xbd38cdf8	-0.045118302
2	0xbde1ef7f	-0.110320084
3	0xbdde6b55	-0.10860316
4	0xbe6c084e	-0.23050043
5	0xbe8c6b11	-0.27425435
6	0xbda997db	-0.08280917
7	0xbddde5e8	-0.10834867
8	0xbeb420be	-0.3518123
9	0xbde1aed6	-0.110196754
10	0x3b8231eb	0.003973236
11	0xbdb5a02e	-0.088684425
12	0xbed9f548	-0.42569947
13	0xbda2bcbb	-0.07946154
14	0xbe05a284	-0.13050276
15	0xbdc6a2cd	-0.096990205
16	0xbebd9049	-0.37024143
17	0xbd9dd971	-0.07707489
18	0xbdfb9a20	-0.122852564
19	0xbe84ae12	-0.25914055
20	0xbdff9b6b	-0.124808155
21	0xbe0def5a	-0.13860837
22	0xbe30e0e0	-0.17273283
23	0xbe29d785	-0.1658612
24	0xbdb4672d	-0.08808742
25	0xbe221f1b	-0.15832178
26	0xbdca9ae2	-0.09892823
27	0xbd19f3e8	-0.037586123
28	0xb80694ab	-3.2086547e-05
29	0xbeb96bec	-0.3621515
30	0x3c86198a	0.0163696
31	0xbe0ea1c9	-0.13928904
32	0xbd79d2e5	-0.06099214
33	0xbd045da2	-0.032315858
34	0xbd9ccd6a	-0.07656367
35	0xbde195f3	-0.11014929
36	0xbea707b3	-0.32623062
37	0xbe5f9926	-0.21835765
38	0xbd731b56	-0.05935224
39	0xbe16a31e	-0.14710662
40	0xbe2b3444	-0.16719157
41	0xbef801d7	-0.48438904
42	0xbd26bb9d	-0.040706266
43	0xbe27507e	-0.16339299
44	0xbedf9945	-0.43671623
45	0xbd66dd6c	-0.056363508
46	0xbe3ef60c	-0.18648547
47	0x3c510fac	0.012760084
48	0xbd0567b5	-0.032569606
49	0xbebae264	-0.36500847
50	0x3d777f30	0.06042403
51	0xbead3a1b	-0.33833393
52	0xbe433a70	-0.19065261
53	0xbe78202e	-0.24231026
54	0xbe64f1aa	-0.22357813
55	0xbe00f197	-0.12592159
56	0xbc715e39	-0.014731937
57	0xbe43ee03	-0.19133763
58	0xbe816058	-0.25268817
59	0xbce2e6f6	-0.027698021
60	0xbdcb637d	-0.09931085
61	0x3d8b5c5b	0.06804725
62	0xbcd63094	-0.02614621
63	0x3d823734	0.063581854
64	0xbdbaeefa	-0.091276124
65	0xbc98e96b	-0.01866599
66	0xbd2c7960	-0.04210794
67	0xbe02cda0	-0.12773752
68	0x3cd94557	0.026522322
69	0xbe159f84	-0.14611632
70	0xbd8d9f92	-0.06915201
71	0x3d524b9d	0.05134164
72	0xbdb040b2	-0.0860609
73	0xbd868f5d	-0.06570313
74	0xbd76bdf4	-0.060239747
75	0xbe2693d2	-0.16267326
76	0xbd50df59	-0.05099425
77	0x3c0e7f3c	0.008697327
78	0xbd961f8e	-0.07330237
79	0xbe6f6b7b	-0.23380844
80	0xbda93246	-0.08261542
81	0xbda8f428	-0.08249694
82	0xbeca278b	-0.39483294
83	0xbdcbdabe	-0.09953831
84	0xbc3ff2fd	-0.011715648
85	0xbd9f83b6	-0.07788794
86	0xbdd1ace8	-0.102380574
87	0xbe0ee311	-0.13953806
88	0xbc603864	-0.01368532
89	0xbd9c9d73	-0.076472186
90	0xbe32d882	-0.17465404
91	0x3cc88b91	0.024480613
92	0xbe1a1f65	-0.15051039
93	0xbe078fd3	-0.13238458
94	0xbea30356	-0.31838483
95	0xbe2ec482	-0.1706715
96	0xbd982111	-0.07428182
97	0xbe2d0ca0	-0.16899347
98	0xbde76f82	-0.11300565
99	0xbe2beacb	-0.16788785
100	0x3b4dcb69	0.003140176
101	0xbcd08a7f	-0.025456665
102	0xbd7e79f1	-0.06212801
103	0xbd44e4fc	-0.04806994
104	0xbcca07ce	-0.024661925
105	0xbd94155e	-0.07230638
106	0xbd7dfe66	-0.06201019
107	0xbea1b798	-0.31585383
108	0xbd9914cc	-0.0747467
109	0xbdec6135	-0.11541978
110	0xbe840c38	-0.25790572
111	0xbce88f6f	-0.028388707
112	0xbe1a8825	-0.15090998
113	0xbe44a7ff	-0.1920471
114	0xbdb66e37	-0.089077406
115	0xbd3a7ff9	-0.0455322
116	0xbe14df6d	-0.14538355
117	0xbe8fe724	-0.28106034
118	0xbe0f2b9f	-0.13981484
119	0xbec86659	-0.39140585
120	0xbcbd54cf	-0.023111729
121	0xbd1d9f64	-0.038482085
122	0xbdd6bc3d	-0.10485122
123	0x3bb7dd81	0.005611122
124	0xbde5f1ab	-0.11227735
125	0xbd92ce8e	-0.071683034
126	0xbe051eff	-0.13000105
127	0xbdbe2446	-0.09284262

output.weight f4 [2, 128]
0	0x3d87dd3d	0.06633995
1	0xbd0c397c	-0.03423451
2	0x3de2ec13	0.11080184
3	0xbc629e5e	-0.013831703
4	0xbc6038d5	-0.013685425
5	0x3e0b53b5	0.1360615
6	0xbc14babe	-0.009077726
7	0x3cc6e199	0.024277495
8	0x3db9885e	0.09059213
9	0x3d1df06e	0.03855937
10	0xbba5bf8b	-0.005058234
11	0x3ca33b21	0.019925656
12	0xbe3d11cc	-0.1846382
13	0xbd8f1662	-0.06986691
14	0xbd0994bd	-0.033589114
15	0x3d079cda	0.03310857
16	0xbdb46f81	-0.0881033
17	0xbc2a2cfc	-0.010386702
18	0x3d885c6f	0.06658255
19	0x3da6a8ed	0.08137689
20	0x3d2e6c77	0.04258391
21	0x3a038323	0.00050167943
22	0x3aa0b504	0.0012260978
23	0x3c6bd891	0.014394895
24	0xbd3f74e6	-0.046742342
25	0xbc20e684	-0.009820584
26	0x3b67d33c	0.0035373708
27	0x3b5a6ad4	0.0033327835
28	0x3c07fab3	0.008299517
29	0x3d720b66	0.0590929
30	0x3cbe48ae	0.023228016
31	0xbc98e2ec	-0.018662892
32	0x3cda384f	0.026638178
33	0xbd04ca5b	-0.032419544
34	0xbcd3b67a	-0.025843848
35	0x3b95e2ea	0.0045741694
36	0x3d15f04c	0.036606118
37	0xbdd65d53	-0.10467019
38	0xbd65ad78	-0.056073636
39	0x3b177f64	0.0023116702
40	0xbcc7334e	-0.024316456
41	0xbd8d9665	-0.06913451
42	0x3d658d61	0.056043033
43	0xbb72480a	-0.0036969208
44	0x3c9a8ff2	0.018867467
45	0x3d0dc7d0	0.034614384
46	0xbd183bef	-0.037166532
47	0xbd84d120	-0.064852
48	0x3ccebbf8	0.025236115
49	0xbda9e9a9	-0.0829652
50	0x3d86fd0c	0.065912336
51	0x3d150603	0.036382686
52	0xbd2a2677	-0.04154059
53	0xbc88792f	-0.016659347
54	0xbdb2c2fa	-0.08728595
55	0x3dea75b8	0.11448234
56	0x3c9a3d0e	0.018827941
57	0x3cb66679	0.02226566
58	0x3d17b103	0.037034046
59	0x3d0afcd8	0.033932537
60	0xbbe98315	-0.007126222
61	0xbd7c4b6e	-0.061595373
62	0x3d12626d	0.035738397
63	0xbda0ffa6	-0.07861261
64	0x3c9436ab	0.018092474
65	0xbcd7b013	-0.026329076
66	0x3d1f7fa9	0.038940106
67	0xbc5fde7a	-0.013663882
68	0xbd447b39	-0.047969077
69	0x3c7e1ddf	0.0155100515
70	0x3dd2e057	0.10296696
71	0xbc76f5ab	-0.01507322
72	0xbbcdc03c	-0.0062790196
73	0x3daa9c7e	0.0833063
74	0x3e288fca	0.16461101
75	0xbde76ec1	-0.113004215
76	0x3cfea970	0.031086653
77	0x3e05ff28	0.13085616
78	0x3a7f9ed0	0.0009751143
79	0xbd0389f0	-0.03211397
80	0x3d729da6	0.059232377
81	0xbc318068	-0.010833837
82	0x3d4a769e	0.04942953
83	0xbcc7bc42	-0.02438176
84	0xbc9451a6	-0.01810534
85	0x3c36ca77	0.01115667
86	0x3d39b418	0.045337766
87	0x3c9b8c74	0.018987872
88	0xbb942d55	-0.0045220056
89	0xbc780fde	-0.015140502
90	0x3d8d2bc5	0.06893114
91	0x3cb758a1	0.022381129
92	0xbbdec797	-0.0067986953
93	0x3dbc4078	0.09191984
94	0xbcee071d	-0.029056126
95	0x3b9f0edf	0.0048540677
96	0x3d2c0101	0.041993145
97	0xbc4bdfea	-0.012443522
98	0x3d154c22	0.03644956
99	0xbb421685	-0.0029615473
100	0x3d09a39a	0.03360329
101	0x3c306daa	0.010768333
102	0x3da38ed4	0.07986227
103	0x3db69628	0.08915359
104	0xbcc1eab3	-0.023671484
105	0xbc478a52	-0.012178974
106	0x3d157475	0.036488015
107	0xbd44b4e5	-0.048024077
108	0xbdbb2db1	-0.09139574
109	0x3c677ff9	0.014129632
110	0xbe209026	-0.15679988
111	0x3d24aa74	0.04020162
112	0x3d133273	0.035936784
113	0xbb79a599	-0.0038093089
114	0x3cdcdf8e	0.026962068
115	0x3d12c12d	0.035828758
116	0xbda408a2	-0.08009459
117	0xbc867bcc	-0.016416453
118	0x3c1a1771	0.009405003
119	0x3e22ea0c	0.15909594
120	0xbcaeb2c5	-0.021325478
121	0x3d5d82e1	0.054079894
122	0xbc1e8d60	-0.009677261
123	0xbc4d0fe5	-0.012515997
124	0xbc51c9be	-0.012804447
125	0x3c8f6e85	0.017508755
126	0x3ce29f63	0.027663892
127	0x3d370431	0.04468173
128	0xbdbcc56b	-0.09217342
129	0x3d685a39	0.056726668
130	0xbd1ff644	-0.039053217
131	0x3c9f17aa	0.019420464
132	0xbd0e208e	-0.034699015
133	0xbd81b763	-0.06333806
134	0xbcfe9ac0	-0.03107965
135	0xbd03e474	-0.03220029
136	0x3c5dcd7f	0.013537764
137	0xbcbeb7ad	-0.023280943
138	0x3d4fa84f	0.05069762
139	0xbd3ad243	-0.045610677
140	0xbd2eeb16	-0.042704664
141	0xbde82de2	-0.113368765
142	0x3cdc6e30	0.02690801
143	0x3bcbb6bb	0.0062168515
144	0xbd85b7c8	-0.06529194
145	0x3be17dde	0.0068814596
146	0xbd41a2ba	-0.04727433
147	0x3d964db2	0.07339038
148	0x3d353124	0.044236317
149	0x3b25d478	0.0025303643
150	0x3d7a0a01	0.061044697
151	0xbc5d8621	-0.013520748
152	0xba84cbab	-0.0010131499
153	0xba257579	-0.0006311755
154	0xbdb56f79	-0.08859152
155	0x3c6f1478	0.0145922825
156	0xbb86ac7e	-0.004109918
157	0x3b8e8fa1	0.004350618
158	0x3cdf74b1	0.027277322
159	0xbbe3afb7	-0.006948437
160	0xbdcbcd7c	-0.099513024
161	0xbcfcbd1b	-0.030851891
162	0x3daf2396	0.08551709
163	0xbd0eaf4f	-0.034835156
164	0x3ddd5980	0.108080864
165	0x3d31d8b3	0.04341955
166	0xbbfead9c	-0.0077721607
167	0x3c515799	0.012777233
168	0xbab79bec	-0.001400826
169	0xbe06f665	-0.1317993
170	0x3b1c6d17	0.0023868734
171	0xbd183ee7	-0.037169363
172	0xbdffb7bb	-0.12486216
173	0x3e0f7991	0.14011218
174	0xbc146483	-0.009057167
175	0xbc4bcf06	-0.012439495
176	0xbd415449	-0.04719952
177	0xbcff6755	-0.031177202
178	0xbcc66cc7	-0.024221791
179	0xbe166699	-0.14687575
180	0x3d698175	0.057008225
181	0x3dcba749	0.099440165
182	0x3c95aa4d	0.018269682
183	0xbd233961	-0.039849643
184	0x3cddfbec	0.027097665
185	0xbd34f25a	-0.044176437
186	0x3d807cbc	0.06273791
187	0xbc029663	-0.007970425
188	0x3bbf17f0	0.005831711
189	0x3d6d6f91	0.057967726
190	0x3d226a21	0.039651994
191	0xbb8784c5	-0.0041357004
192	0xbceb4b63	-0.02872247
193	0xbe097b08	-0.13425839
194	0x3cf26a08	0.029591575
195	0x3caa27e2	0.02077097
196	0xbcabea9d	-0.020985896
197	0xbb0d2248	-0.0021535326
198	0x3d607f30	0.054808795
199	0x3d82a749	0.06379563
200	0x3d074ee4	0.03303422
201	0x3d580193	0.052735876
202	0x3e08f217	0.133736
203	0x3d8ea1ab	0.069644295
204	0x3cf48014	0.029846229
205	0xbc907184	-0.017632253
206	0x3c5ea819	0.013589882
207	0xbc230920	-0.009950906
208	0x3db0c1be	0.086307034
209	0x3d5e2332	0.054232784
210	0xbd856b2b	-0.06514581
211	0xbba4d058	-0.0050297193
212	0xbe07e0a0	-0.13269281
213	0xba9931a7	-0.0011687771
214	0x3c0e3ece	0.008681966
215	0x3df21616	0.11820619
216	0x3d03b5f2	0.03215594
217	0xbcba9c61	-0.022779645
218	0x3d686b6c	0.05674307
219	0x3d36cb48	0.044627458
220	0x3d0bb9d0	0.03411275
221	0xbc9dda38	-0.019269094
222	0xbd38f0a0	-0.045151353
223	0xbd05e54f	-0.03268939
224	0xbd860852	-0.06544556
225	0xbd6f12d7	-0.058367576
226	0xbb5f05ad	-0.0034030483
227	0x3cf04423	0.029329365
228	0xbd76ace2	-0.060223468
229	0xbc402cda	-0.011729443
230	0xbde07406	-0.1095963
231	0xbdaa8be9	-0.08327467
232	0xbc04594b	-0.00807793
233	0xbbc18830	-0.0059061274
234	0x3c43fd9f	0.011962323
235	0xbe08f466	-0.1337448
236	0x3dfd2c8b	0.123620115
237	0x3d7dae0d	0.061933566
238	0xbd328b14	-0.043589666
239	0x3cbd420d	0.023102785
240	0x3cb98295	0.022645274
241	0x3cfa79cd	0.030575657
242	0x3c698587	0.014253027
243	0x3cb8e5b6	0.022570472
244	0x3d857782	0.06516935
245	0xbdc7c74c	-0.0975481
246	0xbc99c73b	-0.018771758
247	0x3df130a3	0.11776855
248	0x3cb1e772	0.021716807
249	0x3c5810eb	0.013187627
250	0xbd383cb0	-0.04497975
251	0xbd41f7bb	-0.047355395
252	0x3c0f0343	0.008728805
253	0x3d022aed	0.03177922
254	0x3a1ab932	0.000590223
255	0x3d532f70	0.05155891

output.bias f4 [2]
0	0xbd460060	-0.0483402
1	0x3d465295	0.0484186
