models/InvPendulum2/measure_x3_N3/model_state_dict.pth (torch, 47596 bytes, 8 tensors)

hidden1.weight f4 [32, 3]
0	0x3de1973f	0.11015176
1	0xbe43f7ac	-0.19137448
2	0xbeaf08cd	-0.34186402
3	0x3ebde28d	0.37086907
4	0xbf475e0c	-0.7787788
5	0x3f37b6f4	0.7176354
6	0xbdb7e252	-0.08978714
7	0x3ec3c1be	0.3823375
8	0x3eb91db8	0.36155486
9	0x3e083c1e	0.13304183
10	0x3e8598c7	0.26093122
11	0xbee48b91	-0.4463773
12	0x3e0992f5	0.13434966
13	0xbe44e422	-0.19227651
14	0xbe01d4fa	-0.126789
15	0xbd3e95a2	-0.04652942
16	0x3da04f07	0.07827573
17	0xbc039dae	-0.008033199
18	0x3f71ea8a	0.94498503
19	0x3e7a197b	0.24423783
20	0xbf1b287d	-0.60608655
21	0xbf29e4d6	-0.663648
22	0xbda34d4e	-0.07973729
23	0xbf0fad10	-0.5612345
24	0xbf125f43	-0.5717661
25	0xbe7ffe59	-0.2499937
26	0x3f53ad4b	0.826863
27	0x3e08b45c	0.13350052
28	0xbf463e42	-0.7743875
29	0x3eda32c8	0.42616868
30	0x3e9efb7d	0.31051245
31	0x3edf3990	0.43598604
32	0x3f4154a5	0.7551978
33	0xbf5b58fb	-0.8568265
34	0xbf2ba66f	-0.6705083
35	0xbe6074b6	-0.21919522
36	0x3f4084e4	0.75202775
37	0xbdea59c9	-0.114429064
38	0x3ecd815d	0.4013776
39	0xbf1a31c5	-0.6023219
40	0x3f48c535	0.78425914
41	0xbe987b94	-0.29781783
42	0x3f6bee83	0.92160815
43	0x3ba23886	0.004950586
44	0xbf9aa6a7	-1.2082108
45	0x3ee6f599	0.4510925
46	0xbe6cbcf6	-0.23118958
47	0x3f04c756	0.5186666
48	0xbeafee97	-0.34361717
49	0xbde13a53	-0.109974526
50	0xbf576632	-0.8414031
51	0xbf2af48b	-0.6677939
52	0x3ee46e74	0.4461552
53	0xbef73443	-0.4828206
54	0x3f5b1285	0.85575134
55	0x3f374d67	0.7160248
56	0xbd3a2e9f	-0.045454618
57	0xbf3d80af	-0.7402448
58	0x3e845c20	0.25851536
59	0x3f2e7156	0.68141687
60	0xbec22b28	-0.3792355
61	0x3eb86e59	0.3602169
62	0x3f1bbd31	0.6083556
63	0x3f4070ad	0.7517193
64	0xbe827747	-0.25481626
65	0xbef3255d	-0.47489443
66	0x3ecd1dd4	0.4006182
67	0x3e949d4a	0.29026252
68	0xbf6342a0	-0.88773537
69	0xbf4cc113	-0.7998211
70	0x3ef0463c	0.46928585
71	0xbe1d83ae	-0.15382263
72	0x3e9064f6	0.28202027
73	0x3d06d190	0.032914698
74	0x3e421ea0	0.18956995
75	0x3f0e06ff	0.55479425
76	0x3cfcfc26	0.030881952
77	0x3fc12776	1.5090168
78	0xbf22ebc6	-0.6364101
79	0x3ea2b6fc	0.3178023
80	0xbf84a7f2	-1.0363753
81	0xbedf090e	-0.43561596
82	0x3d0fd0c0	0.03511119
83	0xbdc97de0	-0.09838462
84	0x3f955991	1.1667958
85	0xbe4a4be3	-0.19755511
86	0xbf9a23fd	-1.2042233
87	0x3f7a8d59	0.9787193
88	0x3a1ba076	0.00059366913
89	0x3f7b4619	0.98153836
90	0x3f17abb8	0.59246397
91	0xbef9be8e	-0.48778194
92	0xbe16fd18	-0.14744985
93	0x3d85218d	0.0650054
94	0xbedf79ac	-0.43647516
95	0xbf353c64	-0.70795274

hidden1.bias f4 [32]
0	0x3d902797	0.07038801
1	0x3e125e56	0.14293799
2	0xbe92a0ad	-0.2863821
3	0xbdf5effa	-0.120086625
4	0x3ee4f32c	0.44716775
5	0xbde5da39	-0.11223263
6	0x3e98b384	0.2982446
7	0x3e828740	0.25493813
8	0xbe3d16e0	-0.18465757
9	0xbea03c94	-0.31296217
10	0x3f0255c7	0.50912136
11	0xbcd943ae	-0.02652153
12	0x3eb21d77	0.34788105
13	0x3e2975d8	0.1654886
14	0x3dd4036c	0.10352215
15	0x3e916981	0.28400806
16	0x3ef218f9	0.47284678
17	0xbe2ed38a	-0.17072883
18	0xbaf875a4	-0.0018955958
19	0x3ed91f92	0.424069
20	0x3eb16535	0.34647527
21	0x3e998e09	0.29991177
22	0xbe330121	-0.174809
23	0xbe403059	-0.18768443
24	0xbeb2c5c3	-0.34916505
25	0x3db6da11	0.089283116
26	0x3f019b5b	0.5062768
27	0xbebab9b4	-0.36469805
28	0x3e7ab0c7	0.24481498
29	0xbb3e88bb	-0.0029073197
30	0xbee7813f	-0.45215794
31	0xbe614360	-0.21998358

hidden2.weight f4 [64, 32]
0	0x3dbdc1e2	0.09265496
1	0x3e7c1a16	0.24619326
2	0xbebb2c54	-0.36557257
3	0xbeacacf9	-0.33725718
4	0x3dfa5ddd	0.12224934
5	0x3de028e5	0.109453
6	0x3e3a0677	0.18166529
7	0x3da2cc23	0.07949092
8	0x3e977e44	0.2958852
9	0xbe59c341	-0.2126589
10	0xbe22fa64	-0.15915829
11	0xbdaf5183	-0.08560469
12	0xbdd82e16	-0.10555665
13	0x3e2a937d	0.16657825
14	0x3c5e1c02	0.013556482
15	0x3d22c57b	0.039739113
16	0x3c469cd4	0.012122352
17	0xbe51e991	-0.20499255
18	0x3e30e294	0.17273933
19	0x3d128940	0.035775423
20	0x3dc73c8f	0.097283475
21	0x3e372916	0.17886767
22	0xbe704f22	-0.23467687
23	0x3e0dc619	0.138451
24	0xbca76af8	-0.020436749
25	0x3d1ef8b2	0.038811393
26	0xbe679fcb	-0.2261955
27	0xbde90392	-0.11377634
28	0xbd2b3515	-0.04179867
29	0xbe85957d	-0.26090613
30	0x3f151192	0.58229935
31	0xbdd32b45	-0.103109874
32	0xbe0ca7f7	-0.13735949
33	0x3da08f26	0.078398034
34	0xbea0187d	-0.31268683
35	0x3d67b885	0.056572456
36	0xbd033ba7	-0.03203931
37	0x3d016ce8	0.031598
38	0xbd7f185c	-0.06227909
39	0x3ae45b48	0.0017422223
40	0xbe41f0aa	-0.18939462
41	0x3e0e07e8	0.13870203
42	0xbd418d45	-0.047253866
43	0x3ddd0836	0.10792582
44	0x3dab1228	0.083530724
45	0x3d067da7	0.032834675
46	0x3ddeb4ab	0.108743034
47	0x3e65a4c4	0.22426134
48	0x3e36f2bb	0.17866032
49	0xbdb50708	-0.08839232
50	0xbddade58	-0.1068694
51	0x3e055d9e	0.13023993
52	0xbd39abec	-0.045329973
53	0xbb2af9be	-0.00260888
54	0xbe460eb1	-0.19341542
55	0xbe37fdff	-0.17967986
56	0xbde982b2	-0.11401881
57	0x3e177e04	0.14794165
58	0xbdfb5356	-0.122717544
59	0xbe0d19f8	-0.13779438
60	0xbd3b02fc	-0.045657143
61	0xbeea28ab	-0.45734152
62	0xbeacbeb2	-0.3373924
63	0x3d626582	0.055272587
64	0xbd1a0da9	-0.037610684
65	0x3d11a8ec	0.035561487
66	0x3db417e5	0.0879362
67	0xbe984ea1	-0.2974749
68	0x3e310a05	0.17288978
69	0x3dde793c	0.10862967
70	0x3e3b2f55	0.18279774
71	0xbda1dac0	-0.079030514
72	0xbd0ad272	-0.033892103
73	0xbe9b7a67	-0.30366823
74	0x3e73f83f	0.23825167
75	0xbdad3c53	-0.084587716
76	0x3e3595f0	0.17732978
77	0xbbfedbd7	-0.007777672
78	0xbd54a0cc	-0.05191116
79	0x3daac93f	0.08339166
80	0x3d98d787	0.074629836
81	0xbe2ee048	-0.17077744
82	0x3c886667	0.016650392
83	0x3e16a0d8	0.14709795
84	0xbd8fc9c9	-0.07020909
85	0x3e19cd14	0.15019637
86	0x3e0e26bf	0.13881968
87	0xbe0a7fb9	-0.13525285
88	0x3e05d047	0.13067733
89	0xbe034f04	-0.12823111
90	0xbd3e0e94	-0.04640062
91	0x3e1f9bfd	0.15586849
92	0xbe234e33	-0.159478
93	0xbefb3926	-0.49067038
94	0xbe9fef27	-0.31237146
95	0xbeae21e5	-0.34010234
96	0xbda141d0	-0.07873881
97	0x3e2108b0	0.1572597
98	0x3dc19ed6	0.09454124
99	0x3eda3aab	0.42622885
100	0x3d27f41f	0.041004296
101	0x3e355bc0	0.17710781
102	0xbcfbea77	-0.03075145
103	0xbe3ed927	-0.18637525
104	0xbe2ad199	-0.16681518
105	0xbef92988	-0.48664498
106	0xbd83d4bf	-0.064370625
107	0xbe86b66e	-0.26311058
108	0xbe57abb5	-0.21061595
109	0x3e816bfc	0.25277698
110	0x3dc79e7d	0.09747026
111	0xbea69c14	-0.32540953
112	0xbe414419	-0.18873633
113	0x3e5fc2dc	0.21851677
114	0x3e594da7	0.21221028
115	0xbd329061	-0.04359472
116	0xbdce457e	-0.10071848
117	0xbe05610f	-0.13025306
118	0xbc412c01	-0.0117902765
119	0x3dc1468b	0.09437283
120	0xbdf1015a	-0.11767836
121	0x3e10c52b	0.14137714
122	0x3e3f8cd7	0.1870607
123	0xbd75f1ea	-0.06004516
124	0xbe138d13	-0.14409284
125	0x3f4fde82	0.81198895
126	0xbd8315dd	-0.064006545
127	0x3f0aecaa	0.5426737
128	0x3db6fa3b	0.089344464
129	0xbd365675	-0.044516046
130	0xbd8e4aa4	-0.0694783
131	0xbe4981a2	-0.19678357
132	0x3e423998	0.18967283
133	0x3e1e3bf5	0.1545256
134	0xbd845a8a	-0.064625815
135	0x3e42697a	0.18985549
136	0x3e068451	0.13136412
137	0x3e02f664	0.12789303
138	0x3e164a61	0.14676811
139	0xbe741db7	-0.2383946
140	0x3e589f80	0.21154594
141	0xbeef24eb	-0.46707854
142	0xbc94231a	-0.018083144
143	0x3ddacecf	0.10683977
144	0x3d72c85d	0.059273113
145	0xbec170b9	-0.37781313
146	0xbe375ece	-0.17907259
147	0xbc8c0e14	-0.017096557
148	0xbd8f2dcb	-0.06991156
149	0xbbd1d3f3	-0.00640344
150	0xbe8234ad	-0.25430813
151	0xbf0feabd	-0.5621756
152	0xbd146f4c	-0.036238953
153	0x3d3f3c84	0.04668857
154	0x3e27c010	0.1638186
155	0x3d55a8d0	0.052162945
156	0xbda4bed2	-0.080442086
157	0xbe81dedb	-0.25365338
158	0xbe97cd80	-0.29648972
159	0x3eb766d5	0.35820642
160	0xbe021680	-0.12703896
161	0x3b3a2b68	0.002840722
162	0xbefdac83	-0.49545678
163	0xbef94837	-0.48687908
164	0x3dab06f0	0.083509326
165	0x3dc9a7d0	0.09846461
166	0x3d84657b	0.06464668
167	0xbe0bfe9e	-0.13671347
168	0xbce369ea	-0.027760465
169	0x3d389af7	0.04506966
170	0xbd6678a6	-0.056267403
171	0xbe426a65	-0.18985899
172	0xbc85da02	-0.016339306
173	0x3d3b678d	0.04575305
174	0x3d9cd52b	0.07657846
175	0xbda5bfec	-0.08093247
176	0xbd58c099	-0.05291805
177	0xbe46ff91	-0.19433428
178	0xbd875771	-0.06608475
179	0x3e51caf9	0.20487584
180	0x3dddc980	0.10829449
181	0x3e167255	0.14692052
182	0xbe1682a8	-0.14698279
183	0xbe051d6b	-0.12999503
184	0xbe2a2d69	-0.16618885
185	0xbdbd557c	-0.092448205
186	0x3e031fe8	0.1280514
187	0xbe314c70	-0.17314315
188	0xbd93f3d7	-0.07224243
189	0x3dc8e81d	0.09809897
190	0x3f1b739c	0.6072328
191	0x3e688728	0.22707808
192	0xbd34c5e6	-0.044134043
193	0xbce3fee2	-0.027831499
194	0xbd0981dc	-0.03357111
195	0xbd85764b	-0.06516703
196	0x3d6f656c	0.058446333
197	0xbd769f72	-0.060210653
198	0xbdc3f360	-0.095679045
199	0x3cc98e30	0.024603933
200	0xbe081dbc	-0.13292593
201	0xbd1a8760	-0.03772676
202	0x3d995146	0.07486205
203	0x3d53f983	0.051751625
204	0x3e0b51da	0.13605443
205	0xbdfb3ba4	-0.12267235
206	0x3be878dc	0.0070944857
207	0xbd8a4f4c	-0.06753406
208	0xbde9728e	-0.11398803
209	0xbdcbaa87	-0.09944635
210	0x3d4d3015	0.050094683
211	0x3b002ac8	0.001955675
212	0xbddaa55c	-0.10676071
213	0xbe09b660	-0.13448477
214	0xbe15fac8	-0.14646447
215	0x3e316921	0.1732526
216	0xbcf6d4d8	-0.030130789
217	0xbd4c52ab	-0.049883526
218	0xbda6255c	-0.081125945
219	0xbdb51451	-0.08841766
220	0xbe2babb4	-0.16764718
221	0xbdd489bf	-0.103778355
222	0x3ddd49d2	0.10805096
223	0x3d1eb344	0.03874518
224	0xbd8df9e7	-0.06932431
225	0xbe29b484	-0.16572767
226	0xbd5b11ac	-0.05348365
227	0xbe05b927	-0.13058911
228	0x3e555ea9	0.20836891
229	0x3d344162	0.044007666
230	0x3e05201c	0.1300053
231	0xbd2d9ebd	-0.042387713
232	0xbe0999e6	-0.13437614
233	0xbe2d61d9	-0.16931857
234	0x3e2d9e64	0.16954952
235	0xbe111ecd	-0.14171906
236	0x3e09073f	0.1338167
237	0xbde38318	-0.111089885
238	0xbe06c702	-0.13161853
239	0xbce30a21	-0.02771479
240	0x3d4c4573	0.04987092
241	0xbeba494f	-0.36384055
242	0xbe4c447a	-0.19947997
243	0x3dca9d71	0.09893311
244	0x3d15b5c5	0.036550302
245	0xbba9733b	-0.0051712072
246	0xbdd81508	-0.105508864
247	0xbe9ec8cd	-0.31012574
248	0xbd85855d	-0.06519578
249	0x3e029d90	0.12755418
250	0x3daadefb	0.083433114
251	0x3cb5d588	0.022196546
252	0x3c217c57	0.009856305
253	0xbfaf9ad3	-1.3719124
254	0xbbf09c3b	-0.007342843
255	0xbe3d33b4	-0.18476754

hidden2.bias f4 [64]
0	0xbd88e5c0	-0.06684446
1	0x3e2339d7	0.15940033
2	0x3bc3b25e	0.0059721908
3	0x3daf8773	0.08570757
4	0xbda08562	-0.07837941
5	0xbda9c601	-0.082897194
6	0x3d39aec0	0.04533267
7	0x3e158170	0.14600158
8	0xbd0b8d35	-0.034070212
9	0xbe1b8b54	-0.15189868
10	0x3cfc9e28	0.030837134
11	0xbcc6ac54	-0.024252094
12	0xbd675dc2	-0.0564859
13	0xbd05d62c	-0.032674953
14	0x3c7bafc3	0.015361729
15	0xbdaa1ca9	-0.08306248
16	0xbd3e2271	-0.046419565
17	0xbdb4c3ad	-0.08826385
18	0xbe3fcfb8	-0.18731582
19	0xbe561053	-0.20904665
20	0x3dc883cc	0.09790763
21	0x3ddaddd1	0.10686839
22	0x3e551e84	0.20812422
23	0x3d0ccbe5	0.034374136
24	0xbd77cf81	-0.060500626
25	0xbdc37418	-0.095436275
26	0x3e3eaf8c	0.18621653
27	0xbd1784bf	-0.03699183
28	0x3df3803e	0.11889695
29	0xbde0900b	-0.10964974
30	0xbe3891c2	-0.18024352
31	0xbde75c12	-0.11296858
32	0x3e064a3f	0.1311426
33	0x3dde54be	0.10856007
34	0x3d69e199	0.057099912
35	0xbabe7ace	-0.0014532448
36	0x3e01e395	0.12684472
37	0x3e058183	0.13037686
38	0x3e0a804c	0.13525504
39	0xbe10a3d0	-0.1412499
40	0x3c77d96a	0.015127519
41	0x3e48bb11	0.1960261
42	0xbda82eb1	-0.08212031
43	0x3e4674d3	0.19380502
44	0xbded2088	-0.115784705
45	0xbddad644	-0.10685399
46	0xbbccb595	-0.006247232
47	0x3d29cf18	0.041457266
48	0x3db8774a	0.090071276
49	0xbdd1018a	-0.10205372
50	0x3e10df16	0.141476
51	0x3c9beee8	0.019034818
52	0x3bba8b1e	0.0056928536
53	0xbe5a489c	-0.21316761
54	0x3e4035e4	0.18770558
55	0xbd943cc4	-0.072381526
56	0xbdc0f962	-0.09422566
57	0x3e125d3a	0.14293376
58	0xbe05d933	-0.13071136
59	0x3e00c8af	0.12576555
60	0x3de319dc	0.11088917
61	0xbe17c65f	-0.14821766
62	0xbe16c66b	-0.14724128
63	0xbe06591b	-0.13119929

hidden3.weight f4 [128, 64]
0	0x3d34e47c	0.044163212
1	0x3e33074a	0.1748325
2	0xbdbf3ce7	-0.09337788
3	0xbf4633b4	-0.7742264
4	0x3d47a25e	0.04873883
5	0xbc524183	-0.012833002
6	0x3dffd558	0.12491864
7	0x3c96b9f7	0.018399222
8	0xbdff1738	-0.124556005
9	0xbd954bac	-0.07289824
10	0x3eb42b9a	0.35189515
11	0x3e501dca	0.20323864
12	0x3da52838	0.08064312
13	0xbc57e840	-0.013177931
14	0x3d939773	0.07206621
15	0x3d11c819	0.03559122
16	0x3e959f43	0.2922307
17	0xbd24d488	-0.040241748
18	0x3cf432e8	0.02980943
19	0xbde77bb6	-0.11302893
20	0xbe9591fb	-0.29212937
21	0xbe633fc4	-0.22192293
22	0x3d935e3e	0.0719571
23	0x3d8a8287	0.06763177
24	0xbfa0113c	-1.250526
25	0x3e455493	0.19270544
26	0x3efca864	0.49347222
27	0xbdb65edf	-0.08904814
28	0xbf28013a	-0.6562687
29	0xbe812905	-0.25226608
30	0xbf5861db	-0.84524316
31	0xbbf12fee	-0.00736045
32	0xbefaeab5	-0.49007192
33	0x3dd3e759	0.103468604
34	0x3dc7fc09	0.09764869
35	0xbd65fd54	-0.056149796
36	0xbe489436	-0.19587788
37	0x3cfe7e1f	0.031065999
38	0x3e98b48b	0.29825243
39	0xbe0db68c	-0.13839167
40	0xbd7bfe13	-0.0615216
41	0x3d785599	0.060628507
42	0xbd8a9ec9	-0.06768567
43	0x3d7c724e	0.061632447
44	0xbdd0c11e	-0.10193084
45	0xbe0e08d1	-0.1387055
46	0xbe8448fa	-0.25836927
47	0xbec8b65b	-0.39201626
48	0x3e098b42	0.13432029
49	0x3d1d9c0e	0.038478903
50	0xbdacaa61	-0.08430935
51	0x3d975a0b	0.07390221
52	0x3dceeffe	0.101043686
53	0xbe05bc86	-0.13060197
54	0xbf6d45b6	-0.92684495
55	0x3ca58b00	0.020207882
56	0xbd0d86b0	-0.034552276
57	0x3d60e360	0.05490434
58	0x3e5353d1	0.20637442
59	0xbd6f56ae	-0.058432274
60	0x3ec8ca6a	0.3921693
61	0xbcd1da20	-0.025616705
62	0xbf3a5f11	-0.7280131
63	0xbf44c3d7	-0.7686133
64	0x3b90f68f	0.0044239233
65	0x3dc12e91	0.0943271
66	0x3e206702	0.15664294
67	0x3be08172	0.0068513686
68	0xbd5449a7	-0.051828053
69	0xbde40677	-0.111340456
70	0xbda18785	-0.078871764
71	0x3e4efbc2	0.20213225
72	0xbddb6d53	-0.10714211
73	0xbbf976f7	-0.0076130587
74	0x3e3be8b5	0.1835049
75	0x3ddae25a	0.106877044
76	0xbddfeefe	-0.10934256
77	0x3ccb0510	0.024782687
78	0x3cdc61e3	0.026902145
79	0x3e0a2063	0.13488917
80	0xbf044470	-0.5166693
81	0x3d596c2c	0.053081676
82	0x3ab13d80	0.0013522357
83	0x3e33b693	0.17550115
84	0x3d9a29c6	0.07527499
85	0xbd1a6e5c	-0.037702903
86	0x3d207a9f	0.03917944
87	0xbe155df9	-0.14586629
88	0x3e696d9f	0.22795723
89	0x3da87026	0.082245156
90	0xbdfc7dd4	-0.12328687
91	0xbda7718f	-0.081759565
92	0xbe9fed19	-0.3123558
93	0xbcfee50c	-0.031115077
94	0xbd07562e	-0.03304117
95	0xbd479f37	-0.048735823
96	0x3da7dfc5	0.081969775
97	0x3d12f33f	0.03587651
98	0x3d83f37e	0.06442927
99	0x3c4d0594	0.012513537
100	0x3aa4dc87	0.0012577929
101	0xbebd12a2	-0.36928278
102	0xbe2b3c4c	-0.1672222
103	0x3d1363d4	0.035983875
104	0x3e19ac38	0.15007102
105	0xbdbb42b7	-0.09143584
106	0xbd8e4cfa	-0.06948276
107	0x3e0efe37	0.13964163
108	0x3d673ab8	0.056452483
109	0xbce702ef	-0.028199641
110	0x3dd1fb63	0.10253026
111	0xbdb3f257	-0.08786457
112	0x3d85ed3e	0.06539391
113	0x3d4ac6c4	0.049505964
114	0x3e63ceab	0.22246806
115	0xbc15bd81	-0.0091394195
116	0x3c217ee0	0.0098569095
117	0x3d3c8724	0.046027318
118	0x3e75172f	0.23934625
119	0x3cc5ef9a	0.024162102
120	0xbd951ec2	-0.07281257
121	0x3e11b4f8	0.1422919
122	0x3d21c427	0.039493706
123	0x3d02ccec	0.03193371
124	0xbede7517	-0.43448707
125	0xbdd202f1	-0.10254467
126	0xbe1c3e75	-0.152582
127	0x3e0ac3e1	0.13551284
128	0x3e210840	0.15725803
129	0xbd862cdb	-0.06551524
130	0xbc8bc79f	-0.01706296
131	0x3e0a7528	0.13521254
132	0x3a659649	0.0008758051
133	0x3d54e517	0.05197629
134	0x3d0e1ec4	0.03469731
135	0x3d3020af	0.04299992
136	0x3d896dbc	0.06710383
137	0x3dfb130b	0.122594915
138	0x3d0ed72e	0.03487318
139	0xbd90f4f4	-0.07077971
140	0xbd994fd6	-0.074859306
141	0xbdc70f60	-0.097197294
142	0xbd0e8ec4	-0.03480412
143	0x3d0fecdc	0.035137996
144	0xbfa493bc	-1.2857585
145	0xbdf7c320	-0.12097764
146	0x3dcf2fa5	0.10116509
147	0x3b73b2f7	0.0037185529
148	0x3e40ce47	0.18828689
149	0xba969a22	-0.0011490027
150	0x3d07044d	0.032963086
151	0xbe423635	-0.18965991
152	0x3e207636	0.15670094
153	0x3d935577	0.071940355
154	0x39c2b274	0.0003713552
155	0xbd047c93	-0.032345366
156	0x3ddf25a3	0.108958505
157	0xbd7d115e	-0.06178414
158	0xbd097a5c	-0.033563957
159	0xbd407fdb	-0.046996932
160	0x3d023832	0.031791873
161	0x3dc82dcd	0.09774361
162	0x3e48535a	0.19563046
163	0x3dd11cf2	0.10210599
164	0x3df77c14	0.12084213
165	0xbf211225	-0.6291831
166	0xbe52d620	-0.20589495
167	0x3c01bf49	0.007919141
168	0x3dc34907	0.09535413
169	0xbdaa093d	-0.08302543
170	0x3c0586a5	0.008149778
171	0x3c072bad	0.008250159
172	0xbd960744	-0.073256046
173	0x3e301fd0	0.17199636
174	0x3e46ef5c	0.19427246
175	0xbe074a1e	-0.13211867
176	0x3d6792d7	0.05653652
177	0x3d363ee3	0.044493567
178	0xbd948b13	-0.07253089
179	0x3dead845	0.114670314
180	0xbd334c49	-0.043773923
181	0x3e3c2a1d	0.1837544
182	0x3dc8ec15	0.09810654
183	0x3dbe0ac4	0.09279397
184	0xbdd16d4a	-0.10225923
185	0x3c23ca89	0.009997019
186	0x3e0b1dc1	0.13585569
187	0x3c8f0ad8	0.017461225
188	0xbeb240e6	-0.3481514
189	0x3db92894	0.09040943
190	0xbe196b4e	-0.1498234
191	0x3d9df693	0.07713046
192	0x3e75d8eb	0.24008529
193	0x3da410b4	0.08010998
194	0x3c9fadc4	0.019492038
195	0xbe178373	-0.14796238
196	0xbe089525	-0.13338144
197	0xbcc2e482	-0.023790602
198	0xbd7b1150	-0.061295807
199	0xbe207e5a	-0.156732
200	0xbdada400	-0.08478546
201	0x3e1fd2e8	0.15607798
202	0x3d832eee	0.064054355
203	0x3df125dc	0.11774799
204	0x3cd2b370	0.025720328
205	0x3db0d078	0.08633512
206	0x3e20f380	0.15717888
207	0xbcc063a5	-0.023485014
208	0xbdc24d28	-0.09487373
209	0xbd82095a	-0.0634944
210	0x3c41cb71	0.011828289
211	0xbcb80ca3	-0.022466963
212	0x3d61aded	0.05509751
213	0x3e70c1c1	0.23511411
214	0xbb3838a9	-0.0028109944
215	0x3e614a0d	0.22000904
216	0x3e9a908f	0.30188414
217	0x3d9ed9d1	0.07756389
218	0xbe883892	-0.2660566
219	0xbe164790	-0.14675736
220	0x3e21a05e	0.15783831
221	0xbda819cf	-0.082080476
222	0xbddf681c	-0.10908529
223	0x3de99bc9	0.11406667
224	0xbe49057e	-0.19631001
225	0x3d13ea65	0.036112208
226	0x3c6cd296	0.0144545045
227	0xbdad58ce	-0.08464204
228	0x3dc3f5df	0.095683806
229	0xbe1c0141	-0.15234853
230	0xbece2a8b	-0.40266833
231	0xbdbbd8d8	-0.09172219
232	0x3d69f49e	0.05711805
233	0x3d16063e	0.036627047
234	0xbe4de1fc	-0.20105737
235	0xbe189bdc	-0.14903206
236	0xbdaa7516	-0.083231136
237	0xbcc667ae	-0.02421936
238	0x3c565f60	0.013084263
239	0xbd29e0b8	-0.041474074
240	0xbe0fd460	-0.14045858
241	0xbdcced22	-0.10006167
242	0xbdd3bc43	-0.103386424
243	0x3e0d97cc	0.13827437
244	0xbbc08713	-0.005875477
245	0x3d80d5b6	0.06290762
246	0xbce202d5	-0.027589241
247	0xbd38282d	-0.04496019
248	0x3b473b80	0.0030400455
249	0x3e8273c7	0.25478956
250	0xbd94c75a	-0.07264586
251	0x3e191bfd	0.14952083
252	0x3cb315be	0.021860953
253	0xbd9a8eae	-0.07546745
254	0x3c31ad4b	0.010844539
255	0x3e3dce65	0.18535765

hidden3.bias f4 [128]
0	0xbc7b2c9e	-0.015330462
1	0x3c2358a9	0.009969869
2	0xbd303f8b	-0.04302935
3	0x3d9c5f37	0.07635348
4	0xbcea686f	-0.028614251
5	0x3d7b5a59	0.06136546
6	0xbc5d514f	-0.013508155
7	0x3cc25b37	0.023725135
8	0x3b24d404	0.0025150785
9	0xbd32b0ba	-0.04362557
10	0xbd847968	-0.06468469
11	0xbdb9f601	-0.09080125
12	0xbcd123c3	-0.025529748
13	0x3e083cac	0.13304394
14	0x3de5943e	0.112099156
15	0xbe153291	-0.14570071
16	0xbdbc3630	-0.09190023
17	0x3cc78af4	0.02435825
18	0xbe2595a8	-0.1617037
19	0x3d886cff	0.06661414
20	0x3d2db3d0	0.04240781
21	0xbc0c99a1	-0.00858155
22	0xbdacf6bb	-0.084454976
23	0xbbe6b62c	-0.0070407595
24	0x3dd49ce2	0.103814855
25	0x3e29a365	0.16566236
26	0x3e398480	0.18116951
27	0xbd1431be	-0.03618025
28	0x3de2cebe	0.11074589
29	0xbdba221d	-0.09088538
30	0xbd017536	-0.03160592
31	0xbd093d56	-0.03350576
32	0xbda37a48	-0.07982308
33	0x3d0d825d	0.034548152
34	0xbe19d397	-0.15022121
35	0x3df1e1a3	0.11810615
36	0x3cba6ff4	0.022758462
37	0xbd75ed84	-0.060040966
38	0x3c739292	0.014866488
39	0xbca756d3	-0.020427143
40	0xbe3684ef	-0.17824148
41	0xbe341b00	-0.17588425
42	0x3d6eb850	0.058281243
43	0x3d8afd71	0.06786621
44	0x3cdf5c7e	0.027265783
45	0x3d006e4e	0.031355195
46	0x3c8fbd34	0.017546274
47	0xbc4856f7	-0.012227765
48	0x3b87bb8a	0.0041422294
49	0xbd3bcc71	-0.045849267
50	0xbc17d75d	-0.009267655
51	0xbc88f56a	-0.016718585
52	0x3d9c8e68	0.07644349
53	0x3ceb232f	0.0287033
54	0x3d0ec33d	0.034854162
55	0xbc21abdd	-0.009867636
56	0x3dc4d839	0.09611554
57	0x3d37082f	0.04468554
58	0x3b6327dd	0.0034661212
59	0x3df2fc81	0.118645675
60	0xbd164895	-0.036690313
61	0xbe70e96f	-0.23526548
62	0x3c6fb5e2	0.014630767
63	0x3cac9609	0.021067636
64	0xbdc7d79c	-0.09757921
65	0x3d63559d	0.05550157
66	0x3dcc8fbd	0.099883534
67	0x3c6bb157	0.014385543
68	0xbe77bc27	-0.24192868
69	0x3d836a02	0.06416704
70	0xbd90a30d	-0.070623495
71	0xbd9a9c3b	-0.0754933
72	0x3cedd63d	0.02903282
73	0x3c887f12	0.016662154
74	0xbde10471	-0.10987175
75	0x3db9b913	0.09068503
76	0x3dabeba8	0.08394557
77	0xbe06d020	-0.13165331
78	0x3db12ab6	0.086507246
79	0x3dd3916c	0.103304714
80	0xbc01b427	-0.007916487
81	0xbe37bd90	-0.17943406
82	0x3d7a7ba1	0.061153058
83	0xbc009dfe	-0.007850168
84	0xbe064448	-0.13111985
85	0xbdaaeb45	-0.08345655
86	0xbc766b6b	-0.015040259
87	0xbd349a56	-0.0440925
88	0x3da59c2c	0.08086428
89	0x3d9682a4	0.073491365
90	0xbd4dfa08	-0.050287277
91	0x3be43194	0.006963918
92	0xbd651564	-0.055928603
93	0x3e0a2a7f	0.13492773
94	0xbe67ebb5	-0.22648509
95	0x3aeb9325	0.001797293
96	0x3dc1c49a	0.09461327
97	0xbd09727f	-0.033556458
98	0xbdf5efc1	-0.1200862
99	0xbd89badd	-0.067250945
100	0x3e016d3d	0.12639327
101	0x3d40c3f5	0.04706188
102	0xbda9de39	-0.08294339
103	0x3d7194be	0.058979742
104	0xbdb470e0	-0.08810592
105	0x3e0904c0	0.13380718
106	0x3c85db6b	0.016339978
107	0xbd89f4f9	-0.06736178
108	0xbd09edf7	-0.033674207
109	0xbe386c30	-0.1801002
110	0x3dc456ff	0.09586906
111	0x3ca219da	0.019787718
112	0xbda7a68d	-0.08186064
113	0xbdc34be3	-0.095359586
114	0x3d68c51b	0.0568286
115	0x3dc547fb	0.0963287
116	0xba77c45e	-0.0009451563
117	0xbe0e19ab	-0.13876979
118	0x3d619329	0.055071983
119	0xbdd58406	-0.10425572
120	0x3de4d062	0.11172558
121	0x3c1f1103	0.009708646
122	0x3d0d16a5	0.034445424
123	0x3df60fb1	0.12014712
124	0x3caa803d	0.020813102
125	0x3d90f61c	0.07078192
126	0x3d728fd3	0.059219193
127	0xbd14e536	-0.036351405

output.weight f4 [4, 128]
0	0xbd5dd87b	-0.05416153
1	0x3db9817a	0.09057899
2	0x3c04909d	0.008091119
3	0x3d4f5c66	0.050625227
4	0xbc99d6b8	-0.018779144
5	0xbdbe9f8c	-0.09307775
6	0xbdbcb76d	-0.09214673
7	0x3b89ec1f	0.004209056
8	0xbd937e64	-0.072018415
9	0x3b79e9f0	0.0038133822
10	0xbd14ca56	-0.036325775
11	0xbcd52b78	-0.026021704
12	0x3d05e7e1	0.03269184
13	0xbdb29982	-0.087206855
14	0xbd8f7ac8	-0.070058405
15	0xb9c19c7b	-0.00036928416
16	0x3d801226	0.062534615
17	0xbe08161e	-0.13289687
18	0xbc8fdcdc	-0.017561369
19	0xbd8ea6f9	-0.06965441
20	0x3b23fe4a	0.0025023394
21	0xbcb713d9	-0.022348331
22	0x3a52f99f	0.00080480607
23	0xbcd01383	-0.025399929
24	0xbc8359af	-0.016033975
25	0xbd80b06d	-0.062836505
26	0xbd8b8cda	-0.06813975
27	0x3d8cefe5	0.06881694
28	0xbe2a97e9	-0.16659512
29	0x3d7cb186	0.061692737
30	0xbcf3e138	-0.029770479
31	0xbd71e2ef	-0.05905431
32	0x3d8dc781	0.06922818
33	0xbd0d80a8	-0.034546524
34	0x3c24ef9b	0.010066892
35	0xbd96e189	-0.07367236
36	0x3cd834f6	0.026392441
37	0xbdcbe8db	-0.09956523
38	0x3d2b167e	0.041769497
39	0xbce0304b	-0.027366778
40	0xbd33431d	-0.043765176
41	0xbc8ec999	-0.017430114
42	0x3e5cfec3	0.21581559
43	0x3d6b4d11	0.057446543
44	0x3c2b0704	0.010438684
45	0x3c97c425	0.018526146
46	0xbd3ab2df	-0.04558074
47	0x3d84484c	0.06459102
48	0x3cff10f7	0.03113602
49	0x3e1e33a3	0.15449385
50	0xbe7208aa	-0.23636118
51	0xbd6f03a1	-0.05835307
52	0x3db17b6d	0.0866612
53	0x3cb0b1fe	0.021569248
54	0xbd808944	-0.06276181
55	0xbc821ec4	-0.01588381
56	0x3de6242d	0.11237369
57	0x3d14a65d	0.03629147
58	0x3dab2f90	0.08358681
59	0x3dad8804	0.084732085
60	0x3e4afa6e	0.19822094
61	0x3d0944a2	0.03351272
62	0x3e152a61	0.14566948
63	0x3dc10885	0.09425453
64	0xbcb2f8d1	-0.02184716
65	0xbc22f7dc	-0.00994679
66	0x3d902aa4	0.07039383
67	0xbe46d6e0	-0.19417906
68	0xbd1aa235	-0.03775235
69	0xbd2eaf47	-0.042647626
70	0x3b7dba30	0.0038715713
71	0xbdd0e7d1	-0.102004655
72	0x3d427db8	0.047483176
73	0xbe607d90	-0.21922898
74	0xbb322d7a	-0.002718775
75	0xbdbd8ab8	-0.09254974
76	0x3ce35ecc	0.027755164
77	0xbcb46be4	-0.022024103
78	0xb9027300	-0.00012440607
79	0xbd25a036	-0.040435992
80	0x3e09b7f9	0.13449086
81	0xbe0c9091	-0.13727023
82	0x3d7c1a77	0.061548676
83	0xbd323975	-0.043511827
84	0xbd67ab9c	-0.056560144
85	0x3dac6447	0.08417564
86	0xbd29079d	-0.041267026
87	0x3d99923b	0.074985944
88	0x3e6a9509	0.22908415
89	0xbcca4e2b	-0.024695477
90	0xbcd01306	-0.025399696
91	0x3b485870	0.003057029
92	0x3d7240e0	0.0591439
93	0x3e57d14b	0.21075933
94	0x3d28f285	0.04124691
95	0xbcc0c2ff	-0.023530481
96	0x3e6f6a61	0.23380424
97	0xbd3f5f76	-0.046721898
98	0xbb06a4e4	-0.002054506
99	0xbd255d12	-0.040371962
100	0x3c39acf6	0.011332741
101	0xbd97adaf	-0.074061744
102	0x3dffefb7	0.12496894
103	0x3d77f600	0.06053734
104	0xbd923ee7	-0.07140904
105	0x3d353965	0.04424419
106	0xbd465e50	-0.048429787
107	0xbc582151	-0.013191537
108	0x3d282d67	0.041058924
109	0xbe3fc55a	-0.18727627
110	0xbe53904d	-0.20660515
111	0xbdbba95b	-0.09163161
112	0x3daab74f	0.083357446
113	0xbe106384	-0.14100462
114	0x3d60a60e	0.054845862
115	0x3ceb1867	0.02869816
116	0x3d835333	0.06412353
117	0xbcb503ba	-0.022096504
118	0x3d5b0cf2	0.053479142
119	0xbd5145f2	-0.051092096
120	0x3da61e71	0.08111275
121	0x3d2d25f5	0.042272527
122	0x3e0b4980	0.13602257
123	0x3d2a723d	0.041612852
124	0xbe3f1fe3	-0.18664508
125	0xbbaff4ea	-0.005369772
126	0xbcd354c9	-0.025797265
127	0xbd478de2	-0.048719294
128	0x3f459546	0.771809
129	0xbdb39133	-0.08767929
130	0xbe44dcbc	-0.19224828
131	0x3cf7fda6	0.030272316
132	0x3d408717	0.04700383
133	0x3d9faef0	0.077970386
134	0x3bc665dc	0.006054623
135	0x3cba6ceb	0.022757014
136	0x3d01efe2	0.03172291
137	0x3ce989c1	0.028508069
138	0xbca9d0b9	-0.02072941
139	0xba94944f	-0.0011335703
140	0xbb82e702	-0.0039948234
141	0xbce2b682	-0.027674917
142	0xbdf8f8cb	-0.121568285
143	0x3d3343f6	0.043765984
144	0xbd091868	-0.03347054
145	0x3cb833ce	0.02248564
146	0x3c64f20f	0.013973727
147	0x3d83ebec	0.06441483
148	0x3cdbb794	0.026820935
149	0xbe96c0e9	-0.29444054
150	0xbe3f1481	-0.18660165
151	0xbc61c110	-0.01377894
152	0x3b0e7d18	0.0021742042
153	0xbd2b178c	-0.041770503
154	0xbdbe7d71	-0.0930127
155	0x3d785f7e	0.060637943
156	0x3d5d285f	0.05399358
157	0x3d037d26	0.032101773
158	0xbd053652	-0.032522507
159	0xbd577929	-0.05260578
160	0x3ce26ef4	0.027640797
161	0xbddb1d05	-0.106988944
162	0x3b1c659f	0.0023864282
163	0x3be98873	0.0071268617
164	0x3d36ebc2	0.04465843
165	0x3d922bd0	0.07137263
166	0xbaeca7ff	-0.0018055438
167	0x3d423bc7	0.04742029
168	0xbd0331ae	-0.0320298
169	0x3d85e0f7	0.06537049
170	0x3c595ad2	0.013266282
171	0xbdc39dd6	-0.09551589
172	0xbbe04c9e	-0.006845071
173	0xbd4dc6ed	-0.05023854
174	0xbe348ca2	-0.17631772
175	0x3b608355	0.0034257967
176	0x3d5ac162	0.05340708
177	0x3c2d1e20	0.010566264
178	0x3d40f706	0.04711058
179	0x3bc09c8a	0.005878036
180	0x3f7f5f39	0.99754673
181	0xbe2a00f6	-0.16601929
182	0xbd40ee78	-0.04710242
183	0x3f4ec49a	0.8076874
184	0xbc91d6b5	-0.017802576
185	0xbd8a29a6	-0.06746225
186	0x3ded1f5f	0.11578249
187	0xbccddaa3	-0.025128668
188	0x3c6a021e	0.014282731
189	0x3c3cfec4	0.01153535
190	0x3d1a0468	0.03760186
191	0xbd9285b5	-0.07154409
192	0x3cb0ab05	0.021565923
193	0xbdb3f5f5	-0.08787147
194	0xbc315539	-0.010823541
195	0x3a87f41d	0.0010372434
196	0x3dcac871	0.099015124
197	0xbe672ae6	-0.22574958
198	0xbd61843d	-0.055057753
199	0x3c93d433	0.01804552
200	0xbe0514bd	-0.12996192
201	0x3d2dcd8e	0.04243236
202	0x3d514ecd	0.05110054
203	0x3f3a828b	0.7285544
204	0x3c2977d7	0.010343513
205	0xbda105a3	-0.07862403
206	0xbde68605	-0.11256031
207	0xbe02f7fd	-0.12789913
208	0xbc5cd5ad	-0.013478679
209	0xbd3b9520	-0.045796514
210	0x3cc517dd	0.02405923
211	0xbda1d5e3	-0.07902124
212	0x3cfcd0da	0.030861307
213	0x3e5e1d25	0.21690805
214	0xbc2df6c6	-0.010617917
215	0x3d973e31	0.07384909
216	0xbc34928a	-0.011021266
217	0x3e554781	0.20828058
218	0xbc03aabf	-0.0080363145
219	0x3d297eb3	0.041380595
220	0xbd8175a8	-0.06321269
221	0xbd510704	-0.05103208
222	0x3d31f442	0.043445833
223	0xbd8aff66	-0.06786995
224	0x3d251df1	0.040311757
225	0xbea15708	-0.31511712
226	0x3ba37870	0.0049887225
227	0x3b2e2b89	0.0026576242
228	0xbc5c4615	-0.013444443
229	0x3cfe4941	0.03104079
230	0x3e331ff9	0.17492665
231	0xbd2a1168	-0.041520506
232	0x3dbf2c26	0.093345925
233	0x3f250245	0.6445659
234	0x3e58665f	0.21132801
235	0xbd8d4d95	-0.06899563
236	0xbb0fb4e8	-0.0021927897
237	0x3dfc3e1e	0.123165354
238	0x3d2fc8db	0.04291616
239	0xbe0645ed	-0.13112612
240	0x3c70e817	0.014703772
241	0x3b998ae6	0.0046857474
242	0xbbab19a7	-0.005221564
243	0xbbdf71c8	-0.0068189837
244	0xbc1dae7a	-0.009624118
245	0xbcb1c7bd	-0.021701688
246	0xbd3663b6	-0.044528686
247	0xbcacc507	-0.021090044
248	0xbb74f7f5	-0.003737924
249	0xbe3df760	-0.18551397
250	0x3dc40a74	0.09572306
251	0x3ebed794	0.37273848
252	0xbc0330d5	-0.008007248
253	0x3bfabcc1	0.0076518958
254	0x3c5611ce	0.013065768
255	0x3cad7014	0.021171607

output.bias f4 [4]
0	0x3adc36e4	0.0016801027
1	0xbe308922	-0.17239812
2	0xbd8a9b83	-0.06767943
3	0xbcb4c305	-0.022065649
