models/DuffingOscillator/model_state_dict.pth (torch, 47468 bytes, 8 tensors)

hidden1.weight f4 [32, 6]
00000000: 9dac 0e3f 5e0c a5be ccce 5e3f af06 d3bc
00000010: c6dc c3bf bdc5 403f b460 02be e4a4 e83e
00000020: dd96 87be 65aa 97be 9dc1 073f e0b1 2d3f
00000030: 7585 253e c070 96be bc84 10be b4a9 20be
00000040: 2b67 803d 1c16 0abe 7ae7 2f3f e05e edbd
00000050: ad5d a53e 03b3 8ebf 08e8 96bf f883 9a3e
00000060: 279a 34be be7b 8a3e 3c0f f73e 70c0 aa3e
00000070: a613 15bf 23eb 2bbe 6495 8ebd ef20 3b3f
00000080: ad1e 2d3f 5fa6 8ebf e745 dabe 7ebd cabe
00000090: b605 af3e e96b 4cbe 7b21 333e b228 0d3d
000000a0: c9f7 ab3e 1073 9bbe 3a5d f83e e308 9b3e
000000b0: 7e1b 19be 1fc9 b23f c229 c1be fbe0 4cbf
000000c0: ab33 81be 7ef9 86be 7063 9dbf 72f5 92bf
000000d0: c72b b13f 4327 9d3f 5d1c c23c f534 b03e
000000e0: 2b7b 3dbf cc13 15bf 1fe6 ac3f c935 9c3e
000000f0: 39d4 cabe a04d c23e b945 233e 652a c63e
00000100: 4c11 31be 1246 de3c 3dd6 83bd d85f 983d
00000110: a8f7 38bf d011 64bf 93a0 a43f a7ff 343f
00000120: 3365 8d3e 36b9 9abd db69 d93e 025a 403e
00000130: 83f7 203e eea7 c13c 0b3a 30bf 95a6 e33d
00000140: 4f09 d7be 90bf 86bf 2e7e 833e 4fd4 65bd
00000150: 1581 2b3e 63c5 86be c8e8 97bf 9cc6 843f
00000160: f163 a73f 6639 a5bd a9ab a53e 5083 73be
00000170: f016 293f 4123 6e3f 6ee1 76bf 6afc 49bf
00000180: 4ee4 7ebd 82d1 2a3e c48e 5bbf 56b4 99be
00000190: a571 dc3f a788 60bd 64ce b53e 579c 983c
000001a0: fa26 32bf 71a5 85bf 186c 843f 53ff 5e3f
000001b0: da3d 843e ff64 243f bcd8 bbbe dc5c 863f
000001c0: d88b 493f de63 d9be 0966 b03d 7d23 5b3f
000001d0: e3b1 873e 6811 2b3f 5f64 89be 1e64 fbbe
000001e0: 96b9 15bf 5edc 26bd a6a9 263f 58ab 23bf
000001f0: 6e65 853e 21de 7c3e 9d2e fbbe b676 5fbd
00000200: 2341 663e 2a2c 633f 7869 aebe 0a41 62be
00000210: 8d25 9f3e 622b 103e 7fa5 9d3e 9486 7a3e
00000220: bfb4 d13e daf1 7c3e b068 90be cfa2 f8be
00000230: 5f01 43bf ecee df3e 7139 c33c d80e 123e
00000240: c64c 973c fedf c5bd b223 ba3c faac fc3d
00000250: 5cc0 083f a985 013f 1f52 7a3d 40dc ee3d
00000260: dda0 6e3f fb69 75bf c238 f8bf 4154 043f
00000270: 0c65 4f3d c561 82be ac06 713f c5c4 2ebf
00000280: 7b7b 99bf 7b09 c63e 2d81 8c3e cf72 823d
00000290: 14fd 0dbf d2db bfbe e33c b13d 6819 993e
000002a0: 307d 3dbf 0032 96be 339f c1be 6c19 d03e
000002b0: de93 803f bf86 e3bd 2f4c 533f e28a 9e3e
000002c0: 94a7 853f 7659 663e 936d f5be 55ee c3bd
000002d0: f322 8b3e 01d7 4bbe 82e0 22bf dd3a d2be
000002e0: 41cf 9cbe 32ba ec3e 895e 3bbf 2138 99bd
000002f0: d164 c2be 741e 93bf 8a61 263f 5127 e03e
0.55732137 -0.32235998 0.87034297 -0.025760023 -1.530175 0.75301725 -0.12732202 0.45438302
-0.26482287 -0.29622188 0.53029805 0.6784954 0.16164191 -0.29382896 -0.14113134 -0.15689737
0.06269678 -0.13484997 0.6871258 -0.115903616 0.3229803 -1.114838 -1.178956 0.3017881
-0.1763693 0.27047533 0.4825381 0.33349943 -0.58233106 -0.16788916 -0.06962088 0.7309713
0.6762493 -1.1144522 -0.42631456 -0.39597696 0.34184045 -0.1996304 0.1749324 0.03446264
0.33587483 -0.30361223 0.48508626 0.30280218 -0.14951894 1.3967627 -0.3772717 -0.8003079
-0.25234732 -0.26362222 -1.2295971 -1.1481154 1.3841485 1.2277607 0.023695165 0.34415403
-0.74016064 -0.5823333 1.3507727 0.30509785 -0.39615038 0.37949848 0.15944566 0.3870422
-0.17291754 0.027133022 -0.06437347 0.07440156 -0.72252893 -0.8908968 1.2861503 0.70702595
0.2761627 -0.075548574 0.42463574 0.18784335 0.15719418 0.023639645 -0.68838567 0.111157574
-0.4199929 -1.052721 0.25682205 -0.056110676 0.1674846 -0.2632247 -1.1867914 1.0373111
1.3077375 -0.080675885 0.3235753 -0.2378056 0.66050625 0.93022543 -0.9643773 -0.7890078
-0.062229447 0.16681483 -0.8576472 -0.30020398 1.7222182 -0.05481782 0.35509026 0.018629236
-0.69590724 -1.0441114 1.0345488 0.87108344 0.2582844 0.6421661 -0.36688793 1.0497088
0.7872901 -0.42459005 0.08613212 0.85601026 0.26502904 0.66823435 -0.2683439 -0.4909982
-0.58486307 -0.040737502 0.6510261 -0.63933325 0.26053947 0.2469411 -0.49059 -0.05455657
0.22485785 0.88739264 -0.3406484 -0.22095123 0.31083336 0.14079049 0.30790326 0.244654
0.4095821 0.24701634 -0.2820487 -0.48561713 -0.7617397 0.4373697 0.023831101 0.14263475
0.018469226 -0.09661864 0.022722099 0.1233768 0.5341852 0.50594574 0.061113473 0.11663103
0.9321421 -0.9586484 -1.9392321 0.5169106 0.050633475 -0.25465217 0.94150805 -0.68268996
-1.1990808 0.38679108 0.27442303 0.06369554 -0.5546429 -0.37472397 0.08654191 0.29902196
-0.74019146 -0.29335022 -0.37816772 0.40644395 1.0045125 -0.11109685 0.8253812 0.30965334
1.0441766 0.22495064 -0.4793516 -0.095669426 0.27175102 -0.19906236 -0.6362382 -0.41060534
-0.30626872 0.46235806 -0.73191124 -0.07481409 -0.37967542 -1.1493669 0.6499258 0.43779996

hidden1.bias f4 [32]
00000000: 2349 90bc 218e 8abd 5399 be3d 45ab cabc
00000010: b4db 823d 0b98 053e c681 8c3e 2105 b4bc
00000020: f4d3 573d b7ad 7abd 6479 9f3e 4bb7 6ebc
00000030: a801 253c 0552 e63c eb66 1ebd c369 81bc
00000040: 2391 5f3c 7d0e 713d ae59 d1bb 21da 0f3d
00000050: b766 f2bd c080 3f3e ae82 843e 8995 1b3e
00000060: 8e82 823d b436 0bbd 62f5 5dbc 022f 373e
00000070: 1a5b 06bd 9777 1a3e 9f5d 93be b65c 06bd
-0.017613 -0.0676539 0.09306588 -0.02473987 0.06389561 0.13046281 0.2744276 -0.021975102
0.05269237 -0.061200824 0.311473 -0.014570068 0.010071196 0.028115282 -0.03867237 -0.015797501
0.013645443 0.058851708 -0.0063888645 0.035120133 -0.118359976 0.18701458 0.2588095 0.15193762
0.063725576 -0.033987716 -0.013547273 0.17889026 -0.032801725 0.15084682 -0.28782365 -0.03280326

hidden2.weight f4 [64, 32]
00000000: 39c9 123e 8a80 21bf a06d e9bc 6433 053f
00000010: 74bd 103e 8490 b23e cb41 d7bb 1dd3 92be
00000020: 5483 b73e a39a bcbe 59c8 5ebd 8255 9ebe
00000030: c12d bcbd 0429 303e 5979 4bbe 1d18 ddbe
00000040: 995a 9bbd 0ecd e93d 6399 383d 3fa2 053c
00000050: 450d 8ebe 8d8c a8bd 2f2a 3fbe f2bc 31be
00000060: 3f24 e3bd 4530 21bd ac6f fd3d 6992 d8bb
00000070: 5d08 4d3d cc0a 223e ad29 b03c 5943 d8bc
00000080: 4bf2 09bf 80ca cfbe 574e 68bc 7d60 453f
00000090: 8808 e1bb 86c4 e63d cfb7 f4bd 9802 40bf
000000a0: db14 2b3e 2cb2 1fbe 66bb 8fbb b327 a0be
000000b0: e527 f33d 95ff f8be a9b2 153f 29d6 bdbe
000000c0: 9acf 4d3e cb94 8e3e 23ff abbe 96eb aebe
000000d0: ad1e 05be d18a 06be 4200 21be 8370 49bc
000000e0: 4503 99bd 1d75 d0be d2e6 b2be 1ef6 f33c
000000f0: 7526 2fbe e664 dcbd f6c4 17bf 8427 943c
00000100: a23c 62bf 2f88 bb3c d9d7 8fbd 10a5 81be
00000110: d2df ee3d bb0b 573e f375 44bd eee5 33bf
00000120: 6e4d a1be 1ea4 15bf 27af 34bd d824 b5bf
00000130: 72a3 babd 0821 87bb 6bbb 183f f2c7 ea3d
00000140: bda0 333c aab1 78be eeca 0ebd b292 8f3e
00000150: 73a9 703e a22b 2f3e 41da 90bc 0a7a d2bd
00000160: 2b14 37be 715f 5abe 45bf 9d3e b505 2cbe
00000170: 4641 06bf d609 a43d f700 1d3e 2b95 ab3e
00000180: dc53 0fbd c04b 5bbc dc81 09bd 4b76 85bd
00000190: 6e16 973d 729f 76bd e462 cbbd b443 243d
000001a0: 84d7 02be 6087 1abd b601 b93d f44d 873d
000001b0: d11b 1a3e 6aed f6bd 0075 c93a 70d2 55bd
000001c0: 8a7e cabd 87aa cbbd d46b 363d 4083 973c
000001d0: 55cd b8bd b82f ffbd c8fa 15be 2169 313e
000001e0: d8d4 f6bc a46e 27bd cd20 85bd 5114 b5bd
000001f0: 5c8b 25be bf89 d4bd d249 dd3d 44b3 1e3d
00000200: 5c52 2cbe e290 e43d 701d 0a3e 537e 08be
00000210: 3ecf 123e 9a1b 2f3d 3446 9c3c 89c7 363e
00000220: e357 49bc cf27 00be 98a5 cf3d 7f1f 413e
00000230: 4804 f7bd d0fd 0a3e 92fd 1abe d2d0 2abe
00000240: baba febd 56f3 8dbb 45b2 d6be c424 5bbc
00000250: dda4 14be 8a1a eebd 67f8 0f3d 1619 dc3c
00000260: 8a10 60bd 8b5b 873e 28ce a5bc ed04 603d
00000270: c2ae b03d ee78 42be acea 643e dec2 66be
00000280: d642 79be 7f8d 69be 14d2 c7bc 1753 ad3e
00000290: 8d76 34bd 4a2c 8dbd cfe3 d1bc e107 bf3d
000002a0: ccf4 13be f88e e5bd ea15 fd3d a09d 92be
000002b0: 01ab b03d c80a c0bd 3712 853e 2cbe 78bb
000002c0: b98e ad3d 52dc 2ebc dabf 9d3d 0943 83bd
000002d0: c796 5fbe 4008 62be c96b c4bd 4573 77be
000002e0: 8481 a63d b28c 8ebe ba3c 9e3e 014c 6e3d
000002f0: 793d ffbd 0930 d3bd 0f02 77be 72dd 6a3e
00000300: af41 c33e 0123 9b3d 7999 11bd 1bea b0be
00000310: 7ca8 24be c6a7 0c3e d9f3 c93d eb7f c93e
00000320: 8f23 17be 2b64 103e 98d6 08be 624d 043e
00000330: 6194 a23d f35a 45bc a5a2 d2be b62c a5bd
00000340: 5e77 3abe 54c4 a63d 1883 64bc 0ee4 59be
00000350: 5d92 133d 1416 54bd f61b 053e 3b75 b93d
00000360: 852c d7bd c0a8 943e 40e4 3cbe f6b0 d53d
00000370: fb66 b4be 6e53 0e3e 6171 c2bd 4fea 7ebe
00000380: 191b eabc e2af 7cbe b7f9 d63d 3cb3 bf3e
00000390: fa3e 823e cc61 f53d 852e 783e f4a3 47bd
000003a0: 12e3 14bf 5fc2 4ebe 0996 2d3e 6921 31bf
000003b0: e286 513e 95b0 65bf 280d 0d3e 5a31 32be
000003c0: e8c5 a9bd 688a 3fbe 7c78 1ebd 8202 8b3d
000003d0: be3b a5be 0cfc 11be 1f2f 553d d81f f3bd
000003e0: f973 6b3e 1c17 ebbd 6b75 453e f240 2b3e
000003f0: 7064 d33a 2047 383e e7c2 73be 0741 febe
0.14334573 -0.6308676 -0.028494656 0.5203154 0.1413477 0.34875882 -0.0065691224 -0.28676692
0.35842383 -0.36836728 -0.054390285 -0.30924612 -0.09188414 0.17203146 -0.19870509 -0.4318246
-0.075856395 0.11416064 0.045068156 0.008156358 -0.277445 -0.08229933 -0.18668436 -0.17357233
-0.11090898 -0.039352674 0.12374815 -0.0066092503 0.050056804 0.15824431 0.021504248 -0.026399301
-0.53885335 -0.40584183 -0.014178834 0.77100354 -0.006867472 0.112679526 -0.11949121 -0.7500396
0.16707174 -0.15595311 -0.0043863533 -0.31280288 0.11872844 -0.48632494 0.5847574 -0.37077454
0.20098725 0.27847895 -0.3359309 -0.34164113 -0.12999983 -0.13138892 -0.15722755 -0.012294891
-0.07471327 -0.4071435 -0.34941727 0.029780444 -0.17104514 -0.10761432 -0.59284914 0.018085249
-0.8837377 0.022892086 -0.070235915 -0.25321245 0.11663784 0.21000569 -0.047964048 -0.7027272
-0.31504387 -0.5845355 -0.04411235 -1.4151869 -0.09113206 -0.0041238107 0.5966098 0.11463918
0.010963616 -0.24286523 -0.034861498 0.28041607 0.2350214 0.17106488 -0.017682197 -0.10277183
-0.17878787 -0.2132547 0.3080999 -0.16799052 -0.5244335 0.080096886 0.153324 0.33512244
-0.034992084 -0.013384759 -0.03357111 -0.06516703 0.07377325 -0.060210653 -0.09930971 0.04010363
-0.12777525 -0.03772676 0.090335295 0.06606665 0.15049674 -0.12057002 0.0015369952 -0.052202642
-0.09887417 -0.09944635 0.044536427 0.018495202 -0.09023539 -0.124602735 -0.14646447 0.1732526
-0.030130789 -0.040877 -0.06500397 -0.08841766 -0.16166443 -0.103778355 0.10805096 0.03874518
-0.16828293 0.11160447 0.13487792 -0.13329439 0.14336869 0.042750932 0.019076444 0.17849554
-0.01228902 -0.12515186 0.101390064 0.18859671 -0.120613635 0.13573384 -0.15135792 -0.16681221
-0.12437959 -0.0043319864 -0.41932884 -0.013375465 -0.14516015 -0.11626156 0.035149004 0.02686743
-0.054703273 0.2643703 -0.020239905 0.054692198 0.086270824 -0.18991444 0.22355145 -0.22535273
-0.24341902 -0.22807883 -0.024392165 0.33852455 -0.04405837 -0.06893213 -0.025621323 0.09327675
-0.14448851 -0.1120891 0.123576954 -0.28635883 0.086263664 -0.09377056 0.2599046 -0.0037955148
0.08474488 -0.010672646 0.077026084 -0.0640927 -0.2183486 -0.2207346 -0.09590871 -0.24165066
0.08130172 -0.27841717 0.30905706 0.05817795 -0.12462897 -0.10311896 -0.24121879 0.22936037
0.3813605 0.07575036 -0.035546754 -0.34553608 -0.16079897 0.13735875 0.098609634 0.39355406
-0.14759658 0.14100711 -0.13363111 0.12920144 0.07938457 -0.01204561 -0.41139713 -0.080651686
-0.18209597 0.08142915 -0.013947271 -0.21278402 0.036028255 -0.051778868 0.12998948 0.09055563
-0.10506538 0.29034996 -0.18446445 0.10434143 -0.35234818 0.13899013 -0.094942816 -0.24894069
-0.028577374 -0.24676469 0.10496848 0.37441432 0.25438672 0.11981544 0.24236496 -0.048740342
-0.5815898 -0.20191334 0.16951765 -0.69191605 0.2046161 -0.8972257 0.1377455 -0.17401639
-0.08289701 -0.18705142 -0.03868912 0.06787588 -0.32272142 -0.14256305 0.05204689 -0.11871308
0.22993459 -0.11479017 0.19283073 0.16723993 0.0016127955 0.17995882 -0.23804818 -0.49658987

hidden2.bias f4 [64]
00000000: 69fe 813d fbfa bc3d 6970 bc3d fe25 96bd
00000010: 3378 c8bb 63e3 db3d e271 b0bc 0ab7 e3bd
00000020: 26ed 26bd 7930 2d3d 119b f1bd cf0a 14bb
00000030: 092c 02be a363 a33d af4c 1bbe f2f6 963d
00000040: 816a eb3d 7551 0abe 8abe 0bbd 80e5 953b
00000050: 58f7 e83c dc1b a83d 60ca 80bc 91d0 4bbb
00000060: 220d bdbd 7e01 143d a201 443d f206 a9bd
00000070: 4e57 6a3d 3a0e 15bd 71b7 ed3d b4d8 8fbd
00000080: 5839 00bc 2663 6abb b179 d73d ea0f 29bd
00000090: b570 8cbd 6f66 07be b413 09be 7395 c23d
000000a0: a0f6 a9bd 79be 33bd 4e26 a13d ae58 6a3d
000000b0: 4040 d6bd 779a a13d 3c64 bbba 2e4d 183e
000000c0: bfd8 193d f53c 3b3d d897 1b3d d312 0b3e
000000d0: ea1a 333c 3d55 fcbd c568 ae3c 8a7e 69bd
000000e0: 9df1 9f3d cc5c b93d a9e5 b2bd eb1e ccbd
000000f0: 302c 003c 633b 383b 6a7e 39bc be8d 363e
0.06347353 0.09227558 0.09201128 -0.07331465 -0.0061178445 0.1073673 -0.021538679 -0.11118896
-0.040753506 0.042282555 -0.11797155 -0.002258945 -0.1271211 0.079779886 -0.15165971 0.0737132
0.114949234 -0.13507636 -0.03411726 0.0045744777 0.028438255 0.08208439 -0.0157215 -0.0031099657
-0.092310205 0.036134236 0.04785312 -0.08253278 0.057212166 -0.03639052 0.11607254 -0.07023755
-0.007826172 -0.0035764663 0.10521258 -0.041274942 -0.06857435 -0.13222669 -0.13386422 0.095011614
-0.08298993 -0.04388282 0.07868634 0.057213478 -0.104614735 0.0789079 -0.001429684 0.14873192
0.03756022 0.04571243 0.037986606 0.135814 0.01093171 -0.123209454 0.021290192 -0.057005443
0.07809756 0.09050903 -0.087352104 -0.09966835 0.007823035 0.002811157 -0.011321643 0.17827508

hidden3.weight f4 [128, 64]
00000000: c7b6 f03d 378e 75bd bb75 c03d 5011 9abc
00000010: 505c 2cbd 4b6e 06bc 7d5d 84be 49b9 4fbe
00000020: 0ac9 ad3d 2d8d a3be 5123 6f3c 9b55 0a3e
00000030: 44f9 cfbe bd9f 813c e826 a13c b6a8 1bbd
00000040: 37df b23d 145f c83d 2c04 943d 4a75 203c
00000050: 32f3 fb3d 9852 613d afd3 b6be c483 873d
00000060: c21e 95bd a8a9 9dbd 9923 5c3c d441 77be
00000070: 2e63 0abd 8970 0cc0 d71e 00bc f4d7 133e
00000080: c3e8 05bf cd09 9fbe 40a2 b6bc b837 2f3d
00000090: 7c94 20be de04 a5bf c41e 0e3d f8af 51bc
000000a0: 8aad 673c e7d1 45be 2ae6 083e 2cbe 81bd
000000b0: 9179 fbbd 0193 83bd d1f6 16bd c77d babd
000000c0: 7706 2fbe be1a d4be 57af 993e 8a81 13be
000000d0: 2d75 493e ff17 0bbd 4139 bd3d b9d6 4ebd
000000e0: f2ee 78be c0af e2bd 7f2d d83e 63a0 a43d
000000f0: 6f96 a53d ee69 8a3e ba32 bcbe ac13 cc3d
00000100: 2fc1 3ebd 0a16 87be 0265 703d 1a7d a73d
00000110: aefb be3d 30cd 28be 56b9 8cbd fc7a a5be
00000120: cf2a 963d d5f2 253e 5d29 ba3d 25f2 853d
00000130: 5895 a73b 24b8 ddbe 4437 e03d 4f42 97bd
00000140: 3401 dc3c 3964 013e 16f2 07be f49b 8e3d
00000150: 819e a93d 1283 003c e64c 2c3d cf56 343e
00000160: 1659 d1bd b415 63ba 3594 bd3d 8c61 52bd
00000170: de3e d43d 1e26 9c3e 3ed4 643d fa26 08be
00000180: 43fa 4f3e 0f6f cabd cf16 a53d a665 123d
00000190: a556 14be bf58 5b3e aa55 97bd 7dee 833d
000001a0: ad90 08be e469 5b3e 00b3 84bd 3505 b93c
000001b0: 2927 ca3d 017d 283e 774d 3d3e c59b 3cbe
000001c0: 7fd1 583e 9593 2a3e d1c5 e9bd a475 413b
000001d0: 77b0 8bbe c838 193d ec3a 2ebd 0089 e53d
000001e0: ec62 073e 3df1 f8bc a0f1 17bf 69ca 20be
000001f0: ab42 bb3d ce1d d5be 2b11 e73c 75a0 e73d
00000200: f009 9e3d d847 62bc 6002 d0bc 6845 64bd
00000210: f51b 44bd 4ac2 0f3d 3151 1abe 8263 eabd
00000220: 5402 4a3d fcf2 1dbd f088 17bd d2ad e4bd
00000230: 58a2 e9bd dcb6 bfbd 78cf 9bbd b5ee 14be
00000240: 0c9e 70bd 9c62 cd3d 8aa7 8dbd 7095 c23d
00000250: a885 d7bd 307a 6d3c c628 2abd 870e febd
00000260: 803b 473b c375 993d 6f75 b3bd 75ae ab3d
00000270: 1ec5 2dbd 08e5 21bd e1b9 f93c ea1f c83d
00000280: 10f5 dc3d 2d80 303d d4bd 11be 9090 d0bc
00000290: 779b 90bc 9c57 69bd 0c41 6f3d f86f e1bc
000002a0: 3c8c dcbd f241 96bd 221e a5bd 3047 893c
000002b0: 65b9 f9bd 0810 01bd 4e99 93bc 74c6 5c3d
000002c0: 4ee4 c4bd 0c7f 613d 6649 a4bd ec2d c4bd
000002d0: 15a7 a43c e036 96bd b3d7 743d 1dfd bb3c
000002e0: d082 78bd f868 70bd c9f8 95bd 47f2 2bbd
000002f0: 04db ffbc c00b 47bb 8ef0 e6bd 445d 01be
00000300: 0a6b 98be 99f3 4ebf 808a e5be c4de 80bd
00000310: eecd 203d 32d3 4a3d dfd5 d53d 3b9e 40be
00000320: dec3 ccbc d9ba 9c3d e02e a8bc cae2 73be
00000330: 672c 5d3e 0ca0 5fbf 0098 523c d767 b5be
00000340: e201 143e c469 98be 7ade 77bf 2257 c03d
00000350: e713 c83d f66d 95be 56b0 5e3e 7de4 09be
00000360: 2eed e3bc 2369 603e 773a 0e3d 7116 923d
00000370: 72ce 913d cebc ee3d 15d9 9f3d 68f7 503e
00000380: a073 8f3e f7f1 d13c 14f1 373d 02a6 50bd
00000390: 74e1 8bbd 86fa ff3c 9836 b5bd 79b0 93bd
000003a0: bf43 883d 2b55 fa3a 9f39 303e 13bc b23d
000003b0: 88f4 e8bd 293b 123e 7267 b53d 1e37 97be
000003c0: acc3 7a3e d2f4 453e a21b 3abf a66b 033e
000003d0: 9dc5 03bf 0dd3 e4bb b268 2a3b cb2e 74be
000003e0: 2cd5 4c3e ec4d ca3a 410d 5ebf bec1 26be
000003f0: 4b3f d53d e19b 5dbe d13b b5bc 60f4 893d
0.11753612 -0.05995008 0.09397455 -0.018807083 -0.042080224 -0.008205007 -0.25852576 -0.20285524
0.08485611 -0.31943646 0.014595822 0.13509218 -0.40619862 0.01582324 0.019671872 -0.038002692
0.08733981 0.0978376 0.07227358 0.009793589 0.12302245 0.05501041 -0.35708377 0.06616929
-0.07281257 -0.07698375 0.0134362215 -0.24146205 -0.03378599 -2.1943686 -0.007819853 0.14437848
-0.5230829 -0.31062165 -0.022294164 0.042777747 -0.15681642 -1.289211 0.03469731 -0.012798302
0.014140496 -0.19318353 0.1336905 -0.063351005 -0.12279046 -0.06424523 -0.036856476 -0.091060214
-0.1709231 -0.41426653 0.30016586 -0.14404884 0.19673605 -0.03395843 0.09239436 -0.050497744
-0.243099 -0.11068678 0.4222221 0.08038404 0.080853336 0.27033943 -0.3675745 0.099646896
-0.046570953 -0.26384002 0.05869008 0.08178158 0.09325348 -0.16484523 -0.068712875 -0.32320392
0.07332384 0.16205914 0.09089921 0.06540326 0.0051142387 -0.4330455 0.10948041 -0.07385694
0.026856042 0.12635888 -0.13275942 0.069633394 0.08282185 0.00784375 0.042065524 0.1761124
-0.1022207 -0.0008662597 0.09256784 -0.05136256 0.103635535 0.3049783 0.055866472 -0.13296118
0.20310311 -0.09884464 0.08060991 0.03574147 -0.14486177 0.21420573 -0.07389386 0.064419724
-0.1333644 0.21427113 -0.06479454 0.02258549 0.098707505 0.16453935 0.18486582 -0.18418796
0.21173666 0.1665786 -0.114146836 0.0029519582 -0.2728307 0.037407666 -0.04253666 0.11207771
0.1322133 -0.030388469 -0.59353065 -0.15702213 0.09143575 -0.41624302 0.028206429 0.113099016
0.07716739 -0.013811074 -0.025391757 -0.055730253 -0.047878224 0.035097398 -0.15070035 -0.11444761
0.049318627 -0.038561806 -0.03699583 -0.11165966 -0.11407918 -0.093610495 -0.07607931 -0.14544185
-0.058744475 0.10028574 -0.06916721 0.09501159 -0.1052354 0.014494464 -0.04154279 -0.124051146
0.0030400455 0.074931644 -0.08762633 0.083828844 -0.042424314 -0.03952506 0.030484142 0.09771712
0.107889295 0.043090988 -0.1423257 -0.025459558 -0.017652256 -0.056968316 0.058411643 -0.027519211
-0.10768935 -0.07336797 -0.08062388 0.016757578 -0.12193564 -0.03150943 -0.018017437 0.053900197
-0.09613858 0.055052802 -0.08021812 -0.095790714 0.020099202 -0.07334685 0.05977602 0.022947842
-0.060671628 -0.058693856 -0.07322843 -0.0419791 -0.031232364 -0.0030371994 -0.11276351 -0.12633234
-0.29769164 -0.8084045 -0.4483223 -0.06292489 0.03925889 0.049517818 0.10441183 -0.1881036
-0.02499574 0.07652826 -0.020530164 -0.23816982 0.2159897 -0.8735359 0.012853622 -0.35430786
0.14453843 -0.29768193 -0.9682385 0.09391619 0.09769421 -0.29185456 0.21746954 -0.13466068
-0.027823057 0.21915106 0.034723725 0.071331866 0.071194544 0.116571054 0.07805077 0.20406878
0.28017902 0.025628073 0.044907644 -0.050939567 -0.06830111 0.031247389 -0.088483036 -0.07211394
0.066535465 0.0019098868 0.1720948 0.087272786 -0.11374766 0.1428038 0.08857621 -0.2953424
0.24488705 0.19331673 -0.72698414 0.12834033 -0.5147341 -0.006983167 0.0026002345 -0.23845975
0.20003194 0.00154346 -0.86738974 -0.16284844 0.10412463 -0.21641494 -0.02212325 0.06736064

hidden3.bias f4 [128]
00000000: 1dcb ab3d eeb2 6c3c cd45 e3bd c173 7e3d
00000010: 908b eb3d a1bb be3d cc8c 14be d39d 8e3d
00000020: a36c 17bd 175c b53c 59f8 17bd 4d1e 993c
00000030: a2e5 933d 840d 35b9 15d0 d73d 2b0e a2bd
00000040: c294 9cbd c079 39be a8fc 5fbe e270 943d
00000050: 1abc 043d 2608 4f3d b73b bb3d beae efbd
00000060: 2632 2d3e e745 31bd 6cbe f53d c6cb d13d
00000070: 7e27 bd3d 8e4e 0b3e 9f14 f13d 0f0e 46bd
00000080: 6ae0 023d 1bc8 e93d 4f14 ac3d 6551 7cbc
00000090: 0271 323d ff93 12bd 0da6 1cbe 6155 293d
000000a0: a3ee 92bd 7c81 aabc 333a 583c 6eca 7b3d
000000b0: 608e d03d 84f6 d1bc b51e a1be bffa a13c
000000c0: 56ae bdbc fe1f e03c 9d03 dc3d 8d13 3cbe
000000d0: 6391 853d aae2 c7bd 42d3 183e 4ed0 3dbd
000000e0: 5eb5 febb 7bb6 82bd 8324 413c 6021 ba3d
000000f0: 3cbb b5bd b1c8 003e 9ae2 f83d 3002 d2bc
00000100: 75f2 fa3d e6ba 263d bc28 f8bb 00da 05bd
00000110: 0c17 c53d 1333 373d 796b 053e f8f5 04bd
00000120: a4bb 123b 0569 bcbd 2c8e d93d c9b2 a93d
00000130: 8ae6 9cbd 22dd 5abd c14c 0dbe 29c4 0fbd
00000140: affe 1b3d e581 153e 209a fbbd 4ff1 5cbd
00000150: 690e b7bd 69ae 183d cbf5 1ebe 387f fa3c
00000160: 03f3 bf3d 815b d83c 4515 a73d 35b1 02bd
00000170: 70b7 403e 08a1 c3bd 7a6b da3d 575e d63d
00000180: 9019 9abd 8e27 3a3c 9f73 013e 8600 b0bb
00000190: c747 563d 9277 efbd 3dae 033e f8c0 19be
000001a0: e53f 003c 9722 80be 2785 5a3d e061 e63b
000001b0: 1eb3 86b9 1389 8dbd f3da 6c3d 48a0 8b3d
000001c0: 37e4 b43d 74ed 67bb 111e 063e 765c 12be
000001d0: 52a4 a4bb 8837 953d b664 90bb fed4 0dbe
000001e0: da02 ac3d b88d c93c f89d d3bd 9da8 a93d
000001f0: 452f 043e 1c23 dc3d 7fe4 513d a110 a73d
0.0838835 0.014446957 -0.11097298 0.06212211 0.11501229 0.09313131 -0.14506835 0.06963696
-0.03696884 0.022138638 -0.037102077 0.018691206 0.07221533 -0.0001726654 0.105377354 -0.079128586
-0.07645561 -0.1811285 -0.21873724 0.07248093 0.03240595 0.05054488 0.09142249 -0.11703251
0.16913661 -0.043279555 0.11999211 0.10243945 0.09236048 0.13604185 0.11771511 -0.04835325
0.0319523 0.1141512 0.08402311 -0.015400265 0.043564804 -0.03578567 -0.15297718 0.04134119
-0.071744226 -0.020813696 0.0131974695 0.06147235 0.10183406 -0.025630243 -0.3146874 0.019772885
-0.023154419 0.027359005 0.10742877 -0.18366833 0.06521871 -0.097600296 0.14924338 -0.046341233
-0.0077730855 -0.06382462 0.01178849 0.09088397 -0.08873603 0.12576558 0.12152596 -0.025635809
0.12253276 0.040705584 -0.0075732153 -0.032678604 0.096235365 0.044726443 0.13029279 -0.032461137
0.0022389675 -0.091997184 0.1062282 0.08286054 -0.07661159 -0.053433545 -0.1379881 -0.035099182
0.038084682 0.14600332 -0.122852564 -0.053941067 -0.089382954 0.037275705 -0.1552345 0.03057824
0.09372523 0.02641082 0.08158354 -0.03190728 0.18819976 -0.09552199 0.10665031 0.10467213
-0.07524407 0.01136197 0.12641762 -0.005371156 0.052314546 -0.11692728 0.12859435 -0.15015018
0.007827734 -0.2502639 0.05334964 0.0070307106 -0.00025691924 -0.069109105 0.057825994 0.068176806
0.08832591 -0.0035389336 0.13097407 -0.14293084 -0.0050244713 0.07285982 -0.004406537 -0.13850781
0.083989814 0.02460371 -0.103328645 0.082841136 0.12908657 0.10748884 0.0512433 0.081574686

output.weight f4 [3, 128]
00000000: a916 a93e 2707 bfbd 6594 293d cc27 d2be
00000010: 21c3 ad3e 0e79 2dbe 7aa6 2a3d 71a2 403c
00000020: 6ec5 a23e 663d 9cba 685c 19bc bf06 15bd
00000030: 61ce c03e 80c0 af3d 47ef 4c3c c631 32bd
00000040: 72d4 ec3e 1f11 7dbc d8a2 1bbe da14 003c
00000050: 683b 0b3f 3bd4 da3d 2df3 1e3e 4402 7bbd
00000060: 2863 183e 353c 66bd 9559 bf3d 0b57 b63d
00000070: 2ce0 fabe c970 90be a77d bcbd 165d 58bd
00000080: 752d 413e b222 4ebe ab1f c2be 8c62 14bc
00000090: 9ed8 2d3e 5a7f ad3e 8b47 933b 5677 573e
000000a0: 0437 0a3f b284 873e e291 bc3c fef0 43be
000000b0: 808a 02be cac1 593c c04d 79bd 4cff f73c
000000c0: 9cd6 b03e edc9 ca3c d481 a2be 6a77 643d
000000d0: 6d54 21bd 7f6c 86bd 319a 24bf c25f 08bf
000000e0: e4be 873b ec27 913d 051c 3ebe ac94 b03e
000000f0: 4a2d 1ebc 32cf dd3d c185 77be 2df1 05bd
00000100: 3e33 6b3e ddd9 c7bd b439 35bd d143 1ebd
00000110: bd99 9a3e d69e 9f3e f1d6 3fbd 2410 aabd
00000120: f608 17bd 0b74 2d3e 3654 883c a019 aebd
00000130: ad38 263c a365 613c dccc babc 2cf4 71bc
00000140: 931b 7d3e ad88 b93e 6f5c 883d 10b4 fd3c
00000150: 3959 db3e 2cc6 9cbc 13db 1fbc de11 fd3d
00000160: ab04 cdbe 647d e73c 19aa 413e 21cf b73c
00000170: 9ca8 50bd 7fc4 f2bc 704f 9d3e 02e3 93be
00000180: 7847 d0bc d1fa f7bd f1e3 b3be ea14 79bd
00000190: 8990 be3d 3f7b 9bbd 993c f3be e4b4 103c
000001a0: 1441 e1bc eb18 463e 0715 4a3e 9268 28bc
000001b0: eca3 943d d36d e0bc a979 87bd 9993 09bf
000001c0: 6da5 8dbd e3c6 ccbd 2862 c73e a86d 10bd
000001d0: 14e4 e43c 91f9 9d3d c2a0 acbd 440e fd39
000001e0: 5ccb e33b 43b7 ef3e 9409 7ebc d960 fa3e
000001f0: 3891 9cbe 3d7e e1bd 54e3 ec3e eadc f2bd
00000200: 7f68 9a3d 9569 acbc 869c 983c 9d03 36bc
00000210: 3901 e93c 427a b5bc 7cff 2d3d 54e0 f5bc
00000220: 8ae4 1d3c 9b1c 863c 3aad 263d 9246 58be
00000230: 138e 14bd e0f4 303e 1364 103e d878 a1bd
00000240: a2b4 723e 75aa 21bd df16 2c3e c2f6 c53d
00000250: 322c 71bd 3cc5 323e aebb 37be 7096 7bbd
00000260: b83d 2abc 9663 52be 8996 5c3e ec0f fd3c
00000270: 7d26 e1bc 86ad 953d 3863 9cbb ed01 13bd
00000280: ede5 5b3d 871b ee3d 2394 c2bd 91ec d2bc
00000290: 13bb 433c fc03 7a3c 8b9f 0a3d e44e 5a3d
000002a0: b1de cebd d014 223d e5fc 0d3e 80df 2e3d
000002b0: 9611 ef3c 1cd9 a33d cd9d e3bc 1dfe 213e
000002c0: fdbd 7c3d a395 5a3e bd9c 193d 6611 55bd
000002d0: 9360 3cbe 1e41 a1bd 3d01 893d cd7e febd
000002e0: c178 36be ee55 a3bc 68b1 90bc b512 053d
000002f0: 1af0 cabb 9273 933b c950 1ebc 0f5c be3d
00000300: c477 ccbd c481 fc3d 2ab1 03bd 3e67 00be
00000310: 4ca7 26bd 5988 883d 4640 7cbe 46c1 44be
00000320: 3d0b 0abd 46c3 44bd 36e2 103e 90de ccbd
00000330: 02ea ffbc 8958 a5bd a2ae be39 078c 28be
00000340: 303e 8bbd d98c 3abe baa2 41bd 2f15 9cbd
00000350: a840 ad3d 3770 20bd 6747 b7bc 17fc bebe
00000360: 256e a8bd 9055 0dbd d531 3abd 5a70 d43d
00000370: 6290 67be 3c90 cfbd 8a33 0c3e 676d fd3c
00000380: f8c7 793b 89c1 bbbd 81fd 15bd 4e41 00bc
00000390: bd9d e03d f93d 923c 098a f9bc ec18 bdbd
000003a0: 7abd ccba 2653 06be f83d ddbd 88b0 6ebd
000003b0: d9d0 06be e30e 6e3d 435a d7bd b297 1e3d
000003c0: b583 49bd 7af3 2b3d 7e06 3a3d 7b76 c2bd
000003d0: 2c50 213e e154 8b3d 6990 e83d 1ba5 163d
000003e0: 33cd aabd c0a6 a93d 717f ff3b f066 f9bc
000003f0: 4e80 43bd f015 ae3d fe37 06bd a8a2 cbbb
0.330251 -0.09327536 0.041401286 -0.41045988 0.33937934 -0.1694071 0.04166267 0.011757479
0.31791252 -0.0011920154 -0.00936041 -0.036383387 0.37657455 0.08581638 0.01250822 -0.0435045
0.46255833 -0.0154459765 -0.15198839 0.007817471 0.5438752 0.10685011 0.15522452 -0.061281458
0.14881575 -0.05620976 0.09343258 0.08903321 -0.48999155 -0.28211048 -0.09203654 -0.05282315
0.18864997 -0.20130423 -0.37914786 -0.0090566985 0.16977164 0.33886224 0.0044946126 0.21041617
0.539902 0.26468426 0.023018781 -0.191349 -0.12748146 0.013290832 -0.060865164 0.030273102
0.34538734 0.024754489 -0.31739676 0.055777945 -0.039387155 -0.06563663 -0.6429778 -0.53271115
0.004142629 0.070876926 -0.18565376 0.34488428 -0.009654352 0.10830535 -0.24172117 -0.032700706
0.22968766 -0.09758351 -0.044244483 -0.038638894 0.30195418 0.3117587 -0.046835843 -0.0830386
-0.03687378 0.16938798 0.016641717 -0.08500981 0.0101453485 0.013757142 -0.022802763 -0.014767688
0.2471755 0.36237088 0.06658255 0.03096965 0.4284151 -0.019137464 -0.009756821 0.123569235
-0.40042624 0.028258033 0.18912543 0.022437634 -0.05094205 -0.029634712 0.30724669 -0.2888413
-0.025424704 -0.12108386 -0.35134843 -0.06081096 0.09304912 -0.07591867 -0.4750717 0.00883219
-0.027496852 0.19345443 0.19734584 -0.010278838 0.07257828 -0.027396118 -0.06615002 -0.5374084
-0.06916318 -0.09998872 0.38942075 -0.035260826 0.027940787 0.07713617 -0.084290996 0.0004826655
0.0069517326 0.46819505 -0.015505213 0.48902014 -0.30579543 -0.11010406 0.46267188 -0.11858542
0.07539462 -0.02104644 0.018629324 -0.01110926 0.028442966 -0.022153024 0.042479977 -0.030014195
0.0096370075 0.016371062 0.040692545 -0.2112067 -0.036268305 0.17280912 0.14100675 -0.07884377
0.23701718 -0.0394692 0.168056 0.09666206 -0.05888004 0.17458051 -0.17942688 -0.061422765
-0.010390691 -0.20545802 0.215418 0.030891381 -0.027484173 0.073084876 -0.00477257 -0.03589051
0.05368607 0.11626344 -0.09500911 -0.02574757 0.011946457 0.015259739 0.03384356 0.053297892
-0.10101069 0.03957063 0.13866003 0.042693615 0.02918319 0.08000395 -0.027785206 0.15819593
0.061704624 0.21346144 0.037502993 -0.052018546 -0.18396215 -0.07873748 0.06689689 -0.12426529
-0.17819501 -0.019938435 -0.017662719 0.032488544 -0.006193173 0.004499861 -0.009662815 0.092949025
-0.09983781 0.12329438 -0.03215138 -0.12539384 -0.04068689 0.06666631 -0.24633893 -0.19214353
-0.033702124 -0.04803779 0.14148793 -0.10003388 -0.031239513 -0.08073527 0.00036369736 -0.16459666
-0.06798971 -0.18217792 -0.04727433 -0.07621228 0.08459598 -0.039169516 -0.022372914 -0.37301704
-0.082241334 -0.034505427 -0.04545768 0.10372992 -0.22613671 -0.101349324 0.13691536 0.030935956
0.0038113575 -0.09167773 -0.036618713 -0.00782807 0.10967586 0.017851816 -0.030461328 -0.09233269
-0.0015620433 -0.13117656 -0.10802835 -0.058273822 -0.13165607 0.058119666 -0.10515263 0.038718887
-0.04919787 0.041980244 0.045416348 -0.094952546 0.1575324 0.06803299 0.11355669 0.03677855
-0.0833992 0.08283758 0.0077971746 -0.030444592 -0.047729783 0.08500278 -0.032768242 -0.0062144585

output.bias f4 [3]
00000000: 7cdb debc 081a e23c 46ab d73c
-0.027204268 0.027600303 0.026326787
